Logistic Delay a1.4/Results without the additional condition/sol_w89.pt (torch_old, 10095 bytes, 9 tensors)

linear_sigmoid_stack.0.weight f4 [25, 1]
-82.70678 -40.605793 74.26749 -79.8156 61.97329 68.997604 7.9359818 -82.22943
3.1341274 71.11773 -86.88294 -42.727673 -98.58253 -47.24093 80.03351 2.2339349
-91.89627 75.930595 84.64873 87.4006 75.37362 71.22775 81.06373 21.360252
86.870605
00000000: df69 a5c2 556c 22c2 f488 9442 96a1 9fc2
00000010: a6e4 7742 c6fe 8942 90f3 fd40 7875 a4c2
00000020: 8b95 4840 473c 8e42 11c4 adc2 23e9 2ac2
00000030: 412a c5c2 b6f6 3cc2 2811 a042 caf8 0e40
00000040: e4ca b7c2 77dc 9742 264c a942 1bcd ae42
00000050: 4bbf 9642 9c74 8e42 a120 a242 cce1 aa41
00000060: c0bd ad42

linear_sigmoid_stack.0.bias f4 [25]
-0.36144146 -0.39272934 0.14066407 -0.36477968 0.02138467 0.10404209 -2.3669643 -0.36529103
-2.9855776 0.12409469 -0.36865774 -0.37498167 -0.38838714 -0.38583094 0.17704512 -4.4411855
-0.39437547 0.1547659 0.20388532 0.21603025 0.14740917 0.10664503 0.18958037 -1.2738001
0.2105591
00000000: db0e b9be d213 c9be 3e0a 103e 67c4 babe
00000010: e72e af3c 0514 d53d 587c 17c0 6d07 bbbe
00000020: b413 3fc0 5b25 fe3d b5c0 bcbe 99fd bfbe
00000030: aeda c6be a28b c5be 514b 353e 311e 8ec0
00000040: 95eb c9be f47a 1e3e 50c7 503e 0937 5d3e
00000050: 6ef2 163e b668 da3d 5b21 423e e20b a3bf
00000060: ce9c 573e

linear_sigmoid_stack.2.weight f4 [25, 25]
0.9431565 1.3373859 1.2945925 0.88784647 1.1478738 1.2575283 0.979986 0.95628536
1.2509178 1.2210795 1.1040237 1.0478337 0.74353373 1.1502054 1.4432083 1.2424195
0.7466522 1.370617 1.3970945 1.4860498 1.477122 1.0036823 1.4258893 1.1604465
1.4583043 -1.1151774 -1.3551497 -1.2451754 -0.7765932 -0.81208205 -1.1635936 -1.2113738
-1.0155479 -1.1202735 -0.9689767 -0.91865385 -1.2643415 -1.1629083 -1.5332537 -1.1670338
-1.0027802 -0.95537174 -1.2589756 -1.2542295 -1.0813005 -0.9773098 -0.8746902 -1.3137634
-0.74589866 -1.089274 0.097199805 -0.37614596 -0.7150952 0.035727467 -0.53851753 -0.630906
-0.1378574 -0.092992716 0.3177598 -0.712579 -0.23757878 -0.638937 -0.16483411 -0.36644953
-0.836801 -0.33969152 0.18653096 -0.5190052 -0.8371055 -0.78571844 -0.8899627 -0.44426295
-0.6661729 -0.20862317 -0.82084155 -5.6527047 -0.46025863 3.981116 -4.643702 2.7973409
3.4586656 0.7528879 -4.971303 0.6505072 3.660429 -5.8929706 -0.3263823 -6.348081
-1.0474969 4.251844 0.7785406 -4.1871157 4.29504 5.1209345 4.8271117 3.9552307
3.306135 4.786199 0.9412012 4.9951906 3.6852696 1.5778103 0.020316403 3.2797024
0.7011668 0.37017816 -0.25345308 3.4421637 -0.8454463 0.30120555 3.7190943 1.2583826
3.5611007 1.5297236 0.021470932 -1.534823 2.9933655 0.09008142 -0.31026173 0.030150382
0.08720862 0.5741746 -0.13448408 1.2464594 -0.22828771 0.99198467 1.372288 1.2016684
0.727614 1.1828595 1.3638004 1.2343602 0.7594142 1.2650424 1.2009666 0.79053974
1.1562546 0.65383184 1.1981889 1.3559539 0.976807 0.62236613 1.3677114 1.4489341
1.4891288 1.3403488 1.2857388 1.3120662 0.9208876 1.3486238 0.5362366 -0.24715406
-1.9663455 0.6158949 -1.8760021 -1.8104359 -0.9035341 0.556806 -1.2258247 -1.8857396
0.49291992 -0.120240904 0.5522327 0.014978326 -1.9848069 -2.846703 0.9654492 -1.981645
-2.224406 -2.1638837 -2.1517422 -1.8119777 -2.3568017 -1.4324173 -2.1062384 4.9672966
1.2529355 -4.041054 4.6465545 -2.553441 -3.4792955 -0.39177492 4.836518 -0.44804004
-3.8108735 5.51992 0.9986457 5.9468412 1.6538599 -4.3756895 -0.24328008 4.9497776
-4.21114 -4.91138 -4.8284855 -4.126947 -3.1607018 -4.6089287 -0.77836484 -4.8739944
5.985032 1.7172182 -4.6459227 5.8093567 -3.0101895 -4.2400413 -0.72802424 5.702173
-0.5927898 -4.347173 6.315154 1.2393584 7.309762 2.3643463 -5.043172 -0.7231683
5.9502945 -4.7992673 -5.61238 -5.3442736 -4.7536044 -3.864822 -5.3448954 -1.0011913
-5.7424645 1.3102084 1.3768321 1.0125009 1.2802095 1.1246948 1.0690156 1.2386444
1.2071062 1.1517569 1.3001266 1.2857236 1.1092644 1.0251962 1.3877333 1.1713355
1.1506817 0.68413466 1.161071 1.4746981 1.5454 1.2918168 0.9594054 1.28725
1.1679813 1.4248371 1.2228994 1.2047794 1.2130114 0.9641892 1.2232891 1.3203475
00000000: b472 713f 762f ab3f 35b5 a53f e849 633f
00000010: 87ed 923f b0f6 a03f 5de0 7a3f 1ecf 743f
00000020: 131e a03f 554c 9c3f a650 8d3f 6a1f 863f
00000030: 3a58 3e3f ee39 933f 0dbb b83f 9a07 9f3f
00000040: 9924 3f3f 6170 af3f fed3 b23f e136 be3f
00000050: 5512 bd3f a978 803f 8a83 b63f 8389 943f
00000060: b7a9 ba3f 22be 8ebf 8c75 adbf e861 9fbf
00000070: d0ce 46bf 9ce4 4fbf a3f0 94bf 4c0e 9bbf
00000080: 79fd 81bf 1f65 8fbf db0e 78bf e62c 6bbf
00000090: f1d5 a1bf 2eda 94bf a841 c4bf 5d61 95bf
000000a0: 1a5b 80bf 3e93 74bf 1d26 a1bf 988a a0bf
000000b0: 0e68 8abf fa30 7abf b2eb 5fbf 6629 a8bf
000000c0: 37f3 3ebf 556d 8bbf b110 c73d 3496 c0be
000000d0: 7b10 37bf f756 123d 49dc 09bf 0e83 21bf
000000e0: 7e2a 0dbe f772 bebd 6ab1 a23e 946b 36bf
000000f0: da47 73be 6091 23bf 46ca 28be 469f bbbe
00000100: 9738 56bf 0cec adbe f901 3f3e 86dd 04bf
00000110: 8c4c 56bf d824 49bf 98d4 63bf 6f76 e3be
00000120: 4f8a 2abf 50a1 55be ac22 52bf f5e2 b4c0
00000130: 05a7 ebbe 9bca 7e40 3599 94c0 a207 3340
00000140: c75a 5d40 43bd 403f ea14 9fc0 a487 263f
00000150: 7844 6a40 3793 bcc0 951b a7be 7b23 cbc0
00000160: 6114 86bf 1b0f 8840 704e 473f dafc 85c0
00000170: f870 8940 b2de a340 b377 9a40 8022 7d40
00000180: b797 5340 8b28 9940 90f2 703f 9ad8 9f40
00000190: 75db 6b40 b0f5 c93f 966e a63c a5e6 5140
000001a0: ab7f 333f fe87 bd3e 9ac4 81be 694c 5c40
000001b0: 2b6f 58bf 9d37 9a3e a405 6e40 ae12 a13f
000001c0: 13e9 6340 fccd c33f cfe3 af3c 1475 c4bf
000001d0: 4d93 3f40 9c7c b83d a0da 9ebe effd f63c
000001e0: 6f9a b23d 1bfd 123f 32b6 09be fb8b 9f3f
000001f0: 41c4 69be b5f2 7d3f 22a7 af3f 45d0 993f
00000200: e944 3a3f f167 973f 0391 ae3f 84ff 9d3f
00000210: f868 423f e9ec a13f 46b9 993f d060 4a3f
00000220: 2700 943f 8661 273f 415e 993f e68f ad3f
00000230: 0610 7a3f 6353 1f3f 2b11 af3f ac76 b93f
00000240: c69b be3f 8d90 ab3f 1793 a43f c9f1 a73f
00000250: 4abf 6b3f b49f ac3f cd46 093f f415 7dbe
00000260: 36b1 fbbf 4aab 1d3f d620 f0bf 5dbc e7bf
00000270: 034e 67bf d78a 0e3f d3e7 9cbf ea5f f1bf
00000280: 0060 fc3e dd40 f6bd 1f5f 0d3f a767 753c
00000290: 270e febf 6230 36c0 ae27 773f 8ba6 fdbf
000002a0: ab5c 0ec0 127d 0ac0 25b6 09c0 e3ee e7bf
000002b0: d7d5 16c0 7359 b7bf 9ccc 06c0 18f4 9e40
000002c0: 3160 a03f 5050 81c0 93b0 9440 946b 23c0
000002d0: c7ac 5ec0 b996 c8be c1c4 9a40 8165 e5be
000002e0: 5ae5 73c0 2fa3 b040 3fa7 7f3f 864c be40
000002f0: aeb1 d33f a605 8cc0 6a1e 79be 9464 9e40
00000300: a9c1 86c0 062a 9dc0 f482 9ac0 f30f 84c0
00000310: f048 4ac0 587c 93c0 eb42 47bf c3f7 9bc0
00000320: 6285 bf40 cecd db3f 66ab 94c0 40e6 b940
00000330: f2a6 40c0 6bae 87c0 cc5f 3abf 3478 b640
00000340: 13c1 17bf 0b1c 8bc0 be15 ca40 4ca3 9e3f
00000350: 92e9 e940 7351 1740 aa61 a1c0 8f21 39bf
00000360: d068 be40 9993 99c0 9e98 b3c0 4a04 abc0
00000370: 871d 98c0 3e59 77c0 6209 abc0 0927 80bf
00000380: 45c2 b7c0 e9b4 a73f 093c b03f a199 813f
00000390: e8dd a33f 00f6 8f3f 81d5 883f e68b 9e3f
000003a0: 7582 9a3f c56c 933f 8c6a a63f 9792 a43f
000003b0: 60fc 8d3f a139 833f 3fa1 b13f 52ee 953f
000003c0: 8a49 933f 7323 2f3f f99d 943f e8c2 bc3f
000003d0: abcf c53f 415a a53f 989b 753f 9cc4 a43f
000003e0: 6980 953f 1061 b63f f887 9c3f 3636 9a3f
000003f0: f543 9b3f 1ad5 763f bd94 9c3f 2601 a93f

linear_sigmoid_stack.2.bias f4 [25]
1.2070984 -1.2851269 -0.57139087 0.40098205 1.5016046 1.3502132 -0.54544234 0.17572916
0.25242978 1.091509 1.1054735 -0.07378048 1.0661025 1.5345905 1.2492447 -0.61663085
0.11854323 1.0055466 -0.66068155 0.36375752 1.2846137 1.0383033 1.2014208 0.9549847
-0.05237725
00000000: 3382 9a3f 0a7f a4bf ac46 12bf 854d cd3e
00000010: 9434 c03f c9d3 ac3f 1ca2 0bbf 58f2 333e
00000020: 7a3e 813e 91b6 8b3f 2880 8d3f 381a 97bd
00000030: 0c76 883f 766d c43f 40e7 9f3f 85db 1dbf
00000040: cbc6 f23d c0b5 803f 6d22 29bf 6d3e ba3e
00000050: 396e a43f 1fe7 843f 28c8 993f e179 743f
00000060: 8789 56bd

linear_sigmoid_stack.4.weight f4 [25, 25]
-3.7836323 0.15118608 0.1872791 -4.2237697 -4.1594763 -3.805809 1.3548937 0.42519832
-0.2491534 -3.8868856 -3.9786465 13.512004 -3.598345 94.29601 -3.8369586 1.3155198
0.49650556 -3.8108356 4.1194625 -4.2406917 -3.816342 -3.472222 -3.7317228 -3.620229
0.38489312 1.0549012 0.3554098 0.2693753 2.1671424 -2.5482833 1.0525337 -1.2481146
-5.7596607 -6.9421153 1.2228019 1.2368644 0.12810448 1.4290606 -2.041948 1.1915768
0.24855572 -5.7405114 1.1184199 0.5171421 1.64071 1.346371 1.0853084 1.2804998
3.0899074 -3.1251614 0.65297717 -0.25853384 -0.5142146 2.3888652 -1.9252694 0.9014293
-1.167582 -5.3240366 -7.683098 0.5264835 0.90330076 -0.16200545 0.5709351 -1.4158382
0.66052955 -0.82168293 -5.7342057 0.8083451 -0.01635514 1.2091994 0.686491 0.5361954
0.77433324 1.0049108 -3.3997371 0.3815408 0.24553007 0.32946542 2.2722251 0.16328438
0.4017158 0.14921366 -0.97775245 -1.8214386 0.4204307 0.35719836 0.8017717 0.08931509
0.2673704 0.2859577 0.21756084 -1.334647 0.416963 0.53368944 1.5212954 0.36195204
0.23403463 0.4990881 0.29268283 -0.040623017 0.43300685 -0.16536072 -0.38032508 3.5010872
-0.7491037 0.3892049 -1.9967257 -5.090623 -6.494987 0.42297053 0.61222965 -2.0468533
0.6759494 -8.037438 0.3648215 -0.26596165 -4.954839 0.32780582 -1.3341606 1.5168022
0.64741063 0.45601082 0.5607632 1.9266185 -4.93252 0.7030825 0.063748956 0.057449017
3.2016108 0.15304323 0.6233068 -0.6910733 -5.2517605 -6.276975 0.78451926 0.6730211
-0.07194493 1.0756186 -1.1926472 0.86584985 0.062377583 -5.342589 0.70913684 0.5922982
2.1636443 0.65735185 0.8395422 0.7038186 2.1311846 -3.5774667 -0.37333038 0.35690352
-0.2551947 -0.6103977 0.37822902 -0.4009024 0.9871366 0.5495636 -0.5605425 -0.32460782
-0.38250217 -0.10661743 -0.46639827 0.20580053 -0.38837734 0.78102154 0.12444497 -0.37815714
1.2696983 -0.40059614 -0.44371632 -0.86946124 -0.51983005 -0.437184 1.0128704 0.87940174
0.43094337 0.5775659 0.45661458 0.42537588 0.97139627 0.58512336 0.6195228 1.188954
1.1694363 0.8515762 0.55853945 0.8874859 0.50581056 1.008356 0.37865707 0.60689694
0.7697796 0.65476596 0.66639274 1.3035377 0.81770164 1.301001 1.4797724 0.29337096
-0.17497167 0.21955231 0.47408518 -5.56014 0.6808527 -0.1130618 0.4943224 4.1456995
3.8292649 -0.024582054 -0.17891842 -0.50714165 -0.25890586 1.9003755 -0.11122276 0.19121245
4.3543053 -0.07342863 0.48516002 -2.6688163 -0.18794315 -0.02297005 -0.32635498 -0.56086004
2.8138452 0.7686653 -0.47836202 -0.4792444 1.7587291 -1.2987735 0.76214826 -1.5420955
-3.998841 -5.8336616 0.7234948 0.70565015 -0.027187472 0.7856361 -1.8924873 0.69044626
-0.8954141 -4.265225 0.60683936 -0.12152149 0.9059407 0.74227655 0.45094925 0.8543008
0.7810753 -3.2429764 3.076342 0.65868366 0.7142675 18.103567 -6.15173 3.0148778
00000000: 0827 72c0 86d0 1a3e 18c6 3f3e 1f29 87c0
00000010: 6e1a 85c0 6092 73c0 286d ad3f 98b3 d93e
00000020: 1222 7fbe bcc2 78c0 25a2 7ec0 2b31 5841
00000030: 494b 66c0 8f97 bc42 bb90 75c0 f462 a83f
00000040: fa35 fe3e bbe4 73c0 a3d2 8340 bfb3 87c0
00000050: f33e 74c0 e338 5ec0 8cd4 6ec0 d5b1 67c0
00000060: b610 c53e 0107 873f 46f8 b53e 8feb 893e
00000070: 76b2 0a40 1317 23c0 6db9 863f 38c2 9fbf
00000080: 244f b8c0 cf25 dec0 c684 9c3f 9351 9e3f
00000090: d22d 033e 75eb b63f 47af 02c0 9785 983f
000000a0: 6485 7e3e 45b2 b7c0 6228 8f3f 6d63 043f
000000b0: c902 d23f e355 ac3f 63eb 8a3f 6be7 a33f
000000c0: 0bc1 4540 a502 48c0 8329 273f 8c5e 84be
000000d0: 91a3 03bf 2be3 1840 3a6f f6bf 12c4 663f
000000e0: 5473 95bf 825e aac0 f0db f5c0 9fc7 063f
000000f0: b83e 673f c2e4 25be cd28 123f 303a b5bf
00000100: 7718 293f d059 52bf 9d7e b7c0 b4ef 4e3f
00000110: 37fb 85bc 0cc7 9a3f e0bd 2f3f 1a44 093f
00000120: b43a 463f eba0 803f 4b95 59c0 5159 c33e
00000130: 3c6c 7b3e b1af a83e 236c 1140 0534 273e
00000140: b1ad cd3e 77cb 183e fc4d 7abf e624 e9bf
00000150: b142 d73e b4e2 b63e e940 4d3f d4ea b63d
00000160: c6e4 883e 0c69 923e 45c8 5e3e b7d5 aabf
00000170: 2d7c d53e df9f 083f cfb9 c23f c751 b93e
00000180: c6a6 6f3e 7a88 ff3e 86da 953e 5264 26bd
00000190: 13b3 dd3e 5254 29be f8b9 c2be d011 6040
000001a0: 43c5 3fbf dd45 c73e b594 ffbf 62e6 a2c0
000001b0: efd6 cfc0 988f d83e 15bb 1c3f a5ff 02c0
000001c0: 050b 2d3f 5999 00c1 e2c9 ba3e 202c 88be
000001d0: 0b8e 9ec0 2ad6 a73e c6c5 aabf 9326 c23f
000001e0: b4bc 253f 407a e93e 2d8e 0f3f 6f9b f63f
000001f0: 34d7 9dc0 37fd 333f d08e 823d a94f 6b3d
00000200: 31e7 4c40 5db7 1c3e 0991 1f3f 2eea 30bf
00000210: 6c0e a8c0 fbdc c8c0 41d6 483f 1c4b 2c3f
00000220: dd57 93bd dfad 893f aaa8 98bf 56a8 5d3f
00000230: a37f 7f3d 7df6 aac0 fe89 353f dba0 173f
00000240: 2679 0a40 3648 283f 3dec 563f 752d 343f
00000250: 5465 0840 37f5 64c0 2925 bfbe 0fbc b63e
00000260: e1a8 82be 0643 1cbf 3ca7 c13e 1443 cdbe
00000270: fcb4 7c3f 33b0 0c3f b77f 0fbf ff32 a6be
00000280: 53d7 c3be 3d5a dabd c1cb eebe 60bd 523e
00000290: 65d9 c6be 07f1 473f 01dd fe3d d09d c1be
000002a0: 7985 a23f f01a cdbe c92e e3be 0395 5ebf
000002b0: 9513 05bf 95d6 dfbe bda5 813f 7920 613f
000002c0: 9ca4 dc3e 5cdb 133f 63c9 e93e deca d93e
000002d0: 6dad 783f a5ca 153f 0c99 1e3f a52f 983f
000002e0: 17b0 953f e600 5a3f 71fc 0e3f 4732 633f
000002f0: cd7c 013f cf11 813f 57df c13e 995d 1b3f
00000300: 4710 453f be9e 273f b798 2a3f 53da a63f
00000310: e554 513f 3387 a63f 2f69 bd3f b834 963e
00000320: c62b 33be 52d2 603e 4bbb f23e abec b1c0
00000330: 5d4c 2e3f f28c e7bd d317 fd3e 92a9 8440
00000340: ad12 7540 4e60 c9bc 6436 37be 09d4 01bf
00000350: 4f8f 84be 813f f33f c2c8 e3bd 32cd 433e
00000360: 7856 8b40 c061 96bd e566 f83e e3cd 2ac0
00000370: 2b74 40be b02b bcbc 0018 a7be 8694 0fbf
00000380: 0a16 3440 40c7 443f deeb f4be 865f f5be
00000390: 091e e13f 363e a6bf 261c 433f 6363 c5bf
000003a0: 03ed 7fc0 5bad bac0 f536 393f 7da5 343f
000003b0: 43b8 debc 731f 493f 063d f2bf 16c1 303f
000003c0: dc39 65bf b97c 88c0 d359 1b3f 42e0 f8bd
000003d0: bbeb 673f d605 3e3f d2e2 e63e 75b3 5a3f
000003e0: 8df4 473f ed8c 4fc0 cae2 4440 7e9f 283f
000003f0: 3cda 363f 1bd4 9041 f9da c4c0 c2f3 4040

linear_sigmoid_stack.4.bias f4 [25]
-3.7489831 1.2723038 0.6590631 0.21096271 0.42790353 0.6287403 -0.2834075 0.9949451
-0.086892 0.5978689 2.3509853 -0.7695036 0.7767022 -0.8792518 1.1326789 1.0774935
0.9165448 1.0410776 0.54782194 -0.84953797 1.0529566 0.9677064 -0.31117624 0.86174965
2.0544326
00000000: 57ef 6fc0 dada a23f 5cb8 283f 9c06 583e
00000010: 2c16 db3e 20f5 203f ca1a 91be b9b4 7e3f
00000020: 6ff4 b1bd f00d 193f 8b76 1640 30fe 44bf
00000030: f5d5 463f a516 61bf 9ffb 903f 4feb 893f
00000040: aea2 6a3f 0842 853f 0f3e 0c3f 527b 59bf
00000050: 48c7 863f 9bbb 773f 7e52 9fbe a09b 5c3f
00000060: d37b 0340

linear_sigmoid_stack.6.weight f4 [25, 25]
-0.790992 0.021331014 -0.21720682 -1.1658229 -1.0002759 -0.7888155 -0.50052744 -1.0838689
-1.257008 -0.5765759 -1.3863517 -0.247187 -1.1819825 -0.6463492 -1.1114169 -1.3987458
-1.4204775 -0.64969885 -0.09157596 -0.034564175 -1.1425862 -1.5346675 -0.2631747 -1.5110728
-0.80632335 -0.37095484 -0.8566857 -0.71306986 -1.2548774 -0.9521121 -0.47923607 -0.44276989
-1.5334195 -1.6490061 -1.128158 -0.27704912 -0.05914297 -1.2553539 -0.68672186 -1.4976128
-1.492067 -1.4724855 -1.4193813 -0.88298935 -0.4750539 -1.7166978 -1.5818117 -0.33174103
-1.556478 -0.46720448 -2.2362142 -1.299444 -1.2795985 -0.6954699 -0.7308433 -0.9221972
-1.4445708 -0.42171398 -0.5592996 -0.47643653 -0.6671228 -1.9468116 -0.22377762 -0.5280144
-0.3965783 -0.40608814 -0.48889288 -1.2085649 -0.49471864 -0.41565627 -0.41979823 -0.4550359
0.20334135 -0.4827954 -4.4975405 -2.007015 -1.7966783 -1.7332518 -1.3152419 -1.0412298
-0.71603996 -1.7612053 -0.9302561 -1.5419416 -0.9330622 -0.51675844 -1.8307542 -0.8569531
-0.58676505 -0.9688293 -1.0129479 -0.7223421 -0.96414953 -0.86190575 -0.28505674 -0.7134271
-0.9218495 -1.0784848 -0.77564704 0.41978613 -12.5416565 0.4560425 0.72237873 0.6362
-0.4240868 0.47200564 0.7658756 -0.24983612 -3.7634928 0.4583714 -0.047480978 0.17148656
-0.39713955 -0.5338336 -0.1448219 -0.2268797 -0.16850172 0.41796938 0.3551879 0.07118622
-0.2615534 -0.55143523 0.11435876 -0.48943403 -1.2000601 -1.5140171 -0.24868064 0.03299288
-1.2100416 -0.6521435 -0.35782433 -1.1928973 -0.8624222 -1.4908837 -0.0047940374 -0.3397049
-1.1403873 -0.9883083 -0.5426531 -1.1846321 -1.1197202 -0.9968112 -0.79698026 -0.044995464
-0.18313089 -1.0111632 -0.9745375 -0.042860135 -1.179637 -0.7227678 -1.0565258 -0.4525101
-0.30025706 -0.7820737 -1.0683879 -0.6112684 -0.8840917 -1.2744302 -1.8647864 -0.282204
-1.2177911 -0.7443546 -1.1708086 -0.3815337 -1.2285268 -1.0613515 -1.0470041 -0.59865123
-0.60810304 -0.16908093 -0.95154226 -1.112704 -0.11952532 -1.1567092 -1.3363593 -2.3499837
0.05591511 -0.020216148 0.3350474 -0.60239357 0.031882633 -0.52442884 -0.8561905 -1.5972673
0.27276585 -0.5450509 -1.0725342 -1.0935919 -0.68982667 -1.1993701 -1.166548 -0.89455324
0.33334032 0.046947576 -0.19747508 -0.9434216 -1.1455923 -0.024351727 -1.2478228 -0.90492
-1.127256 -0.27970633 -0.62797934 -1.0755526 -1.2773867 -0.8943233 -0.9429387 -1.1238962
-1.4238324 -0.3906038 -1.5013446 -0.6110548 -1.183238 -0.5841145 -1.0006214 -1.0896487
-1.3662571 -0.5960782 -0.21455118 -0.086164564 -1.2497708 -1.5567868 -0.6015408 -1.1796863
-0.85900474 -0.4021423 -0.43875253 -0.45654893 -1.1417443 -0.60758847 -0.6937482 -0.52667266
-1.3660424 -1.2707334 -0.88961375 -1.4994308 -0.40477288 -1.2351367 -0.79037523 -1.2322456
-1.4631219 -1.537815 -0.8872868 -0.7998751 -0.23211946 -1.2596601 -1.6162049 -0.52716327
-1.4139916 -1.9677205 -1.7933139 -0.34067845 -0.6289168 -1.0976336 -1.0686183 -0.6666881
00000000: 747e 4abf 61be ae3c 776b 5ebe af39 95bf
00000010: 0a09 80bf d0ef 49bf 9122 00bf 37bc 8abf
00000020: a3e5 a0bf 7a9a 13bf f973 b1bf 971e 7dbe
00000030: 344b 97bf 2477 25bf e942 8ebf 1a0a b3bf
00000040: 35d2 b5bf aa52 26bf 2d8c bbbd 2a93 0dbd
00000050: 4440 92bf fc6f c4bf d6be 86be d56a c1bf
00000060: 356b 4ebf cbed bdbe c14f 5bbf bf8b 36bf
00000070: d39f a0bf 9ebd 73bf 6e5e f5be bcb2 e2be
00000080: 1747 c4bf a212 d3bf 7b67 90bf 62d9 8dbe
00000090: e63f 72bd 70af a0bf 01cd 2fbf c7b1 bfbf
000000a0: 0dfc bebf 687a bcbf 49ae b5bf 970b 62bf
000000b0: 443a f3be c1bc dbbf ce78 cabf f6d9 a9be
000000c0: ac3a c7bf 6d35 efbe 221e 0fc0 2e54 a6bf
000000d0: e2c9 a3bf 510a 32bf 8c18 3bbf 1e15 6cbf
000000e0: b2e7 b8bf e5ea d7be 422e 0fbf 7def f3be
000000f0: 8fc8 2abf 1f31 f9bf f625 65be f42b 07bf
00000100: 500c cbbe c9ea cfbe 2b50 fabe 41b2 9abf
00000110: c34b fdbe e6d0 d4be cbef d6be 77fa e8be
00000120: b738 503e f530 f7be daeb 8fc0 ef72 00c0
00000130: 8ef9 e5bf 32db ddbf d959 a8bf 0547 85bf
00000140: 654e 37bf 2d6f e1bf 4425 6ebf 585e c5bf
00000150: 2add 6ebf 484a 04bf 2756 eabf 4761 5bbf
00000160: 3c36 16bf 3205 78bf 47a8 81bf 69eb 38bf
00000170: 81d2 76bf dba5 5cbf f5f2 91be 29a3 36bf
00000180: 54fe 6bbf ca0b 8abf ce90 46bf 35ee d63e
00000190: a0aa 48c1 677e e93e d0ed 383f 01de 223f
000001a0: e821 d9be b9aa f13e 6c10 443f 0ad5 7fbe
000001b0: 11dd 70c0 a8af ea3e 6a7b 42bd 2c9a 2f3e
000001c0: e055 cbbe 52a9 08bf 314c 14be 2753 68be
000001d0: b78b 2cbe 1500 d63e 30db b53e 15ca 913d
000001e0: 54ea 85be dc2a 0dbf ed34 ea3d 1997 fabe
000001f0: 929b 99bf 50cb c1bf 23a6 7ebe 8b23 073d
00000200: a5e2 9abf e0f2 26bf c034 b7be dcb0 98bf
00000210: b4c7 5cbf 47d5 bebf 4d17 9dbb cded adbe
00000220: 36f8 91bf c601 7dbf 50eb 0abf 06a2 97bf
00000230: fe52 8fbf 052f 7fbf e606 4cbf 2a4d 38bd
00000240: aa86 3bbe cc6d 81bf 4a7b 79bf 1c8e 2fbd
00000250: 58fe 96bf 4f07 39bf 3d3c 87bf 67af e7be
00000260: 4bbb 99be fb35 48bf efc0 88bf 167c 1cbf
00000270: d553 62bf 8720 a3bf 52b1 eebf 0b7d 90be
00000280: 94e0 9bbf 068e 3ebf 0edd 95bf 6358 c3be
00000290: 5e40 9dbf 5eda 87bf 3b04 86bf 3541 19bf
000002a0: a4ac 1bbf 8d23 2dbe 4698 73bf 166d 8ebf
000002b0: b1c9 f4bd 0c0f 94bf d20d abbf 2266 16c0
000002c0: 3e07 653d 569c a5bc 558b ab3e 7736 1abf
000002d0: 5d97 023d f840 06bf 4d2f 5bbf 4173 ccbf
000002e0: f7a7 8b3e 7588 0bbf cd48 89bf d2fa 8bbf
000002f0: 7b98 30bf f684 99bf 7251 95bf 7101 65bf
00000300: 95ab aa3e 1a4c 403d e836 4abe 1484 71bf
00000310: c5a2 92bf 467d c7bc a8b8 9fbf d6a8 67bf
00000320: ed49 90bf ab35 8fbe 41c3 20bf b5ab 89bf
00000330: 6881 a3bf 5ff2 64bf 6e64 71bf d5db 8fbf
00000340: 2440 b6bf 39fd c7be 0f2c c0bf 166e 1cbf
00000350: 5874 97bf 8788 15bf 5d14 80bf 9c79 8bbf
00000360: 83e1 aebf 9598 18bf 4eb3 5bbe 0c77 b0bd
00000370: 7df8 9fbf ca44 c7bf 94fe 19bf f6ff 96bf
00000380: bce7 5bbf 98e5 cdbe 2ca4 e0be c8c0 e9be
00000390: ad24 92bf eb8a 1bbf 7b99 31bf 05d4 06bf
000003a0: 7ada aebf 64a7 a2bf babd 63bf 59ed bfbf
000003b0: 643e cfbe f618 9ebf 0856 4abf 39ba 9dbf
000003c0: 9447 bbbf 1fd7 c4bf 3a25 63bf 9dc4 4cbf
000003d0: b9b0 6dbe 8b3c a1bf cddf cebf 2cf4 06bf
000003e0: adfd b4bf 44de fbbf 4f8b e5bf 686d aebe
000003f0: b100 21bf 427f 8cbf 7cc8 88bf 12ac 2abf

linear_sigmoid_stack.6.bias f4 [25]
-1.3021008 -1.3187935 -0.78935885 -0.77085614 -0.3742247 -0.824195 -1.014438 -1.182386
-1.0942348 -1.3697206 -0.98666364 -1.4204562 -0.9758064 -1.0267789 -1.0337725 -0.761525
-1.6416249 -0.69500244 -1.2173884 -0.88170207 -1.4635146 -1.1850265 -1.4413633 -0.99339974
-0.70048493
00000000: 3dab a6bf 3ace a8bf 6c13 4abf d456 45bf
00000010: 619a bfbe 72fe 52bf 1bd9 81bf 6d58 97bf
00000020: e30f 8cbf 0153 afbf fd95 7cbf 82d1 b5bf
00000030: 73ce 79bf 7e6d 83bf a852 84bf 4df3 42bf
00000040: c420 d2bf aeeb 31bf 62d3 9bbf 3ab7 61bf
00000050: 7254 bbbf f3ae 97bf 987e b8bf 724f 7ebf
00000060: fb52 33bf

linear_sigmoid_stack.8.weight f4 [1, 25]
-0.25260562 -0.28472045 0.29270005 -0.2847986 -0.378402 -0.35959423 -0.24223521 -0.37339532
-0.25767156 -0.25984406 -0.20617968 -0.41371587 -0.26721475 -0.25492722 -0.20054771 -0.37551
-0.4145328 -0.11801584 -0.31883755 -0.3461457 -0.2534634 -0.30938858 -0.29105994 -0.22589704
-0.062400587
00000000: 8655 81be e1c6 91be c8dc 953e 1fd1 91be
00000010: e8bd c1be bc1c b8be 820c 78be ac2d bfbe
00000020: 87ed 83be 480a 85be c420 53be 91d2 d3be
00000030: 5fd0 88be d285 82be 615c 4dbe d942 c0be
00000040: a53d d4be 4ab2 f1bd ad3e a3be 023a b1be
00000050: f4c5 81be 2e68 9ebe cf05 95be 8e51 67be
00000060: c297 7fbd
