Logistic Delay a1.4/Results without the additional condition/sol_w97.pt (torch_old, 10095 bytes, 9 tensors)

linear_sigmoid_stack.0.weight f4 [25, 1]
-91.507355 -46.397614 81.14196 -88.40431 67.85473 75.35592 8.08208 -90.975334
2.0017667 77.85806 -95.75443 -48.779224 -107.86744 -53.510826 87.16957 2.9408383
-101.22928 83.20799 92.26062 95.2109 82.44786 78.085175 88.29625 22.4034
94.67071
00000000: c403 b7c2 2897 39c2 af48 a242 02cf b0c2
00000010: 9fb5 8742 3bb6 9642 3350 0141 5ff3 b5c2
00000020: f21c 0040 54b7 9b42 4582 bfc2 ed1d 43c2
00000030: 21bc d7c2 160b 56c2 d256 ae42 b236 3c40
00000040: 6475 cac2 7e6a a642 7085 b842 fb6b be42
00000050: 4ee5 a442 9c2b 9c42 ae97 b042 2a3a b341
00000060: 6757 bd42

linear_sigmoid_stack.0.bias f4 [25]
-0.5014859 -0.5537376 0.2680228 -0.5056639 0.14934419 0.2311477 -2.6694643 -0.50546336
-3.2341166 0.25186238 -0.50718427 -0.5350514 -0.52244353 -0.54281276 0.30354086 -4.692077
-0.52963984 0.28346857 0.32999668 0.3420495 0.27564886 0.23623644 0.3151663 -1.4143122
0.3371214
00000000: 6161 00bf bfc1 0dbf 493a 893e 3073 01bf
00000010: afed 183e fcb1 6c3e 81d8 2ac0 0c66 01bf
00000020: c4fb 4ec0 1bf4 803e d4d6 01bf 21f9 08bf
00000030: dcbe 05bf c7f5 0abf b569 9b3e 7f25 96c0
00000040: 7a96 07bf cb22 913e 53f5 a83e 1d21 af3e
00000050: d921 8d3e f7e7 713e 7a5d a13e 2f08 b5bf
00000060: 2d9b ac3e

linear_sigmoid_stack.2.weight f4 [25, 25]
0.9436837 1.3379691 1.2953646 0.88837594 1.148595 1.2582833 0.98013514 0.9568116
1.2510184 1.2218429 1.1045649 1.0484196 0.74403536 1.1507838 1.443999 1.2424437
0.7471593 1.3713958 1.3978977 1.4868602 1.4778984 1.0044416 1.426684 1.1607631
1.4591128 -1.1153005 -1.3552636 -1.2453095 -0.77670395 -0.81220216 -1.163726 -1.2113941
-1.015671 -1.120285 -0.9691026 -0.9187648 -1.2644567 -1.163031 -1.5333691 -1.1671708
-1.0027827 -0.9554817 -1.2591108 -1.2543676 -1.0814393 -0.9774371 -0.8748147 -1.3139005
-0.745952 -1.0894125 -0.024195172 -0.4980179 -0.83977544 -0.08565291 -0.6594873 -0.7544559
-0.17006616 -0.21426703 0.29848513 -0.83670646 -0.35864046 -0.7612522 -0.2850155 -0.4882283
-0.96266705 -0.344787 0.066403404 -0.64416194 -0.96375215 -0.9127639 -1.0149078 -0.5679699
-0.7923223 -0.27752247 -0.94776464 -5.7640133 -0.55120397 3.8906353 -4.7535987 2.7067728
3.3674827 0.73720586 -5.082249 0.6411296 3.5693176 -6.0058303 -0.41907716 -6.465222
-1.1417497 4.1622577 0.77624846 -4.3011837 4.204652 5.0321884 4.739019 3.8649085
3.2158108 4.696553 0.8950156 4.907083 3.682721 1.7083722 0.14850678 3.2794342
0.81679523 0.49441278 -0.46007508 3.439983 -1.562328 0.42726475 3.7140913 1.3748629
3.5525959 1.6164905 0.15254012 -2.5396075 2.9864113 0.21927728 -0.17765033 0.1634316
0.21606782 0.7002003 -0.0030121226 0.9134408 -0.09512127 0.99263436 1.373004 1.2026023
0.7282681 1.1837301 1.3647125 1.2345512 0.7600636 1.2651681 1.2018889 0.79118073
1.1569738 0.65444946 1.198898 1.3569103 0.97683775 0.62299055 1.3686533 1.449906
1.490109 1.3412874 1.2866548 1.313028 0.9212402 1.3496015 0.511473 -0.27609888
-1.9644679 0.59094965 -1.8735 -1.80828 -0.90239 0.53200877 -1.2254254 -1.8836863
0.46838307 -0.1488251 0.5282214 -0.013063418 -1.9832183 -2.8468797 0.9411308 -1.9798478
-2.2229648 -2.1625578 -2.1498945 -1.8099687 -2.355204 -1.42983 -2.1048946 5.03286
1.3050609 -3.9955091 4.711173 -2.5062606 -3.4327908 -0.37857857 4.901898 -0.43932593
-3.7646449 5.5865946 1.0517616 6.016765 1.7081544 -4.331251 -0.24092375 5.0177855
-4.165854 -4.867809 -4.7855 -4.0816255 -3.1148043 -4.564583 -0.75037324 -4.8309503
6.0188594 1.7438017 -4.62476 5.842702 -2.988016 -4.218354 -0.7212726 5.735908
-0.5882222 -4.3256497 6.3496337 1.2664608 7.346007 2.3920808 -5.0226164 -0.7219078
5.985508 -4.778267 -5.5923343 -5.324576 -4.732574 -3.8434231 -5.3243937 -0.9879381
-5.7227316 1.310802 1.3774571 1.0133294 1.2808049 1.1254716 1.0698272 1.2388167
1.2076993 1.1518604 1.3009466 1.2863102 1.1098915 1.025764 1.3883535 1.1721836
1.1507064 0.68467873 1.161907 1.4755591 1.5462679 1.2926496 0.9601927 1.2881019
1.1683252 1.4257029 1.2235918 1.2055085 1.2139778 0.9648614 1.2241942 1.321295
00000000: 4195 713f 9242 ab3f 82ce a53f 9b6c 633f
00000010: 2905 933f 6d0f a13f 23ea 7a3f 9bf1 743f
00000020: 5f21 a03f 5965 9c3f 6262 8d3f 9d32 863f
00000030: 1a79 3e3f e24c 933f f6d4 b83f 6508 9f3f
00000040: d545 3f3f e689 af3f 50ee b23f 6f51 be3f
00000050: c62b bd3f 8b91 803f 959d b63f e393 943f
00000060: 35c4 ba3f 2bc2 8ebf 4779 adbf 4d66 9fbf
00000070: 12d6 46bf 7bec 4fbf f9f4 94bf f60e 9bbf
00000080: 8201 82bf 8065 8fbf 1c17 78bf 2c34 6bbf
00000090: b8d9 a1bf 33de 94bf 7045 c4bf da65 95bf
000000a0: 2f5b 80bf 739a 74bf 8b2a a1bf 1e8f a0bf
000000b0: 9a6c 8abf 5139 7abf dbf3 5fbf e42d a8bf
000000c0: b6f6 3ebf de71 8bbf f434 c6bc 34fc febe
000000d0: 86fb 56bf cb6a afbd 29d4 28bf 0624 41bf
000000e0: d325 2ebe d168 5bbe 0bd3 983e 6532 56bf
000000f0: b99f b7be 6de1 42bf 8ded 91be 0ff9 f9be
00000100: 5971 76bf ec87 b0be 82fe 873d cce7 24bf
00000110: 76b8 76bf e5aa 69bf 80e8 81bf 7a66 11bf
00000120: a2d5 4abf 6d17 8ebe b4a0 72bf cc72 b8c0
00000130: b41b 0dbf 2b00 7940 7b1d 98c0 c43b 2d40
00000140: d684 5740 86b9 3c3f c9a1 a2c0 1221 243f
00000150: b36f 6440 c32f c0c0 4891 d6be 19e3 cec0
00000160: db24 92bf 3731 8540 38b8 463f 4ca3 89c0
00000170: 828c 8640 b007 a140 0ba6 9740 a95a 7740
00000180: d8cf 4d40 2a4a 9640 be1f 653f d306 9d40
00000190: b3b1 6b40 f1ab da3f 2912 183e 40e2 5140
000001a0: 7e19 513f ac23 fd3e f68e ebbe ae28 5c40
000001b0: 5dfa c7bf 72c2 da3e acb3 6d40 82fb af3f
000001c0: bb5d 6340 29e9 ce3f 7a33 1c3e ee88 22c0
000001d0: 5d21 3f40 398a 603e f8e9 35be 9d5a 273e
000001e0: e240 5d3e 5440 333f 0867 45bb 42d7 693f
000001f0: f1ce c2bd 491d 7e3f 98be af3f dfee 993f
00000200: c76f 3a3f 7884 973f e6ae ae3f c605 9e3f
00000210: 8793 423f 07f1 a13f 7fd7 993f d28a 4a3f
00000220: b817 943f 008a 273f 7d75 993f 3daf ad3f
00000230: 0a12 7a3f 4f7c 1f3f 0830 af3f 8596 b93f
00000240: e4bb be3f 4eaf ab3f 1bb1 a43f 4d11 a83f
00000250: 66d6 6b3f bebf ac3f e5ef 023f d55c 8dbe
00000260: af73 fbbf 7a48 173f d9ce efbf b875 e7bf
00000270: 0803 67bf ba31 083f bdda 9cbf a21c f1bf
00000280: e8cf ef3e 9b65 18be 8539 073f f207 56bc
00000290: 19da fdbf 4733 36c0 f3ed 703f a76b fdbf
000002a0: 0e45 0ec0 5967 0ac0 df97 09c0 0ead e7bf
000002b0: aabb 16c0 ab04 b7bf 98b6 06c0 300d a140
000002c0: 3c0c a73f 6cb6 7fc0 eec1 9640 9366 20c0
000002d0: d8b2 5bc0 0dd5 c1be 59dc 9c40 54ef e0be
000002e0: f1ef 70c0 62c5 b240 20a0 863f 5789 c040
000002f0: cea4 da3f 9c99 8ac0 b7b4 76be b391 a040
00000300: ad4e 85c0 17c5 9bc0 d122 99c0 ad9c 82c0
00000310: f458 47c0 1011 92c0 7618 40bf 2597 9ac0
00000320: 7f9a c040 e534 df3f 09fe 93c0 6af7 ba40
00000330: a73b 3fc0 c2fc 86c0 52a5 38bf 8f8c b740
00000340: bb95 16bf b96b 8ac0 3330 cb40 631b a23f
00000350: 7d12 eb40 da17 1940 46b9 a0c0 f3ce 38bf
00000360: 4889 bf40 90e7 98c0 67f4 b2c0 ed62 aac0
00000370: 3f71 97c0 a5fa 75c0 6f61 aac0 83e9 7cbf
00000380: 9e20 b7c0 5cc8 a73f 8450 b03f c7b4 813f
00000390: 6af1 a33f 740f 903f 19f0 883f 8c91 9e3f
000003a0: e495 9a3f 2970 933f 6b85 a63f d0a5 a43f
000003b0: ed10 8e3f 3c4c 833f 91b5 b13f 1d0a 963f
000003c0: 594a 933f 1b47 2f3f 5eb9 943f 1fdf bc3f
000003d0: 1bec c53f 8b75 a53f 30cf 753f 86e0 a43f
000003e0: ae8b 953f 6f7d b63f a89e 9c3f 1a4e 9a3f
000003f0: a063 9b3f 2801 773f 65b2 9c3f 3220 a93f

linear_sigmoid_stack.2.bias f4 [25]
1.2084422 -1.2853703 -0.7408253 0.21781604 1.6347728 1.3518647 -0.56851596 0.25446838
0.2904991 1.0929501 1.1071745 -0.2514256 1.0722507 1.380651 1.2510237 -0.83275616
0.19002098 1.0065781 -0.9569125 0.3073145 1.2875992 1.045489 1.2028224 1.0038446
-0.013551855
00000000: 3cae 9a3f 0487 a4bf baa6 3dbf 2b0b 5f3e
00000010: 3c40 d13f e709 ad3f 438a 11bf ae49 823e
00000020: 4cbc 943e cae5 8b3f e5b7 8d3f dbba 80be
00000030: 833f 893f 2cb9 b03f 8b21 a03f 822f 55bf
00000040: dc94 423e 8dd7 803f 38f8 74bf 5358 9d3e
00000050: 0dd0 a43f 95d2 853f 16f6 993f fb7d 803f
00000060: 9a08 5ebc

linear_sigmoid_stack.4.weight f4 [25, 25]
-3.901717 0.1500597 -0.047379516 -4.3418803 -4.277561 -3.9238904 1.3545392 0.48324993
-0.20998225 -4.0049686 -4.0967293 13.271235 -3.7164142 94.754776 -3.9550438 1.1383206
0.5565049 -3.928918 3.931708 -4.358804 -3.9344249 -3.5902922 -3.8498025 -3.7382987
0.39639142 0.97232807 0.3554098 0.2688701 2.1229231 -2.6308503 0.9699598 -1.2482015
-5.819697 -7.0156693 1.1402278 1.1542903 0.094523504 1.3464848 -2.1279268 1.1090027
0.24847266 -5.804636 1.035846 0.5167941 1.559979 1.2637964 1.0027326 1.1979257
3.0073383 -3.1320496 0.8130665 -0.25853285 -0.51380205 2.5507817 -1.7672734 1.0615205
-1.1675801 -5.3280964 -7.6884484 0.6865727 1.0633916 -0.11507986 0.73102486 -1.2822363
0.8206185 -0.8215839 -5.738594 0.968434 -0.016308423 1.3693905 0.8465804 0.69628495
0.9344225 1.1650015 -3.4000566 0.45722714 0.24549729 0.27518716 2.3460922 0.11987352
0.4774037 0.056307323 -0.9129228 -1.7567681 0.49611524 0.432884 0.50063044 0.16506493
0.8168343 0.361645 0.20592842 -1.2698822 0.49265894 0.42332217 1.5970727 0.43763888
0.30988508 0.57477313 0.38723806 0.024645388 0.43379673 -0.16535139 -0.47735035 3.501832
-0.7476273 0.38999417 -1.996496 -5.0733175 -6.4827476 0.4237608 0.6130228 -2.4950635
0.6767417 -9.224494 0.3656147 -0.29830855 -4.9369206 0.32859707 -1.3756711 1.517584
0.64820296 0.45680302 0.56155556 1.927414 -4.9286776 0.64891195 0.063748956 0.057100013
3.1729174 0.098748766 0.5691361 -0.6911137 -5.292774 -6.3270164 0.73034877 0.6188505
-0.094646364 1.0214412 -1.2539479 0.8116792 0.062315375 -5.3863072 0.65496635 0.59206635
2.110564 0.6031808 0.7853676 0.64964813 2.0769925 -3.5823278 -0.502809 0.35673568
-0.39952353 -0.7317202 0.1590634 -0.5303807 0.6911742 0.27837083 -0.83109385 -0.4540879
-0.51198196 -0.5096133 -0.59585625 0.5877535 -0.5178569 0.75197 -0.14682798 -0.5076347
1.0133237 -0.52187395 -0.5731958 -0.998898 -0.64931005 -0.56275344 0.7436231 0.87827456
0.43094337 0.5775668 0.45548177 0.42475197 0.9702691 0.58512336 0.6195228 1.188954
1.168274 0.850449 0.55882084 0.88635856 0.50703347 1.0071937 0.37865725 0.60689694
0.76865244 0.65476596 0.66526526 1.3023754 0.8165743 1.2998387 1.47861 0.29337096
-0.45678368 0.21944977 0.3967051 -5.8418236 0.42780745 -0.39487514 0.49416265 4.1354184
3.817024 -0.30639356 -0.46072888 -0.36279 -0.54072297 2.8777611 -0.3930315 0.16772692
4.343369 -0.35523912 0.459829 -2.9506338 -0.4697553 -0.30478463 -0.6081669 -0.84267557
2.8125348 0.96684474 -0.4783598 -0.47736487 1.9616364 -1.102558 0.96032774 -1.5421256
-4.0141177 -5.85241 0.9216741 0.90382934 0.057113837 0.9838164 -1.7389088 0.88862526
-0.89503926 -4.2813997 0.80501854 -0.12114362 1.1043684 0.940456 0.6491287 1.0524805
0.9792546 -3.2445571 3.0736008 0.65868366 0.7142675 18.10352 -6.1542954 3.0121365
00000000: bbb5 79c0 40a9 193e 0611 42bd aff0 8ac0
00000010: c8e1 88c0 0521 7bc0 8a61 ad3f 896c f73e
00000020: 9605 57be b428 80c0 6818 83c0 fb56 5441
00000030: bbd9 6dc0 7282 bd42 701f 7dc0 7db4 913f
00000040: 1b77 0e3f 6473 7bc0 1ba1 7b40 537b 8bc0
00000050: 9ecd 7bc0 59c7 65c0 2a63 76c0 4940 6fc0
00000060: d1f3 ca3e 7eea 783f 46f8 b53e 57a9 893e
00000070: f9dd 0740 da5f 28c0 494f 783f 11c5 9fbf
00000080: f53a bac0 5d80 e0c0 fcf2 913f c9bf 933f
00000090: 8a95 c13d 9d59 ac3f f42f 08c0 cdf3 8d3f
000000a0: 9e6f 7e3e 94bf b9c0 9a96 843f 9e4c 043f
000000b0: 64ad c73f 15c4 a13f 8b59 803f a155 993f
000000c0: 3b78 4040 8073 48c0 2025 503f 6b5e 84be
000000d0: 8888 03bf 0240 2340 0436 e2bf e7df 873f
000000e0: 4473 95bf c47f aac0 c507 f6c0 3ac3 2f3f
000000f0: 371d 883f fdae ebbd 7224 3b3f 5220 a4bf
00000100: 0e14 523f 5353 52bf 90a2 b7c0 4aeb 773f
00000110: 3e99 85bc 3048 af3f 7eb9 583f bb3f 323f
00000120: 5036 6f3f c51e 953f 879a 59c0 ad19 ea3e
00000130: a463 7b3e 55e5 8c3e 6026 1640 4080 f53d
00000140: 426e f43e 82a2 663d 4fb5 69bf c7dd e0bf
00000150: d102 fe3e f9a2 dd3e 5129 003f c806 293e
00000160: 0d1c 513f 8929 b93e e6de 523e 808b a2bf
00000170: cb3d fc3e afbd d83e e16c cc3f 3412 e03e
00000180: 42a9 9e3e 5524 133f 1144 c63e 20e5 c93c
00000190: 9b1a de3e e051 29be 4467 f4be 041e 6040
000001a0: 8164 3fbf 51ad c73e 2e8d ffbf 9e58 a2c0
000001b0: ab72 cfc0 2df7 d83e 10ef 1c3f 1faf 1fc0
000001c0: f23e 2d3f 8797 13c1 da31 bb3e e6bb 98be
000001d0: 41fb 9dc0 e03d a83e fe15 b0bf 3140 c23f
000001e0: a1f0 253f 16e2 e93e 1bc2 0f3f 80b5 f63f
000001f0: bab7 9dc0 181f 263f d08e 823d b4e1 693d
00000200: 1411 4b40 cb3c ca3d e7b2 113f d4ec 30bf
00000210: 685e a9c0 eb76 cac0 23f8 3a3f fd6c 1e3f
00000220: f4d5 c1bd 96be 823f 5d81 a0bf 35ca 4f3f
00000230: 683e 7f3d a15c acc0 e0ab 273f a991 173f
00000240: 7b13 0740 0f6a 1a3f da0d 493f 574f 263f
00000250: 72ed 0440 dc44 65c0 17b8 00bf 0fa6 b63e
00000260: 598e ccbe 0452 3bbf 84e1 223e 08c7 07bf
00000270: cbf0 303f 9f86 8e3e 91c2 54bf 367e e8be
00000280: 4011 03bf 0476 02bf 098a 18bf 0377 163f
00000290: 4592 04bf 1b81 403f 135a 16be 59f4 01bf
000002a0: 97b4 813f 8899 05bf f6bc 12bf c8b7 7fbf
000002b0: 2f39 26bf 9c10 10bf 155e 3e3f 9ad6 603f
000002c0: 9ca4 dc3e 6bdb 133f e834 e93e 1779 d93e
000002d0: 8e63 783f a5ca 153f 0c99 1e3f a52f 983f
000002e0: 018a 953f 07b7 593f e20e 0f3f 65e8 623f
000002f0: f2cc 013f b9eb 803f 5ddf c13e 995d 1b3f
00000300: 68c6 443f be9e 273f d34e 2a3f 3db4 a63f
00000310: 030b 513f 1d61 a63f 1843 bd3f b834 963e
00000320: 8ddf e9be 71b7 603e ee1c cb3e 38f0 bac0
00000330: 9409 db3e 132d cabe e302 fd3e 5955 8440
00000340: 1f4a 7440 9edf 9cbe a8e4 ebbe 9cbf b9be
00000350: d26c 0abf 3d2d 3840 6d3b c9be 9bc0 2b3e
00000360: e1fc 8a40 e7e1 b5be b56e eb3e 2fd7 3cc0
00000370: c483 f0be bb0c 9cbe d3b0 1bbf 96b9 57bf
00000380: 9200 3440 2383 773f 93eb f4be 2b69 f4be
00000390: e716 fb3f 9f20 8dbf 0ad8 753f 5f64 c5bf
000003a0: a773 80c0 f146 bbc0 d5f2 6b3f 5c61 673f
000003b0: 33f0 693d 64db 7b3f 9094 debf f27c 633f
000003c0: 4b21 65bf 3a01 89c0 b215 4e3f 251a f8bd
000003d0: f25b 8d3f b9c1 703f 4c2d 263f aeb7 863f
000003e0: 6eb0 7a3f d3a6 4fc0 e0b5 4440 7e9f 283f
000003f0: 3cda 363f 02d4 9041 fdef c4c0 d8c6 4040

linear_sigmoid_stack.4.bias f4 [25]
-3.8670645 1.1897306 0.8191529 0.28664392 0.42867124 0.5745708 -0.41288838 0.9938178
-0.3686773 0.7960474 2.348244 -0.8635249 0.7602913 -0.88984406 1.1333796 1.0761304
0.91624177 0.92719275 0.547815 -0.8493355 1.0517428 0.9688055 -0.24276924 0.8590152
2.0539198
00000000: fc7d 77c0 1849 983f 01b4 513f fec2 923e
00000010: cc7a db3e 1217 133f 1b66 d3be d86a 7e3f
00000020: 45c3 bcbe c3c9 4b3f a149 1640 f80f 5dbf
00000030: 73a2 423f d2cc 63bf 9512 913f a4be 893f
00000040: d28e 6a3f 815c 6d3f 9b3d 0c3f 0d6e 59bf
00000050: 829f 863f a303 783f 8098 78be 6ce8 5b3f
00000060: 6c73 0340

linear_sigmoid_stack.6.weight f4 [25, 25]
-0.7929136 0.021370308 -0.21712117 -1.1673958 -1.0001675 -0.78873014 -0.50076556 -1.0857012
-1.2589027 -0.57648134 -1.3862511 -0.24726436 -1.1838148 -0.6463492 -1.1132493 -1.4005781
-1.4223099 -0.64962673 -0.091497995 -0.034564175 -1.1444186 -1.5364999 -0.26317477 -1.5129051
-0.8062205 -0.3712997 -0.8566822 -0.713066 -1.2553895 -0.9521082 -0.47923237 -0.44281545
-1.5338894 -1.6494664 -1.1281574 -0.27704498 -0.05915803 -1.2558239 -0.68672186 -1.4980828
-1.4925369 -1.4729555 -1.4193808 -0.8829855 -0.4750539 -1.7171677 -1.5822816 -0.33174103
-1.556948 -0.46720013 -2.1617339 -1.1846699 -1.281976 -0.44844756 -0.74008495 -0.805919
-1.1959878 -0.34843233 -0.4870985 -0.41168848 -0.65200824 -1.8500464 -0.15049605 -0.5280146
-0.32329673 -0.33280644 -0.41561118 -0.98376876 -0.5036123 -0.4156563 -0.34651658 -0.3817541
0.20318514 -0.40951365 -4.5064483 -2.0230646 -1.7963952 -1.732902 -1.3295145 -1.040875
-0.7157906 -1.7630141 -0.94593376 -1.557916 -0.93276244 -0.51643014 -1.8314563 -0.87263066
-0.58676505 -0.98450685 -1.0286245 -0.7380197 -0.96412283 -0.86155695 -0.28505674 -0.72910476
-0.9375271 -1.0784856 -0.7913247 0.42012465 -12.454598 0.46563575 0.7319329 0.6456337
-0.41566595 0.4815983 0.6515975 -0.24024388 -3.4820254 0.46783724 -0.03788853 0.20239405
-0.3875464 -0.524538 -0.1352295 -0.2172881 -0.1589092 0.42756212 0.36478075 0.07436217
-0.25196102 -0.54184353 0.3125522 -0.47984147 -1.1904699 -1.529739 -0.23432264 0.04787095
-1.2057254 -0.63595694 -0.3434694 -1.1940659 -0.85912997 -1.5030841 0.009776201 -0.32514554
-1.1408782 -0.9850177 -0.54265356 -1.1813422 -1.1164308 -0.9935189 -0.7827978 -0.029951781
-0.18313089 -1.0078735 -0.97124517 -0.042527482 -1.1763474 -0.70786464 -1.0617697 -0.45242006
-0.30003467 -0.7864503 -1.0680938 -0.61116284 -0.88464236 -1.279356 -1.8698769 -0.28203034
-1.2175388 -0.74456453 -1.1757344 -0.3815337 -1.2334527 -1.0662774 -1.05193 -0.59860873
-0.6078296 -0.16908093 -0.9564658 -1.1176299 -0.1195228 -1.161635 -1.3360807 -2.3801117
0.04255489 -0.03252203 0.31723663 -0.61111176 0.01851513 -0.5262833 -0.87453014 -1.6094248
0.25977752 -0.5581116 -1.0729342 -1.1119307 -0.6898298 -1.2177094 -1.1848878 -0.91289324
0.3197575 0.03505208 -0.19747564 -0.9617609 -1.1639318 -0.022748034 -1.2661625 -0.9171495
-1.1300108 -0.27965906 -0.62789375 -1.0779394 -1.2772962 -0.89425933 -0.9432818 -1.1265577
-1.426535 -0.39054042 -1.5012617 -0.611168 -1.1858995 -0.5841145 -1.0032829 -1.0923102
-1.3689185 -0.5960333 -0.21447004 -0.086164564 -1.2524322 -1.5594482 -0.6015408 -1.1823478
-0.8589184 -0.40340325 -0.43875143 -0.45654607 -1.1429529 -0.6075858 -0.6937469 -0.52683544
-1.3672535 -1.2719337 -0.88961166 -1.4994304 -0.40482625 -1.2363479 -0.79037523 -1.2334567
-1.464333 -1.5390261 -0.88728744 -0.7998723 -0.23211946 -1.2608713 -1.617416 -0.52716327
-1.4152027 -1.9677202 -1.7998312 -0.34012768 -0.6281886 -1.1027154 -1.0678442 -0.6661174
00000000: 63fc 4abf c910 af3c 0355 5ebe 3a6d 95bf
00000010: 7d05 80bf 38ea 49bf 2c32 00bf 42f8 8abf
00000020: b923 a1bf 4894 13bf ad70 b1bf de32 7dbe
00000030: 3e87 97bf 2477 25bf f47e 8ebf 2546 b3bf
00000040: 400e b6bf f04d 26bf 4d63 bbbd 2a93 0dbd
00000050: 4f7c 92bf 07ac c4bf d8be 86be e0a6 c1bf
00000060: 7764 4ebf ff1a bebe 864f 5bbf 7e8b 36bf
00000070: 9ab0 a0bf 5dbd 73bf f25d f5be b5b8 e2be
00000080: 7d56 c4bf b721 d3bf 7667 90bf d7d8 8dbe
00000090: b14f 72bd d6be a0bf 01cd 2fbf 2dc1 bfbf
000000a0: 730b bfbf ce89 bcbf 45ae b5bf 560b 62bf
000000b0: 443a f3be 27cc dbbf 3488 cabf f6d9 a9be
000000c0: 124a c7bf db34 efbe d959 0ac0 43a3 97bf
000000d0: ca17 a4bf eb9a e5be 3576 3dbf b550 4ebf
000000e0: 2116 99bf b965 b2be f964 f9be d5c8 d2be
000000f0: 03ea 26bf 52ce ecbf a31b 1abe f72b 07bf
00000100: 2687 a5be 9b65 aabe fdca d4be 45d8 7bbf
00000110: bcec 00bf e7d0 d4be 9f6a b1be 4675 c3be
00000120: c40f 503e c6ab d1be d334 90c0 e479 01c0
00000130: 47f0 e5bf bccf ddbf 882d aabf 643b 85bf
00000140: 0e3e 37bf 72aa e1bf b728 72bf cb69 c7bf
00000150: 85c9 6ebf c434 04bf 296d eabf b964 5fbf
00000160: 3c36 16bf a408 7cbf f8a9 83bf dcee 3cbf
00000170: c1d0 76bf ff8e 5cbf f5f2 91be 9ca6 3abf
00000180: c701 70bf d10b 8abf 4194 4abf 941a d73e
00000190: 0946 47c1 cf67 ee3e f45f 3b3f 4048 253f
000001a0: 2bd2 d4be 0d94 f63e 18cf 263f 7e02 76be
000001b0: 81d9 5ec0 5d88 ef3e 0131 1bbd 6340 4f3e
000001c0: 7b6c c6be 1f48 06bf 9a79 0abe c680 5ebe
000001d0: 18b9 22be 6ce9 da3e 8bc4 ba3e 324b 983d
000001e0: 0901 81be 42b6 0abf d806 a03e c8ad f5be
000001f0: 5161 98bf 7dce c3bf 46f2 6fbe 5414 443d
00000200: 3655 9abf 13ce 22bf 39db afbe 27d7 98bf
00000210: f1ef 5bbf 0f65 c0bf 5c2c 203c 7a79 a6be
00000220: 4c08 92bf 1f2a 7cbf 58eb 0abf 3936 97bf
00000230: 34e7 8ebf 4157 7ebf 7065 48bf 705d f5bc
00000240: aa86 3bbe 0002 81bf 86a3 78bf 4c31 2ebd
00000250: 8d92 96bf 9e36 35bf 12e8 87bf 9aa3 e7be
00000260: 259e 99be cf54 49bf 4cb7 88bf 2b75 1cbf
00000270: ec77 62bf f0c1 a3bf 2058 efbf 4866 90be
00000280: 50d8 9bbf c89b 3ebf 777e 96bf 6358 c3be
00000290: c7e1 9dbf c77b 88bf a4a5 86bf 6c3e 19bf
000002a0: b89a 1bbf 8d23 2dbe f1da 74bf 7f0e 8fbf
000002b0: 5fc8 f4bd 75b0 94bf b104 abbf c053 18c0
000002c0: 094e 2e3d d235 05bd d76c a23e d271 1cbf
000002d0: 0bad 973c 81ba 06bf 35e1 5fbf a201 cebf
000002e0: 8f01 853e 67e0 0ebf e855 89bf bf53 8ebf
000002f0: b098 30bf e7dd 9bbf 67aa 97bf 5fb3 69bf
00000300: 41b7 a33e c592 0f3d 0e37 4abe f635 76bf
00000310: b8fb 94bf 165a babc 9d11 a2bf 4fca 6abf
00000320: 32a4 90bf 792f 8fbe a5bd 20bf ebf9 89bf
00000330: 717e a3bf 2eee 64bf eb7a 71bf 0b33 90bf
00000340: b398 b6bf eaf4 c7be 5829 c0bf 8275 1cbf
00000350: 8ecb 97bf 8788 15bf 936b 80bf d2d0 8bbf
00000360: b938 afbf a395 18bf 099e 5bbe 0c77 b0bd
00000370: b34f a0bf 009c c7bf 94fe 19bf 2c57 97bf
00000380: 14e2 5bbf df8a cebe 07a4 e0be 68c0 e9be
00000390: 484c 92bf be8a 1bbf 6699 31bf b0de 06bf
000003a0: 2a02 afbf b9ce a2bf 97bd 63bf 56ed bfbf
000003b0: 6345 cfbe a640 9ebf 0856 4abf e9e1 9dbf
000003c0: 446f bbbf cffe c4bf 4525 63bf 6ec4 4cbf
000003d0: b9b0 6dbe 3b64 a1bf 7d07 cfbf 2cf4 06bf
000003e0: 5d25 b5bf 41de fbbf de60 e6bf 3725 aebe
000003f0: f8d0 20bf c725 8dbf 1eaf 88bf ac86 2abf

linear_sigmoid_stack.6.bias f4 [25]
-1.3039331 -1.3192635 -0.7160833 -0.7865341 -0.36462036 -0.82090086 -1.0193638 -1.2007204
-1.0968963 -1.3709317 -0.9923767 -1.421189 -0.9792129 -1.0326096 -1.0393486 -0.7967565
-1.6430378 -0.7023376 -1.2181447 -0.8791469 -1.4656353 -1.1894193 -1.4416991 -0.9961598
-0.7048372
00000000: 48e7 a6bf a0dd a8bf 3c51 37bf 4c5a 49bf
00000010: 85af babe 8f26 52bf 837a 82bf 35b1 99bf
00000020: 1967 8cbf b17a afbf 660c 7ebf 85e9 b5bf
00000030: b2ad 7abf 8d2c 84bf 6009 85bf 3cf8 4bbf
00000040: 104f d2bf 66cc 33bf 2aec 9bbf c50f 61bf
00000050: f099 bbbf e43e 98bf 9989 b8bf 5404 7fbf
00000060: 3670 34bf

linear_sigmoid_stack.8.weight f4 [1, 25]
-0.2454672 -0.2834808 0.52795506 -0.22920117 -0.32650396 -0.37049773 -0.22171591 -0.3793563
-0.24734147 -0.25498757 -0.1784977 -0.41186824 -0.2546883 -0.23352624 -0.17230189 -0.36661476
-0.41101715 -0.045337245 -0.31669518 -0.35418692 -0.24493027 -0.2950564 -0.28943205 -0.21359244
0.13791297
00000000: c15b 7bbe 6524 91be 1028 073f b6b3 6abe
00000010: 872b a7be e1b1 bdbe 7f09 63be fd3a c2be
00000020: 1547 7dbe bb8d 82be 1ac8 36be 65e0 d2be
00000030: 8166 82be 8121 6fbe e86f 30be eeb4 bbbe
00000040: d770 d2be 8cb3 39bd df25 a2be fd57 b5be
00000050: 00cf 7abe a211 97be 7030 94be fab7 5abe
00000060: 0f39 0d3e
