Logistic Delay a0.3/Results including the additional condition/sol_w19.pt (torch_old, 10095 bytes, 9 tensors)

linear_sigmoid_stack.0.weight f4 [25, 1]
-4.0252337 -0.311298 3.0980194 -1.81599 2.322758 0.08500063 0.44357365 -12.593785
0.24648461 0.08341846 -2.0475538 0.101501524 -0.92346424 -0.43449524 1.6243087 -0.6799505
-0.3255169 1.5773758 0.30593076 0.30717984 2.153612 1.5085901 0.2343127 0.091335595
1.0277392
00000000: b7ce 80c0 7462 9fbe f345 4640 5c72 e8bf
00000010: 11a8 1440 cf14 ae3d 161c e33e 2580 49c1
00000020: 7666 7c3e 4cd7 aa3d 1f0b 03c0 08e0 cf3d
00000030: 2768 6cbf 2976 debe 59e9 cf3f 3c11 2ebf
00000040: 27aa a6be 73e7 c93f f5a2 9c3e ad46 9d3e
00000050: c7d4 0940 7b19 c13f abef 6f3e 280e bb3d
00000060: f58c 833f

linear_sigmoid_stack.0.bias f4 [25]
0.029834269 0.72376496 0.01336692 0.052404188 0.124519184 0.21500441 -6.3767166 -0.7080486
-1.2601094 0.36210918 0.059697803 0.75309396 0.01550231 0.7225526 -0.28822228 0.37789193
3.7570033 -0.2017961 -2.139862 -2.1526484 -0.30075723 -0.016566945 -1.1251138 0.59701633
-0.99405247
00000000: ff66 f43c a948 393f ed00 5b3c c6a5 563d
00000010: ea03 ff3d 1e2a 5c3e 100e ccc0 ac42 35bf
00000020: 444b a1bf 6066 b93e af85 743d c4ca 403f
00000030: 67fd 7d3c 35f9 383f df91 93be 0d7b c13e
00000040: be72 7040 a3a3 4ebe 80f3 08c0 fec4 09c0
00000050: dafc 99be 67b7 87bc bb03 90bf 10d6 183f
00000060: 397a 7ebf

linear_sigmoid_stack.2.weight f4 [25, 25]
2.020584 0.45566833 -0.42802817 0.6832853 -0.16381706 0.0740271 -0.59455496 2.2809708
-0.11038045 -0.037044946 1.0577472 -0.16689138 0.32455185 0.33309928 -0.15924166 0.53747886
0.14877605 -0.1571699 -0.2660562 -0.18379845 -0.094351046 -0.3705858 -0.17046593 0.058299918
-0.28860855 -1.3466005 -0.69395894 0.09785295 -0.6864861 0.08469269 -0.27828515 0.40070778
-1.3287946 0.021438248 -0.006445434 -0.7696525 -0.116139606 -0.70499146 -0.8867768 0.0854029
-0.76925576 -0.71093756 -0.08888322 0.25926366 0.39851126 0.23847473 0.08821201 0.0839396
-0.016972251 0.34988338 -1.0569655 -0.4999332 0.17785133 -0.842999 -0.16247323 -0.21805546
0.69136053 -1.3092421 0.21389158 -0.19526267 -1.0736758 -0.22514719 -0.7598449 -0.5382431
-0.010964855 -0.51146907 -0.6386401 0.23544653 0.25113595 0.2529709 -0.10043427 0.04779619
0.30345592 -0.13610047 0.18605965 1.1749997 0.7929333 -0.32539585 0.79496586 0.054909557
0.22073008 -0.4964935 1.0329387 -0.21600674 0.1427912 0.84127593 0.12354729 0.6257745
0.5669654 -0.31564534 0.69810945 0.927681 0.08889091 -0.29739654 -0.47319272 -0.19642308
0.0127394665 -0.19933616 0.120950416 -0.32233334 1.4841322 0.7021984 -0.3517188 0.7518938
-0.043094546 0.122586355 -0.4033375 1.6229057 -0.16078687 0.16510896 1.1376336 0.2864824
0.5681932 0.5942885 -0.15747629 0.6161548 0.3800115 -0.13881129 -0.45176193 -0.1869113
-0.18685317 0.05722672 -0.31746873 0.16238782 -0.33752203 -0.7628886 -0.6493863 -0.028958172
-0.7873782 -0.047391955 -0.029864507 0.9245311 -0.98356307 0.38177785 -0.15897577 -0.7764113
-0.22710456 -0.65821654 -0.77352226 0.033107102 -0.9362771 -1.2837229 0.07392429 0.2191638
0.24564995 0.06287013 0.016741104 0.06528803 -0.21098977 -0.022645587 -1.2223675 -0.6576772
0.27846572 -0.77465975 -0.16163222 -0.08264073 0.51907784 -1.2701292 0.00013982208 -0.05961012
-0.98705137 -0.11627455 -0.83752406 -0.4814076 0.24372447 -0.82556355 -0.45331666 0.11362173
0.29153812 0.37678573 -0.01811846 0.06781146 -0.0022909527 -0.33714962 0.38002414 -1.1983835
-0.9231039 0.20500246 -0.72919726 0.07167489 -0.19363537 0.8645508 -1.1147192 0.24768002
-0.19332206 -0.62420356 -0.22394672 -0.6586946 -0.8972129 0.06489128 -0.597487 -0.827959
-0.077079654 0.25431955 0.2013851 -0.007991776 -0.017890846 0.18779068 -0.13031365 0.16174193
1.419481 0.66598845 -0.18576948 1.0014361 0.0895033 -0.15427133 -0.5043151 1.7439791
-0.1366448 0.0052460767 0.9103117 0.23508582 0.61424327 0.7599923 -0.1543742 0.5600221
0.5324192 -0.20008887 -0.21221973 -0.05913387 -0.241854 -0.23164335 -0.20034787 -0.004190979
-0.32687166 -0.62918437 -0.89262736 -0.1273036 -0.4694142 -0.09439514 -0.2716993 1.0108575
-0.6211293 0.23388672 -0.026625516 -0.510956 -0.3331329 -0.5602598 -0.9048959 -0.06002053
-0.7849572 -1.798991 -0.07106917 0.4259147 0.48397204 0.073282905 -0.27591583 0.19348037
0.0025518565 0.21066155 3.2304935 0.1600934 -0.62263745 0.50332934 -0.17218952 0.07520487
00000000: 4051 0140 5c4d e93e 8226 dbbe c9eb 2e3f
00000010: a9bf 27be 859b 973d c134 18bf 6dfb 1140
00000020: 250f e2bd 71bc 17bd 4364 873f 93e5 2abe
00000030: a92b a63e fd8b aa3e 3f10 23be 3798 093f
00000040: c058 183e 25f1 20be 8538 88be a935 3cbe
00000050: 1f3b c1bd 6cbd bdbe 9f8e 2ebe e5cb 6e3d
00000060: 80c4 93be 685d acbf 4ba7 31bf 2167 c83d
00000070: 8ebd 2fbf 5c73 ad3d 647b 8ebe 9229 cd3e
00000080: f115 aabf 449f af3c 3834 d3bb f207 45bf
00000090: 9ada edbd 527a 34bf ce03 63bf b7e7 ae3d
000000a0: f2ed 44bf 0100 36bf 6808 b6bd 35be 843e
000000b0: ab09 cc3e b832 743e 80a8 b43d 86e8 ab3d
000000c0: 6409 8bbc ea23 b33e a54a 87bf 3ff7 ffbe
000000d0: a91e 363e c8ce 57bf 625f 26be ee49 5fbe
000000e0: 01fd 303f 3f95 a7bf 6506 5b3e f0f2 47be
000000f0: 356e 89bf fc8c 66be 3285 42bf 4dca 09bf
00000100: efa5 33bc a3ef 02bf eb7d 23bf e518 713e
00000110: e494 803e 6785 813e 7cb0 cdbd f0c5 433d
00000120: 935e 9b3e ec5d 0bbe 6c86 3e3e 6466 963f
00000130: adfd 4a3f 499a a6be e282 4b3f d8e8 603d
00000140: 1107 623e 6534 febe 5637 843f df30 5dbe
00000150: db37 123e dc5d 573f 5d06 fd3d c232 203f
00000160: a524 113f 449c a1be 4db7 323f 817c 6d3f
00000170: 700c b63d 5c44 98be 5146 f2be 2223 49be
00000180: 32b9 503c c71e 4cbe dab4 f73d e008 a5be
00000190: 0bf8 bd3f 46c3 333f 7d14 b4be 1d7c 403f
000001a0: e883 30bd 8e0e fb3d 4182 cebe 60bb cf3f
000001b0: 50a5 24be 5312 293e fa9d 913f d2ad 923e
000001c0: 1c75 113f 4b23 183f 7741 21be 52bc 1d3f
000001d0: de90 c23e 8c24 0ebe 574d e7be ad65 3fbe
000001e0: 7056 3fbe 9166 6a3d 438b a2be fe48 263e
000001f0: b0cf acbe ab4c 43bf 2e3e 26bf b039 edbc
00000200: 9e91 49bf 111e 42bd 69a6 f4bc 12ae 6c3f
00000210: caca 7bbf 6378 c33e 8bca 22be e4c2 46bf
00000220: 198e 68be e180 28bf 8e05 46bf 509b 073d
00000230: dbaf 6fbf 0851 a4bf 9e65 973d 7a6c 603e
00000240: a98b 7b3e 0ec2 803d a424 893c bbb5 853d
00000250: b40d 58be 3d83 b9bc 8a76 9cbf 885d 28bf
00000260: 0f93 8e3e 1a50 46bf eb82 25be 8b3f a9bd
00000270: 49e2 043f 9893 a2bf 349d 1239 be29 74bd
00000280: 66af 7cbf 5a21 eebd fa67 56bf 0f7b f6be
00000290: e892 793e 2258 53bf 1f19 e8be 82b2 e83d
000002a0: 7c44 953e 0fea c03e 2a6d 94bc bce0 8a3d
000002b0: cf23 16bb e09e acbe 8692 c23e a164 99bf
000002c0: 8a50 6cbf 2aec 513e acac 3abf 49ca 923d
000002d0: 5a48 46be 3453 5d3f 1eaf 8ebf d59f 7d3e
000002e0: 38f6 45be cecb 1fbf 4a52 65be 36a0 28bf
000002f0: bfaf 65bf b8e5 843d e8f4 18bf 1ff5 53bf
00000300: f0db 9dbd 2c36 823e e537 4e3e f0ef 02bc
00000310: d38f 92bc 334c 403e f170 05be ad9f 253e
00000320: 8eb1 b53f 387e 2a3f 5b3a 3ebe 0f2f 803f
00000330: 824d b73d 4ef9 1dbe cb1a 01bf b53a df3f
00000340: 9dec 0bbe 48e7 ab3b 300a 693f 56ba 703e
00000350: 0c3f 1d3f db8e 423f 4514 1ebe 9c5d 0f3f
00000360: a04c 083f 19e4 4cbe 2150 59be 5b36 72bd
00000370: 93a8 77be ea33 6dbe fe27 4dbe 7b54 89bb
00000380: b95b a7be 3a12 21bf 3a83 64bf e05b 02be
00000390: 0f57 f0be 3d52 c1bd 2c1c 8bbe c763 813f
000003a0: 5402 1fbf 0080 6f3e c11d dabc 03ce 02bf
000003b0: 6590 aabe 306d 0fbf 42a7 67bf 16d8 75bd
000003c0: f4f2 48bf 5645 e6bf b78c 91bd 7e11 da3e
000003d0: 2fcb f73e 5915 963d d744 8dbe b81f 463e
000003e0: 0c3d 273b a9b7 573e 68c0 4e40 86ef 233e
000003f0: 2b65 1fbf 31da 003f 7352 30be 0305 9a3d

linear_sigmoid_stack.2.bias f4 [25]
0.07901513 -0.3158628 -0.30873093 0.3299095 0.18788351 -0.27331185 -0.42478588 -0.34063134
0.41267776 -0.54408544 -0.12660764 -0.4911089 -0.30700278 -0.2274228 0.29555085 -0.29899564
-0.32474974 -0.20203942 -0.21486603 0.1633925 0.41136792 0.36726516 -0.4066937 0.36228776
-0.35570902
00000000: afd2 a13d c5b8 a1be fb11 9ebe e6e9 a83e
00000010: 8964 403e 88ef 8bbe 897d d9be 3b67 aebe
00000020: 804a d33e 2f49 0bbf 6fa5 01be a072 fbbe
00000030: 782f 9dbe 86e1 68be 7152 973e f515 99be
00000040: 9945 a6be 6ce3 4ebe d705 5cbe 5d50 273e
00000050: d19e d23e 2e0a bc3e 283a d0be c87d b93e
00000060: 7e1f b6be

linear_sigmoid_stack.4.weight f4 [25, 25]
-0.1957953 -0.41316608 -0.33154517 -0.09276909 -0.37185642 -0.2991861 -0.08098087 -0.5092317
-0.44821897 -0.3903148 -0.32728767 -0.5506234 -0.3358158 -0.26621336 -0.1354265 -0.3028021
-0.37192726 -0.12990457 -0.65828055 -0.40921056 -0.13408872 -0.06294378 -0.086557776 -0.12320051
-0.5012404 -0.5061905 0.23988643 0.14994311 -0.26750374 -0.41596475 0.15050863 0.24672474
0.07617494 -0.29622465 0.36302343 -0.4735133 0.31663033 0.2090167 0.30560476 -0.46741742
0.26347777 0.38450584 -0.8309217 -0.70388323 -0.45696592 -0.35859096 -0.51769894 0.15439904
-0.29116198 0.18723436 -0.51338696 0.43892285 0.050141085 -0.38840565 -0.52712864 0.44326237
0.13281758 0.31639978 -0.29550454 0.15587533 -0.36816064 0.43062449 0.26134408 0.04934177
-0.52381915 0.084987134 0.3888644 -0.77264744 -0.8734592 -0.4857947 -0.5236595 -0.46716717
0.18900175 -0.44700897 0.14324789 0.4250954 -0.49363506 -0.35104355 0.35254332 0.21228303
-0.14993857 -0.4866989 -0.19621149 0.38060322 -0.18631278 0.62568676 -0.5414742 -0.5493704
-0.2993248 0.41362226 -0.3515368 -0.538083 0.95539206 0.7648478 0.30964977 0.40049747
0.36570895 -0.012432744 0.27053243 -0.25837275 -0.4074711 0.2544887 0.34680152 -0.5075021
-0.58183897 0.22209151 0.06619498 0.19773525 -0.50071764 0.3358185 -0.3592174 0.14477354
0.18520913 0.030822465 -0.5172196 0.22962242 0.3740163 -1.0000856 -1.0099694 -0.56156427
-0.2854302 -0.33786735 0.24140888 -0.20059423 0.43229464 -0.40535477 0.113470465 -0.0028784878
-0.42406237 -0.36868298 0.20424579 0.3595462 0.20701808 -0.5517856 0.39811984 -0.566877
0.22463675 0.31361806 0.31047088 -0.38344705 0.24498686 0.11401814 -0.6738404 -0.73499453
-0.3039392 -0.63059205 -0.5005591 0.020424852 -0.51079166 0.46639147 0.38716373 -0.31681865
-0.35059556 0.40429604 0.3053918 -0.2809674 -0.46314612 -0.15352292 0.26307443 -0.2522494
0.5973104 -0.41438645 -0.2848871 -0.36658856 0.4642018 -0.47415125 -0.53036046 0.8262036
0.87973714 0.4654159 0.3239409 0.18038197 -0.33440462 0.2982397 -0.3265508 -0.4364043
0.24613576 0.33649194 -0.54307055 -0.45034152 0.31477565 0.17304663 0.22718045 -0.1841923
0.4882906 -0.6619613 0.305799 0.3174316 0.0997416 -0.44942525 0.19742258 0.28677458
-0.7689163 -0.6567145 -0.53236556 -0.36027357 -0.3246633 0.29107744 -0.42714304 0.13981871
0.32538784 -0.49085283 -0.1909911 0.11856238 0.46332 -0.26672313 -0.40461132 -0.44978878
0.4160788 -0.19164814 0.48200226 -0.35824132 -0.5265813 0.02408237 0.4597196 -0.38966596
-0.21382974 0.72583157 0.78527683 0.29843414 0.3290188 0.44776544 -0.31923097 0.18309277
-0.42682666 -0.3554019 0.31061056 0.16318744 -0.57324314 -0.58576345 0.3866444 0.0785387
0.23025319 -0.49133182 0.43616453 -0.4831062 0.28387207 0.46129063 0.30778033 -0.43114862
0.0747079 0.25115237 -0.89959735 -0.90670925 -0.49218243 -0.42672247 -0.5944514 0.37849018
-0.538994 0.17847955 -0.48334697 0.027752433 0.23288004 -0.33059996 -0.58504033 0.406862
00000000: 907e 48be 818a d3be 4ac0 a9be b8fd bdbd
00000010: f763 bebe ec2e 99be 4cd9 a5bd 025d 02bf
00000020: f57c e5be 57d7 c7be 4092 a7be a8f5 0cbf
00000030: 0cf0 abbe 1e4d 88be 3fad 0abe e008 9bbe
00000040: 406d bebe b405 05be 1385 28bf 0c84 d1be
00000050: 8e4e 09be abe8 80bd 3445 b1bd 8d50 fcbd
00000060: 4a51 00bf b395 01bf caa4 753e b08a 193e
00000070: 40f6 88be 55f9 d4be ef1e 1a3e 69a5 7c3e
00000080: 9b01 9c3d c2aa 97be 35de b93e 5670 f2be
00000090: 5f1d a23e 7908 563e 3a78 9c3e 5651 efbe
000000a0: 8fe6 863e f3dd c43e 49b7 54bf b131 34bf
000000b0: 70f7 e9be 3c99 b7be eb87 04bf c81a 1e3e
000000c0: 2f13 95be 5dba 3f3e 546d 03bf 7fba e03e
000000d0: bd60 4d3d 1bdd c6be e7f1 06bf 49f3 e23e
000000e0: 5501 083e 27ff a13e 5f4c 97be c89d 1f3e
000000f0: 8d7f bcbe d07a dc3e e4ce 853e 991a 4a3d
00000100: 0319 06bf bc0d ae3d 3c19 c73e 39cc 45bf
00000110: 069b 5fbf 15ba f8be 8d0e 06bf 8930 efbe
00000120: ad89 413e 5cde e4be 93af 123e 1ba6 d93e
00000130: bcbd fcbe fbbb b3be 8f80 b43e b960 593e
00000140: 7f89 19be 9930 f9be aaeb 48be 6dde c23e
00000150: c7c8 3ebe 022d 203f 0e9e 0abf 8aa3 0cbf
00000160: 1a41 99be 4cc6 d33e a2fc b3be cfbf 09bf
00000170: 9394 743f 11cd 433f 6a8a 9e3e 010e cd3e
00000180: 343e bb3e b5b2 4bbc 3a83 8a3e 6f49 84be
00000190: 0da0 d0be 584c 823e f88f b13e a8eb 01bf
000001a0: 66f3 14bf f56b 633e 3c91 873d 1c7b 4a3e
000001b0: 082f 00bf 67f0 ab3e 58eb b7be 843f 143e
000001c0: 76a7 3d3e 657f fc3c 8168 04bf 2422 6b3e
000001d0: 117f bf3e ce02 80bf ad46 81bf adc2 0fbf
000001e0: e823 92be f3fc acbe e433 773e 9368 4dbe
000001f0: b955 dd3e a98a cfbe 3463 e83d 03a5 3cbb
00000200: b41e d9be 04c4 bcbe cf25 513e 7116 b83e
00000210: 8cfc 533e d241 0dbf 5dd6 cb3e da1e 11bf
00000220: 2d07 663e 8c92 a03e 0af6 9e3e 2c53 c4be
00000230: d6dd 7a3e 5882 e93d ce80 2cbf 9a28 3cbf
00000240: eb9d 9bbe 7b6e 21bf a424 00bf 0552 a73c
00000250: 3ec3 02bf ddca ee3e 533a c63e 0e36 a2be
00000260: 4381 b3be e4ff ce3e 505c 9c3e f6da 8fbe
00000270: 7d21 edbe 1d35 1dbe b1b1 863e d526 81be
00000280: 56e9 183f 762a d4be b9dc 91be 7fb1 bbbe
00000290: dcab ed3e f4c3 f2be b4c5 07bf 1482 533f
000002a0: 7436 613f fe4a ee3e 95db a53e 0db6 383e
000002b0: 1537 abbe e0b2 983e ab31 a7be 6270 dfbe
000002c0: 030b 7c3e ac48 ac3e ac06 0bbf 2a93 e6be
000002d0: 462a a13e 2333 313e fea1 683e e89c 3cbe
000002e0: 3a01 fa3e 4c76 29bf b091 9c3e 6586 a23e
000002f0: 5345 cc3d 111b e6be 2529 4a3e 1ed4 923e
00000300: b3d7 44bf 711e 28bf 1c49 08bf c775 b8be
00000310: 453a a6be 1a08 953e 7eb2 dabe a32c 0f3e
00000320: 3c99 a63e 1051 fbbe 2c93 43be d5d0 f23d
00000330: 4738 ed3e ef8f 88be 3729 cfbe b74a e6be
00000340: 4808 d53e 693f 44be 00c9 f63e 686b b7be
00000350: 08ce 06bf 6448 c53c 5e60 eb3e 4c82 c7be
00000360: 2ff6 5abe 19d0 393f e707 493f 5ccc 983e
00000370: 2775 a83e 8341 e53e 3e72 a3be ac7c 3b3e
00000380: 0689 dabe 3df7 b5be 5908 9f3e 9c1a 273e
00000390: 10c0 12bf 98f4 15bf 41f6 c53e e6d8 a03d
000003a0: 7ec7 6b3e d88f fbbe f550 df3e b259 f7be
000003b0: ae57 913e 492e ec3e 6295 9d3e 83bf dcbe
000003c0: 7500 993d 0b97 803e 034c 66bf 191e 68bf
000003d0: 56ff fbbe 5e7b dabe f82d 18bf 77c9 c13e
000003e0: 83fb 09bf 58c3 363e 4179 f7be 1259 e33c
000003f0: 1b78 6e3e 6644 a9be 34c5 15bf 3750 d03e

linear_sigmoid_stack.4.bias f4 [25]
-0.19891249 -0.08290355 -0.13210954 0.06297637 -0.014458881 -0.2417108 0.23090206 -0.12816286
0.17841238 -0.027702982 -0.104778565 -0.29410648 -0.12831397 -0.26438043 0.07272747 0.24730879
0.00947357 -0.16186564 -0.09531545 -0.25365263 -0.11070195 -0.13079128 -0.069077715 0.0488945
-0.17141967
00000000: b7af 4bbe 56c9 a9bd b947 07be c1f9 803d
00000010: f1e4 6cbc 0983 77be 9771 6c3e 203d 03be
00000020: bcb1 363e 5df1 e2bc 2596 d6bd 2095 96be
00000030: bd64 03be df5c 87be 24f2 943d 843e 7d3e
00000040: 0837 1b3c 1bc0 25be bf34 c3bd c2de 81be
00000050: b4b7 e2bd 26ee 05be 9e78 8dbd 9945 483d
00000060: a388 2fbe

linear_sigmoid_stack.6.weight f4 [25, 25]
-0.37741286 -0.35053045 -0.31329495 -1.169143 -0.42280868 -0.44650483 -0.9143522 -0.19915174
-1.0036185 -0.38925403 -0.41238004 -0.23597927 -0.17695822 -0.4222176 -0.26800606 -1.1490675
-1.1568794 -0.3143353 -0.33853185 -0.1471158 -0.37966248 -0.26962146 -0.2711749 -1.1772491
-0.46116927 -0.23797292 -0.34299114 -0.19405958 -0.52640164 -0.44018528 -0.22418863 -0.25652325
-0.3321826 -0.51524556 -0.34116915 -0.24115932 -0.008656647 -0.1473372 -0.3253235 -0.25272018
-0.35399127 -0.5169394 -0.21190141 -0.28973964 -0.36472955 -0.38849363 -0.43501088 -0.19191636
-0.46232775 -0.38148952 0.022828583 -0.16229174 -0.013674082 -0.19670841 -0.090542905 -0.13907196
-0.56337774 0.19156854 -0.2604497 -0.011191083 -0.13966127 0.03484465 0.24262612 -0.15418185
0.21798708 -0.3109123 -0.2225808 -0.12574835 0.12439531 -0.0407026 0.051845744 0.22355092
0.16480649 -0.3260324 0.22976238 -0.08116757 -0.024281913 -0.3336942 -0.4326626 -0.11997304
-0.06645722 -0.33591604 -0.35684407 -0.38477263 -0.24004886 -0.2824521 -0.2961865 -0.39693984
-0.3905221 -0.3597673 -0.48193845 -0.37380317 -0.07195772 -0.3675698 -0.2883711 -0.045283243
-0.40721625 -0.45117503 -0.29154646 -0.25968006 -0.26719975 0.18582708 0.3264307 -0.4983091
0.24473491 0.076167546 -0.3235379 0.29522958 -0.29257047 0.34602126 0.37837425 0.21009631
0.1616269 0.071111485 0.4053116 -0.31294903 -0.09600453 0.31251773 0.3764713 0.011207377
0.21091968 0.014157308 0.31261715 -0.5410529 0.4300961 -0.10518097 -0.33420646 -0.19646595
-0.8328617 -0.13252614 -0.4054295 -0.8240555 -0.20028107 -0.99798685 -0.42788985 -0.36057997
-0.35136035 -0.34655026 -0.17364728 -0.48979643 -0.9067274 -0.98870605 -0.35269788 -0.44120038
-0.27772924 -0.37805238 -0.29058206 -0.36677676 -0.95375603 -0.34982187 -0.041253068 -0.29726994
-0.089343086 -0.31556076 -0.11775166 0.059757452 -0.5457379 -0.1795122 -0.40287498 0.08769113
0.07125504 -0.15354446 -0.053983077 0.0994159 -0.14470199 -0.45980343 -0.28319436 0.019900108
-0.14006566 -0.17177881 0.052559603 -0.0064670225 -0.06999621 -0.52399874 -0.009187043 -0.26063487
-0.13707049 -0.28536642 -1.0739782 -0.5115076 -0.19654444 -1.076036 -0.21171543 -0.9429252
-0.22539333 -0.26130453 -0.345662 -0.4059875 -0.447405 -0.5375421 -1.2132809 -0.9131856
-0.22663991 -0.32231295 -0.3526067 -0.38071507 -0.24724394 -0.399646 -1.2460212 -0.41738182
-0.45134082 -0.4436099 -0.46094805 -0.87288344 -0.5373946 -0.3409017 -1.1343814 -0.25651592
-0.915957 -0.27070984 -0.32407025 -0.35321748 -0.23188533 -0.26856574 -0.13054815 -0.8099835
-1.1472316 -0.3361273 -0.33411196 -0.15982543 -0.47640428 -0.4075127 -0.43189737 -0.78828037
-0.5059413 -0.06422529 0.28205317 0.255148 -0.43865097 0.06713993 0.112600185 -0.29229057
0.22425096 -0.3232112 0.1427622 0.2304026 0.07315289 0.2803513 0.04572576 0.35986945
-0.50251096 -0.4125505 0.26382956 0.22685929 0.15900573 0.22492777 0.018404502 0.26999596
-0.40461254 0.18867171 -0.27460784 -0.15358399 -0.43570077 -0.53828675 -0.38858986 -0.21666557
00000000: 423c c1be ba78 b3be 3268 a0be 7aa6 95bf
00000010: 617a d8be 489c e4be fc12 6abf 6fee 4bbe
00000020: 9276 80bf 4e4c c7be 7a23 d3be 8da4 71be
00000030: 8934 35be e82c d8be 1738 89be a514 93bf
00000040: a014 94bf 8ef0 a0be 0c54 adbe 86a5 16be
00000050: 1f63 c2be d30b 8abe 70d7 8abe 19b0 96bf
00000060: 611e ecbe 2caf 73be 899c afbe 8eb7 46be
00000070: 42c2 06bf f75f e1be b491 65be 0457 83be
00000080: d613 aabe 22e7 03bf b9ad aebe 78f2 76be
00000090: 9cd4 0dbc 90df 16be cd90 a6be 8a64 81be
000000a0: 583e b5be 2456 04bf affc 58be c158 94be
000000b0: d5bd babe a3e8 c6be bfb9 debe b985 44be
000000c0: 39b6 ecbe 9852 c3be 0203 bb3c ce2f 26be
000000d0: 4209 60bc ee6d 49be 8f6e b9bd e168 0ebe
000000e0: 8639 10bf 8b2a 443e aa59 85be ce5a 37bc
000000f0: 5d03 0fbe 44b9 0e3d fb72 783e d9e1 1dbe
00000100: 0138 5f3e e62f 9fbe 39ec 63be 2dc4 00be
00000110: f8c2 fe3d c5b7 26bd 345c 543d 88ea 643e
00000120: 08c3 283e b8ed a6be d446 6b3e 2f3b a6bd
00000130: ddea c6bc f7d9 aabe f485 ddbe 6db4 f5bd
00000140: b91a 88bd 30fd abbe 44b4 b6be eb00 c5be
00000150: 5ecf 75be 909d 90be c2a5 97be b33b cbbe
00000160: 83f2 c7be 6b33 b8be a3c0 f6be 2163 bfbe
00000170: 925e 93bd 1c32 bcbe 60a5 93be ec7a 39bd
00000180: a67e d0be 6a00 e7be 9445 95be c9f4 84be
00000190: 68ce 88be 7449 3e3e ed21 a73e 5f22 ffbe
000001a0: ca9b 7a3e bbfd 9b3d c2a6 a5be 5528 973e
000001b0: cccb 95be b329 b13e 45ba c13e 7d23 573e
000001c0: 8681 253e e6a2 913d 0185 cf3e db3a a0be
000001d0: 069e c4bd 5302 a03e d9c0 c03e 259f 373c
000001e0: 54fb 573e 0ef4 673c 5b0f a03e 7182 0abf
000001f0: 8e35 dc3e 1f69 d7bd 1c1d abbe 5f2e 49be
00000200: 6d36 55bf efb4 07be 7594 cfbe 4df5 52bf
00000210: 7b16 4dbe 117c 7fbf 6114 dbbe f09d b8be
00000220: 81e5 b3be 096f b1be 98d0 31be 99c6 fabe
00000230: 491f 68bf d71b 7dbf d194 b4be 04e5 e1be
00000240: 8732 8ebe 1590 c1be 2cc7 94be 2aca bbbe
00000250: 5b29 74bf da1b b3be faf8 28bd c433 98be
00000260: 82f9 b6bd 2e91 a1be c827 f1bd 3bc4 743d
00000270: 7bb5 0bbf 0cd2 37be a145 cebe 6897 b33d
00000280: 2aee 913d c23a 1dbe 5c1d 5dbd 909a cb3d
00000290: c22c 14be 5b6b ebbe dafe 90be 8d05 a33c
000002a0: 5f6d 0fbe c9e6 2fbe bd48 573d 51e9 d3bb
000002b0: 2c5a 8fbd c824 06bf 4085 16bc ef71 85be
000002c0: 355c 0cbe 8c1b 92be 1e78 89bf 29f2 02bf
000002d0: f242 49be 8cbb 89bf eecb 58be 8c63 71bf
000002e0: 82cd 66be b5c9 85be 9cfa b0be 98dd cfbe
000002f0: 4512 e5be 5c9c 09bf ca4c 9bbf 88c6 69bf
00000300: 4b14 68be 3406 a5be de88 b4be 16ed c2be
00000310: 842d 7dbe 679e ccbe 9f7d 9fbf 12b3 d5be
00000320: 2516 e7be d620 e3be 6201 ecbe 4a75 5fbf
00000330: b192 09bf ab8a aebe 6933 91bf 0e56 83be
00000340: 287c 6abf 7b9a 8abe 89ec a5be ecd8 b4be
00000350: 5973 6dbe 7381 89be 6aae 05be 145b 4fbf
00000360: 7cd8 92bf e118 acbe b910 abbe 47a9 23be
00000370: 43eb f3be 81a5 d0be a721 ddbe becc 49bf
00000380: 5e85 01bf 8d88 83bd 4669 903e c2a2 823e
00000390: dc96 e0be a980 893d ed9a e63d 1ca7 95be
000003a0: 0ba2 653e f07b a5be 4130 123e a9ee 6b3e
000003b0: 2fd1 953d 358a 8f3e ef4a 3b3d cf40 b83e
000003c0: 8fa4 00bf d239 d3be ab14 873e cd4d 683e
000003d0: 66d2 223e 7753 663e 0ac5 963c e93c 8a3e
000003e0: 6029 cfbe 2833 413e 6699 8cbe 1f45 1dbe
000003f0: 2c14 dfbe 29cd 09bf 40f5 c6be 94dd 5dbe

linear_sigmoid_stack.6.bias f4 [25]
-0.77811944 -0.4215144 -0.4314784 -0.48526415 -0.26390836 -0.7888419 -0.23579024 -1.0650784
-0.74983895 -0.1539085 -0.6262003 -0.10277263 -0.7117131 -0.8534189 -0.8972588 -0.10139068
-0.44947174 -0.3102376 -0.9184559 -0.20237947 -0.31634155 -0.02580129 -0.28692603 -0.6479427
-0.12412807
00000000: d632 47bf bcd0 d7be bdea dcbe 8b74 f8be
00000010: ff1e 87be 8bf1 49bf ff72 71be 7d54 88bf
00000020: 72f5 3fbf 319a 1dbe aa4e 20bf 757a d2bd
00000030: d432 36bf a979 5abf c1b2 65bf eba5 cfbd
00000040: 2921 e6be 76d7 9ebe ed1f 6bbf 903c 4fbe
00000050: 85f7 a1be 3a5d d3bc f8e7 92be 93df 25bf
00000060: dc36 febd

linear_sigmoid_stack.8.weight f4 [1, 25]
0.007994646 0.0018410732 0.06365928 0.0004148351 0.13197334 0.0064802943 0.03702042 0.008128561
0.0060520614 0.12232004 0.0098152505 0.12202114 0.0066521517 0.007471831 0.006484237 0.1081125
0.07916888 -0.017908964 0.00611557 0.030375637 0.16830249 0.14007214 -0.050244916 0.0065535144
0.12954229
00000000: fafb 023c 2a50 f13a cc5f 823d 3a7e d939
00000010: 0524 073e a658 d43b b9a2 173d a82d 053c
00000020: 5f50 c63b ee82 fa3d 25d0 203c 38e6 f93d
00000030: 4bfa d93b 43d6 f43b b979 d43b 166a dd3d
00000040: 4b23 a23d d2b5 92bc 1f65 c83b 54d6 f83c
00000050: 7d57 2c3e 126f 0f3e 9dcd 4dbd ddbe d63b
00000060: bca6 043e
