Logistic/Results with additional condition/sol_w117.pt (torch_old, 15258 bytes, 7 tensors)

linear_sigmoid_stack.0.weight f4 [40, 1]
000000 ac 6b a4 3f 21 3b 9b be 19 a1 8b 3e ce 5d bb be
       1.2845359 -0.3031855 0.27271345 -0.36595005
000010 6c 91 cc be b9 8f ad be d8 79 a5 be 38 0c bf 3d
       -0.39954698 -0.33898714 -0.32319522 0.093285024
000020 3c 92 ba be 35 82 ab 3e 8e 08 9a 3e 0a 89 c3 be
       -0.36439693 0.33497778 0.30084652 -0.3819049
000030 79 fb d0 be 3b df a5 be f0 f8 90 be 50 a8 b1 be
       -0.40816858 -0.32396874 -0.28314924 -0.34698725
000040 e4 d7 78 3e 84 7e a3 be a7 c5 9f 3f c3 d6 ba be
       0.24301106 -0.3193246 1.2482194 -0.36491975
000050 bd 4b 43 40 c1 af ac be d3 cf f9 be 91 2e 9d 3e
       3.0514977 -0.3372784 -0.4879137 0.3069959
000060 c2 29 e2 3d 12 25 94 be ba 9a 8a 3e fd 87 7a 3e
       0.11043121 -0.28934532 0.27071172 0.24465938
000070 fa 35 11 bf 93 68 b9 be a7 7f aa be ac 5b 77 3e
       -0.56722987 -0.36212596 -0.33300516 0.24156064
000080 ab f3 0e bf c7 91 6f 3e 2a a5 05 3e df bd c8 3f
       -0.5584056 0.23395453 0.13051286 1.5682944
000090 72 b2 b3 be 1c 02 ae be 95 f5 b3 be c9 82 9e be
       -0.3509708 -0.33985984 -0.35148302 -0.30959156

linear_sigmoid_stack.0.bias f4 [40]
000000 4d 61 e2 bd f9 b5 52 3f 48 b1 10 c0 78 aa 11 40
       -0.11053715 0.8230892 -2.2608204 2.2760296
000010 00 52 30 40 22 c4 d3 3f b4 64 a4 3f 5f 89 d7 bf
       2.755005 1.654423 1.2843232 -1.6838797
000020 51 3b 09 40 19 be 34 c0 31 8e 21 c0 bd aa 22 40
       2.1442454 -2.8241026 -2.5243037 2.541671
000030 cb 8f 36 40 df 0b a1 3f c8 66 10 3f 25 a1 ba 3f
       2.8525264 1.2581748 0.5640683 1.4580427
000040 ed 93 0a c0 80 da 9c 3f 02 c0 b1 be f6 d1 02 40
       -2.1652787 1.2254181 -0.34716803 2.044065
000050 a2 eb 3d 3e ff cf d0 3f 70 8e 3c be 94 19 28 c0
       0.18546918 1.6313475 -0.1841371 -2.6265612
000060 fd b2 eb bf fc 7a 57 bf ce 6c 0f c0 94 15 03 c0
       -1.8413998 -0.84172034 -2.241016 -2.048192
000070 51 c8 f1 3e c7 63 0b 40 3d e3 62 bf b7 cc fc bf
       0.47223142 2.177965 -0.8862799 -1.9749974
000080 5e ca 70 3e 44 f8 0d c0 bc c5 ec bf c6 e6 17 be
       0.23514697 -2.218278 -1.8497844 -0.14834127
000090 00 ae df 3f fe e2 c9 3f a5 5a f6 3f 6f 26 88 3f
       1.7474976 1.5772398 1.9246413 1.0636729

linear_sigmoid_stack.2.weight f4 [40, 40]
000000 41 15 7e be de 59 a2 bf f0 93 af 3e f5 aa a6 bf
       -0.24812795 -1.2683675 0.34292555 -1.3020922
000010 2b 95 d7 bf cd 6b b0 bf 5f 67 93 bf 51 cc f4 3d
       -1.6842397 -1.3782898 -1.1515921 0.11953033
000020 e6 99 b8 bf d6 a7 41 3f 9d d6 c1 3e 29 e8 be bf
       -1.4421966 0.7564672 0.3785905 -1.49146
000030 19 3f c9 bf 4b dd 9c bf 7e bb a0 bf 96 59 b2 bf
       -1.5722381 -1.2255033 -1.2557218 -1.393359
000040 86 a4 7a 3e 49 92 82 bf 25 39 cf be c8 41 a2 bf
       0.24476823 -1.0200893 -0.40473285 -1.2676325
000050 18 21 06 bf d0 19 be bf ad 85 fa be 16 ff 11 3f
       -0.5239425 -1.4851627 -0.48930112 0.57029855
000060 80 50 6d 3d b6 48 a9 be b8 f3 e3 3e a1 cc 78 3e
       0.0579381 -0.33063287 0.4452188 0.2429681
000070 97 84 27 bf 0f 26 ac bf 84 6b 8e be 7a 8c bc 3e
       -0.6543669 -1.3449115 -0.27816403 0.36825925
000080 b2 42 00 bf 7d f8 b0 3e 40 ed 5b 3e 44 ed 1c bf
       -0.5010177 0.34564582 0.21477222 -0.6129954
000090 88 1b b8 bf 44 5e b2 bf 9c b5 bd bf aa d4 92 bf
       -1.4383402 -1.3935018 -1.4821048 -1.147115
0000a0 d1 d8 67 3d 81 48 48 bf 38 d6 dd 3e ce ed 9e bf
       0.056603257 -0.7823563 0.43327498 -1.2416322
0000b0 3d a4 8b bf 37 32 7e bf 9b e4 71 bf f3 58 eb 3c
       -1.0909497 -0.9929537 -0.9448945 0.028728938
0000c0 b9 c1 73 bf 42 1b 01 3f 9f da 93 3e fc 44 a8 bf
       -0.9521747 0.5043222 0.28877732 -1.3146052
0000d0 dc 22 a5 bf b9 fa 37 bf b5 1a 1d bf 86 9c 51 bf
       -1.2901263 -0.7186695 -0.61368877 -0.8187946
0000e0 04 d2 45 3e 2c ef 39 bf 83 7d 8d 3e 22 e3 83 bf
       0.19318396 -0.7263057 0.2763482 -1.030369
0000f0 31 a5 41 3e 2c 87 72 bf 1a 14 45 3e 10 fe ad 3e
       0.18910672 -0.94737506 0.1924595 0.33982897
000100 73 dc 0d 3e 75 30 1a 3e b0 38 bc 3e fa b6 8c 3e
       0.13853626 0.15057547 0.36762 0.2748335
000110 6a 50 3c 3e 32 ca 82 bf b7 72 92 3e 02 b2 c8 3d
       0.1839005 -1.0217955 0.28603145 0.09799577
000120 8e 36 85 bc 53 09 d8 3e 2f f7 b6 3e 17 93 9f 3d
       -0.016261365 0.42194614 0.3573546 0.07791727
000130 4f f1 91 bf 70 0d 50 bf f4 f9 54 bf 78 e9 61 bf
       -1.1401767 -0.81270504 -0.831939 -0.8824687
000140 d4 7a 02 bf 6e 84 83 be 25 26 87 be 11 2e a9 be
       -0.5096867 -0.25686973 -0.2639629 -0.33042958
000150 73 4d 9b be f7 3e e9 be 9e e7 ab be 32 c1 b3 be
       -0.30332527 -0.4555585 -0.33575147 -0.35108334
000160 4c 42 68 be e6 99 a9 bd 98 95 90 bd a9 1f a3 be
       -0.2268154 -0.08281307 -0.07059783 -0.31860092
000170 91 3f 7c be 29 3a 89 be 0f 7e bf be 4b b1 a4 be
       -0.24633624 -0.26802185 -0.37400863 -0.32166514
000180 b7 c3 97 be ca bc 82 be 48 cb d5 be 05 6d c3 be
       -0.29641506 -0.2553466 -0.41756654 -0.38169113
000190 da 09 b5 be 87 19 87 be 1d 29 11 be d8 6f 9b bd
       -0.3535908 -0.26386663 -0.1417584 -0.07589692
0001a0 7a 8b 99 be 43 b8 5e be 5e d0 98 be b3 cd d1 bd
       -0.29989225 -0.21749978 -0.29846472 -0.10244312
0001b0 1b 3a d7 3c 14 ea 83 be e8 bc c0 bd 00 48 31 bd
       0.026272824 -0.25764525 -0.09411031 -0.043281555
0001c0 4c 95 02 bc 02 ff ab be dc e7 42 be 2a d9 05 bf
       -0.007970165 -0.33592993 -0.1903376 -0.5228449
0001d0 36 db 88 be b8 ea b0 be d0 15 95 be c4 1d d5 be
       -0.26729745 -0.34554076 -0.29118204 -0.41624272
0001e0 1b 8d a9 be 98 e3 63 bf 3a 3e 91 3e 8a 07 a7 bf
       -0.33115467 -0.89019156 0.28367788 -1.3049176
0001f0 c1 21 d2 bf 3c 29 a2 bf 0b 8f 93 bf ab b1 8a bc
       -1.6416551 -1.2668834 -1.1528028 -0.016930422
000200 81 f7 a9 bf 57 2f 29 3f e4 f6 c6 3e bb b6 9f bf
       -1.3278657 0.6608786 0.38860238 -1.247764
000210 be 10 cf bf b5 39 77 bf 82 38 73 bf ef 77 9a bf
       -1.6176984 -0.9657243 -0.950081 -1.2067851
000220 b7 6a be 3e df 7d 7e bf bf 12 ed be 12 32 ab bf
       0.37190792 -0.99410814 -0.46303365 -1.3374655
000230 71 41 d0 be 9a dc 9b bf 0e 97 e5 be f1 15 f6 3e
       -0.40674928 -1.2176697 -0.44841808 0.48063615
000240 e7 69 67 3d 9f 7a a1 be 70 a2 93 3e e3 58 2f 3e
       0.05649748 -0.31538865 0.28834867 0.17123751
000250 28 34 26 bf d1 d4 b4 bf f5 d3 b3 be fe ce 6f 3e
       -0.64923334 -1.4127446 -0.35122648 0.23418805
000260 35 e8 cd be a1 9f d2 3e 85 73 89 3e b6 5a e2 be
       -0.40216222 0.41137412 0.26845947 -0.44209832
000270 fd 6b 96 bf 01 7d 9f bf 64 90 94 bf 92 d8 91 bf
       -1.1751705 -1.2460023 -1.1606565 -1.1394217
000280 67 06 fd be 11 39 79 be 80 71 4a be e6 0b 10 be
       -0.49418947 -0.24338175 -0.1976986 -0.14067039
000290 58 23 95 be 10 ac a4 bd 1e 6a 92 be f8 c3 ab be
       -0.29128528 -0.08040631 -0.28596586 -0.3354795
0002a0 33 be 89 be cb 56 f4 3d 91 1f 80 bc 43 68 89 bd
       -0.26902923 0.11930617 -0.015640052 -0.067093395
0002b0 41 49 9d be ae 4b 63 bd 12 f8 aa be a7 9c f3 bd
       -0.3071995 -0.055492096 -0.33392388 -0.118951134
0002c0 a1 5c 6e bd ab 28 80 bd 2f a7 11 bf 4f b9 88 be
       -0.058193807 -0.06257757 -0.56895727 -0.2670388
0002d0 74 8b 0e bf 9e bf 2c bd 90 6c 4e bd 80 28 44 be
       -0.5568154 -0.042174928 -0.050396502 -0.19156075
0002e0 e2 6b 28 be ed f3 99 bd 6f da ae bd 80 6e 5f be
       -0.16447404 -0.07517228 -0.08537757 -0.21819496
0002f0 ba d2 e8 bd bf 12 91 bd 53 e3 68 be 21 aa 16 be
       -0.11368318 -0.07083654 -0.22742967 -0.14713337
000300 5a ad c9 bd 66 3c e3 bc a6 9b 8e be 49 04 12 bf
       -0.09847517 -0.027738761 -0.27853125 -0.5703779
000310 81 7c 96 be b5 d1 98 be cc 2a 03 be 40 65 b6 bd
       -0.29391864 -0.29847494 -0.12809294 -0.08906031
000320 5a 9e 35 3e 85 ca 97 3f 16 e6 0f bf 28 23 86 3f
       0.17736188 1.1858679 -0.5621046 1.0479479
000330 22 a4 ac 3f 9a d3 99 3f b3 ff 81 3f a5 88 88 be
       1.3487589 1.2017701 1.0156158 -0.26666752
000340 95 03 b6 3f e0 2a 39 bf ee 8a 0c bf fb 53 8c 3f
       1.4219843 -0.7233105 -0.5489949 1.0963129
000350 34 c7 af 3f 5a 10 8e 3f 00 25 83 3f 1b e4 a7 3f
       1.3732667 1.109874 1.0245667 1.3116487
000360 2a b7 f2 be df f5 99 3f 96 59 df 3d 09 2b af 3f
       -0.47405368 1.2028159 0.10905759 1.3685008
000370 08 1d 91 3e 22 a2 9c 3f d1 9e c5 3e 29 02 f4 be
       0.28342462 1.2236979 0.3859773 -0.47657898
000380 79 58 82 be 9d ee 4f 3e 0f 99 ea be 7d ca 00 bf
       -0.25458124 0.20305867 -0.458199 -0.5030897
000390 f8 8e 19 3f 9f d3 94 3f d8 df c2 3e 05 64 00 bf
       0.5998378 1.1627082 0.38061404 -0.5015262
0003a0 6d 39 e4 3e e1 6f ca be f4 cc 29 be 43 fb ae 3e
       0.44575062 -0.39538482 -0.1658209 0.34176072
0003b0 b2 17 8e 3f b4 a4 ab 3f 68 7b b0 3f 89 ff 7b 3f
       1.1100981 1.3409638 1.3787661 0.9843679
0003c0 8e 9c a7 be 97 16 4f bf 00 20 56 3e 6c 57 7a bf
       -0.3273663 -0.80893844 0.20910645 -0.97789645
0003d0 33 d4 a4 bf c8 00 85 bf 16 0e 65 bf 35 0d f9 bd
       -1.2877258 -1.0390863 -0.8947462 -0.12160722
0003e0 fb b2 86 bf 86 c5 79 3e ce 7b a3 3e b3 49 5c bf
       -1.052337 0.24391755 0.31930393 -0.86049956
0003f0 46 bf ad bf 2f ae 7b bf b4 c3 44 bf ff c9 5a bf
       -1.3573997 -0.9831266 -0.7686112 -0.8546447

linear_sigmoid_stack.2.bias f4 [40]
000000 65 b3 cd be 4c 11 c6 be 1f 7c c2 be f6 b2 06 bf
       -0.4017593 -0.3868507 -0.37985322 -0.5261682
000010 90 10 4e be 74 6f 7b bc 29 d3 a8 be 78 57 bd be
       -0.20123506 -0.015346397 -0.32973602 -0.36980796
000020 73 4a 11 bf da df af 3e cd f4 e5 be ea 84 01 bf
       -0.56754225 0.34350473 -0.4491333 -0.50593436
000030 bc 42 88 be 64 07 e4 be dc 1c b1 be 77 68 0a bf
       -0.26613414 -0.4453689 -0.3459233 -0.5406565
000040 6f db c6 be e2 7f ec be ac f1 0a bf ef 74 ff be
       -0.3883929 -0.46191317 -0.5427501 -0.498939
000050 f7 46 16 3e 31 45 09 bf 47 ae 00 bf 2b 4f 01 bf
       0.14675508 -0.536212 -0.50265926 -0.50511426
000060 b0 9c bb be 2e 8e f1 be 78 9c fe bd 03 c0 d7 be
       -0.3664298 -0.47178787 -0.12432188 -0.4213868
000070 fb 46 13 bf e7 91 c8 3e d2 fa dc be 81 a6 37 bd
       -0.5753018 0.39173815 -0.4316011 -0.044836525
000080 5f 81 88 be af 3c c9 be f4 97 4b be 04 60 77 3e
       -0.26661202 -0.3930411 -0.19882184 0.24157721
000090 c9 7e 81 be 65 f4 08 be 37 35 9a be 51 a9 10 bf
       -0.25292042 -0.13374479 -0.30118725 -0.56508356

linear_sigmoid_stack.4.weight f4 [40, 40]
000000 37 e4 0d 3e aa f9 9f be cb 93 74 3c 2b 73 01 be
       0.13856588 -0.31245166 0.014927815 -0.1264159
000010 5c 57 fd 3c 69 50 45 bf a5 72 35 be c4 10 eb bd
       0.030925445 -0.7707582 -0.17719515 -0.11477807
000020 d5 f3 82 3e b7 f4 8f bf 77 60 c3 3e 7e 2f 9f 3e
       0.25576654 -1.1246556 0.38159534 0.3109092
000030 79 29 e8 bd 3f 86 14 be 97 35 11 be 75 0a 92 bd
       -0.11336035 -0.14504336 -0.14180599 -0.07130901
000040 30 de c8 3d 3f e6 53 bd 01 b3 3d be c0 78 8f be
       0.09808004 -0.05173325 -0.18525316 -0.28021812
000050 24 f7 52 bf 19 f4 36 be 74 4e 2e be 5b 2b 92 3d
       -0.82408357 -0.17866553 -0.17022115 0.07137176
000060 b4 4e 14 be d2 b9 d5 be 58 d3 19 bf a9 b4 19 be
       -0.14483148 -0.41743332 -0.6008811 -0.15010323
000070 8c b2 2b be e5 6f 09 bf fa 33 11 be 28 7b 12 bf
       -0.16767329 -0.5368636 -0.14179984 -0.5721917
000080 a6 ff 2d be 75 cd a8 bc b4 83 ee bd f9 8c 28 bf
       -0.16992053 -0.020605782 -0.11646214 -0.6584011
000090 21 49 39 bf fe 9a 6a be 60 92 27 be e1 b7 f3 bd
       -0.7237721 -0.22910687 -0.16364431 -0.119003065
0000a0 7f 47 8e bf 82 80 1f bf 3e 13 30 bd af a2 51 bf
       -1.1115569 -0.6230546 -0.0429871 -0.8188886
0000b0 76 34 51 be aa 80 0f bf c7 90 f8 be b4 ec c8 bd
       -0.20430169 -0.560557 -0.48547956 -0.098107725
0000c0 73 2d 6e bf 40 13 26 bf e1 af 99 bf 16 9a 6c bf
       -0.930381 -0.64873123 -1.2006799 -0.92422616
0000d0 6f 97 3f be fd 2b af be a2 26 41 be c0 cd 3a be
       -0.18710111 -0.34213248 -0.18862393 -0.1824255
0000e0 f4 53 a6 be 17 bc bd be e0 c7 8c bf 3a 62 6a bf
       -0.32485926 -0.37057564 -1.0998497 -0.9155613
0000f0 47 a5 d8 be f2 75 2f bf 17 dd 42 bf 8d da 91 bf
       -0.42313597 -0.68539345 -0.76118606 -1.1394821
000100 a9 b7 6e bf c4 84 c6 be 50 db 1b bf 69 d8 67 be
       -0.93248993 -0.38773167 -0.6088152 -0.22641148
000110 4f 5c fe be bc ef 57 bf c5 24 cd be cf b1 15 bf
       -0.496798 -0.8435018 -0.40067115 -0.5847444
000120 3f 08 15 be de 1b 1f bf 47 46 fb bd 89 d9 72 bf
       -0.14553927 -0.62151897 -0.12269264 -0.9486318
000130 27 b2 0c bf 78 fe 55 be 1d 1a ad be 6f 2a 08 bf
       -0.5495934 -0.20897853 -0.33808985 -0.5318975
000140 d4 f2 ad bf 36 90 6a bf 3e a1 a8 be 97 06 aa bf
       -1.358973 -0.916263 -0.32935518 -1.3283261
000150 3e 43 f9 be 0b fc 81 be 0c 6e 69 bf 3f 47 9f be
       -0.48684114 -0.25387606 -0.91183543 -0.31109044
000160 ee 10 92 bf c2 e3 96 be 69 0b b5 bf 6d 1c 91 bf
       -1.1411417 -0.2947064 -1.4144107 -1.13368
000170 28 3f da be 3c 7f 07 bf f1 37 2f bf db 01 ad be
       -0.4262631 -0.5292852 -0.68444735 -0.33790478
000180 8f 8c b5 be b8 22 2d bf e2 f3 ab bf 9d 22 9b bf
       -0.354588 -0.676311 -1.3433802 -1.2119938
000190 11 e8 a2 3a 04 c5 6c bf 70 01 89 bf 38 b8 b8 bf
       0.001242878 -0.9248812 -1.0703564 -1.4431219
0001a0 5b f5 97 bf ef 82 3e bf f3 9a 65 bf e0 f3 71 bf
       -1.1871752 -0.7441854 -0.8968956 -0.9451275
0001b0 4b bf 31 bf a2 52 5a bf 98 fa f6 be a7 d3 e5 bd
       -0.69432515 -0.8528234 -0.48238063 -0.1122201
0001c0 f7 b8 14 bf b4 b4 8f bf 53 d0 15 bf 2c a8 1f bf
       -0.58094734 -1.1227021 -0.58521 -0.62365985
0001d0 de 27 1d be e3 af f1 be fd ab e1 be 05 7b 4c bf
       -0.1534724 -0.47204503 -0.4407653 -0.7987521
0001e0 4d fe 4f be db 27 a6 bf 23 1b 9b be 77 91 a5 be
       -0.20311852 -1.2980913 -0.3029414 -0.32337543
0001f0 25 7f ac bd d6 fc 89 bf d7 8f e6 be 56 f3 82 bd
       -0.084226884 -1.0780284 -0.45031616 -0.06394069
000200 ae df b0 be 5d f5 a8 bf fb e7 a7 bd 34 cd 50 be
       -0.34545654 -1.3199879 -0.08198544 -0.20390779
000210 60 e9 2f be 7a 5b 18 be 93 63 ed bd ee 39 2b be
       -0.17178869 -0.14878646 -0.11591258 -0.16721317
000220 54 2f 78 be df c0 95 be 86 f1 75 be 18 8b a7 be
       -0.24236804 -0.2924871 -0.24017915 -0.32723308
000230 ca cf 32 bf dc 7d 98 be 7f fd c6 be 3f d2 bb be
       -0.6984831 -0.29783523 -0.38865277 -0.36683843
000240 db fa e4 be 85 d4 c4 be 12 d4 ae be 8e fb 88 be
       -0.44722638 -0.3844339 -0.34146172 -0.2675442
000250 d3 22 44 be 3a bf 86 bf 33 f4 b9 bd 09 9b 0e bf
       -0.1915391 -1.0527108 -0.090797804 -0.55705315
000260 2b ef 66 be 37 ef 50 be 13 6f 91 be 54 7c 82 bf
       -0.22552173 -0.20403753 -0.28405055 -1.0194192
000270 0c 46 69 bf 60 20 9d bd 4f 43 44 be f4 72 cb bd
       -0.9112251 -0.07672191 -0.19166301 -0.09934035
000280 02 e8 ff be d0 e6 5d bf 5b d9 e2 bd 40 29 1c bf
       -0.49981695 -0.86680317 -0.110766135 -0.6100044
000290 d8 47 83 be db 56 7c bf ba 19 b7 be cf 84 64 3d
       -0.2564075 -0.9857003 -0.35761815 0.05579072
0002a0 49 a8 01 bf 06 84 39 bf 8e b7 f3 be bb b7 27 bf
       -0.5064741 -0.72467077 -0.4760098 -0.65514725
0002b0 0f 20 c0 bd ec 9e a9 bd ff cf 79 be 79 82 66 be
       -0.09381115 -0.08282265 -0.2439575 -0.22510709
0002c0 29 b2 44 3d ef bd 33 be b1 9a 22 bf 15 07 93 be
       0.04802147 -0.17552923 -0.6351729 -0.2871634
0002d0 94 2d 3b bf 9c 6e 2c be 62 43 a0 be 9c 61 01 bf
       -0.7311642 -0.16839069 -0.3130141 -0.50539565
0002e0 d6 68 96 be 85 f2 05 be 11 f3 88 be 81 8b 92 be
       -0.29376858 -0.13080795 -0.26747945 -0.28622058
0002f0 ae 47 a5 be 4f 3c 8e bf c7 0b 8a be 62 a8 48 bf
       -0.3228125 -1.1112155 -0.2696211 -0.7838193
000300 e3 ac 91 bd 71 cd a1 be 3e 47 2a bc 0a 98 94 bf
       -0.07113054 -0.31602052 -0.010392962 -1.1608899
000310 8f 63 6d bf 21 96 1a bc 41 22 53 be 7f 89 a0 be
       -0.9273004 -0.009435208 -0.20618536 -0.313549
000320 28 6e 18 bf dd 48 7d bf ed 0e 59 be d7 55 00 bf
       -0.59543085 -0.98939306 -0.211971 -0.5013098
000330 e5 b0 7d bd 5a cb 41 bf e2 a2 76 be a7 e5 1e bd
       -0.061936278 -0.75700915 -0.24085572 -0.038793232
000340 a1 56 10 bf 8d f4 61 bf 9b 41 24 bf 00 fa 13 bf
       -0.56382185 -0.8826378 -0.64162606 -0.57803345
000350 ec 12 7c bd b0 90 b9 bd 0a ed 36 3d a5 d6 2f be
       -0.061541483 -0.090608 0.04465965 -0.17171724
000360 34 2d bf bd 42 89 03 be 70 3f 16 bf 6b 76 a8 be
       -0.09334794 -0.12845328 -0.5869055 -0.32902846
000370 2c 43 2c bf 4f 07 70 be ab 13 e1 be 51 22 f2 be
       -0.67289996 -0.23440288 -0.43960318 -0.47291806
000380 ea c6 98 be 13 b4 8c be 0f d6 85 be 5d ce 83 be
       -0.2983926 -0.27481136 -0.26139876 -0.2574338
000390 78 d5 af be c1 a4 9b bf e4 41 1c be fb ec 5c bf
       -0.3434255 -1.2159654 -0.1525951 -0.86299103
0003a0 99 d8 38 be 24 ed da be fe b0 4a be 27 72 89 bf
       -0.18051375 -0.4275905 -0.1979408 -1.0737962
0003b0 17 3e 42 bf c1 9a 4f be c9 1a 1b 3d 5a 95 08 be
       -0.7587599 -0.20273878 0.03786734 -0.13338223
0003c0 4e 28 92 bf f0 58 34 bf 1b 19 ec be 8f 6d 91 bf
       -1.141855 -0.7044821 -0.46112904 -1.136156
0003d0 a2 3f 22 bf be e3 76 3e 76 69 63 bf 0f c6 a7 be
       -0.63378346 0.24110314 -0.88832796 -0.32768294
0003e0 48 8a a2 bf 46 37 f1 3e 5e fb 9d bf 3b 10 8b bf
       -1.269845 0.47112483 -1.2342336 -1.0864328
0003f0 83 5d f2 be 46 d3 1e bf 53 94 15 bf 38 80 b4 be
       -0.4733697 -0.6204113 -0.5842945 -0.35254073

linear_sigmoid_stack.4.bias f4 [40]
000000 7a 78 27 bf d9 33 76 bf f3 7b 40 bf 7b ae 7b bf
       -0.6541821 -0.96172863 -0.7518913 -0.9831311
000010 0d b6 89 bf 87 a0 7a bf 38 a8 a5 bd a0 2c 7e bf
       -1.0758682 -0.97901195 -0.08088726 -0.9928684
000020 f4 a6 63 bf 5f 6a 82 bf 1e 7a a4 be 20 aa dc be
       -0.88926625 -1.0188712 -0.32124418 -0.43098545
000030 e0 01 4e bf ac b0 9b bf 26 f3 8b bf 91 e7 76 bf
       -0.8047161 -1.2163291 -1.0933578 -0.9644709
000040 0a 19 5b bf 3b be 82 bf 6a 06 4e bf bb 46 69 bf
       -0.8558508 -1.0214304 -0.8047854 -0.9112355
000050 27 44 7d bf 50 f4 a2 bf 9f 96 87 bf 0b ee 79 bf
       -0.9893212 -1.2730808 -1.0592841 -0.9762885
000060 19 10 7b bf af 9c 9a bf 0a 98 72 bf 6f 1c 80 bf
       -0.9807144 -1.2079066 -0.94763243 -1.0008677
000070 e3 04 88 bf 35 b5 89 bf 53 8f f9 bd 04 fe 82 bf
       -1.0626491 -1.0758425 -0.1218554 -1.023377
000080 f7 0a 87 bf 52 03 91 bf c1 5f 7f bf 85 34 84 bf
       -1.0550221 -1.1329138 -0.99755484 -1.0328528
000090 a1 e2 a2 bf 90 5a cd be 5d d8 8e bf be 92 a5 bf
       -1.2725412 -0.40108156 -1.1159779 -1.2935407

linear_sigmoid_stack.6.weight f4 [1, 40]
000000 61 29 92 3d 93 6b c7 bd a5 1d 2c be 28 30 51 3d
       0.07136799 -0.09737315 -0.16808183 0.051071316
000010 f5 e1 61 3c 85 ed ae 3b e1 f2 92 be ea 51 4b 3d
       0.0137867825 0.005338373 -0.28700927 0.049638666
000020 ce 1b 8e bd 0c 8c cd 3b 9f 02 22 3e 4b 93 9b 3e
       -0.06938897 0.0062727984 0.15821312 0.30385813
000030 f7 a2 c1 3c 8d 12 1d bd 67 26 ed 3c 36 e8 8b bd
       0.023637278 -0.03834777 0.028948976 -0.068314
000040 c8 24 d1 bd 8c ed c5 3c 9b 99 8e 3d 07 92 66 3d
       -0.102120936 0.024161123 0.06962892 0.056291606
000050 d5 1a 10 bd 02 10 5e 3c 32 c3 a7 3d 30 2e 43 bd
       -0.03518184 0.013553621 0.081915274 -0.04765147
000060 b7 e5 36 3d e3 59 57 bd c1 ee 14 be 50 ea b1 3c
       0.044652667 -0.052575957 -0.14544202 0.021718174
000070 3d 98 99 3d 5e ae 9f bd 27 57 f9 3e 61 f6 20 3d
       0.0749974 -0.0779693 0.48699304 0.039297465
000080 a8 98 7d 3b 27 30 21 bd 9c ab e4 3b e8 0e 39 3d
       0.0038695727 -0.039352562 0.0069784652 0.04518023
000090 09 6b df 3a 41 ab 03 3f 86 52 04 bc 09 b7 c2 3c
       0.0017045449 0.5143319 -0.008076316 0.023768919
