Logistic/Results with additional condition/sol_w86.pt (torch_old, 15258 bytes, 7 tensors)

linear_sigmoid_stack.0.weight f4 [40, 1]
0	0x3fb26390	1.3936634
1	0xbeb3961a	-0.35075456
2	0x3e855f7e	0.26049417
3	0xbeb8c854	-0.36090338
4	0xbec4dddd	-0.38450518
5	0xbeaae7f2	-0.33380085
6	0xbead4c80	-0.33847427
7	0x3dc56e8f	0.09640228
8	0xbeb78da9	-0.35850266
9	0x3e9c4c0a	0.30526763
10	0x3e8b288d	0.27179375
11	0xbebd8194	-0.37012923
12	0xbec7e425	-0.39041248
13	0xbea8a459	-0.32937887
14	0xbe936131	-0.2878509
15	0xbeb720a3	-0.35767087
16	0x3e61daf0	0.22056174
17	0xbea92fa7	-0.33044168
18	0x3fb481ad	1.4102074
19	0xbeb7826e	-0.35841697
20	0x4034d607	2.8255632
21	0xbea8f14a	-0.3299659
22	0xbed67fa8	-0.4189427
23	0x3e8cda76	0.27510422
24	0x3e12b204	0.1432572
25	0xbe98a925	-0.29816547
26	0x3e7f4358	0.24928033
27	0x3e618231	0.2202232
28	0xbee2bba5	-0.44283786
29	0xbeb43757	-0.3519847
30	0xbea809d3	-0.32819995
31	0x3e589bb3	0.21153145
32	0xbee90ab4	-0.45515978
33	0x3e6cc659	0.23122539
34	0x3e2bfd97	0.16795956
35	0x3fd70057	1.6796979
36	0xbeb55ab5	-0.35420766
37	0xbeaefe46	-0.3417837
38	0xbead01f5	-0.33790556
39	0xbea6813a	-0.32520467

linear_sigmoid_stack.0.bias f4 [40]
0	0xbd62a994	-0.055337504
1	0x3f54669d	0.82969075
2	0xc010d911	-2.2632487
3	0x4012e0b0	2.2949638
4	0x4031ccb5	2.7781193
5	0x3fd664bb	1.674949
6	0x3fa6b25d	1.3023182
7	0xbfd6c788	-1.6779642
8	0x400aa94d	2.1665833
9	0xc0355111	-2.833073
10	0xc021c186	-2.5274367
11	0x40240db4	2.5633364
12	0x40387e89	2.882723
13	0x3fa2a91a	1.2707856
14	0x3f12ce50	0.5734606
15	0x3fbcd578	1.4752645
16	0xc00a876d	-2.1645157
17	0x3f9daa7e	1.2317655
18	0xbe8575bf	-0.26066396
19	0x40041a3e	2.0641017
20	0xbd95c51e	-0.07312988
21	0x3fd2b7d0	1.6462345
22	0xbe4eef0a	-0.20208374
23	0xc0284b93	-2.6296127
24	0xbfeaac59	-1.8333846
25	0xbf565906	-0.8372959
26	0xc00f71f2	-2.2413297
27	0xc00309cf	-2.0474737
28	0x3eeb41d0	0.45948648
29	0x400cc021	2.1992266
30	0xbf639d2b	-0.88911694
31	0xbffccaa5	-1.9749342
32	0x3e6040bd	0.21899696
33	0xc00dc463	-2.2151115
34	0xbfeb9216	-1.8403957
35	0xbe02816c	-0.12744683
36	0x3fe1a53e	1.7628553
37	0x3fccfa58	1.6013899
38	0x3ff92e54	1.9467263
39	0x3f89567a	1.0729516

linear_sigmoid_stack.2.weight f4 [40, 40]
0	0xbe6796ac	-0.2261607
1	0xbfa22542	-1.266762
2	0x3eb914b6	0.36148614
3	0xbfa66b38	-1.300147
4	0xbfd75c92	-1.6825125
5	0xbfb0312d	-1.3765007
6	0xbf93290d	-1.1496903
7	0x3e01a990	0.12662339
8	0xbfb85e00	-1.4403687
9	0x3f46c4a0	0.77643776
10	0x3ecc5b63	0.39913473
11	0xbfbea8bb	-1.4895242
12	0xbfc905c3	-1.5704883
13	0xbf9cad10	-1.2240314
14	0xbfa09687	-1.2545937
15	0xbfb223e0	-1.3917198
16	0x3e86fcb6	0.26364678
17	0xbf8264db	-1.0187029
18	0xbec3f9bd	-0.38276473
19	0xbfa209d9	-1.2659255
20	0xbf0081b6	-0.50197923
21	0xbfbde9e8	-1.4837008
22	0xbefa74b7	-0.4891717
23	0x3f174939	0.59096104
24	0x3d934b29	0.0719207
25	0xbea8f13e	-0.32996553
26	0x3eee3990	0.46528292
27	0x3e867f16	0.26268834
28	0xbf277c7e	-0.65424335
29	0xbfabea10	-1.3430805
30	0xbe8e38bd	-0.27777663
31	0x3ec69b87	0.38790533
32	0xbf003c2a	-0.50091803
33	0x3ebaea05	0.36506668
34	0x3e6e09d5	0.23245938
35	0xbf174de7	-0.59103245
36	0xbfb7e8bc	-1.43679
37	0xbfb21f61	-1.3915826
38	0xbfbd7e09	-1.4804088
39	0xbf92a246	-1.1455772
40	0x3c12b8a5	0.0089551555
41	0xbf4ae585	-0.7925647
42	0x3ecfee07	0.40611288
43	0xbfa13fc2	-1.2597582
44	0xbf8e3718	-1.1110563
45	0xbf80f584	-1.0074925
46	0xbf753413	-0.95782584
47	0x3c771310	0.015080228
48	0xbf781ba6	-0.9691719
49	0x3ef460db	0.47730145
50	0x3e853400	0.26016235
51	0xbfaac8bb	-1.3342508
52	0xbfa7c8d1	-1.3108159
53	0xbf3af6c7	-0.730328
54	0xbf1f43b4	-0.6221268
55	0xbf54d935	-0.8314393
56	0x3e2a9b8c	0.16660899
57	0xbf3cd765	-0.73766166
58	0x3e6a3106	0.22870263
59	0xbf85ef37	-1.0463628
60	0x3e10da36	0.14145741
61	0xbf7604e9	-0.9610124
62	0x3e43449d	0.19069143
63	0x3e9f8c2b	0.31161627
64	0x3df23268	0.118260205
65	0x3e16a4a8	0.14711249
66	0x3ead4f2b	0.33849463
67	0x3e7c139d	0.24616857
68	0x3e3a0f39	0.1816987
69	0xbf8503bc	-1.0391765
70	0x3e913365	0.28359523
71	0x3d8e11bc	0.06936976
72	0xbc93231e	-0.017961081
73	0x3eca2d1e	0.39487547
74	0x3eaa44fd	0.3325576
75	0x3cf7f29f	0.030267058
76	0xbf93bb4e	-1.1541536
77	0xbf53b7d6	-0.82702386
78	0xbf58fff0	-0.8476553
79	0xbf64c316	-0.8936018
80	0xbf03bf31	-0.5146361
81	0xbe84795b	-0.25873837
82	0xbe887f93	-0.2665983
83	0xbeaadd38	-0.33371902
84	0xbe9d2ebb	-0.30699715
85	0xbeeaa226	-0.45826834
86	0xbead1901	-0.3380814
87	0xbeb49339	-0.35268572
88	0xbe6b7864	-0.22995144
89	0xbdae954b	-0.08524569
90	0xbd95e4bd	-0.07319019
91	0xbea4efd6	-0.3221423
92	0xbe800b1e	-0.25008482
93	0xbe8a6332	-0.27028805
94	0xbec06558	-0.3757732
95	0xbea5e6b8	-0.32402587
96	0xbe990bee	-0.29891914
97	0xbe83e1c5	-0.25758186
98	0xbed84350	-0.42238855
99	0xbec4f534	-0.38468325
100	0xbeb766e0	-0.35820675
101	0xbe8874e9	-0.26651695
102	0xbe1227c2	-0.14272979
103	0xbda099dc	-0.07841846
104	0xbe9a9013	-0.30188045
105	0xbe5f884e	-0.2182934
106	0xbe9a35b2	-0.3011909
107	0xbdd76150	-0.10516608
108	0x3ccd9e08	0.02509977
109	0xbe858d04	-0.2608415
110	0xbdc23840	-0.09483385
111	0xbd3c77e4	-0.046012774
112	0xbc147f67	-0.009063578
113	0xbead481c	-0.33844078
114	0xbe454ec5	-0.1926833
115	0xbf0719d7	-0.52773803
116	0xbe8a3a81	-0.2699776
117	0xbeb240b9	-0.34815004
118	0xbe969926	-0.29413718
119	0xbed635cb	-0.41837916
120	0xbea0f2a9	-0.31435135
121	0xbf63baa4	-0.88956666
122	0x3e9891d3	0.29798755
123	0xbfa6f41e	-1.3043249
124	0xbfd21475	-1.6412493
125	0xbfa215b8	-1.2662878
126	0xbf937965	-1.1521422
127	0xbc38d2b3	-0.011280703
128	0xbfa9e618	-1.3273344
129	0x3f2d1b44	0.6761973
130	0x3ecee5ac	0.404096
131	0xbf9fa49f	-1.2472113
132	0xbfcf0421	-1.6173135
133	0xbf7713f6	-0.9651483
134	0xbf731988	-0.9496083
135	0xbf9a686b	-1.2063116
136	0x3ec5aa45	0.38606468
137	0xbf7e5951	-0.99355036
138	0xbee4784f	-0.44623038
139	0xbfab2269	-1.3369876
140	0xbec7a705	-0.38994613
141	0xbf9bcdad	-1.2172142
142	0xbee5975c	-0.4484204
143	0x3efe0cf0	0.49619246
144	0x3d888586	0.066660926
145	0xbea1577c	-0.31512058
146	0x3e9b62c4	0.3034879
147	0x3e3e7532	0.18599394
148	0xbf26368a	-0.6492697
149	0xbfb4c2be	-1.4121931
150	0xbeb3c40d	-0.35110512
151	0x3e7ed2c8	0.24885094
152	0xbecdeca5	-0.40219608
153	0x3eda0a59	0.4258602
154	0x3e8ffe6f	0.28123805
155	0xbed9c048	-0.4252951
156	0xbf965dc6	-1.1747367
157	0xbf9f6836	-1.2453678
158	0xbf947f5c	-1.1601367
159	0xbf91c772	-1.1388991
160	0xbf019de5	-0.5063155
161	0xbe8366d8	-0.256644
162	0xbe52adcd	-0.20574112
163	0xbe22af99	-0.15887298
164	0xbe9f1605	-0.31071487
165	0xbdc6094f	-0.09669744
166	0xbe9a15e1	-0.30094817
167	0xbeaecbb0	-0.34139776
168	0xbe92cfa5	-0.28674045
169	0x3de5b2e0	0.11215758
170	0xbcbf4845	-0.02334989
171	0xbdb0539d	-0.08609698
172	0xbea75d74	-0.32688487
173	0xbd8ff016	-0.07028215
174	0xbeb15339	-0.34633806
175	0xbe0966a5	-0.13418062
176	0xbd8702b0	-0.065923095
177	0xbd9e30c1	-0.07724143
178	0xbf146ee0	-0.5798168
179	0xbe9192bb	-0.2843226
180	0xbf10820e	-0.5644845
181	0xbd6eccee	-0.058300905
182	0xbd760c07	-0.060070064
183	0xbe4bcaf7	-0.19901644
184	0xbe2f58fd	-0.1712379
185	0xbda74798	-0.08167952
186	0xbdbfcea6	-0.09365587
187	0xbe6805ac	-0.22658414
188	0xbe00d464	-0.1258102
189	0xbdb5c9b3	-0.08876362
190	0xbe6f614b	-0.23376958
191	0xbe1f56c0	-0.15560436
192	0xbde13541	-0.109964855
193	0xbd1149a4	-0.03547062
194	0xbe9289dd	-0.28620806
195	0xbf14f8c8	-0.5819211
196	0xbe9ecfc5	-0.3101789
197	0xbea0fe83	-0.31444177
198	0xbe14b9d6	-0.14524016
199	0xbdd37d1c	-0.10326597
200	0x3e53788b	0.20651452
201	0x3f980828	1.1877489
202	0xbf0b8b87	-0.54509777
203	0x3f86dcc5	1.0536124
204	0x3fad884b	1.3557218
205	0x3f9a53c5	1.2056814
206	0x3f824eeb	1.0180334
207	0xbe821d0a	-0.2541278
208	0x3fb6a9ab	1.4270529
209	0xbf3524b2	-0.7075912
210	0xbf0900f6	-0.5351709
211	0x3f8d2a91	1.1028615
212	0x3fb0ae6a	1.3803227
213	0x3f8e71d5	1.1128489
214	0x3f837ce4	1.0272489
215	0x3fa83a3e	1.3142774
216	0xbeec6253	-0.46168765
217	0x3f9a5cd2	1.2059577
218	0x3e0d86ff	0.13821028
219	0x3fafc11e	1.373081
220	0x3ea00a1d	0.31257716
221	0x3f9d2f33	1.2280029
222	0x3ec5b4be	0.38614458
223	0xbeed320f	-0.46327254
224	0xbe7e7da7	-0.2485262
225	0x3e502adc	0.2032885
226	0xbee3294d	-0.44367447
227	0xbefae21f	-0.49000642
228	0x3f199cfa	0.6000515
229	0x3f958a2c	1.1682792
230	0x3ec2f44d	0.38077012
231	0xbefa4684	-0.48881924
232	0x3ee45476	0.4459569
233	0xbec4a440	-0.38406563
234	0xbe240e98	-0.16021192
235	0x3ebde85d	0.37091342
236	0x3f8e9501	1.1139222
237	0x3fac0c1d	1.3441197
238	0x3fb11e70	1.3837414
239	0x3f7cab2a	0.98698676
240	0xbea70017	-0.32617256
241	0xbf4f2ee2	-0.8093091
242	0x3e582221	0.21106769
243	0xbf7a866b	-0.97861356
244	0xbfa4f03a	-1.2885811
245	0xbf851320	-1.0396461
246	0xbf652d1b	-0.8952195
247	0xbdf7ed70	-0.121058345
248	0xbf86c99a	-1.0530274
249	0x3e7c0cfd	0.2461433
250	0x3ea49ca3	0.32150754
251	0xbf5c7df5	-0.86129695
252	0xbfaddc7a	-1.3582909
253	0xbf7bcac6	-0.9835628
254	0xbf44d779	-0.76891285
255	0xbf5aea80	-0.8551407

linear_sigmoid_stack.2.bias f4 [40]
0	0xbec27403	-0.37979135
1	0xbede769e	-0.43449873
2	0xbec5dfbd	-0.3864726
3	0xbf0265b5	-0.5093644
4	0xbe6a66ba	-0.2289075
5	0x3c623695	0.013806959
6	0xbea836bc	-0.3285426
7	0xbebecdb5	-0.37266317
8	0xbf08cf57	-0.53441375
9	0x3ea962d4	0.33083212
10	0xbed0f0a8	-0.40808606
11	0xbef29c35	-0.47384802
12	0xbe89c122	-0.2690516
13	0xbee4b16a	-0.44666606
14	0xbebc0819	-0.36724928
15	0xbf0c496d	-0.5479954
16	0xbec97667	-0.39348146
17	0xbeef1e13	-0.46702632
18	0xbf0666b9	-0.5250049
19	0xbefaba61	-0.4897032
20	0x3e1ecc86	0.15507707
21	0xbf091593	-0.53548545
22	0xbefac641	-0.4897938
23	0xbef3da68	-0.47627568
24	0xbeb540e3	-0.35401067
25	0xbef28985	-0.47370544
26	0xbe2df187	-0.16986667
27	0xbedaafdd	-0.42712298
28	0xbf138912	-0.5763103
29	0x3ec7b139	0.39002398
30	0xbedf0802	-0.43560797
31	0x3b047243	0.0020209707
32	0xbe91f39a	-0.28506166
33	0xbec78f06	-0.38976306
34	0xbe57b8df	-0.21066616
35	0x3e71906d	0.2359025
36	0xbe5bdb03	-0.21470265
37	0xbe20ebe5	-0.15714987
38	0xbea4c16a	-0.32178813
39	0xbf1101b3	-0.5664322

linear_sigmoid_stack.4.weight f4 [40, 40]
0	0x3e0b97d7	0.13632141
1	0xbea2df25	-0.3181087
2	0x3c723be2	0.014784785
3	0xbe038158	-0.1284231
4	0x3cfb2eb5	0.03066192
5	0xbf4064cb	-0.751538
6	0xbe367706	-0.17818841
7	0xbdeb4280	-0.11487293
8	0x3e81d4d2	0.25357682
9	0xbf8db5cf	-1.1071109
10	0x3ec233a2	0.37930018
11	0x3e9dedbd	0.30845442
12	0xbde88376	-0.11353199
13	0xbe14ce7f	-0.14531897
14	0xbe117c2c	-0.14207524
15	0xbd9233bb	-0.07138773
16	0x3dc8a429	0.09796936
17	0xbd551885	-0.052025337
18	0xbe402cd4	-0.187671
19	0xbe904ad1	-0.2818208
20	0xbf4e4302	-0.80570996
21	0xbe37b1d7	-0.17938934
22	0xbe302749	-0.17202486
23	0x3d8d3802	0.06895448
24	0xbe16570f	-0.14681648
25	0xbed5fa23	-0.41792402
26	0xbf185cc6	-0.5951656
27	0xbe1bdb16	-0.15220293
28	0xbe2c3648	-0.16817582
29	0xbf05d890	-0.52283573
30	0xbe116cd8	-0.14201677
31	0xbf0d86cf	-0.55283827
32	0xbe2e3a5f	-0.17014454
33	0xbcb1c906	-0.0217023
34	0xbdeefb5c	-0.11669037
35	0xbf246e1e	-0.64230525
36	0xbf33fc0d	-0.70306474
37	0xbe6aebf6	-0.22941574
38	0xbe27d7c1	-0.16390897
39	0xbdf49f27	-0.119444184
40	0xbf8e4931	-1.1116086
41	0xbf1f1070	-0.62134457
42	0xbd2ee44a	-0.042698182
43	0xbf51a097	-0.81885666
44	0xbe506efe	-0.2035484
45	0xbf09f823	-0.5389425
46	0xbef8844d	-0.48538437
47	0xbdc8a221	-0.09796549
48	0xbf6e31e4	-0.9304488
49	0xbf205325	-0.6262687
50	0xbf99b3a1	-1.2007943
51	0xbf6c9eaa	-0.924296
52	0xbe3f7349	-0.18696322
53	0xbeaf2027	-0.34204218
54	0xbe406bc8	-0.18791115
55	0xbe3a78de	-0.1821017
56	0xbea63a8f	-0.32466552
57	0xbebda28d	-0.3703808
58	0xbf8cc6c2	-1.0998156
59	0xbf6a5e12	-0.9154979
60	0xbece5d5a	-0.40305597
61	0xbf2f7004	-0.685303
62	0xbf42d848	-0.7611127
63	0xbf91dd93	-1.1395744
64	0xbf6eb0c5	-0.9323848
65	0xbec67439	-0.38760546
66	0xbf183742	-0.59459317
67	0xbe57f9f6	-0.21091446
68	0xbefe4f87	-0.4967005
69	0xbf522aef	-0.8209676
70	0xbecd0efa	-0.4005049
71	0xbf1325ad	-0.57479364
72	0xbe143dd4	-0.1447671
73	0xbf1f1897	-0.62146896
74	0xbdfa80f7	-0.12231629
75	0xbf6d1d60	-0.9262295
76	0xbf09da1e	-0.53848445
77	0xbe55551f	-0.20833252
78	0xbeacb75c	-0.33733642
79	0xbf082582	-0.5318223
80	0xbfada5c3	-1.3566211
81	0xbf6145af	-0.87996954
82	0xbea4313c	-0.32068813
83	0xbfa9b2b6	-1.3257663
84	0xbeed7d17	-0.46384498
85	0xbcc3af23	-0.023887223
86	0xbf68d1bc	-0.9094503
87	0xbe9d3041	-0.30700877
88	0xbf91d928	-1.1394396
89	0xbd789cae	-0.060696296
90	0xbfb4e5ef	-1.413267
91	0xbf90dd12	-1.1317465
92	0xbed887df	-0.4229116
93	0xbf070099	-0.52735287
94	0xbf2981ed	-0.66213876
95	0xbea6acdd	-0.3255376
96	0xbeb227b4	-0.34795916
97	0xbf2becf4	-0.67158437
98	0xbfab832a	-1.3399403
99	0xbf9ad246	-1.209542
100	0x3e5bcad9	0.21464099
101	0xbf6c37e0	-0.9227276
102	0xbf88a23f	-1.0674514
103	0xbfb86a0f	-1.4407367
104	0xbf9783fd	-1.1837155
105	0xbf3dcc26	-0.7413963
106	0xbf2e093e	-0.6798285
107	0xbf1d296c	-0.6139133
108	0xbf312f60	-0.69212914
109	0xbf1e4177	-0.6181864
110	0xbef4e947	-0.47834226
111	0x3d3d7c83	0.04626132
112	0xbf0e0566	-0.5547699
113	0xbf8f7c9e	-1.1209905
114	0xbf1310d6	-0.57447565
115	0xbec7700f	-0.3895268
116	0x3ce00ea8	0.027350739
117	0xbee7c2a5	-0.4526569
118	0xbed4126c	-0.41420305
119	0xbf4c0b94	-0.79705167
120	0xbe500520	-0.20314455
121	0xbfa62791	-1.2980825
122	0xbe9b1b56	-0.30294293
123	0xbea594d1	-0.323401
124	0xbdac841e	-0.08423637
125	0xbf89d35a	-1.0767624
126	0xbee69152	-0.45032746
127	0xbd82f3a4	-0.06394127
128	0xbeb0e296	-0.3454787
129	0xbfa8ccd2	-1.3187506
130	0xbda7f4e6	-0.082010075
131	0xbe50d3bf	-0.20393275
132	0xbe2fe9ae	-0.17178985
133	0xbe185ba3	-0.14878707
134	0xbded6402	-0.115913406
135	0xbe2b3920	-0.1672101
136	0xbe782f86	-0.24236879
137	0xbe95c0da	-0.29248697
138	0xbe75f857	-0.24020515
139	0xbea78ddc	-0.32725418
140	0xbf328633	-0.6973602
141	0xbe987f06	-0.2978441
142	0xbec70053	-0.38867435
143	0xbebbd59b	-0.36686406
144	0xbee4fdfb	-0.44725022
145	0xbec4d4b7	-0.3844354
146	0xbeaededc	-0.34154403
147	0xbe894345	-0.26809135
148	0xbe442469	-0.19154514
149	0xbf86972d	-1.0514885
150	0xbdb9f525	-0.09079961
151	0xbf0e3a79	-0.5555797
152	0xbe66ed65	-0.22551496
153	0xbe50f362	-0.20405343
154	0xbe916f6b	-0.28405318
155	0xbf8253c1	-1.018181
156	0xbf68e659	-0.9097648
157	0xbd9d24c6	-0.076730296
158	0xbe4442a7	-0.19166051
159	0xbdcb7592	-0.09934534
160	0xbeffeb9e	-0.4998445
161	0xbf5de400	-0.86676025
162	0xbde2d629	-0.11076004
163	0xbf1c2aa1	-0.61002547
164	0xbe8345cb	-0.25639185
165	0xbf7bf461	-0.9841977
166	0xbeb71a40	-0.35762215
167	0x3d648805	0.05579378
168	0xbf01aa23	-0.50650233
169	0xbf392199	-0.7231689
170	0xbef3bbad	-0.47604123
171	0xbf27ba19	-0.6551834
172	0xbdc01e9b	-0.093808375
173	0xbda99ef1	-0.08282269
174	0xbe79caea	-0.24393812
175	0xbe667fdd	-0.22509713
176	0x3d44b658	0.04802546
177	0xbe33bd21	-0.17552616
178	0xbf229c5e	-0.6351985
179	0xbe93095c	-0.28718078
180	0xbf3ad6f7	-0.7298426
181	0xbe2c6fa6	-0.16839465
182	0xbea045d9	-0.3130329
183	0xbf0163c6	-0.5054287
184	0xbe966b5c	-0.29378784
185	0xbe05f2ae	-0.13080856
186	0xbe88bf45	-0.26708427
187	0xbe927ed0	-0.28612375
188	0xbea547b8	-0.3228128
189	0xbf8e0ce8	-1.1097689
190	0xbe8a0b81	-0.26961902
191	0xbf485a62	-0.78262913
192	0xbd91a138	-0.07110828
193	0xbea1cf01	-0.31603244
194	0xbc2a32b1	-0.010388062
195	0xbf9467b9	-1.1594154
196	0xbf6d1211	-0.9260569
197	0xbc1a71a6	-0.00942651
198	0xbe531c63	-0.20616297
199	0xbea0897f	-0.313549
200	0xbf186ff7	-0.59545845
201	0xbf7d448c	-0.9893272
202	0xbe590c3b	-0.21196072
203	0xbf005728	-0.5013299
204	0xbd7d93a6	-0.061908387
205	0xbf4129ac	-0.7545421
206	0xbe76a3c3	-0.24085908
207	0xbd1edeec	-0.038786814
208	0xbf1058a3	-0.5638525
209	0xbf6150ea	-0.8801409
210	0xbf2443e8	-0.64166117
211	0xbf13fc50	-0.57806873
212	0xbd7c0cf9	-0.06153581
213	0xbdb990b0	-0.090608
214	0x3d370fde	0.044692867
215	0xbe2fd258	-0.17170084
216	0xbdbf28c4	-0.09333947
217	0xbe03879b	-0.12844698
218	0xbf164126	-0.5869316
219	0xbea87845	-0.32904258
220	0xbf2bb1a0	-0.6706791
221	0xbe700789	-0.23440374
222	0xbee11604	-0.4396211
223	0xbef22758	-0.47295642
224	0xbe98c941	-0.29841045
225	0xbe8cb413	-0.27481136
226	0xbe855faf	-0.26049563
227	0xbe8393e9	-0.25698784
228	0xbeafd578	-0.3434255
229	0xbf9b5554	-1.2135415
230	0xbe1c405a	-0.15258923
231	0xbf5c750f	-0.8611612
232	0xbe38ce66	-0.18047485
233	0xbedaee06	-0.42759722
234	0xbe4aadb8	-0.19792831
235	0xbf8921d9	-1.0713454
236	0xbf41bdc8	-0.7568021
237	0xbe4f943f	-0.20271395
238	0x3d1b4444	0.0379069
239	0xbe08955a	-0.13338223
240	0xbf9534e0	-1.1656761
241	0xbf3a658e	-0.7281121
242	0xbee888e2	-0.45416933
243	0xbf93ebf3	-1.1556381
244	0xbf1b87b8	-0.60753965
245	0x3e42bc31	0.19017102
246	0xbf6514cc	-0.8948486
247	0xbea63778	-0.32464194
248	0xbfa5a1ce	-1.2940004
249	0x3ed9023e	0.42384523
250	0xbfa14d66	-1.2601745
251	0xbf8eab5a	-1.1146042
252	0xbef1636a	-0.4714616
253	0xbf1f078d	-0.62120897
254	0xbf12ca8c	-0.5734031
255	0xbeb0402c	-0.3442396

linear_sigmoid_stack.4.bias f4 [40]
0	0xbf23e4e1	-0.64021116
1	0xbf7064b7	-0.9390368
2	0xbf040dd1	-0.5158358
3	0xbf7b5fc1	-0.98192984
4	0xbf8986ae	-1.0744226
5	0xbf7a011e	-0.97657955
6	0xbe0b532c	-0.13605946
7	0xbf7dda64	-0.9916136
8	0xbf5ebf9a	-0.8701111
9	0xbf82375b	-1.0173143
10	0xbe9bc8a0	-0.30426502
11	0xbed00284	-0.4062692
12	0xbf4ba1f1	-0.7954398
13	0xbf9afab8	-1.2107763
14	0xbf8ba20d	-1.0908829
15	0xbf7391fb	-0.95144624
16	0xbf53922b	-0.8264491
17	0xbf829295	-1.0200983
18	0xbf4d71ea	-0.80251944
19	0xbf68cd4a	-0.90938246
20	0xbf7bb017	-0.98315567
21	0xbfa2ca17	-1.2717923
22	0xbf876a77	-1.0579365
23	0xbf77bd46	-0.96773183
24	0xbf7a9543	-0.97884005
25	0xbf99b499	-1.2008239
26	0xbf66e47d	-0.90192395
27	0xbf7fe257	-0.9995474
28	0xbf87dd22	-1.0614359
29	0xbf872005	-1.0556647
30	0xbda0a250	-0.07843459
31	0xbf82c8a4	-1.0217481
32	0xbf8613b5	-1.0474764
33	0xbf906050	-1.1279392
34	0xbf7f09de	-0.9962443
35	0xbf83e7b1	-1.0305082
36	0xbfa2a285	-1.2705847
37	0xbea0c5be	-0.31400865
38	0xbf8e0595	-1.1095454
39	0xbfa55a4a	-1.2918179

linear_sigmoid_stack.6.weight f4 [1, 40]
0	0x3dc8d650	0.09806502
1	0xbd71bc70	-0.0590176
2	0xbe0dba87	-0.13840686
3	0x3d6b29b0	0.057412803
4	0x3c8c1eab	0.017104467
5	0x3c2e786f	0.010648831
6	0xbe9acf1c	-0.30236137
7	0x3d61a16b	0.05508558
8	0xbd28aef5	-0.041182477
9	0x3c51a183	0.012794855
10	0x3e30098b	0.1719114
11	0x3e832764	0.2561599
12	0x3d7060dc	0.058686122
13	0xbc3d01a2	-0.011536034
14	0x3d2e2dff	0.042524334
15	0xbcf2b8e9	-0.029629188
16	0xbd8bd179	-0.06827063
17	0x3cbf9ed0	0.023391157
18	0x3d9e1245	0.077183284
19	0x3d7628e6	0.060097598
20	0xbc08ffcc	-0.008361768
21	0x3cb5add8	0.022177622
22	0x3dba24a1	0.09089018
23	0xbc86828d	-0.016419673
24	0x3d638a55	0.055551846
25	0xbcbe7e8e	-0.023253705
26	0xbda9d8f9	-0.082933374
27	0x3cd0736c	0.025445662
28	0x3da30082	0.07959081
29	0xbd3de7f8	-0.0463638
30	0x3ed76e04	0.42076123
31	0x3d4384b3	0.047733974
32	0x3cd59879	0.026073681
33	0xbc496ab3	-0.0122935055
34	0x3c7d7ba2	0.015471371
35	0x3d64c176	0.05584856
36	0x3c4a9521	0.012364657
37	0x3ee8e80e	0.45489544
38	0x3be16eb7	0.0068796533
39	0x3d15bb22	0.036555417
