Logistic/Results with additional condition/sol_w21.pt (torch_old, 15258 bytes, 7 tensors)

linear_sigmoid_stack.0.weight f4 [40, 1]
1.2780073 -0.26847556 0.24848609 -0.30397668 -0.315677 -0.28235847 -0.27506432 0.18500265
-0.29493755 0.27890432 0.25950238 -0.31173068 -0.3193516 -0.27464706 -0.26326436 -0.27773872
0.23729469 -0.27445528 1.3926982 -0.29212356 1.9477309 -0.28092915 -0.31869757 0.26702958
0.20152086 -0.2912853 0.24569532 0.23286735 -0.31988913 -0.29649344 -0.28337654 0.22677353
-0.32758194 0.23820433 0.21067184 1.518094 -0.28352043 -0.2802517 -0.28883725 -0.27132723
00000000: be95 a33f a175 89be 2373 7e3e d5a2 9bbe
00000010: 6aa0 a1be 4a91 90be 3bd5 8cbe 5671 3d3e
00000020: 0e02 97be 8ccc 8e3e 7fdd 843e 2a9b 9fbe
00000030: 0e82 a3be 8a9e 8cbe 96ca 86be c533 8ebe
00000040: 61fd 723e 6785 8cbe ef43 b23f 3891 95be
00000050: 3f4f f93f f2d5 8fbe 542c a3be 1ab8 883e
00000060: 7c5b 4e3e 5923 95be 8e97 7b3e c774 6e3e
00000070: 82c8 a3be fdcd 97be bb16 91be 5237 683e
00000080: d2b8 a7be d6eb 733e 5cba 573e e750 c23f
00000090: 9729 91be 277d 8fbe 7ae2 93be 67eb 8abe

linear_sigmoid_stack.0.bias f4 [40]
-0.09017647 0.544098 -1.9098176 1.9937689 2.4833229 1.3864484 1.0194559 -1.2199354
1.8775624 -2.4819472 -2.167172 2.2596734 2.581144 0.9851317 0.28863212 1.1906208
-1.8059552 0.94013876 -0.34453076 1.7736005 -0.42094487 1.3568112 -0.5257289 -2.2719913
-1.4379625 -1.0179622 -1.8812758 -1.6886137 0.10291135 1.9024414 -1.0829678 -1.6140636
-0.11807577 -1.8549426 -1.4668403 -0.32171318 1.4805535 1.3206781 1.6529127 0.7898936
00000000: 71ae b8bd 024a 0b3f e774 f4bf d233 ff3f
00000010: c3ee 1e40 2477 b13f 887d 823f d826 9cbf
00000020: f753 f03f 39d8 1ec0 f2b2 0ac0 7d9e 1040
00000030: 7731 2540 9731 7c3f 97c7 933e 4366 983f
00000040: 8a29 e7bf efac 703f 5666 b0be 5705 e33f
00000050: 1686 d7be fdab ad3f 2b96 06bf 4e68 11c0
00000060: 280f b8bf 964c 82bf a5cd f0bf 7e24 d8bf
00000070: 30c3 d23d 3383 f33f b09e 8abf a399 cebf
00000080: b6d1 f1bd c26e edbf 6cc1 bbbf 97b7 a4be
00000090: c782 bd3f fb0b a93f a592 d33f 7836 4a3f

linear_sigmoid_stack.2.weight f4 [40, 40]
-0.12044518 -0.9548152 0.4069974 -0.87151885 -1.2223828 -1.0038829 -0.8028337 0.27072826
-1.0311924 0.7776904 0.42806962 -1.0408045 -1.1025144 -0.8799309 -0.96605164 -1.0351192
0.31850678 -0.67716736 -0.277046 -0.8652252 -0.39626014 -1.1151948 -0.23944856 0.6102408
0.17170925 -0.13223113 0.5144104 0.32542646 -0.33649546 -0.9299432 -0.085652925 0.45810437
-0.20183168 0.4184011 0.3172147 -0.48532602 -1.0605352 -1.0248969 -1.0878755 -0.81614465
0.2652784 -0.7051238 0.58592963 -0.96196973 -0.72144777 -0.80535656 -0.81374353 0.25698322
-0.68039674 0.6245813 0.4241312 -0.9888417 -0.9060259 -0.5895474 -0.55542487 -0.6568692
0.35336456 -0.6028879 0.4850231 -0.7748545 0.39778787 -0.7610598 0.19756028 0.4720627
0.32788604 0.14712988 0.51852 0.43669358 0.20441186 -0.7482891 0.28559095 0.2634637
-0.009348377 0.57834005 0.5374556 0.286602 -0.9319748 -0.6337667 -0.5994099 -0.7791962
-0.49582946 -0.25983065 -0.25208294 -0.33260718 -0.3034886 -0.4585434 -0.33877677 -0.3197518
-0.22917214 -0.075461365 -0.06037716 -0.32006562 -0.24585074 -0.27091345 -0.37779 -0.3240537
-0.28225932 -0.25808817 -0.402927 -0.38400233 -0.3335785 -0.26680458 -0.14453 -0.06658782
-0.27695036 -0.22038022 -0.28639627 -0.08841487 0.024578143 -0.26012176 -0.09675892 -0.028010856
-0.010099392 -0.32196352 -0.17113113 -0.5076051 -0.26979306 -0.34843552 -0.2940148 -0.41937232
-0.199008 -0.6104037 0.35794467 -0.8973236 -1.1989065 -0.91840565 -0.8336499 0.14643109
-0.93907315 0.6929777 0.44753852 -0.8183184 -1.1665682 -0.64948964 -0.6951908 -0.87579304
0.455258 -0.6809622 -0.33088714 -0.9577137 -0.27460054 -0.87331253 -0.25112775 0.5302554
0.1802081 -0.16525514 0.36641625 0.26224372 -0.38258544 -1.0200825 -0.20557246 0.3326064
-0.1585464 0.49343613 0.37955868 -0.3099496 -0.82177913 -0.9038766 -0.7900651 -0.8397389
-0.5130275 -0.2990574 -0.21251908 -0.21646255 -0.37381524 -0.14786002 -0.3482515 -0.3330885
-0.3431748 0.1076749 -0.028613357 -0.14692321 -0.39077786 -0.1170402 -0.38773546 -0.18201049
-0.07063794 -0.12317275 -0.5824647 -0.33911645 -0.5450154 -0.10908591 -0.09124839 -0.20383899
-0.17006433 -0.10571394 -0.10048116 -0.23320714 -0.16275838 -0.14583902 -0.25669372 -0.16163798
-0.14520878 -0.039960496 -0.28899184 -0.58177584 -0.3614532 -0.36467972 -0.19951819 -0.14846203
0.23077059 0.8775514 -0.4848705 0.6526628 0.93287146 0.8516229 0.6819932 -0.3220359
1.044355 -0.60581976 -0.46073583 0.6867331 0.9513007 0.77924734 0.7381717 0.97126424
-0.41582787 0.8738575 0.16246606 0.99667054 0.33683178 0.8780527 0.10695452 -0.38081104
-0.2570475 -0.02610504 -0.38858038 -0.44998965 0.26299974 0.78288805 0.15780166 -0.45587024
0.119393826 -0.33567154 -0.14805593 0.395168 0.7568389 0.99448544 1.0153201 0.66451466
-0.22710231 -0.68726313 0.26796296 -0.727318 -0.99116844 -0.84744185 -0.73519456 0.025055286
-0.8151444 0.2663735 0.36406323 -0.5840899 -1.0513749 -0.82638997 -0.6652796 -0.68060404
00000000: f6ab f6bd c56e 74bf f761 d03e dc1b 5fbf
00000010: 0a77 9cbf 3c7f 80bf 8286 4dbf e59c 8a3e
00000020: 1dfe 83bf b816 473f f12b db3e 1539 85bf
00000030: 311f 8dbf 2743 61bf 294f 77bf c97e 84bf
00000040: 5213 a33e d75a 2dbf f9d8 8dbe 667f 5dbf
00000050: 9ce2 cabe b4be 8ebf 0132 75be be38 1c3f
00000060: 8dd4 2f3e 9967 07be 66b0 033f 4c9e a63e
00000070: 2249 acbe c210 6ebf cd6a afbd a88c ea3e
00000080: f7ac 4ebe ab38 d63e f769 a23e a77c f8be
00000090: 9ebf 87bf d22f 83bf 813f 8bbf dbee 50bf
000000a0: 92d2 873e fe82 34bf 7cff 153f a643 76bf
000000b0: cdb0 38bf d92b 4ebf 7f51 50bf 4e93 833e
000000c0: 7b2e 2ebf 8fe4 1f3f ba27 d93e bb24 7dbf
000000d0: 50f1 67bf 94ec 16bf 5330 0ebf 9428 28bf
000000e0: 33ec b43e dd56 1abf f354 f83e dd5c 46bf
000000f0: daaa cb3e d1d4 42bf 3e4d 4a3e 34b2 f13e
00000100: aee0 a73e 37a9 163e babd 043f 4d96 df3e
00000110: 5851 513e e08f 3fbf fa38 923e b7e4 863e
00000120: ef29 19bc 180e 143f b196 093f 7fbd 923e
00000130: e795 6ebf 893e 22bf ed72 19bf 6779 47bf
00000140: 5cdd fdbe 8608 85be 0411 81be 7d4b aabe
00000150: dc62 9bbe 33c6 eabe 2674 adbe 82b6 a3be
00000160: 1aac 6abe 7d8b 9abd 0a4e 77bd a4df a3be
00000170: 4cc0 7bbe 2bb5 8abe b16d c1be 5eea a5be
00000180: 4b84 90be 2224 84be 734c cebe f49b c4be
00000190: cdca aabe 9c9a 88be acff 13be 325f 88bd
000001a0: 70cc 8dbe 5aab 61be 88a2 92be db12 b5bd
000001b0: 1a58 c93c ae2e 85be 8a29 c6bd 0677 e5bc
000001c0: ec77 25bc 67d8 a4be 003d 2fbe 68f2 01bf
000001d0: 5122 8abe 2466 b2be 1c89 96be f8b7 d6be
000001e0: c1c8 4bbe 6b43 1cbf 8644 b73e 00b7 65bf
000001f0: c575 99bf a21c 6bbf 146a 55bf 08f2 153e
00000200: 1967 70bf fd66 313f c523 e53e 517d 51bf
00000210: 1b52 95bf f444 26bf 06f8 31bf f933 60bf
00000220: 9417 e93e 8a53 2ebf 0a6a a9be ba2c 75bf
00000230: 7198 8cbe 6991 5fbf d193 80be d1be 073f
00000240: 7988 383e a538 29be e99a bb3e cf44 863e
00000250: 3de2 c3be 1092 82bf 9681 52be 634b aa3e
00000260: fd59 22be a9a3 fc3e 8455 c23e b7b1 9ebe
00000270: 1e60 52bf 7564 67bf b541 4abf 21f9 56bf
00000280: c555 03bf 0d1e 99be 9a9e 59be 5ca8 5dbe
00000290: b664 bfbe 9e68 17be 054e b2be 938a aabe
000002a0: 9bb4 afbe a884 dc3d 8f66 eabc 0a73 16be
000002b0: 0914 c8be c6b2 efbd 4385 c6be f560 3abe
000002c0: a0aa 90bd ff41 fcbd 681c 15bf aca0 adbe
000002d0: 2186 0bbf 6f68 dfbd 70e0 babd 2bbb 50be
000002e0: 5825 2ebe 8d80 d8bd 11c9 cdbd dacd 6ebe
000002f0: 22aa 26be d356 15be 5c6d 83be 6d84 25be
00000300: 9cb1 14be 9ead 23bd bdf6 93be 43ef 14bf
00000310: 6510 b9be 4db7 babe 7f4e 4cbe 6e06 18be
00000320: 204f 6c3e 35a7 603f f240 f8be e914 273f
00000330: aad0 6e3f f503 5a3f 1b97 2e3f e4e1 a4be
00000340: 6dad 853f 0117 1bbf 91e5 ebbe becd 2f3f
00000350: 7188 733f c17c 473f d2f8 3c3f c6a4 783f
00000360: 64e7 d4be 20b5 5f3f 815d 263e cd25 7f3f
00000370: 3775 ac3e 10c8 603f f90a db3d aaf9 c2be
00000380: bb9b 83be 3dda d5bc 02f4 c6be 0b65 e6be
00000390: e7a7 863e 5a6b 483f c296 213e d367 e9be
000003a0: c084 f43d 24dd abbe f99b 17be 7653 ca3e
000003b0: 32c0 413f 9996 7e3f 02f6 813f a21d 2a3f
000003c0: 828d 68be 7af0 2fbf 7132 893e 8331 3abf
000003d0: 37bd 7dbf f3f1 58bf b635 3cbf be40 cd3c
000003e0: 4ead 50bf 1b62 883e 7f66 ba3e ea86 15bf
000003f0: 7493 86bf 4b8e 53bf c44f 2abf 113c 2ebf

linear_sigmoid_stack.2.bias f4 [40]
-0.27407154 -0.17819174 -0.38073063 -0.39401975 -0.3000877 0.038062397 -0.22947022 -0.33055863
-0.42272916 0.29415613 -0.29462686 -0.37033704 -0.22970276 -0.36810023 -0.4469665 -0.5477773
-0.3757444 -0.43337393 -0.43252274 -0.37719715 0.22468074 -0.4236161 -0.4049642 -0.36986595
-0.25942022 -0.39007255 -0.17554276 -0.49380377 -0.48906562 0.29449633 -0.39064953 0.1676301
-0.33114332 -0.27095354 -0.23169526 0.18012054 0.0018077816 -0.23127559 -0.3916479 -0.4794521
00000000: 1b53 8cbe e577 36be 20ef c2be f5bc c9be
00000010: 18a5 99be 51e7 1b3d 3efa 6abe fb3e a9be
00000020: f56f d8be a29b 963e 55d9 96be d19c bdbe
00000030: 3337 6bbe a277 bcbe cbd8 e4be 223b 0cbf
00000040: 9261 c0be 30e3 ddbe 9f73 ddbe fc1f c1be
00000050: b512 663e 36e4 d8be 7857 cfbe 125f bdbe
00000060: bad2 84be 97b7 c7be 7bc1 33be d9d3 fcbe
00000070: cf66 fabe 39c8 963e 3703 c8be 3aa7 2b3e
00000080: 9e8b a9be 6cba 8abe 8641 6dbe 8571 383e
00000090: 16f3 ec3a 82d3 6cbe 1386 c8be bf7a f5be

linear_sigmoid_stack.4.weight f4 [40, 40]
0.40857106 -0.058600433 0.1215038 0.18039143 0.1463518 -0.3590174 0.110519715 0.019949311
0.45981696 -0.64380234 0.49965295 0.49513385 0.01536815 0.030633586 0.019228801 0.0055667968
0.18470578 0.12632777 0.11529528 0.06019981 -0.44549152 0.08859626 0.1644273 0.30438712
0.2116425 -0.15650225 -0.16721 -0.029831909 0.07761676 -0.12781888 0.04617639 -0.25718898
-0.03768202 0.28248718 -0.0064638834 -0.29039866 -0.39274865 -0.08226946 0.010682483 0.09647226
-0.89117026 -0.22890286 -0.008733663 -0.6166081 -0.16192093 -0.0038494861 -0.410547 -0.068578
-0.69488066 -0.074798405 -0.948368 -0.68826663 -0.15994513 -0.31064662 -0.14041811 -0.14923562
-0.29436287 -0.3343459 -0.89644927 -0.75675213 -0.11494151 -0.6146362 -0.61323714 -0.9094198
-0.76079434 -0.34014398 -0.3090102 -0.13806885 -0.45059186 -0.21056549 -0.36543104 -0.28568345
-0.096337825 -0.50511694 -0.0876938 -0.3527332 -0.18731323 -0.16656335 -0.28225404 -0.49304608
-0.867583 -0.16728242 -0.06715174 -0.8362936 -0.119525425 0.24651846 -0.5931291 -0.0889741
-0.67625445 0.23952101 -0.9653622 -0.6695816 -0.21836002 -0.3218288 -0.32210255 -0.10168373
-0.11180309 -0.4124203 -0.86539453 -0.76245457 0.1301769 -0.6167081 -0.63946545 -0.9777536
-0.7128261 -0.47839624 -0.29488412 -0.02459905 -0.4440752 -0.26023543 -0.23058842 0.044212926
-0.24545208 -0.71089154 -0.2919923 -0.07929641 0.018227898 -0.10256087 -0.05979493 -0.5715314
-0.042744175 -0.9620712 -0.2976564 -0.17636143 -0.07815883 -0.8185501 -0.40491232 -0.057302054
-0.17763717 -1.0307525 0.089072205 -0.04019347 -0.16372009 -0.13458574 -0.10835351 -0.16329409
-0.23728426 -0.28051105 -0.08935052 -0.21447597 -0.5708464 -0.25610638 -0.28158516 -0.19859505
-0.31914344 -0.35847437 -0.319483 -0.25966635 -0.16617887 -0.5998268 -0.07889836 -0.455435
-0.21885128 -0.13297053 -0.27769953 -0.6654273 -0.7488084 -0.06893909 -0.18301207 -0.07946544
-0.38409528 -0.5990388 -0.10710115 -0.5078304 -0.25209704 -0.7753447 -0.32945856 0.06011398
-0.3785228 -0.5003461 -0.3369981 -0.52886087 -0.08843565 -0.07374831 -0.23873305 -0.22227696
0.051580105 -0.16775987 -0.5296718 -0.21328174 -0.63321805 -0.14249142 -0.24171577 -0.37991717
-0.20941366 -0.11491321 -0.24809772 -0.2800254 -0.30719182 -0.7453249 -0.26201874 -0.70541394
-0.066430084 -0.27089193 -0.0059696846 -0.87042147 -0.7990217 -0.004028383 -0.20024194 -0.3011054
-0.48274958 -0.7281574 -0.20824775 -0.40206972 -0.057514295 -0.53311753 -0.21349986 -0.03448652
-0.4386614 -0.6465426 -0.5048311 -0.45426401 -0.056201473 -0.08169412 0.049971174 -0.16877648
-0.08973611 -0.120770775 -0.48445377 -0.2574603 -0.56262773 -0.20919545 -0.37041435 -0.35046223
-0.21684451 -0.259341 -0.23405549 -0.24981064 -0.3282128 -0.84826124 -0.14510037 -0.77230453
-0.17567286 -0.3837234 -0.19345479 -0.77476686 -0.6176423 -0.1972484 0.043942373 -0.12121566
-0.79979914 -0.22151713 -0.23405075 -0.77784663 -0.3301525 0.03123107 -0.6271962 -0.12906066
-0.9546776 0.29179117 -0.9200992 -0.78398424 -0.28833687 -0.4377446 -0.28686374 -0.16486861
00000000: 3a30 d13e 0207 70bd fcd6 f83d 88b8 383e
00000010: 3fdd 153e 21d1 b7be 2958 e23d bd6c a33c
00000020: 216d eb3e 3bd0 24bf 83d2 ff3e 2f82 fd3e
00000030: b1ca 7b3c 49f3 fa3c b885 9d3c ad69 b63b
00000040: 8323 3d3e 115c 013e ef1f ec3d 1394 763d
00000050: 7717 e4be f571 b53d a15f 283e a1d8 9b3e
00000060: d0b8 583e 2042 20be 1939 2bbe 0c62 f4bc
00000070: 89f5 9e3d f4e2 02be 7423 3d3d 46ae 83be
00000080: 7658 1abd 29a2 903e fcce d3bb 22af 94be
00000090: 5a16 c9be e47c a8bd 9505 2f3c 4093 c53d
000000a0: bc23 64bf 8365 6abe a317 0fbc 07da 1dbf
000000b0: 9ace 25be a947 7cbb 3733 d2be 9f72 8cbd
000000c0: b3e3 31bf e82f 99bd 3fc8 72bf 3e32 30bf
000000d0: a8c8 23be 130d 9fbe c4c9 0fbe 39d1 18be
000000e0: bbb6 96be 632f abbe b37d 65bf 82ba 41bf
000000f0: 7466 ebbd cc58 1dbf 1cfd 1cbf bccf 68bf
00000100: 6bc3 42bf 5a27 aebe 9636 9ebe ec61 0dbe
00000110: fab3 e6be 7b9e 57be c719 bbbe 1a45 92be
00000120: c44c c5bd 584f 01bf cf98 b3bd 7299 b4be
00000130: 0acf 3fbe 958f 2abe 9a83 90be 8970 fcbe
00000140: eb19 5ebf 154c 2bbe da86 89bd 5617 56bf
00000150: bfc9 f4bd 566f 7c3e 4fd7 17bf 0e38 b6bd
00000160: 031f 2dbf ff44 753e fa21 77bf b369 2bbf
00000170: c599 5fbe bfc6 a4be a0ea a4be 8f3f d0bd
00000180: 05f9 e4bd c128 d3be 7f8a 5dbf 3930 43bf
00000190: 184d 053e 95e0 1dbf 02b4 23bf 0f4e 7abf
000001a0: c57b 36bf 5af0 f4be 0dfb 96be f283 c9bc
000001b0: d35d e3be 943d 85be 5f1f 6cbe 9d18 353d
000001c0: ca57 7bbe fdfc 35bf 0480 95be 2866 a2bd
000001d0: ac52 953c 6f0b d2bd 87eb 74bd e24f 12bf
000001e0: 8414 2fbd 4c4a 76bf 6b66 98be 1798 34be
000001f0: bd11 a0bd 808c 51bf ab50 cfbe 8fb5 6abd
00000200: 85e6 35be b3ef 83bf 7d6b b63d e8a1 24bd
00000210: 3da6 27be d8d0 09be 72e8 ddbd 9136 27be
00000220: a5fa 72be 259f 8fbe 68fd b6bd 979f 5bbe
00000230: fd22 12bf 6020 83be ee2b 90be 805c 4bbe
00000240: c566 a3be f489 b7be 4793 a3be fdf2 84be
00000250: cb2a 2abe 408e 19bf 7795 a1bd c72e e9be
00000260: 8d1a 60be 6d29 08be a22e 8ebe 7259 2abf
00000270: e8b1 3fbf f02f 8dbd 8467 3bbe c7be a2bd
00000280: 23a8 c4be 9b5a 19bf d957 dbbd 2c01 02bf
00000290: dd12 81be fe7c 46bf cbae a8be 143a 763d
000002a0: becd c1be af16 00bf 048b acbe 6d63 07bf
000002b0: c01d b5bd 5b09 97bd 7076 74be 929c 63be
000002c0: a945 533d 3ec9 2bbe 9298 07bf 8766 5abe
000002d0: 941a 22bf 45e9 11be 5784 77be 8184 c2be
000002e0: 8970 56be 9e57 ebbd 540d 7ebe 7d5f 8fbe
000002f0: 3f48 9dbe 9dcd 3ebf 5227 86be 0296 34bf
00000300: 7f0c 88bd 59b2 8abe 589d c3bb f1d3 5ebf
00000310: b08c 4cbf 8700 84bb 390c 4dbe 7d2a 9abe
00000320: f42a f7be 8668 3abf e63e 55be 15dc cdbe
00000330: 1c94 6bbd 647a 08bf b59f 5abe bd41 0dbd
00000340: 3a98 e0be d183 25bf 9c3c 01bf 4b95 e8be
00000350: 8433 66bd 3f4f a7bd 93ae 4c3d bed3 2cbe
00000360: 91c7 b7bd ab56 f7bd 530a f8be d6d1 83be
00000370: 5f08 10bf 5537 56be f3a6 bdbe c96f b3be
00000380: 7d0c 5ebe 58c8 84be 3eac 6fbe 5cce 7fbe
00000390: 820b a8be a627 59bf 3195 14be c0b5 45bf
000003a0: 96e3 33be 6577 c4be 0319 46be 1f57 46bf
000003b0: ce1d 1ebf 7cfb 49be ebfc 333d ea3f f8bd
000003c0: a3bf 4cbf 63d5 62be 00ab 6fbe f520 47bf
000003d0: c009 a9be 4dd8 ff3c ee8f 20bf 7a28 04be
000003e0: c065 74bf a765 953e 9f8b 6bbf 31b3 48bf
000003f0: e4a0 93be 0f20 e0be cedf 92be 51d3 28be

linear_sigmoid_stack.4.bias f4 [40]
-0.24529499 -0.32543653 -0.15054952 -0.5296387 -0.70921355 -0.610474 -0.219158 -0.40797862
-0.2703397 -0.660682 -0.025643826 -0.22267132 -0.2962353 -0.7551559 -0.47685575 -0.3936658
-0.18934253 -0.6656159 -0.22687972 -0.25439548 -0.5138298 -0.92344815 -0.51135457 -0.46925625
-0.33867636 -0.7267829 -0.2742042 -0.63005275 -0.44309098 -0.46747693 0.034093093 -0.41497093
-0.56067675 -0.6890511 -0.65983605 -0.39470223 -0.90856713 -0.14009136 -0.63848954 -0.91928244
00000000: 9c2e 7bbe 9e9f a6be a729 1abe 6796 07bf
00000010: 058f 35bf 0648 1cbf f46a 60be 93e2 d0be
00000020: f769 8abe 7522 29bf 0013 d2bc f303 64be
00000030: 27ac 97be e651 41bf 7026 f4be 908e c9be
00000040: 02e3 41be ce65 2abf 2853 68be 2040 82be
00000050: 5a8a 03bf 1967 6cbf 22e8 02bf 5b42 f0be
00000060: fd66 adbe 720e 3abf 7e64 8cbe 234b 21bf
00000070: d2dc e2be 2359 efbe 33a5 0b3d 1277 d4be
00000080: 8388 0fbf a765 30bf 04eb 28bf 6916 cabe
00000090: db97 68bf 1c74 0fbe 0d74 23bf 1856 6bbf

linear_sigmoid_stack.6.weight f4 [1, 40]
0.1891164 -0.09757495 -0.20434602 0.026765596 -0.004246522 -0.008195303 -0.18568371 0.04355203
-0.08621499 -0.0062775947 0.1989111 0.21197253 0.18049714 -0.02804515 0.042349577 -0.06623462
-0.112691715 -0.0007102871 0.1481905 0.082074605 -0.029831322 0.004288825 0.05922978 -0.039896213
0.088782005 -0.033809304 -0.15686373 -0.0033512572 0.07194806 -0.104331896 0.25465852 0.039779343
-0.033265598 -0.02371619 -0.0008065795 0.103094056 -0.00010303594 0.25937086 -0.030179601 0.019173766
00000000: bba7 413e 60d5 c7bd 1540 51be 8643 db3c
00000010: 6926 8bbb 9845 06bc df23 3ebe 9d63 323d
00000020: 7c91 b0bd 48b4 cdbb 5aaf 4b3e 540f 593e
00000030: 3ed4 383e f1be e5bc c076 2d3d 04a6 87bd
00000040: eaca e6bd 8f32 3aba 40bf 173e bb16 a83d
00000050: d160 f4bc 4689 8c3b ed9a 723d 366a 23bd
00000060: 57d3 b53d a07b 0abd e3a0 20be c4a0 5bbb
00000070: 8159 933d f6ab d5bd 9a62 823e aaef 223d
00000080: 8241 08bd 7548 c2bc a270 53ba fa22 d33d
00000090: 0015 d8b8 42cc 843e 363b f7bc 4d12 9d3c
