Logistic/Results with additional condition/sol_w62.pt (torch_old, 15258 bytes, 7 tensors)

linear_sigmoid_stack.0.weight f4 [40, 1]
0	0x3fb5b6a0	1.4196358
1	0xbea5b74e	-0.32366413
2	0x3e8d8789	0.27642468
3	0xbeafed67	-0.3436081
4	0xbeb54661	-0.35405257
5	0xbea91f26	-0.33031577
6	0xbea82a8f	-0.3284497
7	0x3de9c893	0.114152096
8	0xbeadf071	-0.33972505
9	0x3e9ca514	0.30594695
10	0x3e938518	0.2881248
11	0xbeb2edb2	-0.34946972
12	0xbeb720d0	-0.3576722
13	0xbea81a9c	-0.328328
14	0xbea309f1	-0.31843522
15	0xbea9c28a	-0.33156234
16	0x3e83911b	0.25696644
17	0xbea75299	-0.32680205
18	0x3fb94a8b	1.4475874
19	0xbeade200	-0.33961487
20	0x402fd0bc	2.7471151
21	0xbea8424a	-0.32863075
22	0xbeaac426	-0.33352774
23	0x3e961919	0.29316023
24	0x3e469ca4	0.19395691
25	0xbea223dd	-0.31667987
26	0x3e8bf9d2	0.27339035
27	0x3e835028	0.25647092
28	0xbeaa847d	-0.33304206
29	0xbead9e1c	-0.3390969
30	0xbea38cad	-0.31943265
31	0x3e7bdaed	0.24595232
32	0xbeadcd67	-0.33945772
33	0x3e85a0a0	0.2609911
34	0x3e615740	0.2200594
35	0x3fdcc0cf	1.724634
36	0xbeaac13d	-0.33350554
37	0xbea8989a	-0.32928926
38	0xbeaa1795	-0.33221117
39	0xbea5ffb9	-0.32421663

linear_sigmoid_stack.0.bias f4 [40]
0	0x3d8b74cc	0.068093866
1	0x3f5b3f01	0.8564301
2	0xc0103dac	-2.2537642
3	0x40150547	2.328447
4	0x403482d5	2.8204854
5	0x3fdaa26e	1.708082
6	0x3faabf8f	1.3339709
7	0xbfd3f144	-1.6558003
8	0x400d3056	2.2060752
9	0xc03500d1	-2.8281748
10	0xc020c52b	-2.5120342
11	0x40263cf5	2.5974705
12	0x403ad9ca	2.9195428
13	0x3fa665f2	1.2999861
14	0x3f189e80	0.5961685
15	0x3fc101ad	1.5078636
16	0xc009c505	-2.15265
17	0x3fa11ee3	1.2587551
18	0xbdebfc11	-0.11522687
19	0x4006672b	2.1000469
20	0x3cf6063f	0.030032275
21	0x3fd6f7a5	1.6794325
22	0xbe606aa0	-0.21915674
23	0xc0278a11	-2.617802
24	0xbfe7ef32	-1.8119872
25	0xbf536306	-0.8257297
26	0xc00e6993	-2.2251937
27	0xc0020bb5	-2.0319645
28	0x3ee79bb6	0.45235986
29	0x400eeb8d	2.2331269
30	0xbf63b612	-0.8894969
31	0xbffaf69f	-1.9606513
32	0x3e57ad98	0.21062315
33	0xc00cebe4	-2.2018976
34	0xbfe93aed	-1.8221108
35	0xbbda02a7	-0.006653148
36	0x3fe6b58e	1.8024156
37	0x3fd1f8e0	1.6404076
38	0x3ffd5cbc	1.9793925
39	0x3f8d2a77	1.1028584

linear_sigmoid_stack.2.weight f4 [40, 40]
0	0xbe49f953	-0.19724016
1	0xbfa1febe	-1.2655866
2	0x3ec6c193	0.3881956
3	0xbfa65453	-1.2994484
4	0xbfd75aec	-1.6824622
5	0xbfb007d2	-1.3752387
6	0xbf92f6c5	-1.1481558
7	0x3e100c95	0.140673
8	0xbfb84416	-1.4395778
9	0x3f4e0fcd	0.8049286
10	0x3edac22d	0.4272627
11	0xbfbe9be5	-1.4891325
12	0xbfc90e35	-1.5707461
13	0xbf9c8535	-1.2228152
14	0xbfa0723b	-1.253486
15	0xbfb201b5	-1.3906771
16	0x3e93f373	0.28896675
17	0xbf82406d	-1.0175911
18	0xbeb52acc	-0.35384214
19	0xbfa1f3ad	-1.2652489
20	0xbef234a6	-0.47305793
21	0xbfbdc847	-1.4826745
22	0xbefa4d10	-0.4888692
23	0x3f1e811f	0.61915773
24	0x3dbdd58b	0.09269246
25	0xbea8bbaa	-0.32955676
26	0x3efc6723	0.49297437
27	0x3e9429df	0.28938195
28	0xbf275c04	-0.6537478
29	0xbfabd05b	-1.342296
30	0xbe8e12ee	-0.27748817
31	0x3ed3fbb5	0.41402975
32	0xbf002210	-0.50051975
33	0x3ec83c36	0.39108437
34	0x3e830864	0.2559234
35	0xbf0fe6b1	-0.5621138
36	0xbfb7caba	-1.4358742
37	0xbfb1f389	-1.3902446
38	0xbfbd6337	-1.4795903
39	0xbf92759d	-1.1442143
40	0xbd73609d	-0.05941831
41	0xbf4d6685	-0.8023456
42	0x3ebb80d8	0.36621737
43	0xbfa3e81a	-1.2805207
44	0xbf914034	-1.1347718
45	0xbf831a4f	-1.0242404
46	0xbf78dd34	-0.9721253
47	0xbc09b27f	-0.008404373
48	0xbf7d1b21	-0.9886952
49	0x3ee0caaf	0.43904635
50	0x3e622f85	0.2208844
51	0xbfadaeff	-1.356903
52	0xbfaadb41	-1.3348161
53	0xbf3e61c6	-0.7436794
54	0xbf21c20c	-0.6318672
55	0xbf583aa3	-0.8446447
56	0x3e05a998	0.13052976
57	0xbf3ffeb4	-0.7499802
58	0x3e242d51	0.16032912
59	0xbf883b7c	-1.0643153
60	0x3d95ad30	0.073084235
61	0xbf7a2021	-0.97705275
62	0x3e403691	0.18770815
63	0x3e8c331c	0.27382743
64	0x3db44aa9	0.08803303
65	0x3e13ab9b	0.14420931
66	0x3e989e43	0.29808244
67	0x3e53ec69	0.20695652
68	0x3e34cf1a	0.17657128
69	0xbf87a156	-1.0596111
70	0x3e900356	0.28127545
71	0x3cf6375e	0.030055698
72	0xbcb3e910	-0.021961719
73	0x3eb72d19	0.35776594
74	0x3e98d6a2	0.29851252
75	0xbd1c15d8	-0.03810677
76	0xbf95b9ea	-1.1697361
77	0xbf57d06c	-0.843024
78	0xbf5dc3dc	-0.8662698
79	0xbf67f082	-0.9060136
80	0xbf074e01	-0.528534
81	0xbe869373	-0.2628437
82	0xbe8b9561	-0.27262405
83	0xbeaf3e11	-0.3422704
84	0xbea2338d	-0.31679955
85	0xbeee218a	-0.46509963
86	0xbeb00348	-0.34377503
87	0xbeb6cfba	-0.35705358
88	0xbe73cebb	-0.2380933
89	0xbdb90bb4	-0.09035435
90	0xbda1600a	-0.07879646
91	0xbea9b237	-0.3314378
92	0xbe852a29	-0.26008728
93	0xbe8d3641	-0.27580455
94	0xbec268e7	-0.3797066
95	0xbea8d9c9	-0.32978657
96	0xbe9bf0eb	-0.30457243
97	0xbe8690c8	-0.26282334
98	0xbedf4604	-0.43608105
99	0xbec8e60f	-0.3923802
100	0xbebe502d	-0.37170544
101	0xbe8be2b9	-0.27321413
102	0xbe13eeeb	-0.14446609
103	0xbdab7b10	-0.08373082
104	0xbe9d417a	-0.30714017
105	0xbe60f361	-0.21967842
106	0xbe9d56e8	-0.30730367
107	0xbde411d3	-0.11136212
108	0x3cb7e9dc	0.02245038
109	0xbe89d42c	-0.26919687
110	0xbdc4c26d	-0.09607396
111	0xbd563867	-0.052299883
112	0xbc388c0c	-0.0112638585
113	0xbeb0379c	-0.34417427
114	0xbe4b39fd	-0.1984634
115	0xbf0a9ca9	-0.54145294
116	0xbe8dad8d	-0.2767147
117	0xbeb59aef	-0.35469767
118	0xbe9a8552	-0.3017984
119	0xbed8c80f	-0.42340133
120	0xbe95ea83	-0.2928048
121	0xbf63b6c1	-0.88950735
122	0x3ea31333	0.31850585
123	0xbfa707fd	-1.3049313
124	0xbfd23c3c	-1.6424632
125	0xbfa21a6d	-1.2664315
126	0xbf937826	-1.1521041
127	0xba4da6be	-0.0007844976
128	0xbfa9f5fb	-1.3278192
129	0x3f32b22f	0.69803137
130	0x3ed9db38	0.42550063
131	0xbf9fc2e0	-1.2481346
132	0xbfcf3338	-1.6187506
133	0xbf7718d0	-0.96522236
134	0xbf7312ac	-0.94950366
135	0xbf9a6f4b	-1.2065214
136	0x3ecf849f	0.4053087
137	0xbf7e5fba	-0.9936482
138	0xbed9702a	-0.42468387
139	0xbfab327d	-1.3374783
140	0xbebc9ee1	-0.36839965
141	0xbf9bd5a5	-1.2174574
142	0xbee59d2a	-0.4484647
143	0x3f0480dc	0.51759124
144	0x3da86b26	0.08223562
145	0xbea151ae	-0.3150763
146	0x3ea6212b	0.3244718
147	0x3e531759	0.20614375
148	0xbf263c6f	-0.64935964
149	0xbfb4d2d5	-1.4126841
150	0xbeb3c3dc	-0.35110366
151	0x3e898d7e	0.26865762
152	0xbecdf510	-0.4022603
153	0x3ee42e9a	0.44566804
154	0x3e990347	0.29885313
155	0xbeceb822	-0.40374857
156	0xbf966782	-1.1750338
157	0xbf9f6ba3	-1.2454723
158	0xbf948b9f	-1.1605109
159	0xbf91c675	-1.1388689
160	0xbf09eb27	-0.5387444
161	0xbe8b3f32	-0.27196652
162	0xbe62cbaa	-0.22148004
163	0xbe3e2868	-0.18570101
164	0xbeae7f9d	-0.34081736
165	0xbdf3ee68	-0.11910707
166	0xbea40c7f	-0.32040784
167	0xbeb4ed65	-0.35337368
168	0xbea00139	-0.31250933
169	0x3dcab07b	0.09896942
170	0xbd1b1d85	-0.03786995
171	0xbdeb3bc8	-0.11486012
172	0xbeb70e95	-0.35753313
173	0xbdb6ee63	-0.089321874
174	0xbeb8dcb5	-0.36105886
175	0xbe1d8595	-0.15382989
176	0xbda54de0	-0.08071494
177	0xbdc3c1da	-0.095584586
178	0xbf1c67e8	-0.6109605
179	0xbe9e2f5c	-0.30895507
180	0xbf183f9e	-0.5947207
181	0xbda4a0c7	-0.08038478
182	0xbd8cb338	-0.06870121
183	0xbe59d90c	-0.21274203
184	0xbe3daa4b	-0.18521993
185	0xbdb47c32	-0.08812751
186	0xbde05da3	-0.1095536
187	0xbe789a97	-0.24277721
188	0xbe0cc80a	-0.13748184
189	0xbdebc397	-0.11511915
190	0xbe758df0	-0.23979926
191	0xbe303721	-0.1720853
192	0xbdf68a37	-0.12038081
193	0xbd4e9676	-0.05043646
194	0xbe9a5a41	-0.30146983
195	0xbf1d0a05	-0.61343414
196	0xbeaa2602	-0.33232123
197	0xbeac140f	-0.33609053
198	0xbe2de858	-0.16983163
199	0xbdf7c309	-0.12097747
200	0x3e7a65cb	0.24452893
201	0x3f984a71	1.1897718
202	0xbf06b3fb	-0.5261838
203	0x3f885051	1.0649511
204	0x3faf874d	1.3713166
205	0x3f9b460d	1.2130753
206	0x3f82dea4	1.0224195
207	0xbe771636	-0.24129567
208	0x3fb7f749	1.437234
209	0xbf316486	-0.6929401
210	0xbf050e6a	-0.5197512
211	0x3f8eea39	1.1165229
212	0x3fb2cf34	1.3969483
213	0x3f8f0bb0	1.1175442
214	0x3f83cfad	1.0297753
215	0x3fa8ddc1	1.3192674
216	0xbee4430d	-0.44582406
217	0x3f9ae863	1.2102169
218	0x3e347441	0.17622472
219	0x3fb0ee21	1.3822671
220	0x3eb3807d	0.35058966
221	0x3f9e29bc	1.2356486
222	0x3ec5f210	0.38661242
223	0xbee63565	-0.44962612
224	0xbe7014d8	-0.23445451
225	0x3e507322	0.2035642
226	0xbedaae76	-0.42711228
227	0xbef28ad8	-0.47371554
228	0x3f19e199	0.6010986
229	0x3f96fbbb	1.1795572
230	0x3ec31ab3	0.38106307
231	0xbef1494a	-0.47126228
232	0x3ee4a36c	0.4465593
233	0xbebc5eb2	-0.36790997
234	0xbe14cebb	-0.14531986
235	0x3ed15eba	0.40892583
236	0x3f8f7938	1.1208868
237	0x3facdf46	1.3505638
238	0x3fb26c5d	1.393932
239	0x3f7d93bc	0.9905355
240	0xbea7815f	-0.3271589
241	0xbf4f5f80	-0.81005096
242	0x3e594dda	0.21221104
243	0xbf7af0e6	-0.9802383
244	0xbfa52c7b	-1.2904199
245	0xbf853b1c	-1.0408664
246	0xbf656fd3	-0.89623755
247	0xbdf73c0f	-0.12072002
248	0xbf86f9d4	-1.0544991
249	0x3e7da5bd	0.24770255
250	0x3ea54f50	0.32287073
251	0xbf5cf639	-0.86313206
252	0xbfae1a83	-1.3601841
253	0xbf7c09b2	-0.98452294
254	0xbf450386	-0.769585
255	0xbf5b2c3e	-0.85614383

linear_sigmoid_stack.2.bias f4 [40]
0	0xbeb3a513	-0.3508688
1	0xbf00bc4c	-0.5028732
2	0xbece1c55	-0.4025599
3	0xbef9c352	-0.4878183
4	0xbe8c8fe5	-0.27453533
5	0x3d5442b2	0.051821418
6	0xbea8b809	-0.32952908
7	0xbec22d43	-0.37925157
8	0xbef7ea4a	-0.48420936
9	0x3ea5be7b	0.32371888
10	0xbeb3ef52	-0.35143524
11	0xbedba13d	-0.42896453
12	0xbe8ceb7d	-0.27523413
13	0xbee620a3	-0.44946775
14	0xbed6c3a5	-0.4194614
15	0xbf1164fc	-0.56794715
16	0xbecf84c0	-0.40530968
17	0xbef4c936	-0.47809762
18	0xbf02183c	-0.5081823
19	0xbef54a75	-0.4790837
20	0x3e1f5027	0.1555792
21	0xbf09511a	-0.53639376
22	0xbef41200	-0.47669983
23	0xbedf12dc	-0.43569076
24	0xbeafb354	-0.34316504
25	0xbef4db1f	-0.47823426
26	0xbe2612d8	-0.16218126
27	0xbf0a18fc	-0.53944373
28	0xbf143a3a	-0.57901347
29	0x3ec31ef2	0.38109547
30	0xbee32344	-0.44362843
31	0x3d228305	0.03967573
32	0xbeaa05a2	-0.33207422
33	0xbec66128	-0.38746
34	0xbe72541e	-0.236649
35	0x3e75449b	0.23951952
36	0xbe0f01e8	-0.13965571
37	0xbe4a8169	-0.19775929
38	0xbebc8dd4	-0.36826956
39	0xbf11d575	-0.56966335

linear_sigmoid_stack.4.weight f4 [40, 40]
0	0x3e0786ff	0.1323509
1	0xbea7072e	-0.32622665
2	0x3c6d6eaf	0.014491721
3	0xbe070175	-0.1318415
4	0x3cf76d13	0.030203378
5	0xbf39f4ca	-0.72639143
6	0xbe37ccfd	-0.1794929
7	0xbdebb378	-0.1150884
8	0x3e7f4d37	0.24931799
9	0xbf8aa4ae	-1.0831506
10	0x3ebfcb4d	0.37459794
11	0x3e9b8d42	0.3038121
12	0xbde92c93	-0.11385455
13	0xbe153efb	-0.14574806
14	0xbe1219a3	-0.14267592
15	0xbd92c2d5	-0.071660675
16	0x3dc81b10	0.09770787
17	0xbd56fcb0	-0.052487075
18	0xbe44529d	-0.1917214
19	0xbe918852	-0.28424317
20	0xbf46137b	-0.77373475
21	0xbe38b76f	-0.18038724
22	0xbe331f2f	-0.17492364
23	0x3d83ea5f	0.06441187
24	0xbe199cb6	-0.15001187
25	0xbed65a68	-0.4186585
26	0xbf1344aa	-0.5752665
27	0xbe1b6acd	-0.1517746
28	0xbe2cfbd5	-0.16892941
29	0xbf011911	-0.50428873
30	0xbe11cd97	-0.14238583
31	0xbf065e3a	-0.5248753
32	0xbe2edddb	-0.17076819
33	0xbcbe42ee	-0.023225274
34	0xbdefbefb	-0.117063485
35	0xbf1ee7fa	-0.6207272
36	0xbf2c9cd4	-0.674268
37	0xbe6b8113	-0.22998457
38	0xbe287b42	-0.16453269
39	0xbdf5e242	-0.12006046
40	0xbf8e4d6f	-1.1117381
41	0xbf1ecae8	-0.6202836
42	0xbd2dd961	-0.042443637
43	0xbf51a3ea	-0.8189074
44	0xbe4fe332	-0.20301512
45	0xbeff8783	-0.49908075
46	0xbef87c65	-0.48532405
47	0xbdc85f86	-0.09783845
48	0xbf6e3cb0	-0.9306135
49	0xbf15ed1e	-0.5856494
50	0xbf99bb9a	-1.2010376
51	0xbf6caa58	-0.92447424
52	0xbe3f54f9	-0.18684758
53	0xbeaf16c6	-0.34197062
54	0xbe3fdc01	-0.18736269
55	0xbe3a1ca8	-0.18174994
56	0xbea622ac	-0.32448328
57	0xbebd8d17	-0.37021706
58	0xbf8cc9bf	-1.0999068
59	0xbf6a5e5c	-0.9155023
60	0xbebb65d1	-0.36601117
61	0xbf2f6c5e	-0.6852473
62	0xbf42d894	-0.7611172
63	0xbf91e340	-1.1397476
64	0xbf6eafcc	-0.93236995
65	0xbec6675c	-0.38750732
66	0xbf1420d7	-0.5786261
67	0xbe52624d	-0.20545311
68	0xbefe45c8	-0.49662614
69	0xbf47ca68	-0.7804322
70	0xbeccfc57	-0.4003627
71	0xbf0ab33a	-0.5417973
72	0xbe13945c	-0.14412063
73	0xbf1f192c	-0.62147784
74	0xbdf9eaad	-0.12202964
75	0xbf62c0ca	-0.8857542
76	0xbf009b06	-0.50236547
77	0xbe54da6e	-0.2078645
78	0xbeac61a7	-0.33668253
79	0xbf08220f	-0.5317697
80	0xbfac8b2b	-1.3479971
81	0xbf51622b	-0.8179042
82	0xbe953d0c	-0.29148138
83	0xbfa87b6f	-1.3162669
84	0xbecbf0d0	-0.39832163
85	0x3e55e5be	0.20888421
86	0xbf671d90	-0.90279484
87	0xbe96b8b0	-0.2943778
88	0xbf912d96	-1.1342037
89	0x3e333d6d	0.17503901
90	0xbfb4d844	-1.4128499
91	0xbf902094	-1.1259942
92	0xbed3d0e6	-0.41370314
93	0xbf05cdb1	-0.52266985
94	0xbf1a8a62	-0.60367405
95	0xbe90304f	-0.28161857
96	0xbea65dc4	-0.32493412
97	0xbf28bec5	-0.6591609
98	0xbfa9dc27	-1.327031
99	0xbf99b83d	-1.200935
100	0x3ee558ac	0.44794214
101	0xbf6aafc7	-0.91674465
102	0xbf87506f	-1.0571421
103	0xbfb744fa	-1.4317925
104	0xbf95f39f	-1.1714972
105	0xbf3c1bd7	-0.7347998
106	0xbec86f12	-0.3914724
107	0xbe853a35	-0.2602097
108	0xbf2fc7f0	-0.68664455
109	0xbec3822c	-0.3818525
110	0xbeef8afe	-0.4678573
111	0x3e876f2a	0.26452
112	0xbef7e606	-0.4841768
113	0xbf8ecbc6	-1.1155937
114	0xbf0a61a3	-0.5405523
115	0xbe1c8b3d	-0.1528749
116	0x3e81cccb	0.25351557
117	0xbecb5cb8	-0.39719176
118	0xbeae14b1	-0.3400016
119	0xbf4aeaae	-0.7926434
120	0xbe5011d8	-0.20319307
121	0xbfa628cf	-1.2981204
122	0xbe9b1bd9	-0.30294684
123	0xbea59a03	-0.32344064
124	0xbdac8c6a	-0.08425219
125	0xbf89a19f	-1.0752448
126	0xbee6930d	-0.45034066
127	0xbd82f418	-0.063942134
128	0xbeb0e7fe	-0.34551996
129	0xbfa89bd0	-1.317255
130	0xbda815f7	-0.082073145
131	0xbe50e15d	-0.2039847
132	0xbe2fea2d	-0.17179175
133	0xbe185c92	-0.14879063
134	0xbded6c52	-0.11592926
135	0xbe2b3ac1	-0.16721632
136	0xbe7830a4	-0.24237305
137	0xbe95c10e	-0.29248852
138	0xbe7604bc	-0.24025244
139	0xbea79183	-0.32728204
140	0xbf320489	-0.6953817
141	0xbe98804b	-0.2978538
142	0xbec70459	-0.38870504
143	0xbebbdb3d	-0.36690703
144	0xbee50275	-0.44728437
145	0xbec4d56f	-0.38444087
146	0xbeae6058	-0.3405788
147	0xbe89503e	-0.26819032
148	0xbe442646	-0.19155225
149	0xbf86669c	-1.0500064
150	0xbdb9f727	-0.09080344
151	0xbf0dcc8f	-0.55390257
152	0xbe66f12e	-0.2255294
153	0xbe50f86e	-0.20407268
154	0xbe916fee	-0.28405708
155	0xbf822210	-1.0166645
156	0xbf687d3c	-0.9081609
157	0xbd9d2cca	-0.076745585
158	0xbe44467b	-0.19167511
159	0xbdcb78c3	-0.09935143
160	0xbeffee61	-0.49986556
161	0xbf5de51d	-0.86677724
162	0xbde2d586	-0.110758826
163	0xbf1c2b83	-0.61003894
164	0xbe834517	-0.2563865
165	0xbf7b87ab	-0.9825389
166	0xbeb71a91	-0.35762456
167	0x3d64880e	0.055793814
168	0xbf01ab41	-0.5065194
169	0xbf38b613	-0.72152823
170	0xbef3bef6	-0.4760663
171	0xbf27bb12	-0.6551982
172	0xbdc01e20	-0.09380746
173	0xbda99f0c	-0.08282289
174	0xbe79c9f6	-0.24393448
175	0xbe667ebc	-0.22509283
176	0x3d44b648	0.0480254
177	0xbe33bce2	-0.17552522
178	0xbf229d3e	-0.6352118
179	0xbe930aba	-0.2871912
180	0xbf3a62c0	-0.7280693
181	0xbe2c7084	-0.16839796
182	0xbea04770	-0.31304502
183	0xbf0164ea	-0.5054461
184	0xbe966d41	-0.2938023
185	0xbe05f2a9	-0.13080849
186	0xbe8850bb	-0.26624092
187	0xbe927352	-0.28603607
188	0xbea547a0	-0.32281208
189	0xbf8dd8c3	-1.1081775
190	0xbe8a0b80	-0.269619
191	0xbf47f485	-0.7810748
192	0xbd919f3a	-0.07110448
193	0xbea1cfe7	-0.3160393
194	0xbc2a3789	-0.010389217
195	0xbf9432ab	-1.1577963
196	0xbf6ca9ab	-0.9244639
197	0xbc1a7c7f	-0.009429096
198	0xbe531b12	-0.20615795
199	0xbea08955	-0.31354776
200	0xbf1871bc	-0.59548545
201	0xbf7d461e	-0.98935115
202	0xbe590aeb	-0.21195571
203	0xbf0058a1	-0.50135237
204	0xbd7d896e	-0.06189864
205	0xbf406bdb	-0.75164574
206	0xbe76a550	-0.24086499
207	0xbd1edd2a	-0.038785137
208	0xbf105a87	-0.56388134
209	0xbf609433	-0.87726134
210	0xbf24460f	-0.641694
211	0xbf13fe68	-0.5781007
212	0xbd7c0bba	-0.06153462
213	0xbdb990d7	-0.09060829
214	0x3d371a6f	0.044702943
215	0xbe2fcfd9	-0.17169131
216	0xbdbf2721	-0.09333635
217	0xbe03870d	-0.12844487
218	0xbf1642ef	-0.5869588
219	0xbea87a4b	-0.32905802
220	0xbf2af12f	-0.66774267
221	0xbe70085f	-0.23440693
222	0xbee11883	-0.43964013
223	0xbef22c12	-0.47299248
224	0xbe98cbfc	-0.29843128
225	0xbe8cb40d	-0.27481118
226	0xbe84a5b6	-0.25907677
227	0xbe837867	-0.25677797
228	0xbeafd573	-0.34342536
229	0xbf9af983	-1.2107395
230	0xbe1c3fe7	-0.15258752
231	0xbf5bccba	-0.8585926
232	0xbe38ca8f	-0.1804602
233	0xbedaef00	-0.42760468
234	0xbe4aac5a	-0.1979231
235	0xbf88c4f0	-1.06851
236	0xbf410e4a	-0.7541243
237	0xbe4f9227	-0.20270596
238	0x3d1b5328	0.0379211
239	0xbe08957a	-0.13338271
240	0xbf9c6fe1	-1.2221643
241	0xbf452b17	-0.77018875
242	0xbee137a6	-0.4398777
243	0xbf998219	-1.1992828
244	0xbf142042	-0.5786172
245	0x3d9b884f	0.07594358
246	0xbf67deb6	-0.90574205
247	0xbea31773	-0.31853828
248	0xbfadfc81	-1.3592683
249	0x3ea09d8d	0.31370202
250	0xbfaa6f00	-1.3315125
251	0xbf98309b	-1.1889833
252	0xbeefa48b	-0.46805224
253	0xbf1f666a	-0.62265646
254	0xbf0b95ee	-0.5452565
255	0xbea6cf72	-0.32580143

linear_sigmoid_stack.4.bias f4 [40]
0	0xbf1f2be0	-0.6217632
1	0xbf65fa58	-0.8983512
2	0xbe8e5974	-0.27802622
3	0xbf7aff7f	-0.98046106
4	0xbf89528b	-1.0728315
5	0xbf79492c	-0.97377276
6	0xbe8511d3	-0.2599016
7	0xbf7d742e	-0.990054
8	0xbf571344	-0.8401377
9	0xbf81fabf	-1.0154647
10	0xbe8d7161	-0.27625564
11	0xbeaeffce	-0.34179538
12	0xbf483fd2	-0.7822238
13	0xbf99deea	-1.2021153
14	0xbf8b38ce	-1.087671
15	0xbf6dd8b1	-0.9290877
16	0xbf45c360	-0.77251244
17	0xbf825f77	-1.0185384
18	0xbf4cc2c0	-0.79984665
19	0xbf6831d6	-0.90701044
20	0xbf794c80	-0.97382355
21	0xbfa2946e	-1.2701547
22	0xbf873c90	-1.0565357
23	0xbf745c47	-0.95453304
24	0xbf7a050a	-0.9766394
25	0xbf984585	-1.1896216
26	0xbf444aa9	-0.7667642
27	0xbf7f84a0	-0.99811745
28	0xbf87aa3a	-1.0598824
29	0xbf82f47d	-1.0230862
30	0x3d252b5b	0.04032455
31	0xbf828496	-1.0196712
32	0xbf84dc47	-1.0379723
33	0xbf8f5f8d	-1.1201035
34	0xbf7ea3de	-0.9946879
35	0xbf8387c3	-1.0275806
36	0xbfa24e23	-1.2680095
37	0xbe42f61b	-0.19039194
38	0xbf8d03a8	-1.1016741
39	0xbfa50d31	-1.2894651

linear_sigmoid_stack.6.weight f4 [1, 40]
0	0x3dec6271	0.11542214
1	0xbcdf730d	-0.02727654
2	0xbe858e9c	-0.26085365
3	0x3d86e46b	0.06586536
4	0x3cc49a62	0.023999397
5	0x3cae64c3	0.021288281
6	0xbe928be2	-0.28622347
7	0x3d814261	0.06311489
8	0xbbf17394	-0.0073685143
9	0x3caf0397	0.021364016
10	0x3e2b5bd5	0.1673425
11	0x3e749d46	0.2388812
12	0x3db15c2e	0.0866016
13	0x3c52377a	0.012830609
14	0x3d6a2758	0.057166427
15	0x3bb46257	0.005504887
16	0xbd246298	-0.04013309
17	0x3cf0f0b7	0.029411657
18	0x3daf4034	0.08557168
19	0x3d8e0164	0.06933859
20	0x3c7f836a	0.015595296
21	0x3d007e41	0.031370405
22	0x3dc95221	0.09830118
23	0x3c2b5cf2	0.010459172
24	0x3d862297	0.06549566
25	0x3b53bffa	0.0032310472
26	0xbda5838a	-0.0808173
27	0x3d00851a	0.031376936
28	0x3db19b6e	0.08672224
29	0xbc84292f	-0.01613292
30	0x3ec2f6ea	0.38079005
31	0x3d6daaba	0.058024146
32	0x3d38841a	0.045047857
33	0x3c40afb6	0.011760643
34	0x3cbef1cd	0.023308659
35	0x3d8ab5be	0.06772946
36	0x3ccbfbe7	0.02490039
37	0x3ebfb2d9	0.37441137
38	0x3cd09ab6	0.025464397
39	0x3d4debed	0.050273824
