Logistic/Results with additional condition/sol_w80.pt (torch_old, 15258 bytes, 7 tensors)

linear_sigmoid_stack.0.weight f4 [40, 1]
00000000: fa13 b33f c7e3 afbe 2766 843e 39fd b8be
00000010: dbda c4be 40ee a9be d6e8 a7be 1c8e c83d
00000020: c740 b7be 3394 9b3e dfbd 8b3e a835 bebe
00000030: 84b1 c7be cf7d a6be 66bf 94be 1404 b4be
00000040: 931d 633e 9b1b abbe b29a b53f 509c b7be
00000050: 6c22 3340 9fee a8be 1f1b c3be 264e 8c3e
00000060: 3322 1b3e 4bfd 99be 9ab3 7e3e 98f5 623e
00000070: b341 c8be 8cb0 b3be 56d2 a4be 7141 5e3e
00000080: 0e95 cebe daa5 6e3e 85e0 303e f991 d83f
00000090: b6e3 b5be 63b6 abbe c8f1 abbe b039 a5be
1.3990471 -0.34353468 0.25859186 -0.36130694 -0.38448223 -0.33189583 -0.32794827 0.0979273
-0.3579161 0.30386505 0.27293298 -0.3715031 -0.3900262 -0.3251786 -0.29052275 -0.3515936
0.2217925 -0.334195 1.4187834 -0.35861444 2.798976 -0.32994553 -0.3810663 0.27403373
0.15149765 -0.3007606 0.248732 0.22163999 -0.39112625 -0.35095632 -0.32191724 0.21704651
-0.40348095 0.23305455 0.17273147 1.6919547 -0.35525292 -0.33537588 -0.33582902 -0.32270575

linear_sigmoid_stack.0.bias f4 [40]
00000000: 088b 64bc e8c7 553f 63b4 10c0 925f 1340
00000010: 935f 3240 8073 d73f 9bc2 a73f 12ed d5bf
00000020: fb43 0b40 2b3f 35c0 fd84 21c0 5e84 2440
00000030: 4f03 3940 cfa1 a33f f24f 143f 9cc9 bd3f
00000040: ac5e 0ac0 1e48 9e3f b3bd 58be fc9f 0440
00000050: 4e69 43bd 55ba d33f e95d 58be ec22 28c0
00000060: aaff e9bf 548e 55bf b533 0fc0 04d3 02c0
00000070: d1a4 e83e 9547 0d40 af05 64bf bd46 fcbf
00000080: 49db 593e 5b91 0dc0 7007 ebbf e0cd b2bd
00000090: 0ac0 e23f 5d43 ce3f 4f3e fa3f c325 8a3f
-0.013949163 0.8350816 -2.26101 2.3027081 2.7870834 1.6832123 1.3106264 -1.6712973
2.1760242 -2.8319805 -2.523742 2.570579 2.890827 1.2783755 0.57934487 1.4827151
-2.1620283 1.2365758 -0.21166115 2.0722647 -0.04770785 1.6541239 -0.21129574 -2.6271315
-1.8281147 -0.834203 -2.237531 -2.0441294 0.45438245 2.207494 -0.8907117 -1.9709088
0.21275057 -2.2119968 -1.8361645 -0.08730674 1.7714856 1.6114308 1.9550265 1.0792774

linear_sigmoid_stack.2.weight f4 [40, 40]
00000000: b2fa 5fbe 681a a2bf 036d bc3e 165b a6bf
00000010: 0a50 d7bf 2a22 b0bf 6119 93bf d2fb 043e
00000020: c44e b8bf c18b 483f c7e4 cf3e f299 bebf
00000030: 27fb c8bf 3fa0 9cbf 078c a0bf 8017 b2bf
00000040: a733 8a3e b058 82bf 8f2b c0be 68fc a1bf
00000050: 6b35 fdbe ebdc bdbf f76c fabe e50e 193f
00000060: fe4e 9d3d 39e0 a8be 74b3 f13e 92dd 893e
00000070: 9b76 27bf 1fdb abbf bf2d 8ebe a2ee c93e
00000080: 4b38 00bf 6c28 be3e 12cd 733e 2167 15bf
00000090: dcda b7bf f50f b2bf ff70 bdbf b994 92bf
000000a0: a990 4fbc 5c93 4bbf 941f c93e ca02 a2bf
000000b0: e913 8fbf 4e90 81bf 6837 76bf b745 f63b
000000c0: 9088 79bf 6fc1 ed3e ea09 7d3e e69d abbf
000000d0: 93a8 a8bf b1ea 3bbf 3ff9 1fbf c4cc 55bf
000000e0: 5539 1e3e efbd 3dbf 700c 543e 2b97 86bf
000000f0: 0d6b f53d bf2e 77bf c992 423e 5d0f 993e
00000100: b42f de3d 83c0 153e 327c a63e b1d6 6e3e
00000110: d9eb 383e 9cc2 85bf ecdd 903e 613e 673d
00000120: b3cf 99bc cddf c33e 6894 a43e de9a 0d3c
00000130: f54c 94bf 73de 54bf b658 5abf d8a4 65bf
00000140: 71b7 04bf 9d05 85be 194e 89be 490f acbe
00000150: 298d 9ebe 1d96 ebbe afe0 adbe 7628 b5be
00000160: 23be 6dbe 2552 b1bd a9d9 98bd 623d a6be
00000170: a971 81be ed27 8bbe 20f6 c0be 84b1 a6be
00000180: 42cc 99be 2a9e 84be f12c dabe c708 c6be
00000190: 724c b9be 7365 89be 409b 12be f467 a3bd
000001a0: 7c3d 9bbe 85ee 5fbe bd03 9bbe aea2 dabd
000001b0: 927e c83c 90b8 86be 94ea c2bd 2b15 43bd
000001c0: f101 1dbc 010a aebe 5dce 46be d30e 08bf
000001d0: 6029 8bbe 5b28 b3be 2dac 97be 5be7 d6be
000001e0: 56fb 9dbe f5b6 63bf 633f 9b3e 19f3 a6bf
000001f0: 7716 d2bf 7e13 a2bf 7076 93bf f6db 0ebc
00000200: 2ce5 a9bf f886 2e3f 0cb0 d13e 18a5 9fbf
00000210: 4807 cfbf 2a0f 77bf ed13 73bf 8267 9abf
00000220: 6e2f c83e ed54 7ebf fb80 e1be 1322 abbf
00000230: b4af c4be 42cc 9bbf 0b98 e5be 256b 003f
00000240: 6b49 903d 1853 a1be 3c1e 9e3e 2cb6 433e
00000250: 5b37 26bf cfc1 b4bf 52c2 b3be fa01 823e
00000260: 97ee cdbe 7d9a dc3e b93a 923e f5c8 d6be
00000270: 935c 96bf c465 9fbf 917e 94bf e0c4 91bf
00000280: 6f20 04bf 21df 85be 596b 57be 5b5f 2bbe
00000290: 06f0 a3be be9c d4bd 6939 9dbe f89b b0be
000002a0: 39fb 96be 5dc2 dd3d abb1 e1bc 57f4 c2bd
000002b0: 864f acbe 7b60 9cbd 0bc9 b3be 73c4 0fbe
000002c0: bad8 8fbd 7741 aabd 17d6 16bf d292 95be
000002d0: ecd7 12bf f5d5 85bd acc5 80bd 27dd 4fbe
000002e0: 4e6f 33be 249e abbd 9f38 c9bd 2ed0 6cbe
000002f0: e58f 04be 38e1 c6bd d368 71be f637 24be
00000300: 7ef7 e7bd bb11 23bd a5c7 94be e667 17bf
00000310: 9065 a2be 037f a4be cfb9 1cbe e406 dfbd
00000320: ef55 573e 240e 983f c069 0bbf c00e 873f
00000330: 41d0 ad3f ae75 9a3f 905e 823f 7f9e 81be
00000340: 28d7 b63f 0c39 35bf 8821 09bf 076a 8d3f
00000350: dcfc b03f bd87 8e3f 1a8c 833f 194d a83f
00000360: 9a8c ecbe d46f 9a3f 6264 113e 52eb af3f
00000370: 9bf8 a13e c554 9d3f fdbb c53e b59b edbe
00000380: 5d94 7ebe 5731 503e 2b4b e3be 3b15 fbbe
00000390: 02a4 193f 07bf 953f 27f9 c23e 0469 fabe
000003a0: b35d e43e f6b2 c4be c352 24be d9d6 bf3e
000003b0: 1eb1 8e3f 6426 ac3f 6c50 b13f f5c7 7c3f
000003c0: 3ad4 a6be 3738 4fbf c8d8 583e 429a 7abf
000003d0: a8fb a4bf 881a 85bf ac39 65bf 0656 f7bd
000003e0: c9d2 86bf 6cde 7c3e 5a00 a53e a894 5cbf
000003f0: 54e8 adbf 97d6 7bbf 6edf 44bf 7ff7 5abf
-0.21872976 -1.2664309 0.3680192 -1.2996547 -1.6821301 -1.3760426 -1.149212 0.12986687
-1.4399037 0.7833825 0.4060423 -1.489073 -1.5701646 -1.2236403 -1.2542733 -1.3913422
0.26992533 -1.0183315 -0.37533233 -1.2655153 -0.49454817 -1.4833044 -0.4891126 0.5978835
0.07681082 -0.32983568 0.47207224 0.26926857 -0.6541535 -1.3426245 -0.27769276 0.39439875
-0.50085896 0.37140214 0.23808697 -0.5836049 -1.4363666 -1.391112 -1.4800109 -1.1451637
-0.012668767 -0.7952173 0.39281905 -1.2657101 -1.1177951 -1.0122163 -0.96178293 0.007515635
-0.97474 0.4643664 0.24710813 -1.3407562 -1.3176445 -0.73404986 -0.62489694 -0.8351557
0.15451558 -0.7411794 0.2070787 -1.0514883 0.11983309 -0.96555704 0.19001307 0.29894534
0.108489424 0.14624219 0.32516629 0.23324086 0.18058719 -1.0450015 0.28294313 0.056455974
-0.018775797 0.38256684 0.32144475 0.00864288 -1.1585985 -0.8315193 -0.8529161 -0.89704657
-0.5184241 -0.25980845 -0.26817396 -0.33605412 -0.30967072 -0.46012965 -0.33960482 -0.35382432
-0.23217063 -0.08658246 -0.074633904 -0.32468706 -0.25282028 -0.27178898 -0.37687778 -0.3255731
-0.3003865 -0.2590192 -0.42612413 -0.38678572 -0.36191136 -0.26835212 -0.14317036 -0.07978812
-0.30320346 -0.21868332 -0.3027629 -0.1067556 0.024474416 -0.26312685 -0.095173985 -0.04762761
-0.009582982 -0.33992007 -0.19414659 -0.5314762 -0.27180004 -0.34991726 -0.29623547 -0.41973385
-0.30855817 -0.88951045 0.30321798 -1.3042938 -1.6413106 -1.2662199 -1.1520519 -0.008719435
-1.3273063 0.68174696 0.40954626 -1.2472258 -1.6174097 -0.96507514 -0.9495228 -1.2062838
0.39098686 -0.99348336 -0.44043717 -1.3369774 -0.384153 -1.217171 -0.44842562 0.5016349
0.07045253 -0.31508708 0.30882442 0.19112462 -0.64928216 -1.4121646 -0.35109192 0.25392133
-0.40221092 0.43086615 0.28560427 -0.41950193 -1.1747001 -1.2452931 -1.1601125 -1.1388206
-0.5161199 -0.26146796 -0.21037044 -0.16735594 -0.3201906 -0.10381459 -0.30707863 -0.34493995
-0.29488543 0.108280875 -0.027550539 -0.095192604 -0.33654422 -0.0763559 -0.3511432 -0.14039783
-0.07023759 -0.08313268 -0.58920425 -0.29213578 -0.5736072 -0.0653495 -0.06287703 -0.20299207
-0.17522928 -0.08379772 -0.09825253 -0.23126289 -0.12945516 -0.09710926 -0.23575144 -0.16036972
-0.11326502 -0.03981183 -0.29058567 -0.5914291 -0.3171811 -0.32128152 -0.15305255 -0.10889986
0.21028875 1.1879315 -0.54458237 1.0551376 1.3579179 1.2067163 1.0185108 -0.25316235
1.428441 -0.7079017 -0.5356679 1.1047982 1.3827167 1.1135174 1.0277131 1.3148528
-0.4620102 1.2065377 0.14198449 1.3743689 0.31634983 1.2291495 0.38619986 -0.46407858
-0.24861284 0.20331322 -0.44393286 -0.49039635 0.6001588 1.1698922 0.38080713 -0.48908246
0.44602737 -0.38417786 -0.16047196 0.37468603 1.1147802 1.3449216 1.3852668 0.9874261
-0.3258379 -0.8094515 0.21176445 -0.9789163 -1.2889299 -1.0398722 -0.89541125 -0.120769545
-1.0533077 0.24694222 0.3222683 -0.8616433 -1.3586526 -0.98374313 -0.76903427 -0.855339

linear_sigmoid_stack.2.bias f4 [40]
00000000: d9a5 bebe 0589 e9be 5521 c8be 0dea 00bf
00000010: a30c 79be 3b05 903c da0a a8be 9da9 bfbe
00000020: 0b16 06bf 1a5a a63e b38f cbbe ed63 edbe
00000030: 9b87 8abe 7d00 e5be 9b3f c4be 84bb 0dbf
00000040: 6300 cbbe 1e81 f0be 41ee 04bf 7fda f8be
00000050: fe89 1f3e d50f 09bf 8bb3 f8be 42d2 eebe
00000060: 9446 b3be c1fc f2be 5bab 38be fedc f0be
00000070: e2a5 13bf efa2 c63e c20a e0be 9369 823c
00000080: c166 99be c0ee c6be 20ac 5ebe c8d7 713e
00000090: fd1a 44be 3357 2dbe 444b acbe 2725 11bf
-0.37235907 -0.4561235 -0.3908793 -0.50357133 -0.24321227 0.01758062 -0.3282078 -0.37434092
-0.52377385 0.32490617 -0.3975807 -0.463653 -0.27056584 -0.44726935 -0.38329777 -0.5536425
-0.39648733 -0.4697351 -0.51926047 -0.486042 0.15579984 -0.5353978 -0.4857448 -0.4664479
-0.35014784 -0.4745846 -0.18034117 -0.47043604 -0.5767499 0.38796183 -0.43758208 0.015919482
-0.29961208 -0.38854027 -0.21745348 0.2361747 -0.1915092 -0.16927795 -0.33651173 -0.56697315

linear_sigmoid_stack.4.weight f4 [40, 40]
00000000: 9c02 0b3e c79b a3be ab0a 713c ab06 04be
00000010: fd05 fa3c 6007 3fbf 56b2 36be 5b5a ebbd
00000020: a08b 813e 6b0f 8dbf d2e0 c13e f29a 9d3e
00000030: cd9f e8bd 84e1 14be 20a7 11be 465f 92bd
00000040: 0f83 c83d 546f 55bd 08cb 40be 987b 90be
00000050: 7ea8 4cbf 43dc 37be c59b 30be 75ec 8b3d
00000060: 1bdb 16be 300b d6be 78ad 17bf d8bd 1cbe
00000070: b257 2cbe d2bc 04bf de7d 11be d412 0cbf
00000080: 0d6d 2ebe ace1 b3bc bb28 efbd ac33 23bf
00000090: e689 32bf e110 6bbe 4c08 28be c8d6 f4bd
000000a0: 054a 8ebf c1f8 1ebf 1194 2ebd 41a1 51bf
000000b0: 3e3f 50be 387b 08bf 2d82 f8be a490 c8bd
000000c0: f333 6ebf edc6 1ebf 0bb5 99bf efa0 6cbf
000000d0: a16b 3fbe f01d afbe a738 40be 035d 3abe
000000e0: 5a34 a6be 179d bdbe 7cc7 8cbf ca5d 6abf
000000f0: 03ad cbbe 056f 2fbf fbd7 42bf c5de 91bf
00000100: 20b0 6ebf 0c71 c6be 7596 17bf ae50 55be
00000110: 064d febe f29e 50bf 3b0a cdbe 9f14 12bf
00000120: 1c03 14be 9118 1fbf 2852 fabd c492 6bbf
00000130: ce9e 08bf 852d 55be 149c acbe 9324 08bf
00000140: fa69 adbf b218 5ebf 33ba a0be ce77 a9bf
00000150: 09fd e4be 8db7 4a3d 6f85 68bf d0c2 9bbe
00000160: d3a9 91bf 6f52 5c3c 8ec4 b4bf 8da6 90bf
00000170: b58a d7be 0eca 06bf e95d 25bf 1d4a a1be
00000180: d18f afbe 933e 2bbf 0133 abbf 48a0 9abf
00000190: 6df2 933e 64f4 6bbf 7366 88bf e328 b8bf
000001a0: da3c 97bf 547f 3dbf 0e5a 15bf fd25 ecbe
000001b0: 4aee 30bf 8a40 0bbf 72c7 f3be eab8 e63d
000001c0: bceb 08bf bc5d 8fbf 110f 11bf 6651 a1be
000001d0: 0e2c c63d 5cc2 e0be 26f1 c9be 67d7 4bbf
000001e0: 6e06 50be 8427 a6bf 751b 9bbe 7795 a5be
000001f0: f786 acbd 9dc7 89bf 9091 e6be dff3 82bd
00000200: 41e3 b0be 25c1 a8bf f5f7 a7bd 1ad5 50be
00000210: aee9 2fbe b25b 18be 8166 edbd 8639 2bbe
00000220: c32f 78be dac0 95be 88f9 75be 678e a7be
00000230: c56b 32bf 3e7f 98be c900 c7be 31d6 bbbe
00000240: 76fe e4be bbd4 c4be 82d5 aebe b756 89be
00000250: 9f24 44be 448b 86bf 34f5 b9bd 8520 0ebf
00000260: 7bee 66be 25f4 50be 946f 91be c747 82bf
00000270: 06cf 68bf 3927 9dbd d543 44be fc75 cbbd
00000280: 2eec ffbe abe3 5dbf dbd5 e2bd d32a 1cbf
00000290: 8d45 83be fedd 7bbf 491a b7be 4b88 643d
000002a0: 67aa 01bf 560b 39bf 52bc f3be 4dba 27bf
000002b0: 641e c0bd ef9e a9bd 64ca 79be 947f 66be
000002c0: 98b6 443d f6bc 33be 949c 22bf 9c09 93be
000002d0: 25c0 3abf b16f 2cbe 2646 a0be 0564 01bf
000002e0: b56b 96be 8bf2 05be 98b2 88be 627f 92be
000002f0: c747 a5be f801 8ebf 800b 8abe 3046 48bf
00000300: 56a0 91bd 2ecf a1be a833 2abc a45c 94bf
00000310: 25fe 6cbf 7577 1abc c91b 53be 8989 a0be
00000320: 6370 18bf 3844 7dbf c70b 59be 7257 00bf
00000330: d390 7dbd 8304 41bf eaa3 76be 0bde 1ebd
00000340: 0c59 10bf d22b 61bf 6d44 24bf cbfc 13bf
00000350: 2f0c 7cbd b090 b9bd b913 373d a5d1 2fbe
00000360: 2c28 bfbd 5c87 03be 8541 16bf aa78 a8be
00000370: a88d 2bbf 8e07 70be 7416 e1be 3f28 f2be
00000380: b8c9 98be 13b4 8cbe 5446 85be 2e8e 83be
00000390: 78d5 afbe 2d43 9bbf 1b40 1cbe de55 5cbf
000003a0: 01cd 38be 36ee dabe 45ad 4abe 8e0f 89bf
000003b0: c69d 41bf 8793 4fbe ca48 1b3d 5c95 08be
000003c0: effd 96bf f761 3bbf 843a e6be 5250 95bf
000003d0: 88b4 18bf 18cf 2f3e 48cb 65bf c142 a5be
000003e0: ca9b a7bf 9455 d03e d48e a3bf c6f6 90bf
000003f0: fad0 f0be 7916 1fbf ae42 10bf 79fe acbe
0.13575214 -0.31954786 0.014712016 -0.12893169 0.030520434 -0.7462063 -0.17841467 -0.11491843
0.25301838 -1.102033 0.37866837 0.30782276 -0.113586046 -0.14539152 -0.1422391 -0.07147078
0.097906224 -0.052108124 -0.1882745 -0.28219295 -0.799446 -0.17955117 -0.17246921 0.0683221
-0.1473202 -0.4180541 -0.5924907 -0.15306795 -0.16830328 -0.51850617 -0.14208171 -0.5471623
-0.17033787 -0.021958195 -0.116776906 -0.6375072 -0.69741666 -0.22955658 -0.16409415 -0.11955029
-1.1116339 -0.6209832 -0.042621676 -0.8188668 -0.20336625 -0.53313017 -0.48536816 -0.09793213
-0.9304802 -0.62022287 -1.2008375 -0.92433065 -0.18693401 -0.34202528 -0.18771611 -0.18199544
-0.32461816 -0.37033913 -1.0998378 -0.9154936 -0.39780435 -0.6852878 -0.7611081 -1.1396109
-0.93237495 -0.38758123 -0.59213954 -0.20831558 -0.4966814 -0.8149253 -0.40046868 -0.57062715
-0.14454311 -0.6214686 -0.12222701 -0.9202082 -0.53367317 -0.20818146 -0.33712828 -0.5318081
-1.3547966 -0.8675643 -0.3139206 -1.3239686 -0.447243 0.049491454 -0.90828604 -0.30422068
-1.1379951 0.013447388 -1.4122484 -1.1300827 -0.42098013 -0.5265206 -0.6459642 -0.31501856
-0.3428941 -0.66892356 -1.337494 -1.2080164 0.28895894 -0.92169785 -1.0656265 -1.4387478
-1.1815445 -0.7402241 -0.5834054 -0.46122733 -0.691136 -0.54395354 -0.47613102 0.11265738
-0.534847 -1.120048 -0.56663615 -0.31507415 0.096763715 -0.43898284 -0.39441794 -0.7962555
-0.20314953 -1.2980809 -0.30294386 -0.32340595 -0.0842418 -1.0764042 -0.4503293 -0.06394171
-0.3454838 -1.3183943 -0.08201591 -0.20393792 -0.17178985 -0.14878729 -0.11591817 -0.16721162
-0.2423697 -0.29248697 -0.2402097 -0.32725832 -0.69695693 -0.29784578 -0.38867787 -0.36686853
-0.44725388 -0.3844355 -0.3414727 -0.2682397 -0.19154595 -1.051125 -0.09079972 -0.5551837
-0.2255191 -0.20405634 -0.2840544 -1.0178155 -0.9094089 -0.07673497 -0.19166501 -0.09934613
-0.49984878 -0.8667552 -0.11075946 -0.61002845 -0.25639 -0.9838561 -0.3576224 0.05579404
-0.5065064 -0.7228292 -0.47604614 -0.6551865 -0.093807966 -0.08282267 -0.24393612 -0.22509605
0.048025697 -0.17552552 -0.6352017 -0.2871827 -0.7294944 -0.16839482 -0.3130352 -0.5054324
-0.2937905 -0.13080804 -0.26698756 -0.2861281 -0.32281324 -1.1094351 -0.269619 -0.782321
-0.0711066 -0.31603378 -0.010388292 -1.1590772 -0.92575294 -0.009427895 -0.20616068 -0.3135493
-0.5954649 -0.9893222 -0.21195899 -0.5013343 -0.061905693 -0.7539751 -0.24085966 -0.038785975
-0.56385875 -0.8795749 -0.6416691 -0.57807606 -0.061535057 -0.090608 0.044696543 -0.17169817
-0.09333834 -0.12844604 -0.58693725 -0.3290456 -0.67013025 -0.23440382 -0.43962443 -0.4729633
-0.298414 -0.27481136 -0.2603022 -0.25694412 -0.3434255 -1.2129875 -0.1525883 -0.8606852
-0.18046953 -0.42759866 -0.1979266 -1.0707872 -0.7563137 -0.20271121 0.037911214 -0.13338226
-1.1796244 -0.7319636 -0.4496652 -1.1665137 -0.5965047 0.17168844 -0.8976331 -0.32277492
-1.3094418 0.4069029 -1.2777963 -1.1325309 -0.47034436 -0.62143666 -0.56351745 -0.33787897

linear_sigmoid_stack.4.bias f4 [40]
00000000: 5ecb 22bf ead5 6ebf 59d1 e1be 1148 7bbf
00000010: bc7b 89bf addc 79bf 35e5 20be 75c2 7dbf
00000020: 4087 5dbf 462b 82bf c961 98be 3626 cbbe
00000030: ceea 4abf f0ca 9abf cb8b 8bbf dcac 72bf
00000040: e38f 51bf 6a88 82bf 1243 4dbf 4aab 68bf
00000050: 7b46 7bbf 22bf a2bf 045d 87bf 722a 77bf
00000060: ed72 7abf 6078 99bf 98e1 62bf a0cd 7fbf
00000070: 92d0 87bf c574 86bf c4af 75bd c1b9 82bf
00000080: d5d5 85bf 0a35 90bf eef4 7ebf 8fd2 83bf
00000090: 7c92 a2bf f95c 98be c9d3 8dbf 674a a5bf
-0.63591564 -0.93295157 -0.44105032 -0.9815684 -1.0740886 -0.9760235 -0.15712436 -0.9912484
-0.865345 -1.0169456 -0.29762104 -0.3967759 -0.79264534 -1.2093182 -1.0902036 -0.9479501
-0.8186018 -1.019788 -0.80180466 -0.90886366 -0.9815442 -1.2714579 -1.0575261 -0.9654914
-0.9783161 -1.198986 -0.8862548 -0.99923134 -1.0610526 -1.0504385 -0.059982076 -1.0212938
-1.0455881 -1.1266186 -0.99592483 -1.0298632 -1.2700953 -0.29758433 -1.1080257 -1.2913331

linear_sigmoid_stack.6.weight f4 [1, 40]
00000000: 4af6 dd3d b1cb 3fbd fd87 1ebe af7d 773d
00000010: 47c8 a03c 1b4d 653c 154b 99be dbd5 6c3d
00000020: ab2d f6bc eed8 823c d2a9 393e 1308 843e
00000030: d871 8e3d 3eac 42bb 4a43 413d 8ab7 8cbc
00000040: 355f 66bd 1736 ce3c 2813 a63d 0181 803d
00000050: b85e b4b7 2f80 d23c 636d c03d bf11 cfbb
00000060: 1cd6 723d 4dcc 63bc 0f27 89bd b8aa e53c
00000070: 1645 a83d 35f6 13bd 7e46 c93e 77b4 513d
00000080: a212 093d e437 67bb 61c2 973c fd02 753d
00000090: 909a 893c b876 df3e 3e59 573c 45c1 283d
0.108379915 -0.046825115 -0.15481563 0.060422596 0.01962675 0.013995434 -0.29940096 0.057821136
-0.030051073 0.01597258 0.18131188 0.2578741 0.06955308 -0.0029704715 0.047183312 -0.017177362
-0.05624314 0.025172276 0.081091225 0.062746055 -2.1501779e-05 0.025695888 0.09395864 -0.006319254
0.05928622 -0.01390369 -0.06696903 0.028035507 0.08216302 -0.036123473 0.39311594 0.051197495
0.033465035 -0.0035281116 0.018525304 0.059817303 0.016797334 0.43645263 0.013143836 0.04119994
