Logistic/Results with additional condition/sol_w108.pt (torch_old, 15258 bytes, 7 tensors)

linear_sigmoid_stack.0.weight f4 [40, 1]
00000000: 39e4 a73f 810c a0be ec04 8b3e 1936 babe
00000010: 4168 cabe 084c acbe bb00 a7be 3132 bd3d
00000020: 6f3d b9be a86c a83e a235 963e 18d1 c1be
00000030: b6e5 cebe 0a86 a5be 400c 90be 8fdf b2be
00000040: a725 723e 79a9 a2be b7c3 a43f e183 b9be
00000050: c831 3f40 83ca aabe 6dfe f5be 5fa9 993e
00000060: 4541 f23d f738 96be fcdf 883e 9f78 743e
00000070: 4b7a 0cbf 6a9d b7be d243 abbe 89d1 6b3e
00000080: 3db1 0bbf 9e1e 6f3e 7d3f 153e 5728 cc3f
00000090: 7687 b2be 07dc adbe db1a b2be c27f 9ebe
1.3116523 -0.3125954 0.27152193 -0.36369398 -0.39532664 -0.33651757 -0.32617745 0.09238089
-0.36179683 0.32895398 0.29337794 -0.37854838 -0.4040963 -0.32328826 -0.28134346 -0.34936187
0.23647176 -0.31769922 1.2872227 -0.36233428 2.9874134 -0.3335763 -0.48045674 0.30012032
0.118288554 -0.29340336 0.26733387 0.23874138 -0.54874104 -0.35862285 -0.3345018 0.2302915
-0.5456732 0.23351523 0.14575 1.5949811 -0.34868973 -0.3395693 -0.34786114 -0.30956846

linear_sigmoid_stack.0.bias f4 [40]
00000000: 9ae3 d3bd 7530 533f 81bf 10c0 90f1 1140
00000010: 7bb0 3040 8e58 d43f bac8 a43f 747e d7bf
00000020: 2b8f 0940 cde6 34c0 d4a8 21c0 de02 2340
00000030: 250b 3740 cf4f a13f 23e5 103f 440f bb3f
00000040: 3099 0ac0 7d2b 9d3f 394f aabe fd1d 0340
00000050: 9e86 f93d 9f46 d13f 3c48 3fbe 642e 28c0
00000060: 0d8d ebbf 675b 57bf 2275 0fc0 151a 03c0
00000070: 828f f03e 72bb 0b40 58f5 62bf 1ce9 fcbf
00000080: d6bf 6d3e 6df7 0dc0 7b77 ecbf 7747 19be
00000090: 6b24 e03f ab79 ca3f caf6 f63f b068 883f
-0.10346146 0.82495815 -2.2616885 2.2803688 2.7607715 1.6589525 1.2873757 -1.6835465
2.1493633 -2.826587 -2.5259295 2.54705 2.8600552 1.2602481 0.56599635 1.4614034
-2.1655998 1.2278897 -0.33263567 2.0487053 0.12183879 1.6349677 -0.18679899 -2.6278315
-1.840242 -0.84123844 -2.2415242 -2.048467 0.46984488 2.1833158 -0.88655615 -1.9758639
0.23217711 -2.2182267 -1.8473963 -0.14968668 1.7511114 1.581838 1.9294064 1.0656948

linear_sigmoid_stack.2.weight f4 [40, 40]
00000000: 9600 78be b14b a2bf 8926 b23e 419a a6bf
00000010: 0885 d7bf aa5c b0bf 9358 93bf a906 f83d
00000020: 398a b8bf 5f02 433f 53a4 c43e 48d6 bebf
00000030: d22d c9bf 72d1 9cbf 8db2 a0bf b74b b2bf
00000040: dfd5 7f3e d586 82bf ad2e ccbe 8232 a2bf
00000050: f89b 04bf 370d bebf 6381 fabe 006a 133f
00000060: 3da0 7c3d 362d a9be adb9 e63e e12e 7e3e
00000070: 0083 27bf 3916 acbf d55b 8ebe 5c33 bf3e
00000080: 3741 00bf 5cc2 b33e 7016 613e 2868 1bbf
00000090: d00e b8bf b64e b2bf 42a6 bdbf 91c8 92bf
000000a0: 91d1 403d 4df6 48bf 1045 db3e 7c80 9fbf
000000b0: e948 8cbf 9a1d 7fbf edb1 72bf 7803 da3c
000000c0: 23d5 74bf 50bb ff3e 1611 913e b4e5 a8bf
000000d0: e3ce a5bf e1b4 38bf 629f 1dbf 7e6e 52bf
000000e0: 5c90 403e 2da6 3abf 8b9c 883e 7067 84bf
000000f0: 43e3 373e 3d63 73bf 1c9b 443e 7236 ab3e
00000100: 65bb 093e a12d 193e 2157 b93e 6be0 893e
00000110: eacf 3b3e bf56 83bf 6415 923e a96a bd3d
00000120: 6182 88bc 4935 d53e 3243 b43e d20e 8c3d
00000130: c461 92bf 75f4 50bf 8ffa 55bf 139a 62bf
00000140: c699 02bf 4ca2 83be 2357 87be c857 a9be
00000150: 257a 9bbe 9863 e9be 1d09 acbe dcd6 b3be
00000160: 9c93 68be 5f60 aabd 5967 91bd f84b a3be
00000170: ff9a 7cbe b259 89be e896 bfbe 9bd3 a4be
00000180: 7df3 97be ecdb 82be aa06 d6be 3a94 c3be
00000190: 693c b5be 873c 87be d955 11be 9f40 9cbd
000001a0: 9fac 99be a8d6 5ebe 0905 99be 689c d2bd
000001b0: fa7f d53c a812 84be 92fd c0bd a7e3 32bd
000001c0: 35df 05bc 4430 acbe ce3c 43be 95f7 05bf
000001d0: 04ff 88be eb0e b1be 493c 95be 2b3c d5be
000001e0: eb37 a7be 58d6 63bf db34 933e 9101 a7bf
000001f0: c11c d2bf 4d23 a2bf 4589 93bf e61e 80bc
00000200: 16f2 a9bf bd38 2a3f 8213 c93e 79b0 9fbf
00000210: 7c0b cfbf 802e 77bf ea2f 73bf 1973 9abf
00000220: 0d5c c03e 5472 7ebf 8dbd eabe d12c abbf
00000230: 43ec cdbe e1d7 9bbf fe96 e5be 5337 f83e
00000240: f951 723d 606e a1be 3db7 953e a560 333e
00000250: a334 26bf 54cf b4bf efcd b3be ddc9 733e
00000260: 44e9 cdbe 78ab d43e da43 8b3e 8705 e0be
00000270: b267 96bf e976 9fbf cc8a 94bf 02d4 91bf
00000280: 4975 fdbe 6bb5 7bbe 4174 4bbe 95f8 12be
00000290: 6aa3 96be 4b3c aabd e3bf 93be b91c acbe
000002a0: 7d30 8bbe cb6b f23d e97f 88bc 4560 8fbd
000002b0: f1cc 9ebe 6ccb 6dbd 1119 acbe 9f14 f9bd
000002c0: 1c74 72bd a05e 85bd 5ace 11bf d828 8abe
000002d0: 3075 0ebf 0dbb 37bd a59b 56bd 9b31 45be
000002e0: 4050 29be b08c 9cbd 730b b1bd 1589 60be
000002f0: ec11 eebd 51df 96bd 042d 6abe 76c6 17be
00000300: 959e cebd 6eb7 ebbc 8c23 8fbe 2335 12bf
00000310: 58e0 97be a734 9abe 5803 06be 027e bbbd
00000320: e95e 413e 1ce9 973f 4eef 0dbf 4e57 863f
00000330: e9df ac3f 3efd 993f e523 823f d7f0 85be
00000340: a833 b63f b824 37bf 51a7 0abf 1b8e 8c3f
00000350: 5102 b03f 6735 8e3f 7e46 833f 1407 a83f
00000360: a859 efbe c51b 9a3f c1da f63d f857 af3f
00000370: 48fd 963e e2cc 9c3f dda8 c53e 084e f0be
00000380: 9ec9 80be f711 503e cadf e6be ef05 febe
00000390: 4795 193f ca05 953f 47e8 c23e ae2d fdbe
000003a0: e843 e43e 4c85 c7be 31eb 26be 87db b43e
000003b0: 6941 8e3f bdcb ab3f 1fa9 b03f 2c42 7c3f
000003c0: b176 a7be e91b 4fbf 7c9f 563e c162 7abf
000003d0: e9da a4bf 0905 85bf f914 65bf 8be5 f8bd
000003e0: 43b8 86bf 7453 7a3e b4c2 a33e 6356 5cbf
000003f0: 4fc6 adbf dfb4 7bbf 4cc8 44bf 59d1 5abf
-0.24218974 -1.2679349 0.34795025 -1.3015825 -1.6837473 -1.3778279 -1.1511406 0.12110645
-1.4417182 0.76175493 0.3840662 -1.4909143 -1.5717108 -1.2251418 -1.2554489 -1.3929356
0.24983929 -1.0197397 -0.3987936 -1.2671664 -0.5180049 -1.4847783 -0.4892684 0.5758362
0.061676253 -0.33042306 0.45063534 0.2482257 -0.65434265 -1.3444282 -0.27804437 0.37343872
-0.5009951 0.35109222 0.21981215 -0.60705805 -1.437952 -1.3930271 -1.4816363 -1.1467458
0.047074858 -0.78500825 0.42826128 -1.2461085 -1.095975 -0.99654543 -0.94802743 0.026612982
-0.9563772 0.49947596 0.28333348 -1.31951 -1.2953762 -0.72151 -0.61571324 -0.8219985
0.18805069 -0.72909814 0.26681933 -1.0344067 0.17957787 -0.950733 0.19199795 0.33439976
0.13450392 0.14958812 0.36199287 0.2692903 0.18341032 -1.0260848 0.28531945 0.092488594
-0.016663732 0.41642216 0.35207516 0.06838764 -1.1436086 -0.8162301 -0.8358545 -0.8851635
-0.5101589 -0.2570976 -0.26433668 -0.33074784 -0.30366626 -0.45583797 -0.33600703 -0.35124862
-0.22712559 -0.083191626 -0.0709979 -0.31893897 -0.24668501 -0.26826245 -0.3741982 -0.32192692
-0.29677954 -0.25558412 -0.4180196 -0.38199025 -0.35397652 -0.26413366 -0.14192905 -0.07629513
-0.30014512 -0.21761572 -0.29886654 -0.102837384 0.026062 -0.25795484 -0.09423365 -0.043674137
-0.0081708925 -0.33630574 -0.19066164 -0.52330905 -0.2675706 -0.34581694 -0.29147556 -0.41647467
-0.3265985 -0.8899894 0.28751263 -1.3047353 -1.6415025 -1.2667023 -1.1526266 -0.015639734
-1.3277004 0.66492826 0.39272696 -1.247573 -1.617538 -0.9655533 -0.94994986 -1.2066375
0.3757023 -0.993932 -0.4584774 -1.3373052 -0.40219316 -1.2175256 -0.4484176 0.4847971
0.059160206 -0.31529522 0.29241362 0.17517336 -0.6492407 -1.4125772 -0.35118052 0.23807473
-0.4021703 0.4153707 0.27200204 -0.43754217 -1.1750395 -1.2458163 -1.1604857 -1.1392825
-0.49503544 -0.24580924 -0.19868566 -0.14352639 -0.2942155 -0.08312281 -0.28857335 -0.33615664
-0.2718543 0.11836966 -0.016662555 -0.07000784 -0.31015733 -0.058055326 -0.33612874 -0.12162136
-0.05919276 -0.06512189 -0.5695549 -0.26984286 -0.55647564 -0.04485612 -0.052394528 -0.19257204
-0.16534519 -0.076440215 -0.08644762 -0.21927293 -0.11624512 -0.07366813 -0.22868735 -0.148218
-0.10088841 -0.02877399 -0.27956808 -0.5711233 -0.29663348 -0.30118296 -0.13087213 -0.091548935
0.18883862 1.1868014 -0.55443275 1.0495393 1.3505832 1.2030408 1.0167204 -0.2616031
1.4234514 -0.71540403 -0.54161555 1.0980867 1.3750707 1.1110047 1.0255888 1.312716
-0.4674809 1.2039725 0.12053443 1.3698721 0.29490113 1.2250025 0.38605395 -0.46934533
-0.25153822 0.20319353 -0.45092613 -0.49613902 0.59993404 1.1642392 0.3806784 -0.49448913
0.44583058 -0.38968885 -0.16300656 0.35323736 1.1113712 1.3421551 1.3801612 0.9853847
-0.32707742 -0.8090196 0.20959276 -0.97806937 -1.2879306 -1.0392162 -0.89485127 -0.12153157
-1.0524982 0.24445897 0.31984484 -0.86069316 -1.3576144 -0.9832286 -0.7686813 -0.8547569

linear_sigmoid_stack.2.bias f4 [40]
00000000: f4a8 cabe 56f2 cabe e8e0 c2be 8a88 05bf
00000010: 840a 52be 2f93 7dbb 4ead a8be 3b8e bdbe
00000020: 55f8 0ebf 0f2c af3e 63cf dfbe a5aa febe
00000030: 3988 88be c72c e4be f3e9 b1be a292 0abf
00000040: 7b39 c7be d9f5 ecbe 4bcf 09bf c646 febe
00000050: e605 193e 9d33 09bf 8c9c ffbe a2ba febe
00000060: 32ed b9be dfc4 f1be d24b 03be 1381 d6be
00000070: 0f57 13bf a093 c83e b562 ddbe bad5 08bd
00000080: 7519 89be 38c7 c8be 3350 4dbe 3318 753e
00000090: 433c 7fbe 2e6a 0cbe c716 9bbe 8ebd 10bf
-0.39582026 -0.39638013 -0.38062215 -0.5216147 -0.20511824 -0.0038692465 -0.3294472 -0.37022576
-0.55847675 0.34213302 -0.4371291 -0.49739566 -0.2666643 -0.44565412 -0.34748802 -0.54129994
-0.38911042 -0.46281317 -0.5383193 -0.4966337 0.14943656 -0.5359438 -0.49924123 -0.49751765
-0.36313778 -0.47220513 -0.12821892 -0.4189535 -0.57554716 0.3917513 -0.4323937 -0.03340695
-0.26777235 -0.39214492 -0.20050125 0.23935013 -0.24925332 -0.1371238 -0.30290815 -0.5653924

linear_sigmoid_stack.4.weight f4 [40, 40]
00000000: a140 0d3e 02c3 a0be 1a2e 743c fc05 02be
00000010: 980f fd3c ae20 44bf e4bd 35be d51b ebbd
00000020: 21a7 823e 4a70 8fbf 0413 c33e 02d9 9e3e
00000030: 0641 e8bd a89a 14be 8e38 11be 9e06 92bd
00000040: 8fd7 c83d dc37 54bd 9864 3ebe 2bb7 8fbe
00000050: 9fee 51bf 8a2d 37be 70d4 2ebe 81d2 903d
00000060: 56df 14be d3cb d5be 0180 19bf bddf 19be
00000070: 23d8 2bbe 69a9 08bf 0f43 11be 6e51 11bf
00000080: d7fc 2dbe 756a abbc e194 eebd 739e 27bf
00000090: 8d0c 38bf 83a2 6abe 0894 27be c9f9 f3bd
000000a0: 9f47 8ebf 9c5e 1fbf 8dcf 2fbd 9ea1 51bf
000000b0: 3508 51be 10f8 0dbf f18c f8be 8bd9 c8bd
000000c0: 222e 6ebf 487b 24bf b0b0 99bf c39a 6cbf
000000d0: 6f8d 3fbe 8f28 afbe dd00 41be aebb 3abe
000000e0: b14d a6be e0b4 bdbe 0ec7 8cbf b260 6abf
000000f0: 26c2 d5be 3274 2fbf 46db 42bf 42db 91bf
00000100: 2cb5 6ebf 0180 c6be e5cb 1abf 2d98 63be
00000110: 8758 febe ae54 56bf b31e cdbe dc23 15bf
00000120: 23e2 14be b71a 1fbf bf18 fbbd c441 71bf
00000130: fc00 0cbf 08d7 55be fa03 adbe fe28 08bf
00000140: 40e6 adbf c187 68bf ca2f a8be baf8 a9bf
00000150: a602 f8be 129f 55be ad51 69bf 4b06 9fbe
00000160: 2f08 92bf 6049 7ebe 6a05 b5bf 4f12 91bf
00000170: 33fc d9be 9468 07bf a8ad 2ebf 0874 acbe
00000180: 0b31 b5be f2f2 2cbf 20e1 abbf e414 9bbf
00000190: 050b 273d 63ab 6cbf 32f1 88bf d4ab b8bf
000001a0: 2de2 97bf 3161 3ebf 6fe5 5cbf ae18 65bf
000001b0: 03a5 31bf e05f 4ebf e7a6 f6be 78ae b8bd
000001c0: 5526 14bf d7aa 8fbf b983 15bf b4ca 13bf
000001d0: aaae fdbd 3299 f0be 5e5e e0be e666 4cbf
000001e0: 6e00 50be dc27 a6bf 2f1b 9bbe 7e92 a5be
000001f0: 7f7f acbd d8f2 89bf 5990 e6be 48f3 82bd
00000200: 8be0 b0be b5eb a8bf 94eb a7bd 4ecf 50be
00000210: 7ee9 2fbe 9a5b 18be 9362 edbd 8239 2bbe
00000220: 4b2f 78be dbc0 95be def3 75be fe8b a7be
00000230: 7bbf 32bf 4c7e 98be 77fe c6be 43d3 bbbe
00000240: cefb e4be a6d4 c4be 64d5 aebe cf09 89be
00000250: 6823 44be c9b5 86bf 7ff4 b9bd 5683 0ebf
00000260: feed 66be 9ef0 50be 1e6f 91be b072 82bf
00000270: 3d2e 69bf c420 9dbd 8842 44be d273 cbbd
00000280: 3ae9 ffbe aee5 5dbf 4fd8 e2bd b429 1cbf
00000290: 2447 83be 223b 7cbf f419 b7be e585 643d
000002a0: d6a8 01bf 2d68 39bf d9b8 f3be 7fb8 27bf
000002b0: a51f c0bd ec9e a9bd 4dce 79be 9d81 66be
000002c0: 92b3 443d abbd 33be 399b 22bf df07 93be
000002d0: 2b16 3bbf 126f 2cbe 3744 a0be 5362 01bf
000002e0: b269 96be 85f2 05be fae2 88be 9d85 92be
000002f0: ae47 a5be 062f 8ebf a40b 8abe a193 48bf
00000300: f5a8 91bd 00ce a1be 153f 2abc 8e8a 94bf
00000310: 944d 6dbf d886 1abc 4b20 53be 7f89 a0be
00000320: b26e 18bf 1b47 7dbf 220e 59be 3f56 00bf
00000330: 29a7 7dbd e69d 41bf 22a3 76be 88e3 1ebd
00000340: 2c57 10bf 48c6 61bf 3c42 24bf abfa 13bf
00000350: 0411 7cbd b090 b9bd 2cf8 363d 67d5 2fbe
00000360: d82b bfbd c188 03be ff3f 16bf fc76 a8be
00000370: 051b 2cbf 4f07 70be 6114 e1be cf23 f2be
00000380: a0c7 98be 13b4 8cbe b3b2 85be 04bb 83be
00000390: 78d5 afbe 5b8e 9bbf 6141 1cbe 03cd 5cbf
000003a0: 69d5 38be 64ed dabe 00b0 4abe 7a5b 89bf
000003b0: 501b 42bf 9a98 4fbe 0328 1b3d 5a95 08be
000003c0: 0ac7 92bf 662f 36bf 90b3 ebbe 59f4 91bf
000003d0: 2132 21bf 66df 6b3e 50cd 63bf 168d a7be
000003e0: 6122 a3bf 8c4c ec3e 8c97 9ebf c0c3 8bbf
000003f0: 4b32 f2be 15df 1ebf 768a 15bf 6a35 b4be
0.13794185 -0.3139878 0.01490357 -0.12697595 0.030891225 -0.76612365 -0.17748219 -0.11479918
0.25518134 -1.1206143 0.38100445 0.3102494 -0.11340527 -0.14512122 -0.1418173 -0.071301684
0.098067395 -0.051811084 -0.18593061 -0.28069434 -0.8200473 -0.17888466 -0.17073226 0.070714004
-0.14538321 -0.41757068 -0.59960943 -0.15026756 -0.16781668 -0.533835 -0.14185737 -0.56764877
-0.16990982 -0.020924786 -0.1164949 -0.6547615 -0.7189415 -0.22913556 -0.16365063 -0.11912877
-1.1115607 -0.6225374 -0.042922545 -0.81887233 -0.20413287 -0.5545664 -0.4854503 -0.09807118
-0.93039143 -0.6425061 -1.2007046 -0.9242365 -0.18706296 -0.3421063 -0.18847986 -0.18235657
-0.3248115 -0.3705206 -1.0998247 -0.91553795 -0.41749686 -0.68536675 -0.76115835 -1.1395037
-0.93245196 -0.38769534 -0.6046737 -0.22226019 -0.49676916 -0.8372296 -0.40062484 -0.5825784
-0.1453939 -0.6215014 -0.12260579 -0.94240975 -0.54689 -0.20882809 -0.33792096 -0.5318755
-1.3585892 -0.90832144 -0.3284896 -1.327903 -0.4843952 -0.20861462 -0.9114025 -0.3105949
-1.1408747 -0.24832678 -1.4142277 -1.1333712 -0.42575225 -0.5289395 -0.6823373 -0.33682275
-0.3538898 -0.67558205 -1.3428078 -1.211575 0.040781993 -0.92449015 -1.0698607 -1.4427438
-1.1865898 -0.7436705 -0.8628759 -0.89490783 -0.6939241 -0.80615044 -0.4817421 -0.09017652
-0.5787099 -1.1224011 -0.5840412 -0.57731175 -0.1238683 -0.4699188 -0.43821996 -0.7984451
-0.20312664 -1.2980914 -0.30294177 -0.32338327 -0.084227555 -1.0777235 -0.45032004 -0.063940585
-0.34546313 -1.3196932 -0.0819923 -0.2039158 -0.17178914 -0.14878693 -0.11591067 -0.16721156
-0.24236791 -0.292487 -0.24018809 -0.32723993 -0.69823426 -0.29783857 -0.38866016 -0.36684617
-0.44723362 -0.38443488 -0.3414718 -0.26765296 -0.19154131 -1.0524226 -0.09079837 -0.5566915
-0.22551724 -0.20404288 -0.28405088 -1.019125 -0.9108618 -0.07672265 -0.19166005 -0.099342
-0.49982625 -0.8667859 -0.11076414 -0.61001134 -0.25640213 -0.9852773 -0.35761988 0.055791754
-0.5064825 -0.72424585 -0.47601965 -0.65515894 -0.09381036 -0.08282265 -0.24395104 -0.22510381
0.048022814 -0.17552821 -0.635181 -0.28716943 -0.730807 -0.16839245 -0.31302044 -0.50540656
-0.29377514 -0.13080795 -0.2673567 -0.28617564 -0.3228125 -1.11081 -0.26962006 -0.78350264
-0.07112304 -0.31602478 -0.0103910165 -1.1604784 -0.926965 -0.009431563 -0.20617788 -0.313549
-0.5954391 -0.98936623 -0.21196797 -0.501316 -0.061926994 -0.7563156 -0.24085668 -0.03879121
-0.56383014 -0.8819318 -0.64163566 -0.57804364 -0.061539665 -0.090608 0.04467027 -0.1717125
-0.093345344 -0.12845136 -0.586914 -0.32903278 -0.6722873 -0.23440288 -0.4396086 -0.47292945
-0.29839802 -0.27481136 -0.261129 -0.2572862 -0.3434255 -1.2152818 -0.15259315 -0.86250323
-0.1805016 -0.4275924 -0.19793701 -1.0731041 -0.75822926 -0.20273057 0.037879955 -0.13338223
-1.1466992 -0.71166074 -0.46035433 -1.1402694 -0.62967116 0.23034438 -0.88985157 -0.32724828
-1.2744867 0.4615215 -1.2389998 -1.0919113 -0.47303995 -0.62059146 -0.584144 -0.35197002

linear_sigmoid_stack.4.bias f4 [40]
00000000: 65b2 26bf 4f96 74bf 3d7b 34bf 1d9c 7bbf
00000010: bea8 89bf 9a73 7abf 21cf bcbd c618 7ebf
00000020: ae45 62bf 035c 82bf e04a a3be ece0 dabe
00000030: bc73 4dbf eb7d 9bbf c2de 8bbf 33f7 75bf
00000040: 3409 59bf fdb1 82bf 85e7 4dbf 8728 69bf
00000050: ced4 7cbf f1e8 a2bf 158d 87bf f74f 79bf
00000060: 9ff2 7abf 335b 9abf 9999 6fbf 8910 80bf
00000070: 14fc 87bf 24ff 88bf ac8a efbd cdf0 82bf
00000080: 2fc8 86bf 8bd5 90bf 5848 7fbf 9221 84bf
00000090: 1fd1 a2bf 2102 c3be 769d 8ebf a084 a5bf
-0.6511596 -0.9554185 -0.70500547 -0.98285085 -1.0754621 -0.97832644 -0.09219194 -0.9925655
-0.8838757 -1.018433 -0.31893063 -0.42749727 -0.8025472 -1.2147802 -1.0927355 -0.9608032
-0.8477967 -1.0210568 -0.80431396 -0.91077465 -0.98762214 -1.2727338 -1.058993 -0.9738764
-0.9802646 -1.2059082 -0.93593746 -1.0005046 -1.0623803 -1.0702863 -0.116963714 -1.0229737
-1.0529841 -1.1315168 -0.9971976 -1.0322745 -1.2720069 -0.38087562 -1.1141803 -1.2931099

linear_sigmoid_stack.6.weight f4 [1, 40]
00000000: 330a 973d fbb6 bbbd 197a 1ebe 50a7 533d
00000010: 3377 5b3c 2feb a93b e18b 95be be05 4d3d
00000020: d878 87bd 4589 d83b ae32 1d3e 3ce7 8d3e
00000030: 1bc7 f23c 05e9 09bd c6ca ff3c cef4 7dbd
00000040: be6c c8bd 7613 bb3c e85e 8f3d fc44 663d
00000050: 90d0 f8bc 62c0 703c 23c9 aa3d 9fbd 2ebd
00000060: fb07 3e3d acdb 42bd f653 0abe 4660 af3c
00000070: cc15 9a3d 6720 96bd a676 ee3e d658 253d
00000080: dc54 ed3b 1146 0ebd 760e 053c 2a3c 3f3d
00000090: 313e 493b 6960 fd3e 01f8 d8bb 32e7 d33c
0.07374992 -0.0916576 -0.15476264 0.051673234 0.0133951185 0.005185507 -0.29208282 0.050054304
-0.06614846 0.0066081607 0.15351364 0.2771548 0.029635957 -0.03366949 0.03122462 -0.062001042
-0.09786366 0.022836428 0.07000524 0.056218132 -0.030372888 0.014694305 0.08339145 -0.042661306
0.04639433 -0.047572777 -0.13508591 0.021408211 0.07523689 -0.07330399 0.46574897 0.040367924
0.007242782 -0.03473479 0.008121124 0.046688236 0.0030707235 0.49487618 -0.0066213612 0.025867078
