Logistic/Results with additional condition/sol_w179.pt (torch_old, 15258 bytes, 7 tensors)

linear_sigmoid_stack.0.weight f4 [40, 1]
0	0x3f930a0a	1.1487439
1	0xbf0937b8	-0.53600645
2	0x3f058da2	0.5216924
3	0xbf090de4	-0.5353682
4	0xbf1c9f07	-0.61180156
5	0xbf37712b	-0.71657056
6	0xbf22a524	-0.63533235
7	0xbd592589	-0.053014312
8	0xbf2da3f7	-0.67828315
9	0x3f020cd7	0.5080084
10	0x3f02c297	0.5107817
11	0xbf0b9a7a	-0.5453259
12	0xbf11f86c	-0.57019687
13	0xbf1abc13	-0.6044323
14	0xbf054803	-0.52063006
15	0xbf1eb838	-0.61999846
16	0x3eff86d6	0.4990756
17	0xbf0ff431	-0.5623198
18	0x3f8353c4	1.0259938
19	0xbf2a1fc8	-0.66454744
20	0x405ad598	3.4192867
21	0xbf28bdab	-0.6591441
22	0xbf0a68a8	-0.5406594
23	0x3efc7929	0.49311188
24	0xbcd5f303	-0.026116854
25	0xbe9fc90f	-0.31208083
26	0x3efafbac	0.49020135
27	0x3eedd061	0.46448043
28	0xbf2e1e4b	-0.68014973
29	0xbf3d9302	-0.7405244
30	0xbeacd263	-0.33754262
31	0x3f0337e9	0.5125719
32	0xbf2523ac	-0.64507556
33	0x3efad458	0.4899013
34	0xbd65ca56	-0.056101166
35	0x3fbda257	1.4815167
36	0xbf231c9b	-0.63715523
37	0xbf2b3bfb	-0.668884
38	0xbf2d050f	-0.67585844
39	0xbf1053aa	-0.5637766

linear_sigmoid_stack.0.bias f4 [40]
0	0xbd860a34	-0.06544915
1	0x3f3015ee	0.6878346
2	0xc007e0ca	-2.123095
3	0x40064d56	2.0984702
4	0x401c3d23	2.4412315
5	0x3fb8b1de	1.4429281
6	0x3f8d2a20	1.102848
7	0xbfd55b94	-1.6668572
8	0x3ff1501c	1.8852572
9	0xc02cca4c	-2.6998472
10	0xc019335a	-2.3937593
11	0x40159703	2.337342
12	0x402384d6	2.5549827
13	0x3f8b9361	1.0904351
14	0x3ee30aa9	0.4434407
15	0x3fa3bc99	1.279193
16	0xc00336ec	-2.0502272
17	0x3f883c41	1.0643388
18	0xbead0128	-0.33789945
19	0x3fe6ecae	1.8040979
20	0x3ecca0ff	0.3996658
21	0x3fb5843b	1.4180979
22	0xbe542dc8	-0.20720589
23	0xc020a542	-2.5100865
24	0xbfe89d00	-1.8172913
25	0xbf5ba48e	-0.85797966
26	0xc0082859	-2.1274626
27	0xbffa187f	-1.9538726
28	0x3ee4222d	0.44557324
29	0x3ff42e0c	1.9076552
30	0xbf663a90	-0.8993311
31	0xbfef1e39	-1.8681098
32	0x3e5a64ea	0.21327558
33	0xc006914e	-2.1026187
34	0xbfec52a7	-1.8462723
35	0xbd3dd934	-0.04634972
36	0x3fc56707	1.5422066
37	0x3fafaaf7	1.3724049
38	0x3fd81b8c	1.6883407
39	0x3f69acbb	0.9127919

linear_sigmoid_stack.2.weight f4 [40, 40]
0	0xbeacce1f	-0.33751008
1	0xbfa3497d	-1.2756802
2	0x3e8753e0	0.2643118
3	0xbfa8159f	-1.3131598
4	0xbfd91272	-1.6958754
5	0xbfb19b59	-1.3875533
6	0xbf946844	-1.1594319
7	0x3de68ab0	0.11256921
8	0xbfb9e4e2	-1.4522974
9	0x3f2d9434	0.67804265
10	0x3e9952f1	0.29946092
11	0xbfc08139	-1.5039436
12	0xbfcae1d7	-1.5850171
13	0xbf9dd2da	-1.2329972
14	0xbfa178aa	-1.2614949
15	0xbfb368c4	-1.4016347
16	0x3e2adbcd	0.1668541
17	0xbf838d26	-1.027745
18	0xbefcfeb1	-0.49413064
19	0xbfa391ce	-1.2778871
20	0xbf1d0235	-0.6133149
21	0xbfbf341a	-1.4937775
22	0xbefb1f2e	-0.49047226
23	0x3efab671	0.48967317
24	0xbc009e8d	-0.007850301
25	0xbeac8d62	-0.33701617
26	0x3eb9cb8d	0.3628811
27	0x3e246296	0.16053233
28	0xbf2791cf	-0.6545686
29	0xbfad7a85	-1.3553015
30	0xbe90fe76	-0.28319138
31	0x3e96020b	0.29298434
32	0xbf005a8c	-0.50138164
33	0x3e858a00	0.26081848
34	0x3e21f326	0.1581541
35	0xbf33ce74	-0.702369
36	0xbfb932b1	-1.4468595
37	0xbfb37ff6	-1.4023426
38	0xbfbeeea2	-1.4916575
39	0xbf93b665	-1.1540037
40	0x3e622c38	0.2208718
41	0xbf411409	-0.75421196
42	0x3f11a00c	0.5688484
43	0xbf977807	-1.1833504
44	0xbf83cdba	-1.0297158
45	0xbf753cd7	-0.9579596
46	0xbf69fe4e	-0.91403663
47	0x3d622ea8	0.055220276
48	0xbf681eda	-0.90672076
49	0x3f20ca3f	0.62808603
50	0x3ed6c706	0.41948718
51	0xbfa00a5b	-1.250316
52	0xbf9c6348	-1.2217798
53	0xbf2fe6b3	-0.68711394
54	0xbf1707a8	-0.5899606
55	0xbf4890ed	-0.7834614
56	0x3ea854b9	0.32877138
57	0xbf317ede	-0.6933421
58	0x3ee18665	0.44047847
59	0xbf7c2160	-0.98488426
60	0x3eb4fd4f	0.3534951
61	0xbf694b96	-0.9113096
62	0x3e507286	0.20356187
63	0x3ef01872	0.4689365
64	0x3e4b508d	0.19854946
65	0x3e2f3b0a	0.17112365
66	0x3f012d11	0.5045939
67	0x3ed33786	0.412533
68	0x3e460465	0.19337614
69	0xbf7a680d	-0.9781502
70	0x3e9b8690	0.303761
71	0x3e6e7e5c	0.2329039
72	0xbbe47605	-0.006972077
73	0x3f1028ed	0.5631245
74	0x3ed0b90b	0.40766177
75	0x3e7818c8	0.24228203
76	0xbf8cf885	-1.1013342
77	0xbf471246	-0.7776226
78	0xbf4a825d	-0.7910517
79	0xbf5a764b	-0.8533675
80	0xbefca28d	-0.49342766
81	0xbe82cdd8	-0.2554767
82	0xbe8131b2	-0.25233227
83	0xbea78049	-0.3271506
84	0xbe997437	-0.29971477
85	0xbee84c08	-0.45370507
86	0xbeab1bd0	-0.33419657
87	0xbeb25b3a	-0.34835225
88	0xbe659c4e	-0.22422907
89	0xbd92dcca	-0.071710184
90	0xbd71e3db	-0.05905519
91	0xbea13cab	-0.31491598
92	0xbe782983	-0.24234585
93	0xbe886bc7	-0.26644728
94	0xbebee9eb	-0.3728784
95	0xbea3c83b	-0.319887
96	0xbe91f4dc	-0.28507125
97	0xbe81e36e	-0.25368828
98	0xbecd7fab	-0.40136465
99	0xbec224fc	-0.37918842
100	0xbeacc7e3	-0.3374625
101	0xbe862011	-0.2619634
102	0xbe10b5cb	-0.14131849
103	0xbd840da5	-0.06447915
104	0xbe97d73c	-0.29656398
105	0xbe5dca0a	-0.21659103
106	0xbe92d248	-0.28676057
107	0xbdba1bac	-0.09087309
108	0x3cda7c23	0.026670521
109	0xbe82a344	-0.25515187
110	0xbdbf3fab	-0.093383156
111	0xbd017c49	-0.03161267
112	0xbbf7fc57	-0.007567923
113	0xbea62f3f	-0.3245792
114	0xbe409247	-0.188058
115	0xbf01ab1f	-0.50651735
116	0xbe87cf08	-0.2652514
117	0xbeaffc61	-0.34372237
118	0xbe93f061	-0.28894332
119	0xbed460bf	-0.4148006
120	0xbec26521	-0.3796778
121	0xbf64597b	-0.89199036
122	0x3e74efd9	0.2391962
123	0xbfa6f4fb	-1.3043512
124	0xbfd20c33	-1.6409973
125	0xbfa25d64	-1.268475
126	0xbf93b28d	-1.1538864
127	0xbc93f0d8	-0.01805918
128	0xbfaa13bc	-1.3287272
129	0x3f1d5c23	0.61468714
130	0x3eaf9608	0.34294152
131	0xbf9fa206	-1.2471321
132	0xbfcee8cd	-1.6164795
133	0xbf779cf8	-0.9672389
134	0xbf73904e	-0.95142066
135	0xbf9a92bc	-1.207603
136	0x3ea8036e	0.32815117
137	0xbf7edabc	-0.9955251
138	0xbf02f6a1	-0.51157576
139	0xbfab4da5	-1.338307
140	0xbee91803	-0.45526132
141	0xbf9bfb61	-1.218609
142	0xbee5946c	-0.448398
143	0x3eddfc63	0.43356618
144	0x3c87f292	0.016595159
145	0xbea2bdb7	-0.31785366
146	0x3e76e269	0.24109806
147	0x3dfe7269	0.12424166
148	0xbf2617d2	-0.64880097
149	0xbfb50259	-1.4141341
150	0xbeb4c681	-0.35307696
151	0x3e453c1d	0.19261213
152	0xbecdb8fa	-0.40180188
153	0x3eb9cfde	0.36291403
154	0x3e6e6c5e	0.23283526
155	0xbefb3173	-0.49061164
156	0xbf9679bf	-1.1755904
157	0xbf9fa653	-1.2472633
158	0xbf94b484	-1.1617589
159	0xbf91ed51	-1.1400548
160	0xbeeb762f	-0.45988604
161	0xbe7712ca	-0.24128261
162	0xbe2ee638	-0.17080009
163	0xbe0a86a1	-0.1352792
164	0xbe9213c7	-0.28530714
165	0xbd9f9e01	-0.07793809
166	0xbe915b59	-0.28390005
167	0xbea91fb8	-0.33032012
168	0xbe87c9a1	-0.26521018
169	0x3e1492f4	0.14509183
170	0x3c363920	0.011122018
171	0xbd7955db	-0.060872894
172	0xbe99cee6	-0.30040663
173	0xbd5a737f	-0.053332802
174	0xbeaa1dd5	-0.33225885
175	0xbdee70a2	-0.11642577
176	0xbd02c6c5	-0.031927843
177	0xbd76849d	-0.060185064
178	0xbf090088	-0.53516436
179	0xbe86c9cd	-0.26325837
180	0xbf067ca5	-0.5253394
181	0xbd21f8dd	-0.039543975
182	0xbd492caa	-0.04911486
183	0xbe28ec48	-0.16496384
184	0xbe1fe5f8	-0.1561507
185	0xbd95b16e	-0.07309233
186	0xbd6e29a6	-0.058145188
187	0xbe43e3e9	-0.1912991
188	0xbde65293	-0.112462185
189	0xbd89a819	-0.06721515
190	0xbe671765	-0.22567518
191	0xbdf673b2	-0.12033786
192	0xbdc71d9b	-0.09722444
193	0xba97085c	-0.0011522877
194	0xbe8bb691	-0.27287725
195	0xbf0914b0	-0.5354719
196	0xbe950203	-0.29103097
197	0xbe978d4c	-0.29599988
198	0xbdffc4a3	-0.12488677
199	0xbdb25443	-0.08707478
200	0x3a89a5a8	0.001050164
201	0x3f9650dd	1.1743428
202	0xbf3c7c3e	-0.7362708
203	0x3f83adc8	1.0287409
204	0x3faa4484	1.3302159
205	0x3f986510	1.1905842
206	0x3f8096ce	1.0046022
207	0xbea1e492	-0.31619698
208	0x3fb43162	1.407757
209	0xbf66ddbb	-0.90182084
210	0xbf39b668	-0.72543955
211	0x3f89b092	1.075701
212	0x3fad2198	1.3525877
213	0x3f8c8e1e	1.0980871
214	0x3f81d7a9	1.0143939
215	0x3fa63e53	1.298777
216	0xbf24e294	-0.6440823
217	0x3f98543a	1.1900704
218	0xbd893461	-0.066994436
219	0x3fad3d5c	1.353435
220	0x3ddaebad	0.10689483
221	0x3f9b16ca	1.211633
222	0x3ec107aa	0.3770116
223	0xbf278854	-0.65442395
224	0xbea18de6	-0.31553572
225	0x3e42ad4a	0.19011417
226	0xbf226346	-0.6343273
227	0xbf2d0843	-0.6759073
228	0x3f175a9a	0.5912262
229	0x3f93311a	1.149936
230	0x3ebc9d9c	0.36838996
231	0xbf2bea5a	-0.6715447
232	0x3ee00efb	0.4376143
233	0xbf10a565	-0.5650237
234	0xbe521143	-0.20514397
235	0x3e293d4e	0.16527292
236	0x3f8c6b4d	1.0970246
237	0x3faa1fa1	1.3290902
238	0x3faed0bd	1.3657452
239	0x3f7925e6	0.97323453
240	0xbe883bd3	-0.26608142
241	0xbf4e5a6a	-0.8060671
242	0x3e85b4ab	0.261144
243	0xbf78e97d	-0.97231275
244	0xbfa3dbdd	-1.2801472
245	0xbf84615c	-1.0342212
246	0xbf641065	-0.89087516
247	0xbddc1678	-0.10746473
248	0xbf85e640	-1.0460892
249	0x3e986260	0.29762554
250	0x3ebeabe8	0.3724053
251	0xbf5ab436	-0.8543123
252	0xbfacd625	-1.3502852
253	0xbf7ab743	-0.97935885
254	0xbf442af6	-0.76628053
255	0xbf59afe6	-0.85034025

linear_sigmoid_stack.2.bias f4 [40]
0	0xbefb7574	-0.49113047
1	0xbe63cc33	-0.22245865
2	0xbeba0834	-0.36334383
3	0xbf131e27	-0.57467884
4	0xbe29ad01	-0.16569902
5	0xbe447a60	-0.19187307
6	0xbe896f51	-0.2684274
7	0xbeb6688b	-0.35626635
8	0xbf2edcd1	-0.6830569
9	0x3e0dde9f	0.13854454
10	0xbf185551	-0.5950518
11	0xbf1b60a9	-0.60694367
12	0xbe7419ad	-0.2383792
13	0xbed26346	-0.41091365
14	0xbe9e0c95	-0.30868974
15	0xbf08c771	-0.53429323
16	0xbec1200c	-0.37719762
17	0xbed548dc	-0.4165715
18	0xbf015eae	-0.50535095
19	0xbf002b70	-0.5006628
20	0xbdec6f38	-0.11544651
21	0xbef91260	-0.48646832
22	0xbef11c8a	-0.47092086
23	0xbf1b3e5b	-0.6064202
24	0xbeac5be4	-0.33663857
25	0xbecd265b	-0.40068325
26	0xbdf3d82c	-0.11906466
27	0xbef8e2ee	-0.48610634
28	0xbefceab6	-0.4939782
29	0x3ec6a217	0.3879554
30	0xbeca3ed9	-0.39501074
31	0xbe9f2ca2	-0.3108874
32	0xbe71760d	-0.23580189
33	0xbec4ec04	-0.38461316
34	0xbe38e02c	-0.18054265
35	0x3e8a7e69	0.27049568
36	0xbef9cac8	-0.48787522
37	0xbdb18aca	-0.0866905
38	0xbe85034c	-0.25979078
39	0xbf05dae3	-0.5228712

linear_sigmoid_stack.4.weight f4 [40, 40]
0	0x3d5b8c14	0.053600386
1	0xbeb63731	-0.35588983
2	0x3c63a0fe	0.013893364
3	0xbe5101eb	-0.20410888
4	0x3ce9756a	0.02849837
5	0xbf453f1d	-0.7704943
6	0xbe6e8666	-0.23293456
7	0xbdee8d73	-0.11648073
8	0x3e28097a	0.16409865
9	0xbf8e2f9b	-1.1108278
10	0x3e93be49	0.28856114
11	0x3e6441d4	0.22290736
12	0xbdf442a0	-0.1192677
13	0xbe27f8f9	-0.1640357
14	0xbe1259e5	-0.14292105
15	0xbd921d21	-0.07134462
16	0x3dc658cd	0.09684906
17	0xbd78ec6d	-0.06077235
18	0xbe80a608	-0.25126672
19	0xbeb35ecf	-0.3503327
20	0xbf528c76	-0.82245576
21	0xbe692b44	-0.22770411
22	0xbe73c688	-0.23806202
23	0xbc7f2cc4	-0.015574638
24	0xbe598969	-0.21243824
25	0xbee77455	-0.45205942
26	0xbf1afb1e	-0.60539424
27	0xbe1d71b3	-0.15375404
28	0xbe52f1d8	-0.20600069
29	0xbf1570d8	-0.5837531
30	0xbe1a4b0f	-0.15067695
31	0xbf17dd3b	-0.59321946
32	0xbe2e521f	-0.17023514
33	0xbdb5f03a	-0.0888371
34	0xbdf5095a	-0.11964674
35	0xbf227276	-0.63455904
36	0xbf3bafeb	-0.73315305
37	0xbe6f1612	-0.23348263
38	0xbe295e41	-0.16539861
39	0xbe17c57d	-0.1482143
40	0xbf8e54a7	-1.1119584
41	0xbf2089e8	-0.6271043
42	0xbd3214d4	-0.043476894
43	0xbf51c626	-0.81942976
44	0xbe526993	-0.20548086
45	0xbf19e85e	-0.6012019
46	0xbef8d2d2	-0.48598343
47	0xbdc98779	-0.098402925
48	0xbf6e41c4	-0.930691
49	0xbf312bf1	-0.69207674
50	0xbf99b5b1	-1.2008573
51	0xbf6cbaf3	-0.9247276
52	0xbe3fe9c9	-0.18741526
53	0xbeaf43f2	-0.34231526
54	0xbe42576a	-0.18978658
55	0xbe3b4967	-0.1828972
56	0xbea6743e	-0.3251056
57	0xbebdf246	-0.37098902
58	0xbf8ce1e3	-1.1006435
59	0xbf6a88ff	-0.9161529
60	0xbeec3a19	-0.46138075
61	0xbf2f8a91	-0.6857081
62	0xbf430af3	-0.7618858
63	0xbf91e91e	-1.1399267
64	0xbf6ee651	-0.93320185
65	0xbec6b3e2	-0.38809115
66	0xbf20e31f	-0.6284656
67	0xbe792e01	-0.24333955
68	0xbefe83cb	-0.49709925
69	0xbf632800	-0.8873291
70	0xbecd52fb	-0.40102372
71	0xbf173c62	-0.5907651
72	0xbe163bf3	-0.14671306
73	0xbf1f37e4	-0.6219466
74	0xbdfc9f0c	-0.12335023
75	0xbf7dcbca	-0.9913908
76	0xbf126296	-0.5718168
77	0xbe5728d0	-0.21011662
78	0xbeadc9e1	-0.33943084
79	0xbf083576	-0.53206575
80	0xbfae2432	-1.3604796
81	0xbf72dc34	-0.94867253
82	0xbeaa9c7a	-0.33322507
83	0xbfaa38d4	-1.3298593
84	0xbefdfedd	-0.49608508
85	0xbee0a0e0	-0.43872738
86	0xbf69e429	-0.9136377
87	0xbea07dd0	-0.31345987
88	0xbf9232dd	-1.1421772
89	0xbef61fec	-0.4807123
90	0xbfb52250	-1.4151096
91	0xbf9146d4	-1.134974
92	0xbedb9247	-0.42885038
93	0xbf07eb39	-0.53093296
94	0xbf319bd9	-0.6937843
95	0xbeaf03e7	-0.34182665
96	0xbeb71332	-0.35756832
97	0xbf2e126f	-0.6799688
98	0xbfac2e3a	-1.3451607
99	0xbf9b554f	-1.2135409
100	0xbe15f5d9	-0.14644565
101	0xbf6d30f9	-0.9265285
102	0xbf89391b	-1.0720552
103	0xbfb8eb74	-1.4446855
104	0xbf9839e1	-1.1892663
105	0xbf3f1db6	-0.7465471
106	0xbf7bd542	-0.9837228
107	0xbf8a79cf	-1.0818423
108	0xbf3232aa	-0.6960856
109	0xbf857db3	-1.0428985
110	0xbef8ad0d	-0.48569527
111	0xbda68684	-0.081311256
112	0xbf17201c	-0.5903337
113	0xbf8fd668	-1.1237307
114	0xbf171f4e	-0.5903214
115	0xbf4fb0a4	-0.8112891
116	0xbe6be85b	-0.23037855
117	0xbef6484a	-0.48102027
118	0xbee7307d	-0.4515418
119	0xbf4cd178	-0.80007124
120	0xbe4f394d	-0.20236702
121	0xbfa58596	-1.2931392
122	0xbe9b0c90	-0.30283022
123	0xbea50a28	-0.3223431
124	0xbdabfd8d	-0.0839797
125	0xbf8a0310	-1.0782185
126	0xbee5c2df	-0.44875237
127	0xbd82b5dd	-0.06382344
128	0xbeb0aa93	-0.34505138
129	0xbfa8eac3	-1.3196644
130	0xbda757a3	-0.08171012
131	0xbe4ff093	-0.20306616
132	0xbe2fab52	-0.17155197
133	0xbe17f2ba	-0.14838687
134	0xbdecb0a3	-0.11557128
135	0xbe2b2ae7	-0.16715585
136	0xbe7815f5	-0.24227126
137	0xbe958e91	-0.29210332
138	0xbe72ff4b	-0.23730199
139	0xbea6ca96	-0.32576436
140	0xbf32cf9d	-0.6984804
141	0xbe97fee5	-0.29686657
142	0xbec5eaed	-0.38655797
143	0xbebb5daa	-0.36594898
144	0xbee3ea9b	-0.44514927
145	0xbec463b3	-0.38357314
146	0xbeaef063	-0.34167776
147	0xbe895de9	-0.2682946
148	0xbe43335b	-0.1906256
149	0xbf861fcb	-1.0478452
150	0xbdb933b2	-0.09043063
151	0xbf0f28d1	-0.55921656
152	0xbe66ae2b	-0.22527377
153	0xbe4fef85	-0.20306213
154	0xbe9157ed	-0.28387395
155	0xbf820c77	-1.0160054
156	0xbf69932f	-0.9124021
157	0xbd9c611a	-0.07635708
158	0xbe43e033	-0.19128494
159	0xbdca77d1	-0.098861344
160	0xbeff780a	-0.4989627
161	0xbf5d1598	-0.86361074
162	0xbde2b5e7	-0.11069851
163	0xbf1be7dc	-0.60900664
164	0xbe833a4b	-0.25630412
165	0xbf7cb4aa	-0.9871317
166	0xbeb67382	-0.35635
167	0x3d64d01e	0.05586254
168	0xbf0180ae	-0.50586975
169	0xbf39b74c	-0.72545314
170	0xbef37347	-0.47548887
171	0xbf277df3	-0.6542656
172	0xbdbfcafe	-0.093648896
173	0xbda8f344	-0.08249524
174	0xbe79a509	-0.24379362
175	0xbe667de8	-0.22508967
176	0x3d44f133	0.048081588
177	0xbe3377f9	-0.17526235
178	0xbf21f841	-0.6326943
179	0xbe925f61	-0.28588393
180	0xbf3b7464	-0.73224473
181	0xbe2b934a	-0.16755405
182	0xbe9f5b48	-0.3112433
183	0xbf0124d2	-0.5044681
184	0xbe958249	-0.29200962
185	0xbe053ad0	-0.13010716
186	0xbe89617a	-0.2683218
187	0xbe933f84	-0.28759396
188	0xbea4e509	-0.3220599
189	0xbf8dfcf1	-1.1092817
190	0xbe89ebae	-0.26937622
191	0xbf492544	-0.7857249
192	0xbd916031	-0.07098425
193	0xbea1541a	-0.31509477
194	0xbc281df1	-0.010261045
195	0xbf9486c4	-1.1603627
196	0xbf6dc6f6	-0.92881715
197	0xbc169934	-0.0091918
198	0xbe52eb41	-0.20597555
199	0xbea05211	-0.31312612
200	0xbf183d7e	-0.5946883
201	0xbf7caa01	-0.98696905
202	0xbe59058b	-0.2119352
203	0xbf001d1f	-0.50044435
204	0xbd7d5c97	-0.06185588
205	0xbf4288b3	-0.75989836
206	0xbe75856d	-0.23976679
207	0xbd1eae37	-0.038740363
208	0xbf10339a	-0.5632874
209	0xbf62a4e4	-0.88532853
210	0xbf2423b9	-0.6411701
211	0xbf13c75e	-0.57726085
212	0xbd7b8a37	-0.06141111
213	0xbdb90069	-0.09033281
214	0x3d3775b6	0.044789992
215	0xbe2fd6dd	-0.17171808
216	0xbdbf1a35	-0.093311705
217	0xbe035145	-0.1282397
218	0xbf15b0f5	-0.5847314
219	0xbea7e5ae	-0.3279242
220	0xbf2ce7f9	-0.6754146
221	0xbe6f4cda	-0.2336916
222	0xbee04a6e	-0.43806785
223	0xbef1b727	-0.47210047
224	0xbe97fefa	-0.2968672
225	0xbe8c6769	-0.27422646
226	0xbe86b8ff	-0.26313016
227	0xbe84f29f	-0.25966355
228	0xbeaf8210	-0.34278917
229	0xbf9bb0ed	-1.2163368
230	0xbe1c0d9d	-0.15239568
231	0xbf5db029	-0.86596924
232	0xbe38c50a	-0.18043914
233	0xbeda84b8	-0.4267938
234	0xbe4a9ef3	-0.19787197
235	0xbf89a6e9	-1.0754062
236	0xbf42ea3f	-0.7613868
237	0xbe4f7446	-0.20259199
238	0x3d1bc7c7	0.03803232
239	0xbe083645	-0.13301952
240	0xbf8e9298	-1.1138487
241	0xbf611200	-0.8791809
242	0xbef4143a	-0.47671682
243	0xbf8e3eb4	-1.1112885
244	0xbf28ec57	-0.65985626
245	0x3e987468	0.2977631
246	0xbf5ef33d	-0.870899
247	0xbead3aa1	-0.33833793
248	0xbf9f63ae	-1.2452295
249	0x3ed65673	0.4186283
250	0xbf9ace98	-1.2094297
251	0xbf8674f0	-1.0504436
252	0xbef81c63	-0.48459157
253	0xbf1fe4cc	-0.6245849
254	0xbf1e1fcb	-0.6176726
255	0xbeba35aa	-0.36369067

linear_sigmoid_stack.4.bias f4 [40]
0	0xbf3378f0	-0.7010641
1	0xbf80bb47	-1.0057153
2	0xbf7159a7	-0.94277424
3	0xbf7a6100	-0.9780426
4	0xbf897672	-1.0739272
5	0xbf7aaf06	-0.97923315
6	0xbdd02fab	-0.10165342
7	0xbf7c8873	-0.98645705
8	0xbf6cdf55	-0.9252828
9	0xbf8225c6	-1.0167778
10	0xbee6bd40	-0.4506626
11	0xbe8d9b59	-0.27657583
12	0xbf50b18c	-0.81520915
13	0xbf9d3595	-1.2281977
14	0xbf8bce1c	-1.0922275
15	0xbf7e39fb	-0.9930722
16	0xbf6872a8	-0.9079995
17	0xbf8257d8	-1.0183058
18	0xbf4fbec9	-0.8115049
19	0xbf67562a	-0.9036585
20	0xbf80403d	-1.0019604
21	0xbfa2d241	-1.2720414
22	0xbf86b033	-1.0522522
23	0xbf7e9ca5	-0.9945777
24	0xbf789f2d	-0.9711788
25	0xbf9cb0a2	-1.2241404
26	0xbf832013	-1.0244163
27	0xbf7f4910	-0.9972086
28	0xbf871108	-1.0552073
29	0xbf8e8fee	-1.1137674
30	0x3ebd874c	0.37017286
31	0xbf824c9a	-1.0179627
32	0xbf884d9e	-1.0648687
33	0xbf9269eb	-1.1438574
34	0xbf7f2b90	-0.99675846
35	0xbf834719	-1.0256072
36	0xbfa2fbfe	-1.2733152
37	0x3cf2d119	0.029640721
38	0xbf8ffd97	-1.1249264
39	0xbfa57c3d	-1.292854

linear_sigmoid_stack.6.weight f4 [1, 40]
0	0x3e02a235	0.1275719
1	0xbd0b4d92	-0.034009524
2	0xbd9c92b2	-0.076451674
3	0x3df2992c	0.118456215
4	0x3dc6c143	0.097048305
5	0x3db9571a	0.090498164
6	0xbe8fce85	-0.2808725
7	0x3e028d3f	0.12749194
8	0x3c2440a9	0.010025182
9	0x3dcb19fe	0.09917067
10	0x3daa33fa	0.08310695
11	0x3ece625a	0.4030941
12	0x3df6f501	0.120584495
13	0x3d0bfdb5	0.0341775
14	0x3dc11a9d	0.09428904
15	0xbc0cf7f3	-0.008604038
16	0xbcdd9a14	-0.02705101
17	0x3ddca4b8	0.10773605
18	0x3ddf6343	0.109076045
19	0x3e11acee	0.14226124
20	0x3ceee701	0.029162886
21	0x3da6139d	0.0810921
22	0x3e12f0b2	0.1434963
23	0x3d15c409	0.036563907
24	0x3e12cf34	0.14336854
25	0x3cb25376	0.021768313
26	0xbd901389	-0.07034976
27	0x3de3918a	0.11111744
28	0x3e13c183	0.14429288
29	0xbcdcfdfa	-0.026976574
30	0x3f4263f4	0.75933766
31	0x3df9f10b	0.122041784
32	0x3dadb190	0.08481133
33	0x3d0efc10	0.034908354
34	0x3d9e4b42	0.07729198
35	0x3e0c5b0c	0.13706607
36	0x3d930623	0.07178905
37	0x3f189420	0.5960102
38	0x3d9f912a	0.0779136
39	0x3da4798a	0.08030994
