Logistic/Results with additional condition/sol_w120.pt (torch_old, 15258 bytes, 7 tensors)

linear_sigmoid_stack.0.weight f4 [40, 1]
0	0x3fa375de	1.2770345
1	0xbe9a634c	-0.30153883
2	0x3e8be47c	0.27322757
3	0xbebbc674	-0.36674845
4	0xbecd3c37	-0.40085003
5	0xbeae087c	-0.33990848
6	0xbea57a44	-0.32319844
7	0x3dc00016	0.093750164
8	0xbebb0740	-0.3652897
9	0x3eac571b	0.33660206
10	0x3e9b2d07	0.3030779
11	0xbec4076f	-0.3828692
12	0xbed18e88	-0.40929055
13	0xbea636da	-0.32463723
14	0xbe917768	-0.28411412
15	0xbeb17718	-0.34661174
16	0x3e7af999	0.24509276
17	0xbea3ded7	-0.3200595
18	0x3f9e6b18	1.2376432
19	0xbebb3c13	-0.3656927
20	0x40449173	3.0713775
21	0xbead541e	-0.3385324
22	0xbefade43	-0.48997697
23	0x3e9e519e	0.30921644
24	0x3ddd7144	0.10812619
25	0xbe935ad9	-0.2878025
26	0x3e8b2e25	0.27183643
27	0x3e7c361b	0.24630015
28	0xbf129728	-0.57261896
29	0xbeba0d81	-0.36338428
30	0xbeaa2f97	-0.33239433
31	0x3e7ac402	0.24488834
32	0xbf0fdea1	-0.5619908
33	0x3e702135	0.23450167
34	0x3dff6477	0.12470334
35	0x3fc7c7cf	1.5607852
36	0xbeb42935	-0.35187688
37	0xbeae336c	-0.34023607
38	0xbeb4836c	-0.35256517
39	0xbe9ece92	-0.31016976

linear_sigmoid_stack.0.bias f4 [40]
0	0xbde6e59d	-0.11274264
1	0x3f5287cc	0.8223846
2	0xc010ab07	-2.2604387
3	0x401192cc	2.2745848
4	0x40303333	2.753125
5	0x3fd3959c	1.6530032
6	0x3fa44427	1.2833298
7	0xbfd789e4	-1.6838956
8	0x40092050	2.1425972
9	0xc034b268	-2.823389
10	0xc0218612	-2.523808
11	0x40228bcc	2.5397825
12	0x4036687a	2.8501267
13	0x3fa0f501	1.2574769
14	0x3f103ff6	0.56347597
15	0x3fba7eb4	1.4569917
16	0xc00a9190	-2.1651344
17	0x3f9cbc75	1.2245013
18	0xbeb3fdfc	-0.35154712
19	0x4002b80b	2.042483
20	0x3e4efb73	0.20213108
21	0x3fd0a7f3	1.6301254
22	0xbe3bc84f	-0.1833813
23	0xc02811ad	-2.6260788
24	0xbfebbdfc	-1.8417354
25	0xbf57826e	-0.84183395
26	0xc00f6a23	-2.240853
27	0xc00314a2	-2.0481343
28	0x3ef21e38	0.4728868
29	0x400b46df	2.1762006
30	0xbf62de0e	-0.8862008
31	0xbffcc47d	-1.9747463
32	0x3e71a716	0.23598894
33	0xc00df6df	-2.2181928
34	0xbfece228	-1.8506517
35	0xbe17c138	-0.14819801
36	0x3fdf8718	1.7463102
37	0x3fc9b3fc	1.5758052
38	0x3ff6295a	1.923137
39	0x3f881049	1.062997

linear_sigmoid_stack.2.weight f4 [40, 40]
0	0xbe80195b	-0.25019345
1	0xbfa25e8a	-1.2685101
2	0x3eaeae6c	0.34117448
3	0xbfa6b0e2	-1.302273
4	0xbfd79b3d	-1.684425
5	0xbfb0712c	-1.3784537
6	0xbf936c31	-1.1517392
7	0x3df3d238	0.119053304
8	0xbfb89f7f	-1.4423674
9	0x3f4130c7	0.75465053
10	0x3ec0e0c7	0.37671492
11	0xbfbeeea0	-1.4916573
12	0xbfc9457a	-1.5724328
13	0xbf9ce14d	-1.2256256
14	0xbfa0be89	-1.2558147
15	0xbfb25e5c	-1.3935046
16	0x3e78dd29	0.24303116
17	0xbf829647	-1.0202111
18	0xbed047ed	-0.40679875
19	0xbfa24731	-1.2677976
20	0xbf06a866	-0.52600706
21	0xbfbe1e68	-1.4853029
22	0xbefa873a	-0.48931295
23	0x3f1181f7	0.56838936
24	0x3d68042d	0.056644607
25	0xbea95318	-0.33071208
26	0x3ee2fd18	0.4433372
27	0x3e76f39e	0.2411637
28	0xbf27851c	-0.65437484
29	0xbfac2bb4	-1.3450837
30	0xbe8e717b	-0.27820954
31	0x3ebba832	0.3665176
32	0xbf004326	-0.5010246
33	0x3eaffc14	0.34372008
34	0x3e5a16ee	0.2129781
35	0xbf1d7492	-0.61506
36	0xbfb82012	-1.4384787
37	0xbfb263aa	-1.3936665
38	0xbfbdbb2d	-1.4822747
39	0xbf92d8b6	-1.1472385
40	0x3d72b36f	0.059253152
41	0xbf4812e1	-0.78153807
42	0x3ede83a7	0.43459818
43	0xbf9ec007	-1.2402352
44	0xbf8b7030	-1.0893612
45	0xbf7de856	-0.9918264
46	0xbf71a577	-0.94393104
47	0x3ceef497	0.029169364
48	0xbf736b18	-0.9508529
49	0x3f016b37	0.5055422
50	0x3e949508	0.29019952
51	0xbfa81281	-1.3130647
52	0xbfa4ec49	-1.2884609
53	0xbf37c0aa	-0.7177836
54	0xbf1cf1b4	-0.6130631
55	0xbf515a68	-0.81778574
56	0x3e473551	0.19453932
57	0xbf39b5a4	-0.72542787
58	0x3e8ed8d9	0.27899817
59	0xbf83b908	-1.0290842
60	0x3e445bd9	0.19175662
61	0xbf7241d7	-0.94631714
62	0x3e453ccb	0.19261472
63	0x3eaebacc	0.3412689
64	0x3e0f0b13	0.13969068
65	0x3e1a8924	0.15091377
66	0x3ebd0071	0.369144
67	0x3e8d7888	0.2763102
68	0x3e3c79a1	0.18405773
69	0xbf829dfb	-1.0204462
70	0x3e929307	0.28627798
71	0x3dcb9621	0.09940744
72	0xbc841ee8	-0.016128018
73	0x3ed8d830	0.42352438
74	0x3eb7c7a9	0.35894516
75	0x3da50060	0.08056712
76	0xbf91cdef	-1.1390971
77	0xbf4fc4eb	-0.8115985
78	0xbf54a8da	-0.8307015
79	0xbf61b2df	-0.8816356
80	0xbf027299	-0.5095611
81	0xbe837d0b	-0.25681338
82	0xbe871816	-0.26385564
83	0xbea924b2	-0.3303581
84	0xbe9b4369	-0.30324867
85	0xbee9366b	-0.4554933
86	0xbeabdf95	-0.33569017
87	0xbeb3bbc1	-0.35104182
88	0xbe682e5f	-0.22673939
89	0xbda96029	-0.08270294
90	0xbd9058d0	-0.0704819
91	0xbea315be	-0.31852525
92	0xbe7c2983	-0.2462521
93	0xbe89328b	-0.26796374
94	0xbebf77e1	-0.37396148
95	0xbea4a90a	-0.32160217
96	0xbe97b604	-0.29631054
97	0xbe82b532	-0.25528866
98	0xbed5bb94	-0.41744673
99	0xbec363fd	-0.38162223
100	0xbeb4fce2	-0.35349184
101	0xbe871159	-0.26380423
102	0xbe111d73	-0.1417139
103	0xbd9b32b2	-0.07578029
104	0xbe998244	-0.29982197
105	0xbe5eafe0	-0.21746778
106	0xbe98c113	-0.29834804
107	0xbdd192bb	-0.10233065
108	0x3cd7b7ae	0.026332702
109	0xbe83e0eb	-0.25757536
110	0xbdc0abbf	-0.09407758
111	0xbd30d457	-0.043171253
112	0xbc01a73d	-0.007913408
113	0xbeabf075	-0.33581892
114	0xbe42cf8b	-0.19024484
115	0xbf05d115	-0.5227216
116	0xbe88d303	-0.2672349
117	0xbeb0e242	-0.3454762
118	0xbe950cde	-0.2911138
119	0xbed51660	-0.41618633
120	0xbeaa5eea	-0.3327554
121	0xbf63e876	-0.8902658
122	0x3e908e72	0.28233677
123	0xbfa70a00	-1.3049927
124	0xbfd22418	-1.6417265
125	0xbfa22b96	-1.2669551
126	0xbf939131	-1.1528684
127	0xbc8e0754	-0.017337479
128	0xbfa9f9c8	-1.3279352
129	0x3f28d379	0.6594768
130	0x3ec63c05	0.38717666
131	0xbf9fb970	-1.2478466
132	0xbfcf1334	-1.6177735
133	0xbf773e84	-0.96579766
134	0xbf733bcc	-0.9501312
135	0xbf9a79cd	-1.2068421
136	0x3ebdbecf	0.37059638
137	0xbf7e830e	-0.99418724
138	0xbeede48d	-0.46463433
139	0xbfab3442	-1.3375323
140	0xbed11342	-0.40835005
141	0xbf9bde84	-1.2177281
142	0xbee5975c	-0.4484204
143	0x3ef558ba	0.47919255
144	0x3d63a432	0.05557651
145	0xbea17f84	-0.315426
146	0x3e92e840	0.28692818
147	0x3e2df3bb	0.16987507
148	0xbf263413	-0.6492321
149	0xbfb4d72d	-1.4128166
150	0xbeb3d679	-0.35124567
151	0x3e6e7333	0.23286133
152	0xbecde7e5	-0.40215984
153	0x3ed1e652	0.40996033
154	0x3e88cf50	0.26720667
155	0xbee32c85	-0.44369903
156	0xbf966dd4	-1.1752267
157	0xbf9f7f55	-1.2460734
158	0xbf9492bc	-1.160728
159	0xbf91da53	-1.1394752
160	0xbefcee90	-0.4940076
161	0xbe788a6f	-0.24271558
162	0xbe4a2cd8	-0.19743669
163	0xbe0f425e	-0.13990161
164	0xbe94bcc8	-0.2905028
165	0xbda326f3	-0.07966413
166	0xbe920c91	-0.28525212
167	0xbeabaecd	-0.335318
168	0xbe895a0c	-0.26826513
169	0x3df4d9c8	0.11955601
170	0xbc7bc640	-0.015367091
171	0xbd87ce9b	-0.06631204
172	0xbe9ce1a6	-0.30640906
173	0xbd606a0b	-0.05478863
174	0xbeaaa850	-0.33331537
175	0xbdf21c09	-0.118217535
176	0xbd6d4839	-0.057930205
177	0xbd7d740f	-0.06187826
178	0xbf119ff1	-0.56884676
179	0xbe885566	-0.26627654
180	0xbf0e9637	-0.5569796
181	0xbd29bf17	-0.041442003
182	0xbd4c1985	-0.049829025
183	0xbe43e0a5	-0.19128664
184	0xbe282e57	-0.16423927
185	0xbd9938a5	-0.07481507
186	0xbdae438e	-0.08508979
187	0xbe5f23f3	-0.21791057
188	0xbde751f0	-0.11294925
189	0xbd8f81b3	-0.0700716
190	0xbe688643	-0.22707467
191	0xbe1660e2	-0.14685395
192	0xbdc84497	-0.097787075
193	0xbce0e318	-0.027452037
194	0xbe8e7607	-0.27824423
195	0xbf11fa1e	-0.57022274
196	0xbe961b7c	-0.29317844
197	0xbe9870a4	-0.29773438
198	0xbe0264a0	-0.12733698
199	0xbdb4fef1	-0.08837689
200	0x3e317242	0.17328742
201	0x3f97c0fd	1.185577
202	0xbf109fa4	-0.5649359
203	0x3f86126a	1.047437
204	0x3fac925e	1.3482168
205	0x3f99c5ed	1.2013527
206	0x3f81f3a9	1.0152484
207	0xbe8978fd	-0.2685012
208	0x3fb5f403	1.4215091
209	0xbf39eebe	-0.72629917
210	0xbf0d4580	-0.55184174
211	0x3f8c4258	1.0957747
212	0x3fafb581	1.3727266
213	0x3f8e04b3	1.1095184
214	0x3f831b57	1.0242718
215	0x3fa7d9fc	1.3113399
216	0xbef40457	-0.4765956
217	0x3f99e9f1	1.2024518
218	0x3dd70163	0.10498311
219	0x3faf1c89	1.3680583
220	0x3e8f06f7	0.27935
221	0x3f9c9480	1.2232819
222	0x3ec59a74	0.385944
223	0xbef57043	-0.4793721
224	0xbe82ea26	-0.25569266
225	0x3e4fde59	0.20299663
226	0xbeec0110	-0.4609456
227	0xbf0178e9	-0.5057512
228	0x3f198c7e	0.5998
229	0x3f94c38c	1.1622176
230	0x3ec2db37	0.38057873
231	0xbf0118e1	-0.5042859
232	0x3ee4351b	0.44571766
233	0xbecb8c03	-0.39755258
234	0xbe2ac51f	-0.16676758
235	0x3eace532	0.33768612
236	0x3f8e0a8c	1.1096969
237	0x3fab97d3	1.3405708
238	0x3fb06c9f	1.3783149
239	0x3f7bec88	0.98407793
240	0xbea7aafb	-0.32747635
241	0xbf4f1502	-0.8089143
242	0x3e55f3d9	0.20893802
243	0xbf7a541e	-0.977846
244	0xbfa4d235	-1.287665
245	0xbf84ff8d	-1.0390488
246	0xbf650c1a	-0.8947159
247	0xbdf914c6	-0.12162165
248	0xbf86b176	-1.0522907
249	0x3e79953d	0.24373336
250	0x3ea363af	0.3191199
251	0xbf5c45fe	-0.860443
252	0xbfadbd29	-1.3573352
253	0xbf7bac4b	-0.98309773
254	0xbf44c25e	-0.7685908
255	0xbf5ac7d2	-0.8546115

linear_sigmoid_stack.2.bias f4 [40]
0	0xbecec228	-0.40382504
1	0xbec4b5f3	-0.38420066
2	0xbec26164	-0.37964928
3	0xbf071bf6	-0.5277704
4	0xbe4d026b	-0.20020454
5	0xbc9f18aa	-0.01942094
6	0xbea8e195	-0.32984605
7	0xbebd479c	-0.36968696
8	0xbf1217a4	-0.5706732
9	0x3eafe365	0.34353176
10	0xbee817ab	-0.45330557
11	0xbf02429c	-0.5088289
12	0xbe882d4a	-0.26597053
13	0xbee3fd99	-0.44529417
14	0xbeb0eff5	-0.34558073
15	0xbf0a5ed1	-0.5405093
16	0xbec6c0d6	-0.38818997
17	0xbeec5d99	-0.4616516
18	0xbf0b5274	-0.5442269
19	0xbeffdceb	-0.49973235
20	0x3e1518a6	0.14560184
21	0xbf094d46	-0.53633535
22	0xbf00fc08	-0.5038457
23	0xbf01f98d	-0.5077141
24	0xbebc339b	-0.36758122
25	0xbef1803b	-0.47168145
26	0xbdfce57c	-0.12348458
27	0xbed7fcd0	-0.42185068
28	0xbf1342dc	-0.57523894
29	0x3ec88efa	0.39171582
30	0xbedcda42	-0.43135267
31	0xbd474d33	-0.048657607
32	0xbe88630f	-0.26638076
33	0xbec9672d	-0.3933653
34	0xbe4b1cae	-0.19835159
35	0x3e7844b2	0.24244955
36	0xbe821413	-0.2540594
37	0xbe08008e	-0.13281462
38	0xbe9a00d8	-0.3007877
39	0xbf10a367	-0.5649933

linear_sigmoid_stack.4.weight f4 [40, 40]
0	0x3e0e1dbf	0.13878535
1	0xbe9fb3e1	-0.31191924
2	0x3c74b53d	0.014935789
3	0xbe013f2e	-0.12621757
4	0x3cfd6c04	0.030935295
5	0xbf45b1f1	-0.7722464
6	0xbe3557b0	-0.17709231
7	0xbdeb0cf8	-0.11477083
8	0x3e830ddd	0.25596514
9	0xbf901deb	-1.125913
10	0x3ec37a51	0.38179258
11	0x3e9f4d1b	0.31113514
12	0xbde82119	-0.11334438
13	0xbe147ee9	-0.14501537
14	0xbe1134e7	-0.14180337
15	0xbd920c03	-0.07131197
16	0x3dc8e04e	0.09808408
17	0xbd53c9cb	-0.051706117
18	0xbe3d747a	-0.18501464
19	0xbe8f6220	-0.2800455
20	0xbf53490a	-0.82533324
21	0xbe36dec6	-0.17858419
22	0xbe2e1ea8	-0.17003882
23	0x3d92a37b	0.07160088
24	0xbe141b73	-0.14463596
25	0xbed5b366	-0.41738433
26	0xbf19ed0d	-0.60127336
27	0xbe19ad3c	-0.1500749
28	0xbe2ba4d3	-0.16762094
29	0xbf09ab24	-0.53776765
30	0xbe112ea1	-0.14177944
31	0xbf12d98b	-0.57363194
32	0xbe2e00e1	-0.16992523
33	0xbca7db47	-0.020490302
34	0xbdee7e29	-0.11645157
35	0xbf28d64a	-0.6595198
36	0xbf39ab14	-0.7252667
37	0xbe6a98c0	-0.22909832
38	0xbe27921f	-0.16364335
39	0xbdf3a085	-0.11895851
40	0xbf8e4772	-1.1115553
41	0xbf1f8bd4	-0.62322736
42	0xbd3028b4	-0.043007568
43	0xbf51a30c	-0.81889415
44	0xbe514290	-0.20435548
45	0xbf100476	-0.56256807
46	0xbef8920d	-0.48548928
47	0xbdc8f2e2	-0.09811951
48	0xbf6e2d45	-0.93037826
49	0xbf269c38	-0.6508212
50	0xbf99afa5	-1.2006727
51	0xbf6c99ea	-0.92422354
52	0xbe3f9a90	-0.18711305
53	0xbeaf2d13	-0.34214076
54	0xbe41325e	-0.1886687
55	0xbe3ad360	-0.18244696
56	0xbea65602	-0.32487494
57	0xbebdbe66	-0.37059325
58	0xbf8cc81f	-1.0998572
59	0xbf6a62cf	-0.9155702
60	0xbed99e01	-0.4250336
61	0xbf2f7685	-0.6854022
62	0xbf42ddc2	-0.76119626
63	0xbf91da53	-1.1394752
64	0xbf6eb87a	-0.9325024
65	0xbec68665	-0.3877441
66	0xbf1c365d	-0.6102045
67	0xbe693557	-0.22774254
68	0xbefe5dae	-0.49680847
69	0xbf5879f0	-0.8456106
70	0xbecd26d0	-0.40068674
71	0xbf15dd24	-0.5854056
72	0xbe1513f2	-0.1455839
73	0xbf1f1c3d	-0.62152463
74	0xbdfb54df	-0.12272047
75	0xbf736294	-0.95072293
76	0xbf0cef3a	-0.5505253
77	0xbe560b18	-0.2090267
78	0xbead20f2	-0.33814198
79	0xbf082aeb	-0.5319049
80	0xbfadf656	-1.3590801
81	0xbf6b2d6c	-0.91866183
82	0xbea8bec3	-0.3295804
83	0xbfaa0a73	-1.3284439
84	0xbef9944a	-0.48745948
85	0xbe887be3	-0.26657018
86	0xbf697625	-0.911959
87	0xbe9f58ef	-0.31122538
88	0xbf921355	-1.141215
89	0xbe9d923e	-0.30775636
90	0xbfb50d0c	-1.4144607
91	0xbf911f2d	-1.1337639
92	0xbeda521f	-0.42640778
93	0xbf0785ce	-0.52938545
94	0xbf2f5a87	-0.6849751
95	0xbead243a	-0.338167
96	0xbeb5a492	-0.3547712
97	0xbf2d303b	-0.6765172
98	0xbfabf92b	-1.3435415
99	0xbf9b2691	-1.2121145
100	0xbc1cfd64	-0.009581897
101	0xbf6ccc64	-0.92499375
102	0xbf890614	-1.070498
103	0xbfb8bbbe	-1.4432294
104	0xbf97fabd	-1.1873394
105	0xbf3e8ca5	-0.74433357
106	0xbf681d8a	-0.90670073
107	0xbf756f34	-0.9587281
108	0xbf31c6d3	-0.69444007
109	0xbf5db0f2	-0.8659812
110	0xbef712a9	-0.48256424
111	0xbdef7f68	-0.11694223
112	0xbf14dbf6	-0.58148134
113	0xbf8fb78a	-1.1227887
114	0xbf15e48e	-0.5855187
115	0xbf22ff20	-0.6367054
116	0xbe24db37	-0.16099249
117	0xbef1f7b5	-0.47259298
118	0xbee1fd6f	-0.44138667
119	0xbf4c80e8	-0.79884195
120	0xbe4ffd76	-0.20311531
121	0xbfa627e1	-1.298092
122	0xbe9b1b2a	-0.30294162
123	0xbea5910c	-0.32337224
124	0xbdac7f28	-0.08422691
125	0xbf8a0025	-1.0781294
126	0xbee68f98	-0.45031428
127	0xbd82f354	-0.063940674
128	0xbeb0df57	-0.34545395
129	0xbfa8f887	-1.3200845
130	0xbda7e6c1	-0.0819831
131	0xbe50cc6e	-0.20390484
132	0xbe2fe95d	-0.17178865
133	0xbe185b6b	-0.14878623
134	0xbded63fe	-0.115913376
135	0xbe2b3a09	-0.16721357
136	0xbe782f5b	-0.24236815
137	0xbe95c0df	-0.2924871
138	0xbe75f0a3	-0.24017577
139	0xbea78ac7	-0.32723066
140	0xbf32d518	-0.69856405
141	0xbe987dbe	-0.29783434
142	0xbec6fd21	-0.38864997
143	0xbebbd1e4	-0.3668357
144	0xbee4fa77	-0.4472234
145	0xbec4d478	-0.3844335
146	0xbeaed3c5	-0.34145942
147	0xbe88f76c	-0.26751268
148	0xbe442292	-0.19153813
149	0xbf86c247	-1.0528039
150	0xbdb9f407	-0.09079748
151	0xbf0ea2b1	-0.55717
152	0xbe66efa1	-0.22552349
153	0xbe50eeac	-0.20403546
154	0xbe916f0e	-0.2840504
155	0xbf827f75	-1.0195147
156	0xbf694d97	-0.9113402
157	0xbd9d203b	-0.07672163
158	0xbe4443b2	-0.19166449
159	0xbdcb72a3	-0.099339746
160	0xbeffe78d	-0.49981347
161	0xbf5de746	-0.8668102
162	0xbde2d9b8	-0.11076683
163	0xbf1c2913	-0.61000174
164	0xbe83481c	-0.25640953
165	0xbf7c6049	-0.9858442
166	0xbeb719a0	-0.35761738
167	0x3d648477	0.05579039
168	0xbf01a80e	-0.50647056
169	0xbf398d83	-0.72481555
170	0xbef3b71f	-0.47600648
171	0xbf27b770	-0.6551428
172	0xbdc0203a	-0.09381147
173	0xbda99eec	-0.08282265
174	0xbe79d09e	-0.24395987
175	0xbe6682c6	-0.22510824
176	0x3d44b1a1	0.048020963
177	0xbe33be08	-0.1755296
178	0xbf229a7a	-0.6351696
179	0xbe9306c2	-0.28716093
180	0xbf3b357b	-0.7312848
181	0xbe2c6e70	-0.16839004
182	0xbea0430d	-0.31301156
183	0xbf016152	-0.50539124
184	0xbe96687c	-0.2937659
185	0xbe05f285	-0.13080795
186	0xbe88f886	-0.26752108
187	0xbe928da9	-0.28623703
188	0xbea547ae	-0.3228125
189	0xbf8e40cd	-1.1113526
190	0xbe8a0bd3	-0.26962146
191	0xbf48af58	-0.78392553
192	0xbd91ae44	-0.07113317
193	0xbea1cd44	-0.31601918
194	0xbc2a4a49	-0.0103936875
195	0xbf949c9d	-1.1610295
196	0xbf6d6afa	-0.9274136
197	0xbc1a9bb6	-0.009436538
198	0xbe5322e5	-0.2061878
199	0xbea0897f	-0.313549
200	0xbf186df4	-0.59542775
201	0xbf7d4990	-0.9894037
202	0xbe590f35	-0.21197207
203	0xbf0055ad	-0.5013073
204	0xbd7db456	-0.06193956
205	0xbf41dab6	-0.7572435
206	0xbe76a2c4	-0.24085528
207	0xbd1ee65c	-0.038793907
208	0xbf10566b	-0.56381863
209	0xbf620451	-0.88287836
210	0xbf24415f	-0.6416225
211	0xbf13f9c2	-0.57802975
212	0xbd7c1392	-0.0615421
213	0xbdb990b0	-0.090608
214	0x3d36e930	0.04465598
215	0xbe2fd717	-0.17171894
216	0xbdbf2db0	-0.09334886
217	0xbe038976	-0.12845406
218	0xbf163f3f	-0.58690256
219	0xbea87634	-0.32902682
220	0xbf2c50a9	-0.6731058
221	0xbe70074f	-0.23440288
222	0xbee1136a	-0.43960124
223	0xbef221c6	-0.47291392
224	0xbe98c6a8	-0.29839063
225	0xbe8cb413	-0.27481136
226	0xbe85e208	-0.2614901
227	0xbe83d505	-0.25748459
228	0xbeafd578	-0.3434255
229	0xbf9bac5b	-1.2161974
230	0xbe1c420f	-0.15259574
231	0xbf5cf798	-0.863153
232	0xbe38d9bd	-0.1805181
233	0xbedaed07	-0.42758963
234	0xbe4ab164	-0.19794232
235	0xbf8979dc	-1.0740314
236	0xbf4249c2	-0.75893795
237	0xbe4f9b71	-0.2027414
238	0x3d1b1625	0.037862916
239	0xbe08955a	-0.13338223
240	0xbf91f646	-1.1403282
241	0xbf33a1b0	-0.7016859
242	0xbeec33af	-0.4613318
243	0xbf91423b	-1.1348337
244	0xbf22882e	-0.63489044
245	0x3e7a2823	0.24429373
246	0xbf634717	-0.8878035
247	0xbea7d66c	-0.32780778
248	0xbfa25bcc	-1.2684264
249	0x3ef2a395	0.47390428
250	0xbf9dcce6	-1.2328155
251	0xbf8ad8b9	-1.0847389
252	0xbef2699a	-0.47346193
253	0xbf1ece5e	-0.6203364
254	0xbf1591d3	-0.58425635
255	0xbeb48fbb	-0.35265908

linear_sigmoid_stack.4.bias f4 [40]
0	0xbf27b3a7	-0.655085
1	0xbf76beb2	-0.9638473
2	0xbf43ddfe	-0.7651061
3	0xbf7bb468	-0.98322153
4	0xbf89ba8f	-1.0760058
5	0xbf7aafc7	-0.97924465
6	0xbd9ecf3e	-0.07754372
7	0xbf7e3311	-0.9929667
8	0xbf641dce	-0.8910798
9	0xbf826f49	-1.0190212
10	0xbea4b393	-0.32168254
11	0xbedd1b3f	-0.4318485
12	0xbf4e2eaa	-0.80539954
13	0xbf9bc1db	-1.2168535
14	0xbf8bf9cc	-1.0935607
15	0xbf7739c1	-0.965725
16	0xbf5bc7e8	-0.8585191
17	0xbf82c258	-1.0215559
18	0xbf4e0eef	-0.80491537
19	0xbf695081	-0.91138464
20	0xbf7d69c9	-0.9898954
21	0xbfa2f81b	-1.2731966
22	0xbf87999a	-1.059375
23	0xbf7a2457	-0.977117
24	0xbf7b198d	-0.9808586
25	0xbf9ab31a	-1.2085907
26	0xbf739293	-0.9514553
27	0xbf80206f	-1.0009898
28	0xbf8807cb	-1.0627378
29	0xbf89f226	-1.0777023
30	0xbdfb64ac	-0.12275061
31	0xbf83025a	-1.0235093
32	0xbf872168	-1.055707
33	0xbf9112e7	-1.1333894
34	0xbf7f679b	-0.99767464
35	0xbf843abc	-1.0330424
36	0xbfa2e87c	-1.2727199
37	0xbed0b23a	-0.40760976
38	0xbf8eec5e	-1.1165884
39	0xbfa59757	-1.293681

linear_sigmoid_stack.6.weight f4 [1, 40]
0	0x3d91d20b	0.07120141
1	0xbdca3aa5	-0.09874467
2	0xbe30fea2	-0.17284635
3	0x3d50d028	0.050979763
4	0x3c65f2cb	0.014034937
5	0x3bb614fc	0.0055567008
6	0xbe920bff	-0.28524777
7	0x3d4b31ff	0.049608227
8	0xbd8f661c	-0.07001898
9	0x3bcf371c	0.006323708
10	0x3e2503a9	0.16114677
11	0x3ea0e7c5	0.31426826
12	0x3cb51056	0.022102516
13	0xbd223454	-0.039600685
14	0x3ce851de	0.02835935
15	0xbd8f411f	-0.06994843
16	0xbdd30cb2	-0.10305156
17	0x3cca5034	0.024696447
18	0x3d8ec10e	0.06970416
19	0x3d67234f	0.056430157
20	0xbd157efd	-0.03649806
21	0x3c59cb7a	0.0132931415
22	0x3da6fef5	0.08154098
23	0xbd486df9	-0.048933003
24	0x3d351ebc	0.044218764
25	0xbd5ccb59	-0.053904865
26	0xbe17ad3d	-0.14812179
27	0x3cb3b9e2	0.021939222
28	0x3d99a5ab	0.07502302
29	0xbda1f55f	-0.07908129
30	0x3efd3f89	0.49462536
31	0x3d201420	0.039081693
32	0x3b45aafc	0.003016173
33	0xbd2633c6	-0.04057672
34	0x3bdc9c39	0.0067324904
35	0x3d37b9cd	0.044854928
36	0x3ab8b23d	0.0014091205
37	0x3f057002	0.52124035
38	0xbc07ea99	-0.0082956785
39	0x3cbe43ad	0.02322563
