Logistic/Results with additional condition/sol_w181.pt (torch_old, 15258 bytes, 7 tensors)

linear_sigmoid_stack.0.weight f4 [40, 1]
00000000: 069a 943f 7bf9 09bf b5fc f33e e054 ffbe
00000010: 8209 09bf 8105 3fbf 8b92 24bf e617 9abd
00000020: 7c35 2ebf 6573 f33e 31f1 f33e 98a1 00bf
00000030: 727d 02bf 9fc7 19bf a884 04bf e9a5 1ebf
00000040: 9320 ee3e fb11 0ebf 6de3 823f 0ede 27bf
00000050: f240 5940 c991 29bf eed4 09bf 25a1 eb3e
00000060: 5ae1 5bbd 42a6 a3be 18b8 ef3e 2478 e43e
00000070: 8b3b 30bf 921e 44bf 58d4 b1be 946a 013f
00000080: 1361 27bf f946 ed3e e831 5bbd c8d2 c13f
00000090: 12b6 1cbf 2d82 2fbf 4ad1 2ebf a52b 0dbf
1.1609504 -0.538963 0.47653738 -0.49869442 -0.5353013 -0.74617773 -0.64286107 -0.075240895
-0.6805036 0.47548977 0.47644952 -0.5024657 -0.50972664 -0.6007022 -0.5176492 -0.6197191
0.46509227 -0.55496186 1.0225655 -0.65573204 3.394589 -0.66238075 -0.5384053 0.4602138
-0.05368171 -0.31962782 0.4682014 0.4462291 -0.68840855 -0.76609147 -0.34732318 0.5055325
-0.653825 0.4634321 -0.05351439 1.514245 -0.6121532 -0.6855801 -0.682881 -0.5514472

linear_sigmoid_stack.0.bias f4 [40]
00000000: ff9e 73bd a085 2b3f f2f6 07c0 39f3 0640
00000010: cd64 1d40 1939 b53f 7079 8a3f f03b d5bf
00000020: c05d ed3f 9bfe 2dc0 e3ab 19c0 bdcf 1640
00000030: c2d3 2540 5d1a 893f 0b46 db3e ee50 a13f
00000040: dd4a 03c0 e6ce 853f 4695 aabe 3fe4 e33f
00000050: 33bb ba3e 7329 b23f cc1a 52be c7d2 21c0
00000060: 1625 e8bf b834 5cbf 2a42 08c0 caf6 f9bf
00000070: 554a e33e bb09 f03f 777c 66bf 8747 eebf
00000080: 40e2 593e a678 06c0 9883 ebbf 3b6c 1ebd
00000090: 306d c33f 6a58 ac3f bb42 d43f d0fb 653f
-0.059477802 0.6700077 -2.1244473 2.1085951 2.4592774 1.415805 1.081831 -1.6658916
1.8544235 -2.718665 -2.4011161 2.3564293 2.5910497 1.071117 0.42826876 1.2602823
-2.0514443 1.0453765 -0.33317012 1.780403 0.36470947 1.3918899 -0.20518035 -2.5284898
-1.8136318 -0.8601794 -2.1290383 -1.9528439 0.44392648 1.875297 -0.9003367 -1.8615578
0.21277714 -2.1011138 -1.8399534 -0.038677435 1.5267696 1.3464482 1.6582865 0.8983736

linear_sigmoid_stack.2.weight f4 [40, 40]
00000000: 0e29 aebe fa5b a3bf 1033 873e e861 a8bf
00000010: 134b d9bf 399b b1bf 4870 94bf 7704 e83d
00000020: c4ef b9bf 7cd0 2d3f 5e5f 993e 7edc c0bf
00000030: ec42 cbbf a9df 9dbf ef88 a1bf 1876 b3bf
00000040: c4ac 2a3e e7a1 83bf da5a febe 6a9f a3bf
00000050: 34af 1dbf dc3b bfbf 2939 fbbe 83fc fa3e
00000060: fcb5 f4bb deba acbe 19b7 b93e 2133 243e
00000070: e092 27bf 5b79 adbf de2e 91be 6483 953e
00000080: a95d 00bf fa92 853e dff0 213e 7b7b 34bf
00000090: a042 b9bf 0985 b3bf b5f5 bebf 43c7 93bf
000000a0: 726c 7b3e f713 40bf a01e 163f cb30 96bf
000000b0: 688d 82bf 216d 74bf db0f 69bf 1153 753d
000000c0: ab86 66bf 79eb 243f a19f df3e 05a1 9ebf
000000d0: f7e8 9abf a2d9 2ebf 2130 16bf c064 47bf
000000e0: da60 b13e 5447 30bf 7725 ee3e 2184 7abf
000000f0: 249d c13e ec29 68bf f61c 523e 38a9 f83e
00000100: f504 503e bd1d 323e 94b6 053f 1b62 dc3e
00000110: 3b62 473e bb41 79bf 99c6 9c3e cf01 813e
00000120: 47fe b8bb 4390 143f aa31 d33e 38ac 883e
00000130: 0242 8cbf 0a16 46bf e134 49bf 3e6c 59bf
00000140: 38ad fbbe 39c3 82be 1e65 80be a25f a7be
00000150: 8650 99be de41 e8be 1111 abbe f742 b2be
00000160: 0b74 65be 1ed5 8fbd 4ea5 6bbd 1317 a1be
00000170: ccd6 77be 9e5f 88be 81e1 bebe 94ba a3be
00000180: dd27 91be c0d5 81be e68a ccbe ed10 c2be
00000190: 2bda abbe 5812 86be 6eae 10be 4cfd 80bd
000001a0: 4cbe 97be 7cbb 5dbe 7606 92be 7ce7 b6bd
000001b0: aaad da3c b993 82be 6427 bfbd 6ed6 f5bc
000001c0: d442 f7bb a063 a5be d566 40be 2b30 01bf
000001d0: 0abe 87be 48f0 afbe 05e0 93be 0255 d4be
000001e0: f73b c1be b64e 64bf 7cd9 773e 25e1 a6bf
000001f0: a4e1 d1bf 1a53 a2bf 69a9 93bf 8a37 91bc
00000200: 8a02 aabf 9f26 1e3f 0203 b13e 328a 9fbf
00000210: 5ac7 cebf f989 77bf 2087 73bf da87 9abf
00000220: 5287 a93e 16c9 7ebf cc62 02bf be3d abbf
00000230: 1fee e7be 94ef 9bbf 2c88 e5be af8c df3e
00000240: d6c6 8a3c 14ca a2be a2d9 793e ef5e 023e
00000250: 480d 26bf 6af3 b4bf f1d0 b4be b2e1 473e
00000260: a6a6 cdbe 0f67 bb3e df60 6e3e a507 fabe
00000270: b76b 96bf c49a 9fbf 3fa5 94bf f6e4 91bf
00000280: c59b eabe 3c29 77be 356a 2dbe dbb1 0abe
00000290: 6a27 92be b8c5 9fbd 0965 91be 7324 a9be
000002a0: cfc4 87be c15a 163e 3aa6 503c 442a 7abd
000002b0: 42ee 99be 70bd 5abd 922a aabe e78a eebd
000002c0: 0550 f9bc f1ce 76bd 9992 08bf ccc5 86be
000002d0: da38 06bf ac23 22bd ce8c 49bd 2e25 27be
000002e0: b2df 1fbe c7e1 95bd 3fcf 67bd 1f47 42be
000002f0: 009a e6bd 1da8 89bd 842b 67be 3283 f3bd
00000300: 705e c7bd 3d8e ba39 a4b3 8bbe 6ba6 08bf
00000310: 0904 95be 0795 97be 65c9 ffbd 5481 b2bd
00000320: ca97 2dbd c913 943f 94ec 3fbf 4190 7c3f
00000330: b96b a43f 7239 963f 38a2 7c3f cab8 a6be
00000340: e98a b03f c18d 68bf 944b 3cbf 47df 833f
00000350: 28fc a63f 750a 8a3f 83ce 7f3f eb7a a33f
00000360: 6377 28bf e188 953f 8619 e1bd 829e a93f
00000370: 9347 813d 7d60 983f 69dd bc3e d5b4 29bf
00000380: 4201 a6be b2b4 383e 64be 25bf e6cd 30bf
00000390: 6c34 153f a340 903f 4428 b83e 4489 30bf
000003a0: e50c dc3e 49f8 13bf 4532 5bbe 4df3 f83d
000003b0: 451d 893f 07a4 a73f caa8 ab3f e826 743f
000003c0: 7f2a 83be ba61 4ebf 4846 8b3e 670e 79bf
000003d0: 3edb a3bf 1a5e 84bf 370e 64bf 0367 dcbd
000003e0: 68e2 85bf 146d 9e3e 526a c43e 70dc 5abf
000003f0: ade5 acbf aeb7 7abf fa32 44bf 43ae 59bf
-0.34015697 -1.2762444 0.26406145 -1.3154879 -1.6976036 -1.3875495 -1.1596766 0.113289766
-1.4526296 0.67896247 0.29955572 -1.5067289 -1.5879798 -1.2333881 -1.2619914 -1.4020414
0.16667467 -1.0283784 -0.4967869 -1.2783024 -0.61595464 -1.4940143 -0.49067047 0.49020776
-0.0074679833 -0.33736318 0.36272505 0.16035129 -0.6545849 -1.355266 -0.2835607 0.29201806
-0.50142914 0.26088697 0.15814541 -0.70500916 -1.4473457 -1.4024974 -1.4918734 -1.1545185
0.24553087 -0.75030464 0.5864048 -1.173364 -1.0199404 -0.9547902 -0.9103982 0.05989367
-0.90049237 0.644218 0.43676475 -1.2392889 -1.2102345 -0.6830083 -0.5866719 -0.7788811
0.34644204 -0.6885884 0.46512958 -0.9785786 0.378152 -0.9068897 0.2051886 0.48566604
0.20314391 0.17394157 0.5223172 0.430436 0.19471066 -0.9736592 0.30620268 0.25196692
-0.0056455466 0.58032626 0.41248828 0.26693892 -1.0957644 -0.7737738 -0.7859631 -0.8493079
-0.49155593 -0.25539568 -0.25077146 -0.3269015 -0.29944247 -0.45362753 -0.33411458 -0.34816715
-0.22407548 -0.07023071 -0.057530694 -0.31462917 -0.24203032 -0.2663545 -0.3728142 -0.31978285
-0.28350726 -0.2535839 -0.3994972 -0.37903538 -0.33564886 -0.2618587 -0.1412904 -0.062983125
-0.29637372 -0.21653551 -0.28520554 -0.08930871 0.026694138 -0.25503328 -0.09333685 -0.030009475
-0.0075458083 -0.3230257 -0.18789227 -0.50464123 -0.26512176 -0.34363008 -0.2888185 -0.41471106
-0.37741062 -0.89182603 0.24204057 -1.3037459 -1.6396985 -1.268161 -1.1536075 -0.017726678
-1.3282025 0.6177768 0.34572607 -1.2464049 -1.6154587 -0.96694905 -0.9512806 -1.2072709
0.33111054 -0.9952558 -0.50932 -1.3378217 -0.4529886 -1.2182488 -0.44830453 0.4366202
0.016940515 -0.31794798 0.24399427 0.12731527 -0.64864016 -1.4136784 -0.3531566 0.1951969
-0.40166205 0.36602065 0.23279141 -0.48833957 -1.1751622 -1.2469106 -1.1612929 -1.1397998
-0.45821968 -0.24136823 -0.16935046 -0.13544409 -0.28545696 -0.07801384 -0.28397396 -0.3303562
-0.2651734 0.14683057 0.012734944 -0.061075464 -0.3006459 -0.053403318 -0.33235604 -0.11647587
-0.030433664 -0.06025595 -0.5334869 -0.26322782 -0.524305 -0.0395848 -0.049206547 -0.16322777
-0.15612677 -0.07318454 -0.05659413 -0.18972443 -0.11259842 -0.06721518 -0.22575194 -0.11890258
-0.097348094 0.0003558266 -0.27285492 -0.53378934 -0.2910464 -0.29605886 -0.12489585 -0.08716074
-0.042381085 1.1568538 -0.74970365 0.98657614 1.2845374 1.1736281 0.98685026 -0.32562858
1.3792392 -0.908413 -0.73552823 1.0302514 1.3045702 1.0784441 0.99924487 1.2771887
-0.6580717 1.1682397 -0.10991196 1.3251498 0.0631248 1.1904446 0.36887673 -0.6629155
-0.32422835 0.1803768 -0.6474364 -0.69064176 0.58283114 1.1269726 0.3596822 -0.6895945
0.42978588 -0.5780073 -0.21405895 0.12155781 1.0712057 1.3096932 1.3410885 0.95371866
-0.2561836 -0.8061787 0.27202058 -0.972876 -1.2801282 -1.0341218 -0.8908419 -0.107618354
-1.0459719 0.30942595 0.38362366 -0.8549261 -1.3507591 -0.9793652 -0.76640284 -0.8503153

linear_sigmoid_stack.2.bias f4 [40]
00000000: a6cf fcbe a98c 4abe 3816 b9be 3389 12bf
00000010: 732a 28be 704c 71be 795d 84be 4f63 b5be
00000020: 1ea8 2ebf 3fec df3d 6687 17bf bfa9 1cbf
00000030: 7879 70be 8270 cdbe 3a52 9ebe 75b0 08bf
00000040: e778 c0be 7938 d1be d3fe f9be ad98 00bf
00000050: 73b1 0abe 232c f2be c6d5 e8be d01b 1dbf
00000060: 5c20 a4be fca6 c3be 9198 e0bd d8dd e8be
00000070: 859b f2be 9e32 c63e c6c7 c6be cfb6 9abe
00000080: 561e 70be 6f33 c3be 708e 38be f498 843e
00000090: 7f4a fabe f61d a9bd 74f4 83be a53a 02bf
-0.49377173 -0.1978022 -0.36149764 -0.572406 -0.16422443 -0.23564315 -0.25852564 -0.3542733
-0.68225276 0.10933732 -0.59190977 -0.6119651 -0.23483837 -0.401249 -0.3092211 -0.5339425
-0.3759224 -0.40863398 -0.48827228 -0.50232965 -0.13544254 -0.472993 -0.45475596 -0.61370564
-0.32055938 -0.38213336 -0.109666 -0.45481753 -0.47384277 0.38710493 -0.3882429 -0.30217597
-0.23449072 -0.38125178 -0.18023086 0.25897944 -0.4888496 -0.08257668 -0.2577244 -0.50870734

linear_sigmoid_stack.4.weight f4 [40, 40]
00000000: d8d8 b43c 4cc5 b3be 61f5 643c 7142 6dbe
00000010: 27ef e73c 0f25 45bf 71a4 81be db49 efbd
00000020: cdbc 013e 28fa 8dbf 1265 803e a237 453e
00000030: 02ec f9bd 40d2 32be fe15 11be 4d2e 91bd
00000040: 8dfa c53d 516c 85bd 43c9 85be 5ea4 bfbe
00000050: 538f 52bf 7c69 80be 62df 81be f588 3ebd
00000060: f7df 69be 2dc3 f0be 8248 1bbf 53ca 1dbe
00000070: 5e35 67be 5335 14bf 9478 1ebe dd2a 18bf
00000080: a209 2dbe 52a0 eebd 3603 f7bd 906b 1bbf
00000090: dce1 3bbf b7ee 6fbe 2268 28be 44b9 28be
000000a0: 8b56 8ebf 3c8e 20bf 3e19 32bd e8cb 51bf
000000b0: ee6a 52be b8fd 19bf cddc f8be ed87 c9bd
000000c0: cf45 6ebf d724 31bf 07b7 99bf 53c1 6cbf
000000d0: aeea 3fbe 3a45 afbe b859 42be d949 3bbe
000000e0: 4874 a6be 12f3 bdbe 50e4 8cbf c18e 6abf
000000f0: f670 ecbe 498e 2fbf 6f13 43bf 88eb 91bf
00000100: 75ed 6ebf d8ba c6be efe8 20bf 5747 79be
00000110: aa8b febe 6d3d 63bf ae53 cdbe cb47 17bf
00000120: 223e 16be 723c 1fbf 40a2 fcbd 7cdc 7dbf
00000130: 5476 12bf 202c 57be 66ca adbe 5836 08bf
00000140: 2b24 aebf 8dd4 72bf 929d aabe 7338 aabf
00000150: 1a03 febe 12c2 e1be f4e0 69bf 237e a0be
00000160: d732 92bf 51c8 f6be 5222 b5bf cc46 91bf
00000170: 2392 dbbe b7ea 07bf d09d 31bf d505 afbe
00000180: d413 b7be 5f12 2ebf 2d27 acbf 3a54 9bbf
00000190: fc58 18be 192f 6dbf 8d35 89bf 69eb b8bf
000001a0: c236 98bf 4d1c 3fbf f8f8 7bbf 327c 8abf
000001b0: e430 32bf 47bf 85bf 8bac f8be 95e2 a8bd
000001c0: 8522 17bf dbd5 8fbf cc1f 17bf af37 50bf
000001d0: 90e9 6dbe 924b f6be 053a e7be 9cd0 4cbf
000001e0: d474 4ebe 2bf1 a4bf 76fd 9abe 4c87 a4be
000001f0: 4185 abbd b301 8abf 6709 e5be d580 82bd
00000200: 4861 b0be 77e1 a8bf da42 a6bd ba03 4fbe
00000210: ea78 2fbe 2b99 17be 0a11 ecbd 8217 2bbe
00000220: 5bfe 77be 625f 95be e043 70be a32e a6be
00000230: 30c6 32bf 337f 97be 42de c4be f6f2 babe
00000240: 49e4 e2be 3bf0 c3be 2002 afbe b05f 89be
00000250: 2435 42be 0f8a 85bf ed8f b8bd 552f 0fbf
00000260: ac67 66be 310e 4fbe 5043 91be 24a0 81bf
00000270: f694 69bf 63b3 9bbd 157d 43be 8697 c9bd
00000280: d72a ffbe 2b46 5cbf 3e8c e2bd 5eb7 1bbf
00000290: 2825 83be f7b1 7cbf 91e7 b5be 491c 653d
000002a0: 1d61 01bf 1fce 39bf 1f39 f3be bf55 27bf
000002b0: c17b bfbd f953 a8bd 1a70 79be f370 66be
000002c0: 1934 453d fe2e 33be 5b78 21bf 45eb 91be
000002d0: 8169 3bbf afc4 2abe 999b 9ebe 1dfd 00bf
000002e0: 85c5 94be 527e 04be d172 89be 4041 93be
000002f0: 677e a4be e795 8dbf e7cb 89be 112b 49bf
00000300: 4802 91bd 69f8 a0be f735 26bc 7f40 94bf
00000310: 86c7 6dbf 09ba 12bc f5a7 52be 091e a0be
00000320: 581e 18bf 7cfb 7bbf fef3 58be 51eb ffbe
00000330: abcd 7cbd 0583 42bf 9d9e 74be b56e 1ebd
00000340: 941a 10bf d3ac 62bf c90c 24bf cca7 13bf
00000350: 3106 7bbd 0f7c b8bd c129 383d c3cb 2fbe
00000360: 20fe bebd b214 03be aa45 15bf 6a86 a7be
00000370: ceda 2cbf 84a2 6ebe 3fab dfbe 6577 f1be
00000380: 9362 97be 5a19 8cbe 12cf 86be e3f4 84be
00000390: 6e2d afbe 3559 9bbf 99d8 1bbe abb7 5dbf
000003a0: e89c 38be 4e39 dabe 2285 4abe 4b6a 89bf
000003b0: 1aea 42bf 6240 4fbe 7bac 1c3d a8df 07be
000003c0: 515b 8ebf ebf7 5bbf 99c6 f3be d8c6 8dbf
000003d0: 4fad 28bf 735e 8d3e c0aa 5cbf 92eb acbe
000003e0: 166c 9fbf b154 e13e c1ef 9abf 6e65 86bf
000003f0: 3178 f7be 134c 1fbf 7ebc 1dbf 9712 babe
0.022076055 -0.35111463 0.0139745185 -0.23169877 0.028312279 -0.7700967 -0.2532077 -0.11684009
0.12669678 -1.1091967 0.2507711 0.19259503 -0.12203218 -0.17463017 -0.14168546 -0.07088909
0.096669294 -0.065148 -0.26130113 -0.3743009 -0.82249945 -0.25080478 -0.2536574 -0.04651733
-0.22839342 -0.47023907 -0.60657513 -0.15409212 -0.22578952 -0.57893866 -0.15475684 -0.59440404
-0.16898206 -0.116516724 -0.12061159 -0.60711 -0.7339151 -0.23430906 -0.16445974 -0.16476923
-1.1120161 -0.6271703 -0.043481104 -0.8195176 -0.20548603 -0.6015277 -0.48605958 -0.09840379
-0.9307527 -0.6919684 -1.200898 -0.9248249 -0.18741867 -0.34232503 -0.18979537 -0.1828989
-0.3251059 -0.3709951 -1.1007175 -0.91624075 -0.46179932 -0.68576485 -0.7620153 -1.1400003
-0.9333108 -0.38814425 -0.6285543 -0.2434362 -0.4971593 -0.88765603 -0.40102905 -0.5909392
-0.1467214 -0.6220161 -0.12335634 -0.9916456 -0.57211804 -0.21012926 -0.3394348 -0.5320792
-1.3604788 -0.94855577 -0.33323342 -1.3298477 -0.4961174 -0.44093376 -0.91358876 -0.31346235
-1.1421765 -0.48199704 -1.4151099 -1.134973 -0.4288493 -0.5309252 -0.6938143 -0.34184137
-0.35757315 -0.6799678 -1.3449455 -1.2135079 -0.14877695 -0.9264999 -1.0719467 -1.4446841
-1.1891711 -0.7465256 -0.9842677 -1.0819151 -0.6960585 -1.0448998 -0.4856914 -0.08246342
-0.5903705 -1.1237139 -0.59032893 -0.81334966 -0.23233628 -0.4810453 -0.45161453 -0.8000581
-0.20161754 -1.2886099 -0.302715 -0.32134473 -0.083750255 -1.0781769 -0.44733736 -0.06372229
-0.3444922 -1.3193806 -0.0811822 -0.20216265 -0.17135969 -0.14804523 -0.115266874 -0.16708186
-0.24218123 -0.29174334 -0.23463392 -0.32457456 -0.6983366 -0.29589233 -0.3845082 -0.3651349
-0.44314793 -0.3826922 -0.3418131 -0.26830816 -0.18965584 -1.0432757 -0.09011827 -0.559316
-0.22500485 -0.20220257 -0.28371668 -1.0126996 -0.9124292 -0.07602575 -0.19090684 -0.09843354
-0.49837372 -0.8604457 -0.11061905 -0.6082667 -0.25614285 -0.9870905 -0.35528234 0.055935178
-0.5053881 -0.7258014 -0.47504517 -0.65365213 -0.09349776 -0.082191415 -0.2435917 -0.22504024
0.048145387 -0.17498395 -0.6307427 -0.2849981 -0.7320786 -0.16676591 -0.30978087 -0.5038622
-0.29056945 -0.12938812 -0.2684541 -0.2876072 -0.32127687 -1.1061372 -0.26913378 -0.7858134
-0.07080513 -0.31439522 -0.010144702 -1.1582183 -0.92882574 -0.008955487 -0.20571883 -0.31272915
-0.594213 -0.9843061 -0.21186826 -0.4998422 -0.061719578 -0.7598117 -0.23888631 -0.038679797
-0.56290555 -0.8854496 -0.6408201 -0.5767791 -0.0612852 -0.09008037 0.044961695 -0.17167573
-0.09325814 -0.12800863 -0.58309424 -0.32719737 -0.6752137 -0.23304182 -0.43685338 -0.47161403
-0.29567394 -0.27363092 -0.26329857 -0.25968084 -0.34214348 -1.2136599 -0.15219344 -0.8660838
-0.18028605 -0.42621845 -0.19777349 -1.0735563 -0.7613846 -0.20239404 0.038250428 -0.13268912
-1.1121618 -0.8592517 -0.47612455 -1.1076307 -0.6588945 0.27611122 -0.86198044 -0.33773476
-1.245486 0.44009927 -1.2104417 -1.0499704 -0.48333886 -0.62225455 -0.6161574 -0.36342308

linear_sigmoid_stack.4.bias f4 [40]
00000000: 1c3b 32bf 4bc6 80bf 30dd 71bf 5b34 79bf
00000010: 150f 89bf 05ff 79bf 93d1 bfbd 0efc 7abf
00000020: fbde 6cbf 98ae 81bf 2f61 eebe ae65 5abe
00000030: d492 4ebf cd18 9dbf 6258 8bbf f441 7ebf
00000040: 2081 68bf f7e8 81bf f7bc 4fbf 2a62 65bf
00000050: 1c28 80bf c780 a2bf aed3 85bf 676f 7ebf
00000060: ead4 75bf ce9f 9cbf a638 83bf cb35 7ebf
00000070: 2542 86bf 5a9a 8ebf c223 c43e 478e 81bf
00000080: 2814 88bf e54e 92bf e68c 7ebf 4232 82bf
00000090: 25bc a2bf 1519 b83d 86bf 8fbf a833 a5bf
-0.69621444 -1.0060514 -0.9447813 -0.97345513 -1.0707728 -0.97654754 -0.09366145 -0.98040855
-0.9252774 -1.0131407 -0.4655852 -0.2132785 -0.8069279 -1.2273194 -1.0886347 -0.99319386
-0.9082203 -1.014922 -0.8114771 -0.8960291 -1.001224 -1.269555 -1.0455225 -0.99388736
-0.96028006 -1.2236269 -1.0251663 -0.9930083 -1.0488936 -1.1140854 0.3830853 -1.0121545
-1.0631151 -1.1430327 -0.99433744 -1.0171587 -1.2713667 0.08989159 -1.1230323 -1.2906389

linear_sigmoid_stack.6.weight f4 [1, 40]
00000000: 4ebe 223e 921f e3bc dde1 87bd c118 183e
00000010: e0fe fc3d 7431 eb3d a3de 90be 8ac0 263e
00000020: 2c68 853c 2f8c 033e f22e a73d dea5 c33e
00000030: 7e02 263e 910a 603d 400a fd3d 026e 623a
00000040: 2257 bebc 99c0 083e 2354 013e 5c35 393e
00000050: 0797 473d 1fce d83d 6096 353e fafe 563d
00000060: 019b 453e 6000 243d 44ac 81bd 2e0a 113e
00000070: 28dc 343e 46da 97bc 9b94 443f 6a49 213e
00000080: 1b4e d23d 1257 5c3d cfc6 d13d a650 373e
00000090: 888b c03d 6651 193f 519c c93d afac d23d
0.15892908 -0.027725015 -0.06634877 0.14853193 0.12353301 0.11484042 -0.28294858 0.16284385
0.016285025 0.12846445 0.08163251 0.38212484 0.16211888 0.054697577 0.12355471 0.0008637608
-0.023234908 0.1335472 0.12629752 0.18086761 0.048728015 0.105861895 0.17733145 0.05248926
0.1929741 0.04003942 -0.06331685 0.1416404 0.17662108 -0.018536698 0.76789254 0.15750661
0.10268804 0.053793974 0.10242998 0.17901859 0.094016135 0.5988983 0.09844268 0.10286843
