Logistic/Results with additional condition/sol_w33.pt (torch_old, 15258 bytes, 7 tensors)

linear_sigmoid_stack.0.weight f4 [40, 1]
000000 ce 6b a3 3f e4 1c 96 be 55 14 88 3e d0 a0 a4 be
       1.2767274 -0.29318917 0.26578012 -0.3215394
000010 2d b2 aa be d4 b1 9b be 83 b1 98 be 67 72 3c 3e
       -0.33339062 -0.3040911 -0.2982293 0.18403016
000020 f6 2f a1 be 77 4a 97 3e 37 a4 8d 3e b8 3d a8 be
       -0.31481904 0.29549 0.27664348 -0.32859588
000030 1e 71 ac be 25 8c 98 be c8 11 94 be e9 b3 99 be
       -0.33680052 -0.29794422 -0.28919816 -0.30020073
000040 20 20 82 3e 8a 7a 98 be 75 98 a8 3f 75 e3 9f be
       0.25415134 -0.2978099 1.3171526 -0.31228223
000050 62 45 0d 40 af 31 9b be 0a 4f a2 be 2b a7 91 3e
       2.2073598 -0.30311343 -0.31700927 0.28447852
000060 2c af 57 3e b4 df a1 be 29 e3 86 3e 79 29 80 3e
       0.21062917 -0.31615984 0.26345184 0.2503164
000070 c9 82 a2 be 40 d7 a1 be 28 8f a0 be ef a0 77 3e
       -0.31740406 -0.31609535 -0.3135922 0.24182485
000080 fd 5f a5 be b6 64 82 3e 16 a8 65 3e 24 f5 c1 3f
       -0.32299796 0.2546746 0.22427401 1.5152936
000090 9b 24 9c be 65 e5 9a be 77 a0 9e be bd 24 97 be
       -0.30496678 -0.3025314 -0.309818 -0.29520217

linear_sigmoid_stack.0.bias f4 [40]
000000 ae b3 12 bd 82 df 2d 3f bf a2 03 c0 cb 16 09 40
       -0.035815887 0.6791917 -2.0568082 2.1420162
000010 b9 6b 28 40 a0 85 c3 3f 63 2f 94 3f c8 f5 b0 bf
       2.6315749 1.5275154 1.1576961 -1.3825006
000020 46 6a 01 40 8f 5f 28 c0 6f 23 14 c0 ba 2f 1a 40
       2.0221114 -2.6308324 -2.3146627 2.409163
000030 0c b9 2e 40 b1 cd 8f 3f ed c9 d7 3e f9 51 aa 3f
       2.7300444 1.1234647 0.42146245 1.3306266
000040 59 f1 f9 bf 94 0d 8a 3f f6 52 85 be 95 78 f5 3f
       -1.9526778 1.0785394 -0.26039857 1.9177424
000050 e3 8f d4 bd 25 b2 bf 3f 16 6c c6 be e4 d7 1a c0
       -0.10379007 1.497624 -0.38754338 -2.419427
000060 b7 b3 cb bf ea 33 73 bf 34 cb 01 c0 ac da ea bf
       -1.591422 -0.9500109 -2.0280275 -1.8347983
000070 4c d3 86 3e e6 08 03 40 5c 5b 81 bf e9 85 e1 bf
       0.26333082 2.047418 -1.0106006 -1.7618991
000080 3d fa f7 3c ef 2b 00 c0 b2 f0 ce bf 4a c5 3a be
       0.03027069 -2.0026815 -1.6167204 -0.18239322
000090 2e b4 cf 3f f3 01 bb 3f 4d d5 e5 3f c4 40 6d 3f
       1.6226861 1.460997 1.7955719 0.9267695

linear_sigmoid_stack.2.weight f4 [40, 40]
000000 e2 84 1d be c4 33 8d bf c3 b2 cd 3e 1d 11 89 bf
       -0.15382722 -1.1031423 0.40175447 -1.0708348
000010 f8 aa b7 bf 78 bc 96 bf 35 19 77 bf 6a 2c 6c 3e
       -1.434905 -1.1776266 -0.9652284 0.23063818
000020 a2 47 9c bf 91 3c 4b 3f c4 d0 dc 3e 13 dd 9f bf
       -1.2209361 0.7938929 0.43128026 -1.2489341
000030 f6 c6 a8 bf 0e 50 85 bf 90 57 8d bf 0c d6 99 bf
       -1.3185718 -1.0415056 -1.1042347 -1.2018447
000040 e0 ec 9d 3e b8 7c 56 bf 57 f0 9e be 38 91 86 bf
       0.30844784 -0.83784056 -0.3104274 -1.0513067
000050 2c fa db be a6 bf a4 bf ce d3 bb be 89 2d 1e 3f
       -0.42964303 -1.2870986 -0.36685032 0.6178823
000060 08 29 12 3e 27 42 71 be e0 03 02 3f 1b da 9f 3e
       0.14273465 -0.23560391 0.5078716 0.3122109
000070 c0 01 fe be 1f 8f 8f bf 22 54 3e be f2 2e e2 3e
       -0.4961071 -1.1215552 -0.18586782 0.4417644
000080 a0 d0 b4 be 9d 88 d1 3e 7f 0d 96 3e 0e ca 04 bf
       -0.35315418 0.4092454 0.29307172 -0.5187081
000090 25 25 9e bf a1 16 99 bf 73 a2 a2 bf 18 b3 78 bf
       -1.2355086 -1.1960031 -1.2705826 -0.97148275
0000a0 ab 9a bb 3d d1 ba 2c bf 31 fd e9 3e 39 3a 84 bf
       0.0916036 -0.6747256 0.45700982 -1.0330268
0000b0 02 5b 5c bf 7b c1 52 bf 34 c0 4d bf c8 20 15 3e
       -0.86076367 -0.8232648 -0.80371404 0.14563286
0000c0 29 dd 3f bf 31 cd 02 3f 79 6b 9b 3e 1e 00 8c bf
       -0.7494684 0.5109435 0.30355433 -1.0937536
0000d0 a0 45 87 bf af cc 13 bf 52 18 06 bf 7a fa 28 bf
       -1.0568123 -0.577342 -0.5238086 -0.66007197
0000e0 28 9a 68 3e b3 66 16 bf 6f 69 9f 3e 44 0d 55 bf
       0.22715056 -0.58750457 0.31135127 -0.83223367
0000f0 5b 7b 65 3e 46 37 47 bf 0d fe 76 3e f6 7b b4 3e
       0.22410338 -0.77818716 0.2412035 0.35250825
000100 a8 e4 58 3e 4f a2 34 3e 3b a6 c7 3e 4f dd 9c 3e
       0.21180975 0.17640041 0.3899401 0.30637595
000110 12 62 89 3e 9f 89 51 bf c3 0f a0 3e cd 7b 09 3e
       0.26832634 -0.8185062 0.31262025 0.13426133
000120 e5 a4 52 3d e9 ae e8 3e 7c ad d3 3e 7a 41 e7 3d
       0.051426787 0.45445946 0.41343296 0.112917855
000130 94 07 76 bf 06 b6 25 bf 33 a2 24 bf 0f eb 41 bf
       -0.96105313 -0.6473087 -0.64309996 -0.75749296
000140 1b cf 01 bf 74 61 85 be 71 e8 85 be 4f 42 aa be
       -0.5070664 -0.26050913 -0.261539 -0.33253714
000150 e7 5d 9b be 5d f8 ea be ed c9 ad be e1 f5 aa be
       -0.3034508 -0.4589261 -0.3394312 -0.33390716
000160 63 8f 6a be e8 f5 aa bd 59 2a 8e bd 61 c6 a3 be
       -0.2290626 -0.08347684 -0.06941671 -0.3198729
000170 24 d9 7b be 01 0f 8b be a6 aa c1 be 42 2e a6 be
       -0.24594551 -0.27159885 -0.37825507 -0.32457167
000180 9e ae 95 be 7e 83 84 be 3f 31 d4 be cd 98 c4 be
       -0.29234785 -0.2588157 -0.41443822 -0.38397828
000190 89 24 b1 be ac cc 88 be dc 53 14 be 5a 12 9a bd
       -0.34598187 -0.26718652 -0.14485115 -0.075230315
0001a0 0b 47 94 be 83 9e 61 be 5e 8f 97 be 29 ef c9 bd
       -0.2896045 -0.22033124 -0.29601568 -0.09860069
0001b0 ef 0c bf 3c d5 21 85 be 6f 08 c6 bd e8 2a 1e bd
       0.023321597 -0.26002374 -0.09669577 -0.038615137
0001c0 96 e5 34 bc 06 0f aa be 31 4d 3b be 01 e9 04 bf
       -0.011041066 -0.33214587 -0.18291165 -0.51918036
0001d0 94 3e 8a be 9c 9d b2 be cb 99 96 be 20 15 d7 be
       -0.27000868 -0.3488587 -0.2941421 -0.42008305
0001e0 fe 26 7a be c1 65 40 bf 9e cc ad 3e 36 22 8c bf
       -0.24428937 -0.75155264 0.33945173 -1.094794
0001f0 6c a1 b4 bf fc 65 8b bf ad ca 7d bf 63 ad c0 3d
       -1.4111762 -1.0890498 -0.99137384 0.09408071
000200 c8 4a 90 bf a2 fe 31 3f e0 dd df 3e 7f 3e 83 bf
       -1.1272821 0.69529164 0.43723965 -1.0253447
000210 6d f7 b0 bf 99 63 4e bf 82 44 53 bf 0c f5 84 bf
       -1.3825508 -0.80620724 -0.8252641 -1.0387282
000220 8d 37 dd 3e a7 23 56 bf 32 99 c0 be 33 2d 92 bf
       0.43206444 -0.8364815 -0.3761688 -1.1420044
000230 b6 c7 a3 be 74 63 85 bf 21 d1 b6 be 01 35 06 3f
       -0.31988305 -1.0420976 -0.35706428 0.5242463
000240 39 ff 0d 3e cc 47 7e be 5f 7d b1 3e 29 af 71 3e
       0.13866891 -0.24832076 0.34665963 0.23601975
000250 49 e4 05 bf 5d e5 9a bf c6 88 92 be 31 4c 9b 3e
       -0.5230146 -1.2101246 -0.28619975 0.30331567
000260 68 50 93 be 0d 37 f1 3e a8 75 af 3e f1 e0 b5 be
       -0.28772283 0.47112313 0.34269452 -0.3552318
000270 94 86 7e bf 38 2c 89 bf 42 74 78 bf b9 44 7d bf
       -0.994241 -1.071662 -0.97052395 -0.9893299
000280 2a 6f 06 bf b9 66 94 be ea 12 62 be ed d3 4d be
       -0.5251337 -0.2898462 -0.22077528 -0.20100375
000290 97 c2 b5 be fe 05 0b be 14 ef ac be 60 9b af be
       -0.35500023 -0.13576505 -0.33776152 -0.3429823
0002a0 bc ff a7 be 3a 60 c8 3d 22 db 1a bd 37 b6 04 be
       -0.32812297 0.09783979 -0.037806638 -0.12960134
0002b0 49 2c be be 13 84 da bd a6 f9 c1 be 07 e6 2e be
       -0.37143162 -0.106697224 -0.3788578 -0.17079936
0002c0 40 0a a2 bd 6c 76 e7 bd 59 88 18 bf f8 44 a6 be
       -0.07912111 -0.11301884 -0.5958305 -0.32474494
0002d0 1d 2e 10 bf 95 d8 c6 bd fe 78 ac bd a1 46 5a be
       -0.56320363 -0.097092785 -0.08421515 -0.21316005
0002e0 d3 d1 37 be 12 ba cc bd bd c9 de bd 7a 00 77 be
       -0.17951135 -0.099964276 -0.10878322 -0.24121276
0002f0 50 0f 1f be 82 d4 05 be da 96 80 be 45 db 2d be
       -0.15533185 -0.13069347 -0.2511509 -0.16978176
000300 64 21 0d be 8a f8 47 bd d9 6f 98 be c8 81 18 bf
       -0.13782269 -0.04882101 -0.29772833 -0.5957303
000310 70 8e b2 be d3 ab b4 be 46 66 3e be db 00 0e be
       -0.34874296 -0.3528734 -0.18593702 -0.13867514
000320 18 77 79 3e 8e f2 81 3f 52 e0 ff be 6c e8 55 3f
       0.24361837 1.0152147 -0.4997583 0.8355777
000330 f8 56 90 3f 78 58 81 3f c1 c4 54 3f 1c 8c 9a be
       1.1276541 1.0105124 0.8311272 -0.3018502
000340 4e de 9b 3f c1 61 24 bf 3d d5 f7 be 36 b8 60 3f
       1.2177217 -0.6421166 -0.48404875 0.87781084
000350 b6 1f 93 3f ac 7d 6d 3f 47 f3 5d 3f 25 da 8f 3f
       1.1494052 0.92769885 0.86699337 1.1238447
000360 8a 0d da be 5e c5 82 3f 8f 85 33 3e 11 53 95 3f
       -0.42588454 1.0216482 0.17531417 1.1665975
000370 54 09 b3 3e 8f 7e 84 3f b7 b2 77 3e 02 31 d1 be
       0.34968054 1.0351123 0.24189268 -0.40857702
000380 be f6 7d be 2c a4 b2 3d bf e9 cd be 8e ef e9 be
       -0.24801156 0.087227196 -0.40217397 -0.45690578
000390 59 f3 d8 3e e0 44 75 3f 4e e3 88 3e 45 5e eb be
       0.4237316 0.9580822 0.2673592 -0.4597036
0003a0 80 8a 8d 3e 8a 7a b1 be 8d 76 13 be 95 e7 d0 3e
       0.2764473 -0.34663802 -0.14400692 0.40801683
0003b0 8b 9c 6a 3f 66 53 93 3f 1b 56 97 3f 8b c4 4e 3f
       0.91645116 1.1509826 1.1823152 0.8076865
0003c0 7f cf 93 be 9b 12 43 bf 52 bc 6a 3e c5 6d 5e bf
       -0.28869244 -0.76200265 0.22923401 -0.86886245
0003d0 ba c6 93 bf 35 95 75 bf da 93 54 bf a3 cd 2d bd
       -1.1545022 -0.95930797 -0.83038104 -0.04243244
0003e0 93 21 73 bf 5d 73 7b 3e 9d 31 aa 3e 51 f9 3c bf
       -0.94973105 0.24555726 0.33240977 -0.73817927
0003f0 d9 0e 9c bf 81 8a 6b bf f0 cf 3a bf c1 82 48 bf
       -1.2192031 -0.92008215 -0.7297354 -0.78324515

linear_sigmoid_stack.2.bias f4 [40]
000000 9c 6a 9d be 49 25 b4 be 1e 02 c6 be 2f ec e0 be
       -0.307454 -0.35184696 -0.3867349 -0.43930194
000010 4e ec 94 be fd 87 50 3d 09 06 95 be 2d 75 b2 be
       -0.29086536 0.05091094 -0.29106167 -0.34855023
000020 9e 2c e6 be d0 f8 a1 3e 0b a8 a2 be dc 8a cc be
       -0.44955915 0.3163514 -0.31768832 -0.3994969
000030 dc b4 86 be 3f 81 d8 be 45 33 d7 be 6f cf 0e bf
       -0.2630986 -0.42286107 -0.42031303 -0.5578527
000040 53 df c8 be fb 31 ef be f2 69 f1 be dd 5f da be
       -0.39232883 -0.4671782 -0.47151142 -0.42651263
000050 3d 63 25 3e df e9 fd be 7d 57 e1 be 0d 15 cd be
       0.16151138 -0.49592492 -0.4401206 -0.40055123
000060 b2 96 98 be 18 34 e5 be 29 f7 0d be ea 23 11 bf
       -0.2980247 -0.44766307 -0.13863815 -0.56695426
000070 63 f3 0c bf a3 fc b4 3e 32 d6 d5 be 26 b4 69 3d
       -0.5505888 0.35348997 -0.4176498 0.05705657
000080 ff b7 a7 be 6e db a9 be 33 ff 76 be ce bb 4d 3e
       -0.32757565 -0.33175224 -0.24120788 0.20091173
000090 69 5d 06 bd cb fc 5e be 07 f1 bb be 73 86 09 bf
       -0.032803927 -0.2177612 -0.36707327 -0.5372078

linear_sigmoid_stack.4.weight f4 [40, 40]
000000 6c e5 bb 3e 3d 6c 86 bd 66 3e a9 3d cc 9a f6 3d
       0.36698472 -0.065636136 0.08263855 0.12041244
000010 6f 4e d9 3d 31 26 ed be f9 8c b5 3c 59 90 10 bd
       0.10610663 -0.463182 0.022161948 -0.03529391
000020 c2 c1 e6 3e 78 65 48 bf 29 71 08 3f 87 46 fd 3e
       0.450697 -0.7827983 0.5329767 0.4946787
000030 03 7b e3 bc 36 13 f6 bc 35 22 2d bd 27 bd c2 bc
       -0.027768617 -0.030038457 -0.04226895 -0.023771835
000040 d2 46 1e 3e b4 34 84 3d af 37 6a 3d 31 1f c3 bc
       0.15456703 0.06455365 0.05718201 -0.023818584
000050 86 9f 07 bf 72 69 ff 3b 07 73 ae 3d d4 1f 90 3e
       -0.5297779 0.0077945525 0.085180335 0.28149283
000060 cd 15 f8 3d e6 54 7b be 83 f4 d4 be a3 b5 a4 bd
       0.12113533 -0.24544105 -0.41592798 -0.08042457
000070 e1 f6 aa bb 22 a2 62 be 61 78 bf bc a2 37 b1 be
       -0.0052174185 -0.22132161 -0.02337283 -0.34612757
000080 9a 42 b6 bd ec 43 4b 3e d7 13 35 bd 88 4a ba be
       -0.08899422 0.19850129 -0.044208374 -0.36384988
000090 42 55 ee be 74 43 03 be 9c 96 70 bd 5f 40 ba 3c
       -0.46549422 -0.128187 -0.058737382 0.022735773
0000a0 b7 58 85 bf c8 be e6 be c4 3f 19 bd 9d 20 42 bf
       -1.0417699 -0.4506743 -0.037414327 -0.75831014
0000b0 ab 41 49 be 1e 37 48 be 60 6b ef be 37 38 be bd
       -0.19653957 -0.19552276 -0.46761608 -0.09288066
0000c0 b0 3e 5a bf 29 12 8b be bb d2 8e bf 41 f1 58 bf
       -0.85251904 -0.27162293 -1.115806 -0.84743124
0000d0 61 74 39 be c9 2d ab be ef 25 38 be 09 b4 35 be
       -0.18110801 -0.3343337 -0.1798322 -0.17744459
0000e0 02 c3 a3 be 64 79 b9 be 42 b4 84 bf 2e 5d 5f bf
       -0.31984717 -0.36225426 -1.036751 -0.87251556
0000f0 04 cc 82 be cf 44 2b bf 1c 65 37 bf 17 22 88 bf
       -0.25546277 -0.6690187 -0.71638656 -1.0635403
000100 7a 91 61 bf 89 47 c0 be ff 34 f5 be 39 f6 3d be
       -0.88112605 -0.37554577 -0.47891995 -0.18550958
000110 64 8b f8 be d8 ab dc be 94 12 c9 be 73 be cb be
       -0.48543847 -0.43099856 -0.39271986 -0.3979374
000120 a6 7e 0c be 3d 75 18 bf 3f e3 ed bd a3 b8 0e bf
       -0.13720188 -0.5955389 -0.116156094 -0.55750483
000130 83 1e b4 be db f9 4c be e2 ef a7 be a5 ba 05 bf
       -0.3517953 -0.20017187 -0.32800204 -0.5223792
000140 e4 02 8e bf 66 ad 11 bf 11 8f 4d be 08 d4 88 bf
       -1.1094632 -0.5690521 -0.20074107 -1.0689707
000150 9b c7 8b be 49 f0 88 3e ec 89 3d bf 39 b6 53 be
       -0.27300724 0.26745823 -0.7403858 -0.20674981
000160 fd 2b 6d bf fe 7a 81 3e 86 8f 9d bf d3 de 6c bf
       -0.92645246 0.25289148 -1.2309425 -0.925275
000170 ad 37 a2 be 42 0a d4 be 4c d5 fa be 05 ae 57 be
       -0.31683102 -0.41414076 -0.48990858 -0.21062477
000180 af db 6f be ea 9a 08 bf ad 5d 8b bf a8 27 79 bf
       -0.23423646 -0.5336138 -1.0887963 -0.97326136
000190 02 3d 64 3e c3 c7 41 bf 3d bd 54 bf e1 71 9b bf
       0.22288898 -0.7569544 -0.83101255 -1.2144128
0001a0 52 d1 6b bf 02 08 17 bf ac cc ad be 51 dc 94 bd
       -0.9211627 -0.58996594 -0.33945215 -0.072685845
0001b0 e6 e3 0d bf 71 59 8f be 3b e0 b2 be ba 2e 39 3e
       -0.5542587 -0.27997926 -0.349367 0.18084231
0001c0 05 16 c7 be e2 35 6c bf d2 cf da be ff 1f 96 bd
       -0.38883987 -0.9226972 -0.4273668 -0.073303215
0001d0 a3 ba 9e 3d 04 09 84 be 8d 83 61 be 59 9b 2c bf
       0.07750442 -0.25788128 -0.22022839 -0.6742454
0001e0 9d bf 12 be cc 65 95 bf 48 12 9a be 6c 2e 8b be
       -0.14330907 -1.1671691 -0.30092072 -0.27183855
0001f0 f9 95 a7 bd f4 3c 76 bf 4d ca df be ab 4d 7c bd
       -0.08182902 -0.9618676 -0.4370903 -0.061597507
000200 bd d6 8e be b9 2f 98 bf 3e 00 49 bc 58 eb 0e be
       -0.27898207 -1.1889564 -0.012268124 -0.13956964
000210 1f e2 2c be 9d a4 13 be d1 e6 e6 bd 7b bf 29 be
       -0.16883133 -0.14418264 -0.112744935 -0.1657695
000220 48 50 76 be 41 88 93 be b2 05 3e be 89 25 95 be
       -0.24054062 -0.2881489 -0.1855686 -0.291302
000230 ad 6d 29 bf 11 8c 92 be e3 60 b3 be 54 32 9a be
       -0.66182977 -0.28622487 -0.35034856 -0.30116522
000240 3a 75 ce be 6a a2 c0 be a4 aa aa be 06 40 88 be
       -0.40323812 -0.37623912 -0.33333313 -0.26611346
000250 49 2c 3c be 06 85 59 bf 81 63 b1 bd 8c 0b 08 bf
       -0.18376268 -0.849686 -0.08661557 -0.5314262
000260 55 34 64 be e0 da 3c be a5 32 90 be fd 85 5b bf
       -0.22285588 -0.18442869 -0.2816364 -0.85751325
000270 be 9f 5c bf e5 4d 96 bd db ab 40 be 99 ce be bd
       -0.8618125 -0.07339076 -0.18815558 -0.09316749
000280 b0 1b e5 be 00 07 41 bf ff 50 df bd ac f4 10 bf
       -0.44747686 -0.75401306 -0.10904121 -0.5662334
000290 05 35 82 be 56 35 60 bf a1 97 b1 be 1c 67 6c 3d
       -0.25431076 -0.87581384 -0.34685996 0.05771552
0002a0 8d fe e3 be a0 5f 1b bf de cb d0 be 5a 55 18 bf
       -0.44530144 -0.6069279 -0.40780538 -0.59505236
0002b0 7a 05 bb bd 59 b6 a1 bd c5 19 77 be d3 2e 65 be
       -0.09131904 -0.07896108 -0.24130924 -0.22381143
0002c0 20 4e 4b 3d e2 17 30 be e9 b0 16 bf b6 fd 83 be
       0.049635053 -0.1719661 -0.58863693 -0.25779504
0002d0 da e6 32 bf 6d a7 22 be ee 19 90 be 0d 84 e4 be
       -0.698835 -0.1588418 -0.28144783 -0.44631997
0002e0 16 1f 84 be e3 85 fe bd 5f 94 84 be ec 7a 91 be
       -0.25804967 -0.124278806 -0.25894448 -0.28414094
0002f0 8b 0e a2 be ae 7b 6d bf 50 4f 88 be 72 78 42 bf
       -0.3165172 -0.92766845 -0.2662301 -0.75965035
000300 0f fe 8c bd 3f 7e 99 be a7 d8 07 bc b0 47 81 bf
       -0.06884395 -0.2997913 -0.0082914 -1.0100002
000310 50 95 61 bf 0d 34 da bb 26 22 50 be 24 ed 9d be
       -0.8811846 -0.006659037 -0.20325527 -0.30844986
000320 66 1c 0b bf 74 8c 60 bf b7 3e 57 be af 6a ea be
       -0.5434021 -0.87714314 -0.21020018 -0.45784518
000330 2c cc 74 bd 0a 7b 23 bf f2 aa 6b be fc e6 16 bd
       -0.059765026 -0.6385962 -0.23014429 -0.036841378
000340 40 bc 00 bf ca ce 41 bf 9b c8 12 bf 0e 9f 04 bf
       -0.50287247 -0.7570616 -0.5733735 -0.518052
000350 df be 71 bd 92 9d b1 bd 65 11 42 3d f9 73 2e be
       -0.05901992 -0.08672632 0.04737987 -0.17036428
000360 a8 c6 bb bd f9 b4 ff bd f8 6d 0a bf d6 8b 99 be
       -0.0916875 -0.1248569 -0.5407405 -0.299895
000370 05 91 22 bf c5 42 66 be a8 0c d1 be 5d 0c d4 be
       -0.6350253 -0.22486408 -0.40829968 -0.41415682
000380 9f ae 86 be 7e 5e 89 be 17 15 7f be 21 4d 82 be
       -0.263051 -0.26829904 -0.24910389 -0.2544947
000390 3d 9e ac be 08 83 83 bf 7e c2 18 be 8e 47 55 bf
       -0.33714476 -1.0274363 -0.14917943 -0.8331231
0003a0 58 6a 36 be 48 a3 d2 be bc 79 48 be 14 84 6a bf
       -0.17814004 -0.411402 -0.19577688 -0.91607785
0003b0 18 c5 34 bf 8b ad 4c be 92 79 27 3d 24 5b 03 be
       -0.7061324 -0.19988076 0.040887423 -0.12827736
0003c0 5b fc 84 bf 51 25 1f bf c8 f9 b6 be b4 e8 80 bf
       -1.0389513 -0.62166315 -0.35737443 -1.0071015
0003d0 73 79 f1 be 24 2b 70 3d 0d 13 45 bf 7c 89 73 be
       -0.4716297 0.058634892 -0.76982194 -0.23782915
0003e0 64 0d 9a bf 9b d7 9f 3e 8c d5 97 bf 47 f8 84 bf
       -1.2035336 0.3121918 -1.1862044 -1.0388268
0003f0 12 84 c2 be 48 80 06 bf ac 36 e2 be f3 d6 87 be
       -0.37991387 -0.5253949 -0.44182336 -0.2653118

linear_sigmoid_stack.4.bias f4 [40]
000000 a9 78 ad be 7d 51 0c bf aa f5 31 be 79 a5 47 bf
       -0.3388112 -0.5481184 -0.1737887 -0.77986866
000010 51 5c 64 bf e7 48 4a bf 91 ae 73 be 0f 24 3e bf
       -0.89203364 -0.7901749 -0.2379706 -0.7427377
000020 25 dc 02 bf b8 59 56 bf 8d ad a2 bd 74 77 7a be
       -0.51117164 -0.8373065 -0.079432584 -0.2445963
000030 31 e4 e4 be fa 59 7c bf 87 f0 53 bf 4e fe 23 bf
       -0.44705346 -0.98574793 -0.8278889 -0.64059913
000040 4e 41 c9 be d9 0e 56 bf f3 4e e1 be c7 58 16 bf
       -0.39307636 -0.83616406 -0.44005546 -0.58729213
000050 b3 46 40 bf ee 6e 8c bf d5 75 53 bf 52 5d 36 bf
       -0.7510788 -1.0971353 -0.8260167 -0.71236145
000060 3f 5d 28 bf 13 02 77 bf e1 73 bc be 1d 9c 4f bf
       -0.6576728 -0.9648754 -0.3680716 -0.81097585
000070 d5 97 46 bf 5b b4 31 bf 12 6b 6a 3d 31 15 44 bf
       -0.7757543 -0.69415826 0.057231016 -0.76594836
000080 3b 01 4e bf 3e 91 69 bf 5a ff 52 bf 60 83 32 bf
       -0.8047063 -0.91237247 -0.82420886 -0.6973171
000090 80 4a 8b bf d9 11 15 be e8 7c 60 bf 50 44 8e bf
       -1.088211 -0.1455759 -0.8769059 -1.1114597

linear_sigmoid_stack.6.weight f4 [1, 40]
000000 40 ff 31 3e 21 a8 a5 bd fd bb 89 be 68 5a 24 3c
       0.17382526 -0.08088709 -0.26901236 0.01003132
000010 8c 4a d0 bc ea 93 07 bd e6 cb 80 be 01 3c 96 3c
       -0.025426172 -0.033100046 -0.25155562 0.018339159
000020 0b f9 85 bd df d4 e4 bc f2 4b 4f 3e 3f 6a 77 3e
       -0.06541642 -0.027933536 0.20243815 0.24161623
000030 27 d8 0e 3e 1a 9e 28 bd 02 77 45 3c 87 33 66 bd
       0.13949643 -0.041166402 0.012052299 -0.056201484
000040 0e 06 ca bd 96 70 d9 bc ed 2e bf 3d 7c 1d ee 3c
       -0.09864436 -0.026542943 0.09335122 0.029066794
000050 42 74 30 bd 46 26 9a bc 2c 9b 1d 3d 07 4c 4c bd
       -0.043079622 -0.018817078 0.03847806 -0.049877193
000060 5e 5c 0c 3d 22 c9 3d bd 68 bd 3b be 6e f9 c9 bc
       0.034267776 -0.046334393 -0.18333972 -0.02465507
000070 7d 8f 0a 3d 5f 7e 99 bd c6 0d a4 3e ff 06 63 3c
       0.033828247 -0.074948065 0.32041758 0.0138566485
000080 0e a1 2a bd 39 a4 20 bd 0c 6f df bc e8 31 2b 3d
       -0.0416575 -0.039219115 -0.027274631 0.04179564
000090 82 fe f0 bc da 2c a4 3e 30 5e 18 bd 70 43 3e ba
       -0.029418234 0.3206547 -0.0371992 -0.0007257974
