Simple Example/Results/sol_w_0.pt (torch, 23928 bytes, 9 tensors)

linear_tanh_stack.0.weight f4 [40, 1]
0	0x3ea4813d	0.3212985
1	0xbf610eb5	-0.87913066
2	0x3d122601	0.035680775
3	0xbf2e0b0e	-0.6798562
4	0x3f02d3d5	0.5110448
5	0x3f2dd027	0.6789574
6	0xbf5d44cb	-0.86433095
7	0xbd95c7c7	-0.07313495
8	0xbf34273e	-0.7037238
9	0xbe8f3060	-0.27966595
10	0x3f5dd1d1	0.8664828
11	0xbf770825	-0.964968
12	0x3f72350a	0.9461218
13	0xbe35d1b1	-0.17755772
14	0x3f3918ad	0.7230328
15	0x3f424569	0.7588716
16	0x3ea11f1b	0.31469044
17	0x3f212b85	0.6295703
18	0xbd17cd3c	-0.03706096
19	0x3ef4fca1	0.4784899
20	0xbf704769	-0.93858963
21	0x3ed17cd7	0.40915558
22	0x3ef19cb0	0.47189856
23	0xbf48fd26	-0.78511274
24	0xbf35411a	-0.7080246
25	0xbef2d751	-0.47429898
26	0x3f4e6bc5	0.80633193
27	0x3ea61254	0.32435858
28	0x3f72554b	0.94661397
29	0x3f650ab8	0.8946948
30	0x3f37c3b8	0.7178302
31	0x3f701d87	0.93795055
32	0x3e92e679	0.28691462
33	0xbc7b5131	-0.015339182
34	0xbea4ae94	-0.32164443
35	0x3f00bd17	0.5028853
36	0xbf5867a5	-0.8453315
37	0xbf2fbe7b	-0.68650025
38	0x3ed530e1	0.41638854
39	0x3c44355c	0.0119756125

linear_tanh_stack.0.bias f4 [40]
0	0xbf12aee4	-0.5729811
1	0xbeace1cb	-0.33766016
2	0x3f0dc159	0.5537315
3	0xbf002454	-0.5005543
4	0xbf19bf25	-0.6005729
5	0x3f79c38e	0.9756402
6	0xbedad0cb	-0.4273742
7	0xbf51d4ae	-0.8196515
8	0xbf24934e	-0.6428727
9	0xbf60f3b3	-0.87871855
10	0x3e19e92b	0.15030353
11	0x3f79d469	0.9758974
12	0xbf2fc2fb	-0.6865689
13	0xbf313d43	-0.692341
14	0x3eeb182a	0.45916873
15	0x3f150e9c	0.5822542
16	0x3e5189bb	0.20462696
17	0x3f0c699a	0.54848635
18	0xbd6e99fb	-0.058252316
19	0x3f0e0083	0.5546953
20	0x3f2191ad	0.6311291
21	0xbdec33c9	-0.11533315
22	0xbf2caf65	-0.6745513
23	0x3e5c7f54	0.21532947
24	0xbf34689c	-0.7047212
25	0xbea04df1	-0.31309465
26	0x3e8d9cdf	0.27658746
27	0x3e2532cd	0.1613266
28	0x3e6738b1	0.2258022
29	0x3f696fbe	0.9118613
30	0x3f24cb1b	0.64372414
31	0x3e98532c	0.29750955
32	0xbf601bb6	-0.87542284
33	0x3f3248eb	0.69642514
34	0xbf37f853	-0.7186329
35	0xbf755fb1	-0.9584914
36	0xbf2420ae	-0.64112365
37	0xbf4ffeae	-0.81247985
38	0x3e78dd36	0.24303135
39	0x3f61063b	0.8790013

linear_tanh_stack.2.weight f4 [40, 40]
0	0x3e10f0ea	0.14154401
1	0x3de3e996	0.11128537
2	0xbd225feb	-0.039642256
3	0xbd5fbb91	-0.054622237
4	0x3deb7ec3	0.11498787
5	0xbdfe1949	-0.124071665
6	0xbc817cd8	-0.0158066
7	0x3d5abb80	0.05340147
8	0x3c476e6e	0.012172325
9	0x3e1d88be	0.15384194
10	0xbc2131fa	-0.0098385755
11	0xbe202613	-0.15639524
12	0xbcca8d25	-0.024725506
13	0xbda40d30	-0.08010328
14	0x3e12b67f	0.14327429
15	0x3d0cf540	0.034413576
16	0xbd8e4fe3	-0.06948831
17	0x3db6191f	0.0889151
18	0xbd67100e	-0.056411795
19	0xbdeaf6a0	-0.11472821
20	0x3cfaeb86	0.030629884
21	0x3d4da8db	0.05020986
22	0xbd04dc42	-0.032436617
23	0xbde9dfb2	-0.114196196
24	0x3b567d4a	0.0032728487
25	0x3df18f5e	0.11794923
26	0xbcb52929	-0.022114353
27	0x3d795038	0.06086752
28	0x3e1b052f	0.15138696
29	0x3e18443f	0.14869784
30	0xbe0f7d5f	-0.14012669
31	0xbd7bb2e8	-0.061449915
32	0x3e1b88df	0.15188931
33	0xbe132c14	-0.14372283
34	0x3a9547e7	0.0011389226
35	0x3e0616b0	0.13094592
36	0x3e188601	0.14894868
37	0xbdfb7246	-0.12277655
38	0x3db3caf1	0.087789424
39	0x3cbab331	0.022790523
40	0x3dbc4108	0.09192091
41	0x3d29c6b1	0.041449253
42	0x3e077091	0.13226534
43	0x3e1637b9	0.14669694
44	0x3cd65cd2	0.026167307
45	0x3cc87e4a	0.024474282
46	0x3da309af	0.079608314
47	0x3d7348a2	0.05939544
48	0x3de857e0	0.11344886
49	0x3da47df5	0.08031837
50	0x3c66de3b	0.01409107
51	0x3e0dcabb	0.13846867
52	0xbd581d56	-0.052762352
53	0xbd10e48e	-0.035374217
54	0x3bec8106	0.007217529
55	0x3db023c1	0.086005695
56	0xbd92958d	-0.07157431
57	0xbcd5e456	-0.026109856
58	0xbdbe1183	-0.09280684
59	0x3db047fe	0.086074814
60	0x3dbc360c	0.09189996
61	0xbda7c888	-0.08192545
62	0x3ca8331a	0.02053218
63	0xbdc24592	-0.09485926
64	0x3cdd4747	0.027011527
65	0x3cf8b83b	0.030361285
66	0xbe18c41e	-0.14918563
67	0xbcb821ab	-0.022476992
68	0xbdeddf35	-0.11614839
69	0xbba35551	-0.0049845357
70	0x3db7da6e	0.08977209
71	0xbdff2768	-0.12458688
72	0x3ce93d32	0.028471563
73	0xbd29fa0f	-0.04149824
74	0x3d3a1002	0.045425422
75	0x3de3f3f2	0.11130513
76	0x3e0c4202	0.13697055
77	0x3d7ff005	0.06248476
78	0xbd8e0b10	-0.06935704
79	0xbda8afad	-0.082366325
80	0xbe1d8ef7	-0.15386568
81	0xbce5f0a8	-0.028068855
82	0xbbdbc795	-0.0067071416
83	0xbcd2d9a7	-0.02573855
84	0x3c4dd62c	0.01256327
85	0x3c83b459	0.016077207
86	0xbc9584d6	-0.018251818
87	0x3de0d772	0.10978593
88	0x3dcc62ac	0.09979758
89	0xbd8b1a97	-0.06792181
90	0x3dac4046	0.08410697
91	0xbde8ef13	-0.11373725
92	0xbe0e6069	-0.13903965
93	0xbe2140a7	-0.15747319
94	0xbdef8e6f	-0.11697089
95	0xbd9d2da5	-0.07674722
96	0xbc3e3e5c	-0.011611547
97	0x3c936c61	0.017996015
98	0x3ca2c70e	0.019870307
99	0xbcad6191	-0.021164687
100	0xbd27efd9	-0.04100022
101	0xbdb70122	-0.08935763
102	0x3b4874fb	0.0030587304
103	0xbc659828	-0.014013328
104	0x3d9dd80b	0.077072226
105	0xbdbd4315	-0.092413105
106	0xbe0b85e6	-0.13625297
107	0xbcfefc39	-0.031126129
108	0xbcca8322	-0.024720732
109	0xbd95e0c4	-0.07318261
110	0x3d66af2b	0.056319397
111	0xbcc66298	-0.024216935
112	0x3d0932ec	0.03349583
113	0x3c5c13d4	0.013432462
114	0xbe1dd3fb	-0.15412895
115	0x3dc21ed8	0.09478539
116	0x3d8d8167	0.06909447
117	0x3c94410f	0.018097429
118	0xbb1e1677	-0.0024122277
119	0xbdaeaf61	-0.085295446
120	0xbdd94254	-0.10608354
121	0x3cafd6ed	0.02146479
122	0x3e223d76	0.15843758
123	0xbde8f629	-0.11375076
124	0xbdb9f7e6	-0.09080486
125	0xbd1afda3	-0.037839543
126	0x3e0c74eb	0.13716476
127	0x3e09552a	0.13411394
128	0xbc1d86a4	-0.00961462
129	0x3dabb83f	0.083847515
130	0x3e034d98	0.12822568
131	0xbdb65701	-0.089033134
132	0x3d348911	0.04407603
133	0xbd3d8d95	-0.0462776
134	0x3c12073e	0.0089128595
135	0x3d258e1c	0.04041873
136	0x3e122cae	0.14274856
137	0x3e0d0d7a	0.13774672
138	0xbd8600b0	-0.065431
139	0xbdeb67e3	-0.11494424
140	0xbe027b79	-0.12742414
141	0xbd97c0cb	-0.07409819
142	0x3d1a58e2	0.03768242
143	0xbe2105b7	-0.15724836
144	0xbd02cc8c	-0.031933352
145	0x3e08406b	0.13305824
146	0x3e1bfafd	0.15232463
147	0xbdf2a7b0	-0.1184839
148	0xbd173a02	-0.036920555
149	0xbd6948c3	-0.056954157
150	0xbd2f331d	-0.042773355
151	0x3dd5b5c8	0.10435063
152	0xbde71cab	-0.11284765
153	0xbd0aa73a	-0.033850886
154	0xbe0303dd	-0.12794442
155	0xbe1fbc91	-0.15599276
156	0xbd5d2aeb	-0.053996008
157	0x3d6dc2d5	0.058047134
158	0xbd4616c5	-0.04836156
159	0x3d14be5f	0.036314365
160	0xbe0a9d20	-0.13536501
161	0x3e221cc2	0.15831283
162	0x3d27e077	0.04098555
163	0x3d4fe2a5	0.050753254
164	0xbe148ecd	-0.14507599
165	0xbe1c7ed2	-0.15282753
166	0xbd8cc584	-0.068736106
167	0xbd7a3cdd	-0.0610932
168	0x3e1a4241	0.15064336
169	0xbdcc2a89	-0.099690504
170	0x3df64beb	0.12026199
171	0xbdaa4b2c	-0.08315119
172	0x3c8c7886	0.017147314
173	0xbc348caf	-0.01101987
174	0x3dc79ba1	0.09746481
175	0x3c259654	0.010106642
176	0x3d919e2d	0.07110248
177	0xbe121b79	-0.14268292
178	0x3dd3301f	0.10311913
179	0xbe198e27	-0.14995633
180	0xbad1fe33	-0.0016021192
181	0xbd13c6ba	-0.036078192
182	0xbd629a65	-0.055323023
183	0x3e0107ca	0.12600628
184	0xbdbdbd8f	-0.09264671
185	0x3d0e9718	0.034812063
186	0x3d72f668	0.059317023
187	0xbd84b523	-0.064798616
188	0xbdcf5ed6	-0.101255104
189	0x3e047c4f	0.12938045
190	0x3d94067f	0.072278015
191	0x3deeab16	0.11653726
192	0xbde057f8	-0.10954279
193	0xbe11aba8	-0.14225638
194	0x3e1d01bc	0.15332693
195	0x3da8dbaa	0.082450226
196	0xbdb24097	-0.08703726
197	0xbc9289a2	-0.017887894
198	0x3d8f9799	0.07011337
199	0x3e1a46d7	0.15066086
200	0x3cf63575	0.030054787
201	0x3d28e86b	0.041237276
202	0x3d969403	0.0735245
203	0xbd252929	-0.040322457
204	0x3d334d38	0.043774813
205	0xbd8e84a0	-0.0695889
206	0xbc871df3	-0.016493773
207	0xbe0f4c4b	-0.13993947
208	0x3d69c098	0.057068437
209	0xbdbe5a07	-0.09294515
210	0x3dd78c69	0.10524828
211	0x3ddfd5b1	0.1092943
212	0x3daa022e	0.08301197
213	0x3ba9ef06	0.0051859645
214	0xbdb1cb61	-0.086813696
215	0xbe112b4b	-0.14176671
216	0x3d2de824	0.042457715
217	0xbe11e7c7	-0.14248572
218	0xbe0ac9b3	-0.13553505
219	0xbdda14a5	-0.10648469
220	0x3d040921	0.03223527
221	0xbd81dbc6	-0.063407466
222	0xbc95e067	-0.01829548
223	0x3dc12754	0.09431329
224	0xbdafcc00	-0.08583832
225	0xbddf0e26	-0.108913705
226	0xbe17ba8b	-0.14817254
227	0x3e034ea5	0.1282297
228	0xbdf1a246	-0.11798529
229	0x3c938840	0.018009305
230	0x3d8cd4fb	0.0687656
231	0x3e0290fc	0.1275062
232	0xbc888bdf	-0.016668258
233	0x3e0de9f8	0.13858783
234	0xbbf9388f	-0.0076056193
235	0xbd8e8537	-0.069590025
236	0x3de27c0f	0.110588185
237	0x3d655247	0.05598667
238	0x3dc78d90	0.09743798
239	0xbdf1df4c	-0.118101686
240	0x3c3308df	0.010927408
241	0x3e1c15d8	0.15242708
242	0xbc33f0b4	-0.010982681
243	0xbde2e03d	-0.11077926
244	0x3e058ee8	0.13042796
245	0x3d770745	0.060309667
246	0x3db225b2	0.08698596
247	0xbe09d75e	-0.13461062
248	0x3e052e03	0.13005833
249	0xbbebf53a	-0.007200864
250	0x3d06da11	0.032922808
251	0xbdc94d88	-0.09829241
252	0x3d854fa9	0.065093346
253	0x3e049cf4	0.12950498
254	0xbd70da86	-0.05880215
255	0xbdb22690	-0.086987615

linear_tanh_stack.2.bias f4 [40]
0	0xbdf0460e	-0.11732112
1	0x3e194155	0.14966328
2	0xbdffe3c5	-0.124946155
3	0x3dcaeae2	0.099080816
4	0x3d19d324	0.037554875
5	0xbd9d37e0	-0.07676673
6	0xbd786523	-0.060643326
7	0x3d3ad6d2	0.045615025
8	0x3d5e546a	0.054279722
9	0xbbe28f72	-0.0069140727
10	0xbd5d7fd6	-0.054076992
11	0xbe176984	-0.14786345
12	0x3d726cf1	0.059185926
13	0xbe121839	-0.14267053
14	0xbd318196	-0.043336473
15	0xbdce57d1	-0.100753434
16	0xbb4328f4	-0.0029779049
17	0xbe1ef153	-0.15521745
18	0xbe2259a5	-0.15854509
19	0x3daeec81	0.08541203
20	0xbd83d802	-0.064376846
21	0x3d8044ef	0.06263148
22	0xbd941585	-0.07230667
23	0x3dbc44a1	0.091927774
24	0x3d899fc6	0.067199275
25	0xbe1ccf51	-0.1531346
26	0xbd97fa5d	-0.074208
27	0x3d2851f7	0.041093793
28	0x3bea1773	0.0071439086
29	0xbded8423	-0.11597469
30	0x38149e58	3.543342e-05
31	0xbcdcc5b1	-0.026949735
32	0xbde24e2e	-0.11050068
33	0x3d6755ef	0.056478437
34	0xbda46dc6	-0.0802875
35	0xbbaf7cd6	-0.005355458
36	0xbda011ff	-0.078159325
37	0x3cc24811	0.023716005
38	0xbde17f26	-0.1101058
39	0xbd96f818	-0.07371539

linear_tanh_stack.4.weight f4 [40, 40]
0	0x3c1d6bd5	0.009608229
1	0xbd4d4a11	-0.050119463
2	0xbdcb4628	-0.099254906
3	0x3d9458e3	0.07243516
4	0xbdfb9974	-0.12285128
5	0x3dc8ade3	0.09798791
6	0x3d861683	0.065472625
7	0xbc45af5d	-0.012065736
8	0xbddf5058	-0.10903996
9	0x3ba18198	0.004928779
10	0x3bc5de4c	0.0060384627
11	0x3e12686f	0.14297651
12	0x3d89d3cb	0.067298494
13	0x3d6eec32	0.058330722
14	0xbd575f78	-0.05258128
15	0xbdd0120d	-0.10159693
16	0x3e1c8f1b	0.15288965
17	0xbc7de073	-0.015495407
18	0xba918c7d	-0.0011104491
19	0x3cce56df	0.025187908
20	0x3db56f0f	0.08859073
21	0x3defc3f9	0.11707301
22	0x3dfe6cc4	0.12423089
23	0xbe1c2655	-0.15248998
24	0x3e2057e6	0.1565853
25	0x3d4b8b4a	0.049693383
26	0xbe0a6be1	-0.13517715
27	0x3cb8d6da	0.022563387
28	0x3d7078d3	0.058708977
29	0xbe1db5dc	-0.15401405
30	0x3d0a57dd	0.0337752
31	0x3ce4f386	0.027948152
32	0xbdd29de3	-0.10284021
33	0xbd844651	-0.06458724
34	0xbc8b55dc	-0.017008714
35	0xbd88491d	-0.0665457
36	0xbe13b8fb	-0.14426033
37	0x3e16e5a2	0.14736035
38	0x3c4d6b8d	0.012537849
39	0x3d8b3968	0.06798059
40	0x3e05ed52	0.13078812
41	0xbdef98ed	-0.1169909
42	0x3e08ece0	0.1337161
43	0xbda3c661	-0.07996822
44	0x3ce59851	0.028026732
45	0x3def29ba	0.116778806
46	0xbce820da	-0.028335977
47	0xbd1a4ae6	-0.037669085
48	0xbdbcc0f4	-0.092164904
49	0x3d7a7f7a	0.061156727
50	0x3e08218c	0.13294047
51	0xbd53e96f	-0.05173629
52	0xbd10a56d	-0.035314012
53	0x3d1b9829	0.037986908
54	0x3d745f83	0.0596614
55	0xbde7f30f	-0.113256566
56	0xbe14b521	-0.1452222
57	0xbe105a9e	-0.14097068
58	0x3d9ef341	0.07761241
59	0xbce28e6d	-0.027655805
60	0xbd6a7203	-0.057237636
61	0x3e0dce3f	0.13848208
62	0xbde2b789	-0.11070163
63	0xbcee4cc8	-0.029089347
64	0xbcf67691	-0.030085834
65	0xbda9b737	-0.082868986
66	0x3d25f275	0.04051443
67	0xbda72514	-0.08161369
68	0x3e143fe7	0.14477502
69	0x3e13edb1	0.14446141
70	0x3da64d78	0.08120245
71	0xbcf9b696	-0.030482572
72	0xbe0ba8ff	-0.13638686
73	0xbddf1c75	-0.108940996
74	0x3e0171ba	0.1264104
75	0xbd7b93ee	-0.061420374
76	0x3e0e6110	0.13904214
77	0x3e171e49	0.14757647
78	0x3e0e228e	0.13880369
79	0x3d4e6ae9	0.050394926
80	0x3d9568ca	0.072953776
81	0x3d89e896	0.06733815
82	0xbd7bedff	-0.061506268
83	0xbd2858bc	-0.04110025
84	0xbe13c935	-0.14432223
85	0xbe01b004	-0.12664801
86	0xbdc5eb92	-0.09664072
87	0xbe08f907	-0.13376246
88	0x3defb50e	0.11704455
89	0x3da8a2a8	0.08234149
90	0xbd9a2894	-0.07527271
91	0xbd9b09b0	-0.07570207
92	0xba8606e9	-0.0010225448
93	0x3e121cc8	0.14268792
94	0x3d79effb	0.06101988
95	0xbd924c0d	-0.07143412
96	0xbdc9bd11	-0.09850515
97	0xbb8d1edc	-0.0043066572
98	0xbd2e50e0	-0.042557597
99	0xbe08f816	-0.13375887
100	0xbd8c99c8	-0.06865269
101	0x3b5e7e4c	0.003394979
102	0x3e08dc46	0.13365278
103	0xbd79856f	-0.060918268
104	0xbdf0170a	-0.11723144
105	0x3dd7afe8	0.10531598
106	0x3e14cd96	0.1453155
107	0xbd89c40a	-0.067268446
108	0x3d90ad2e	0.070642814
109	0xbdb1cbef	-0.08681475
110	0x3e11494b	0.14188115
111	0xbdbbc1c4	-0.09167817
112	0xbdc96a48	-0.09834725
113	0x3dac2f1f	0.08407425
114	0x3c90322a	0.017602045
115	0xbe17d606	-0.14827737
116	0x3e185bba	0.14878741
117	0x3da2833a	0.07935186
118	0x3e16cb38	0.1472596
119	0x3c077a5a	0.008268917
120	0xbc60d3bb	-0.0137223555
121	0x3ce97107	0.028496278
122	0x3e1721e5	0.14759023
123	0x3c092d10	0.00837256
124	0x3d724d27	0.05915561
125	0x3ca6657d	0.020312065
126	0x3cf10ae9	0.029424148
127	0x3dfbd593	0.122965954
128	0xbe077760	-0.13229132
129	0x3da2abe9	0.079429455
130	0x3cb276c1	0.021785142
131	0xbe02771f	-0.12740754
132	0x3d8f7d46	0.07006316
133	0xbe1ef10a	-0.15521637
134	0x3d81f41c	0.06345388
135	0x3e189f88	0.14904606
136	0x3ca35e15	0.019942323
137	0xbb965b3e	-0.0045885136
138	0xbd918703	-0.071058296
139	0xbd89c0ef	-0.06726252
140	0x3cb1f4cb	0.021723172
141	0x3d97c141	0.07409907
142	0x3d8e48ed	0.06947503
143	0xbcd677c9	-0.026180165
144	0x3cfce412	0.030870471
145	0x3dd1019e	0.102053866
146	0xbe1308fd	-0.14358898
147	0xbe187665	-0.14888914
148	0x3d43d0d8	0.04780659
149	0xbb1dd9ac	-0.0024086041
150	0xbdf0edb2	-0.11764087
151	0x3d97c61f	0.074108355
152	0x3d4d676e	0.050147466
153	0x3d8248d8	0.0636155
154	0x3da62e33	0.081142806
155	0x3db857b6	0.090011045
156	0xbdbec543	-0.093149684
157	0x3d47b225	0.048753876
158	0xbd8cee19	-0.06881351
159	0x3e05ba95	0.13059457
160	0xbdd736b6	-0.10508482
161	0xbd9af385	-0.07565979
162	0xbda236bb	-0.07920595
163	0xbcffb4f4	-0.031214215
164	0xbc431ba8	-0.011908449
165	0x3d685e46	0.05673053
166	0xbd4a4f0a	-0.049391784
167	0xbdd1f707	-0.10252195
168	0x3c094864	0.008379076
169	0x3df66fdb	0.120330535
170	0x3e1348d4	0.1438325
171	0xbd356a8f	-0.044291075
172	0xbde19385	-0.11014465
173	0xbc942530	-0.018084139
174	0xbe1321b7	-0.1436833
175	0x3d9f709f	0.07785153
176	0xbc3563c0	-0.011071146
177	0xbd5f6f49	-0.05454949
178	0x3cf0aef8	0.029380307
179	0xbd61489c	-0.055000886
180	0xbda08623	-0.078380845
181	0xbd817cbb	-0.063226186
182	0x3d1e9f43	0.038726103
183	0x3dfa7f72	0.122313395
184	0x3e1081b2	0.14111975
185	0x3cb84348	0.02249302
186	0xbdf978e3	-0.121812604
187	0xbe20c1b9	-0.156989
188	0x3e073cf8	0.13206851
189	0x3e1b0d0c	0.15141696
190	0x3cf8aec0	0.030356765
191	0x3e14239d	0.1446671
192	0x3df63284	0.12021354
193	0xbdce5df5	-0.10076515
194	0x3d4eab53	0.050456356
195	0x3e075cee	0.13219044
196	0x3dd4f42f	0.10398137
197	0xbdd758df	-0.10514998
198	0xbe13d960	-0.1443839
199	0xbdbe3b90	-0.092887044
200	0x3ddbe414	0.10736862
201	0x3e010f8d	0.12603588
202	0x3d754d48	0.059888154
203	0x3e1174b1	0.1420467
204	0x3dcb24de	0.09919141
205	0xbb49bd3a	-0.0030782954
206	0x3d3d0e72	0.046156354
207	0xbda4f3ec	-0.08054337
208	0xbddbfc10	-0.107414365
209	0x3e19e7c0	0.15029812
210	0xbd58e7a3	-0.05295528
211	0x3d90d16d	0.07071195
212	0xbd65986d	-0.056053568
213	0x3df94e5e	0.121731505
214	0x3dd9fcc3	0.106439136
215	0xbdbc3bdc	-0.09191105
216	0x3d9cbefc	0.07653615
217	0xbd77fa41	-0.060541395
218	0x3bbc33c6	0.0057434766
219	0x3e11e6a7	0.14248143
220	0x3d732b15	0.059367258
221	0xbd27396e	-0.040826254
222	0x3dfc3c2e	0.12316166
223	0xbdbadb5f	-0.09123873
224	0xbd674f64	-0.056472197
225	0x3df3b70f	0.1190015
226	0x3d82bdc9	0.06383855
227	0xbcf6bce8	-0.030119374
228	0x3d03ba45	0.032160062
229	0x3e1fee3f	0.15618227
230	0x3de35ee2	0.11102082
231	0x3bab9623	0.0052364036
232	0xbcb3f313	-0.021966493
233	0xbe01e2eb	-0.12684219
234	0x3e09a12e	0.13440391
235	0x3cf9e93b	0.03050672
236	0x3d6bb970	0.057549894
237	0x3cb74519	0.022371816
238	0x3e10ae21	0.14128925
239	0xbe15fab1	-0.14646412
240	0xbe0ded91	-0.13860156
241	0x3cec330b	0.028832933
242	0xbe1faf78	-0.1559428
243	0xbdb52604	-0.088451415
244	0x3e1c9c95	0.15294106
245	0xbe096f63	-0.13421397
246	0xbdb7ee67	-0.089810185
247	0x3d190fb9	0.03736851
248	0x3d3906c2	0.04517246
249	0xbde54f92	-0.111968175
250	0x3dca9894	0.09892383
251	0x3e073c33	0.13206558
252	0x3d3c1f34	0.045928195
253	0x3da6fb50	0.08153403
254	0x3e1d8f1a	0.1538662
255	0x3ddb4ab6	0.10707609

linear_tanh_stack.4.bias f4 [40]
0	0xbd6da7ae	-0.05802124
1	0x3e1706c0	0.14748669
2	0x3e1465bb	0.14491932
3	0x3ad77e33	0.0016440809
4	0xbe1c2ccd	-0.15251465
5	0x3d76b9cf	0.060235795
6	0x3d53c88a	0.05170492
7	0xbda8e163	-0.08246114
8	0x3dbb5cf0	0.09148586
9	0x3e06914a	0.13141361
10	0x3c345cac	0.011008423
11	0x3e09fe77	0.13475977
12	0x3e1a17e1	0.15048172
13	0xbc8936d8	-0.016749784
14	0xbda5580b	-0.080734335
15	0x3dd2f9da	0.10301562
16	0xbdf7e56a	-0.12104304
17	0x3da19bf8	0.07891077
18	0x3d6152a6	0.05501046
19	0xbdf4fe30	-0.11962545
20	0x3d59a161	0.05313242
21	0xbe222303	-0.15833668
22	0x3df05e0c	0.11736688
23	0x3de3f1c4	0.111300975
24	0x3dd903bf	0.10596418
25	0x3d4c8ae6	0.04993715
26	0x3e192cc8	0.14958489
27	0xbdd30c8b	-0.10305127
28	0x3db9ae57	0.09066456
29	0xbdb7d97e	-0.0897703
30	0x3e10eadf	0.14152096
31	0xbd81a7db	-0.06330844
32	0x3e0ceb6e	0.13761684
33	0xbc35da21	-0.011099369
34	0x3dbed49b	0.09317895
35	0xbdf0aae8	-0.11751348
36	0xbd87c7ee	-0.066299304
37	0x3de88bc5	0.11354784
38	0xbe1fc4da	-0.15602437
39	0x3debc135	0.11511461

linear_tanh_stack.6.weight f4 [40, 40]
0	0x3cd09e41	0.025466086
1	0x3defcf1c	0.11709425
2	0xbd997440	-0.07492876
3	0xbdf5b17c	-0.11996743
4	0x3df7c0f5	0.120973505
5	0x3e020624	0.12697655
6	0xbdf7adb2	-0.120936766
7	0x3cf2226f	0.029557435
8	0x3b8a34b7	0.00421771
9	0xbccd1752	-0.025035534
10	0x3da3c71e	0.07996963
11	0x3df2f95d	0.118639685
12	0xbdabda2d	-0.08391223
13	0xbd8223fc	-0.0635452
14	0x3daa01a6	0.08301096
15	0xbdb722e8	-0.08942205
16	0xbd7ea785	-0.062171478
17	0x3da327fb	0.0796661
18	0x3dfdf3fa	0.124000505
19	0x3dae9d7c	0.085261315
20	0x3dde9f2f	0.108702056
21	0xbda2a236	-0.079410955
22	0x3d406558	0.04697165
23	0x3dffd39b	0.124915324
24	0x3cff3067	0.03115101
25	0x3c100c65	0.008792018
26	0x3e0990f3	0.134342
27	0x3d8d93c6	0.06912951
28	0x3db91495	0.09037129
29	0xbc61cce7	-0.013781763
30	0xbe10b878	-0.14132869
31	0x3bf8520a	0.007578139
32	0x3dc89504	0.097940475
33	0x3d12ba61	0.035822276
34	0xbe1ce33d	-0.1532106
35	0x3df29f85	0.11846832
36	0x3d6361fd	0.05551337
37	0x3e111945	0.14169796
38	0x3e15849b	0.14601366
39	0x3e15914c	0.14606208
40	0xbd388085	-0.04504444
41	0x3bf12991	0.0073596914
42	0x3e20a19e	0.15686652
43	0x3d252dd1	0.040326897
44	0xbda73a29	-0.0816539
45	0xbd8d8942	-0.069109455
46	0xbd2f5060	-0.04280126
47	0xbddcde13	-0.10784545
48	0x3de3357c	0.11094186
49	0xbe1d1f02	-0.1534386
50	0x3cdf5a30	0.027264684
51	0x3e17ced3	0.14824991
52	0xbe13dad3	-0.14438944
53	0xbcbb9008	-0.022895828
54	0xbd0d812c	-0.034547016
55	0x3b68051a	0.0035403431
56	0xbd937212	-0.071994916
57	0xbe00b5c8	-0.12569344
58	0x3b50be18	0.0031851586
59	0xbe018404	-0.12648016
60	0xbd2f525f	-0.042803165
61	0x3e088a47	0.13333999
62	0xbe112e64	-0.14177853
63	0xbd0835c2	-0.033254392
64	0x3e0460fc	0.12927622
65	0xbdd16596	-0.10224454
66	0xbd63ec93	-0.055645537
67	0x3e16bb50	0.14719892
68	0x3d6f90db	0.058487754
69	0xbd2ebc49	-0.04266003
70	0x3da6f3dc	0.08151981
71	0x3d2c3ffd	0.04205321
72	0xbdd17abc	-0.10228488
73	0xbca255ca	-0.019816298
74	0x3e1b2ed7	0.15154587
75	0xbd469103	-0.048478138
76	0xbc5ee3ed	-0.013604146
77	0xbd1a6493	-0.03769357
78	0x3c6cc9a5	0.014452373
79	0xbdb07a47	-0.086170726
80	0x3e1449ed	0.14481325
81	0xbdcdc15c	-0.10046646
82	0xbe200c09	-0.15629591
83	0xbe0b2f95	-0.1359237
84	0xbdca285e	-0.09870981
85	0x3db14146	0.08655028
86	0x3b54aaa1	0.0032450336
87	0xbdcd718f	-0.10031425
88	0xba82bf24	-0.0009975177
89	0x3c9775c7	0.018488778
90	0x3dcdbf04	0.10046199
91	0x3dfca3b9	0.12335915
92	0x3d7d312f	0.061814483
93	0x3d803b91	0.062613614
94	0x3debb917	0.115099125
95	0x3b719e56	0.0036868057
96	0x3e077f6f	0.13232206
97	0xbd96ef32	-0.07369842
98	0x3e1daa1b	0.15396921
99	0xbd331384	-0.043719783
100	0x3d64f52f	0.055897888
101	0x3d82e61a	0.06391545
102	0xbc66109f	-0.014042049
103	0xbdff2214	-0.12457672
104	0x3d51d134	0.051224902
105	0x3e10e471	0.14149643
106	0x3d19533e	0.0374329
107	0x3e09c57d	0.13454242
108	0x3e1cbf3a	0.15307322
109	0xbc8c1b1b	-0.017102769
110	0xbd9b2bcd	-0.07576714
111	0xbe0e576d	-0.13900538
112	0x3e09dcba	0.13463107
113	0x3deb5e0e	0.11492549
114	0xbe136d6c	-0.1439721
115	0xbe07bfcf	-0.13256763
116	0x3b96f20e	0.004606492
117	0x3c5d6f00	0.013515234
118	0xbde4a3dd	-0.11164067
119	0x3d83825b	0.06421348
120	0xbdf0a6d7	-0.11750572
121	0x3d249f3a	0.040190913
122	0xbca02076	-0.019546729
123	0x3dfe352e	0.12412487
124	0x3cd84f55	0.026405016
125	0x3db31423	0.08744075
126	0xbd88e862	-0.066849485
127	0xbcaf6fdd	-0.021415645
128	0xbd912497	-0.07087057
129	0x3ccb5114	0.024818935
130	0x3bedfbcd	0.007262683
131	0xbd09f99a	-0.033685304
132	0x3dd6021b	0.1044962
133	0xbdea7d4d	-0.114496805
134	0xbdb46db5	-0.088099875
135	0x3dac6bc4	0.08418992
136	0x3e188ff6	0.14898667
137	0xbe0c60e2	-0.13708833
138	0x3e02cf72	0.12774447
139	0x3df63bac	0.120231
140	0xbdb11e80	-0.086483955
141	0x3d3e55c8	0.046468526
142	0x3d2db6f6	0.042410813
143	0xbdd978dc	-0.10618755
144	0x3df181dd	0.117923476
145	0xbdb3d80c	-0.08781442
146	0xbdc453cb	-0.09586295
147	0xbd72e4c7	-0.05930021
148	0x3e15e3aa	0.14637628
149	0x3dce72eb	0.100805126
150	0x3d849af8	0.064748704
151	0xbcee3c83	-0.029081589
152	0xbd71480e	-0.058906607
153	0x3daabe1f	0.08337044
154	0x3d9a9f4a	0.07549913
155	0xbd8d1281	-0.06888295
156	0x3e0eb567	0.13936387
157	0x3c820632	0.015872095
158	0x3e2247f7	0.15847765
159	0x3dab8476	0.08374874
160	0xbddd7d28	-0.10814887
161	0xbdd0a8e3	-0.101884626
162	0xbd19eb3a	-0.037577845
163	0x3dc50056	0.09619205
164	0x3da2afbe	0.079436764
165	0x3de4c76e	0.11170851
166	0xbe00c4f0	-0.12575126
167	0xbc1746d3	-0.009233194
168	0xbde9e5cc	-0.114207834
169	0xbda6180a	-0.08110054
170	0xbd75edcb	-0.06004123
171	0x3d831737	0.06400912
172	0xbd3d370d	-0.04619508
173	0x3da43b5a	0.08019133
174	0xbcda11bc	-0.026619785
175	0x3cdc7d61	0.026915254
176	0x3cb341cc	0.02188196
177	0x3dba0bf7	0.09084313
178	0xbdf0c874	-0.117569834
179	0x3d49bbc3	0.04925133
180	0xbcf9e131	-0.030502887
181	0x3ddce421	0.107857
182	0x3d8f8f12	0.0700971
183	0x3d9fdfee	0.07806383
184	0xbe158def	-0.14604925
185	0xbe056c6a	-0.13029638
186	0xbe1a6fc5	-0.15081699
187	0x3d559046	0.052139543
188	0x3ce56c16	0.028005641
189	0xbd9486e8	-0.07252294
190	0xbe1c4112	-0.15259197
191	0x3d89faba	0.067372754
192	0xbdad9dfe	-0.084774
193	0xbe0172a6	-0.12641391
194	0x3d8fdc0a	0.07024391
195	0xbcd0880c	-0.025455497
196	0x3d7eadf1	0.062177602
197	0x3bb49ee2	0.0055121044
198	0xbdde4fef	-0.1085509
199	0xbe0ac3d6	-0.13551268
200	0x3dbc9a9c	0.09209177
201	0x3dfc429e	0.12317394
202	0xbdb49f47	-0.08819442
203	0x3e213db1	0.1574619
204	0x3d8223aa	0.06354459
205	0x3d371b29	0.044703636
206	0x3de5201b	0.11187764
207	0xbd2e0d7c	-0.04249333
208	0x3d3d4e90	0.0462175
209	0x3cdc6f90	0.026908666
210	0x3da4ed62	0.0805309
211	0x3db950b0	0.09048593
212	0xbe17bcf1	-0.14818169
213	0xbe1136b7	-0.14181028
214	0xbe0cb937	-0.13742529
215	0xbca2c15c	-0.019867592
216	0xbc838811	-0.016056092
217	0xbdc46ff1	-0.09591664
218	0x3e1efb31	0.1552551
219	0x3e0f0112	0.13965252
220	0xbe0cd3b1	-0.13752629
221	0xbd811603	-0.063030265
222	0xbdcdafda	-0.10043307
223	0xbdcc6363	-0.09979894
224	0xbdd551de	-0.104160056
225	0x3df29b3a	0.11846013
226	0xbe13c48c	-0.14430445
227	0xbd88d094	-0.06680408
228	0x3d87fc79	0.06639952
229	0x3d045d2d	0.03231542
230	0xbda1984b	-0.07890376
231	0x3de36231	0.11102713
232	0x3d601374	0.054706052
233	0x3d912ff9	0.07089228
234	0x3d669ff0	0.056304872
235	0xbd4d9ae1	-0.050196532
236	0x3ded144f	0.11576139
237	0x3e1f57a2	0.15560773
238	0x3d87b9f5	0.06627265
239	0xbd54eb42	-0.05198217
240	0xbddb94c4	-0.10721734
241	0x3d43bb1e	0.04778587
242	0x3c335708	0.010946043
243	0x3dd77d91	0.10521997
244	0x3d3a859e	0.045537584
245	0xbe0cc461	-0.13746788
246	0x3cbadf45	0.022811541
247	0xbd09f3e2	-0.03367985
248	0x3cea7dd0	0.028624445
249	0xbccc77b7	-0.024959428
250	0x3c16264d	0.009164405
251	0x3e10b7ca	0.1413261
252	0x3dba0214	0.090824276
253	0x3b970320	0.004608527
254	0x3cf865ae	0.030321922
255	0xbe0e11ef	-0.13874029

linear_tanh_stack.6.bias f4 [40]
0	0xbbc89e06	-0.0061223535
1	0xbe128ccb	-0.14311521
2	0xbca5af91	-0.020225318
3	0xbd92f0b3	-0.07174816
4	0x3e15664e	0.14589807
5	0xbe04a102	-0.12952045
6	0xbe10e422	-0.14149526
7	0x3e1aa98c	0.1510374
8	0xbda7bb72	-0.08190049
9	0x3d84e06e	0.06488119
10	0x3cf57618	0.029963538
11	0x3ce7548c	0.028238557
12	0xbdb59922	-0.088670984
13	0xbdd57932	-0.10423507
14	0xbb84650b	-0.0040403656
15	0xbdf28c2e	-0.118431434
16	0x3c555c84	0.013022546
17	0xbda87eba	-0.08227296
18	0x3d4758c4	0.048668638
19	0xbe08bfb5	-0.1335438
20	0xbc9fd189	-0.019509094
21	0xbc7e7f45	-0.015533273
22	0x3e061454	0.13093692
23	0xbbee409f	-0.007270887
24	0xbdcba254	-0.09943071
25	0x3c430129	0.011902132
26	0x3dbe594c	0.09294376
27	0x3d82e210	0.06390774
28	0x3e21c969	0.15799488
29	0x3dfd7c4f	0.123772256
30	0xbd8277f7	-0.06370538
31	0x3db8e1eb	0.090274654
32	0xbdb89179	-0.09012122
33	0x3d9f82a5	0.0778859
34	0xbdb39ecf	-0.08770525
35	0x3e212211	0.15735652
36	0xbdf328fb	-0.11873051
37	0x3e0792d1	0.132396
38	0x3d373a60	0.044733405
39	0xbcf393ed	-0.029733622

linear_tanh_stack.8.weight f4 [1, 40]
0	0x3dd6c907	0.10487562
1	0x3daf0bb0	0.08547151
2	0xbe0290e3	-0.12750582
3	0xbcf8826d	-0.03033563
4	0xbdbd8c14	-0.092552334
5	0xbb194905	-0.002338947
6	0x3d117c58	0.035518974
7	0x3ddb9fbe	0.10723828
8	0xbe0b89e4	-0.1362682
9	0x3d5c293f	0.053750273
10	0x3a6e9513	0.0009101193
11	0x3dd81593	0.1055099
12	0x3e1bd7fa	0.15219107
13	0x3d82e8b9	0.063920446
14	0xbe185f2c	-0.14880055
15	0x3c22222b	0.009895842
16	0x3d9aca63	0.075581335
17	0x3daf0e49	0.085476466
18	0xbd4c0f39	-0.049819205
19	0x3cbadde5	0.022810886
20	0x3d06f46f	0.032947954
21	0xbe0c390a	-0.13693634
22	0x3d274512	0.040837355
23	0xbe064690	-0.13112855
24	0xbdc15085	-0.09439186
25	0x3e045874	0.12924367
26	0xbc6db52f	-0.01450853
27	0xbdcffceb	-0.10155662
28	0x3df938b5	0.12169019
29	0x3d80da4c	0.06291637
30	0xbc387671	-0.011258707
31	0x3d2212db	0.039568763
32	0xbd779698	-0.06044635
33	0x3de75cec	0.1129702
34	0x3dd23bf4	0.102653414
35	0x3c15397c	0.009107944
36	0x3e1abe7c	0.15111727
37	0xbc0c2540	-0.008553803
38	0x3c7a8925	0.015291487
39	0x3dfc7832	0.12327613
