Logistic Delay a1.4/Results including the additional condition/sol_w7.pt (torch_old, 10095 bytes, 9 tensors)

linear_sigmoid_stack.0.weight f4 [25, 1]
-4.161959 -0.90463066 0.92139715 -3.3350759 1.0714233 1.4817364 0.9185424 -3.3870065
1.0400437 11.346738 -3.189123 1.2932916 -3.0241249 -0.908558 2.7262855 -0.9034191
-0.8809838 3.880508 0.9159513 0.92443454 3.8278077 4.9615793 0.9220981 2.293952
0.8897928
00000000: c52e 85c0 e095 67bf afe0 6b3f e271 55c0
00000010: 6624 893f 8aa9 bd3f 9825 6b3f b7c4 58c0
00000020: 2720 853f 3d8c 3541 971a 4cc0 948a a53f
00000030: 438b 41c0 4297 68bf 767b 2e40 7946 67bf
00000040: 2888 61bf 3e5a 7840 c97b 6a3f bea7 6c3f
00000050: cdfa 7440 42c5 9e40 9f0e 6c3f 1cd0 1240
00000060: 76c9 633f

linear_sigmoid_stack.0.bias f4 [25]
-0.47736433 0.2650737 -0.920681 -0.37483606 -0.37906668 -0.87049705 -0.8956363 2.0238023
-0.5350714 0.43172023 -0.3370456 0.20709974 -0.26803458 0.19360206 0.094263315 0.005108618
2.5953157 0.25658342 -1.8051215 -1.7595527 0.24762124 0.30773848 -1.6077092 -9.0111065
-2.3380218
00000000: 1969 f4be bdb7 873e c0b1 6bbf 83ea bfbe
00000010: 0715 c2be e5d8 5ebf 6c48 65bf fa85 0140
00000020: 70fa 08bf 6f0a dd3e 3e91 acbe f411 543e
00000030: d43b 89be 9e3f 463e 200d c13d 3266 a73b
00000040: a719 2640 e75e 833e 390e e7bf 0639 e1bf
00000050: 6c90 7d3e e68f 9d3e 6ac9 cdbf 7e2d 10c1
00000060: 26a2 15c0

linear_sigmoid_stack.2.weight f4 [25, 25]
0.6455078 0.6716467 -0.24505842 0.6244646 -0.009713649 0.21515547 -0.29883087 1.2176253
0.08283986 0.007538141 0.8380215 -0.07265882 0.5246017 0.4937863 -0.08890053 0.6793583
0.99318737 -0.081423335 -0.34555206 -0.24756874 0.038189013 -0.2919597 -0.25493866 1.0967976
-0.31783912 -0.6546948 -0.12212617 0.07199361 -0.32482868 0.0025255268 -0.40146485 -0.079933055
-0.63952947 -0.20338646 -0.009232807 -0.27256364 -0.1640673 -0.45917508 -0.2992085 0.11239013
-0.1298665 -0.47709838 -0.07308926 0.21414334 0.34479988 0.19764993 0.09262715 0.09063869
-1.1038964 0.3937897 -0.50742954 0.25964716 0.15319388 -0.49965948 -0.24175733 -0.32982412
0.17737284 -0.53022915 -0.04996913 -0.16970015 -0.6037026 -0.24233297 -0.48749995 0.22522512
0.018784307 0.30946302 -0.17215046 0.25338966 0.22783193 0.21985908 -0.121840596 0.06569634
0.32163763 -1.2950226 0.2489283 0.49309227 0.61482954 -0.38619438 0.4891313 0.08756073
0.28306532 -0.06947188 0.5660158 -0.009432976 0.11443653 0.39853412 0.1201429 0.42486647
0.35959566 -0.3882144 0.4528433 1.1482317 0.051315453 -0.33911863 -0.5011602 -0.1868316
-0.008621215 -0.28897226 1.1380855 -0.4737868 0.59513766 0.7209596 -0.32772818 0.54890805
-0.05323002 0.14176524 0.019028597 1.2909882 -0.020903535 0.08717005 0.79631114 0.23051421
0.60184664 0.59006333 -0.18322021 0.5594486 0.9120318 -0.18361098 -0.42953092 -0.15344204
-0.18327878 -0.007849052 -0.36172506 1.0776123 -0.39474043 0.612785 0.58494073 -0.36502993
0.33095706 -0.02334453 0.2634986 -0.0026954648 0.643063 0.118349135 -0.087058455 0.39128426
0.050303433 0.41864747 0.43198088 -0.2356796 0.19726557 0.92798525 -0.13291399 -0.33890852
-0.32037804 -0.15138488 -0.09028497 -0.40260994 0.9195738 -0.49130017 -0.59984964 0.024390034
0.26922384 -0.42979133 -0.2519259 -0.2118596 0.061268646 -0.545909 -0.23411539 -0.04344602
-0.49394906 -0.15081094 -0.60111564 0.20263247 0.28876182 -0.048161794 -0.16167752 0.13867688
0.28085482 0.35924515 -0.04645895 0.07940964 0.03013819 -1.5443716 0.4557339 -0.7472833
-0.21102223 0.20105255 -0.4847947 0.0010517142 -0.3131913 0.27099946 -0.41717732 -0.009716056
-0.22521493 -0.27266374 -0.2709937 -0.42268237 -0.17458622 0.10584499 0.11096522 -0.2714238
-0.05060474 0.21850573 0.15019718 -0.016971322 -0.0052953884 0.20559542 -1.1942703 0.22816932
2.4168692 -0.42640793 -0.4116104 2.0379322 -0.30632302 -0.58110815 -0.34734643 1.1779395
-0.32152548 -1.2853111 1.8814292 -0.36821488 1.6652774 -0.27242485 -0.7342124 -0.501638
-0.9927419 -0.95386225 -0.40810478 -0.2360714 -0.9812794 -1.1207743 -0.49037746 0.5651789
-0.53635967 -1.9816891 -0.847541 0.70080274 -1.4690272 0.98586583 0.7214821 1.1551073
-1.2111833 0.8682584 2.274253 -1.5475214 0.51382786 -1.3666384 -0.9307449 1.060347
-0.8562728 -0.80443174 1.3372006 1.0049219 1.0700941 1.5438112 1.3905098 0.81326264
0.116138786 0.8961886 0.6431928 0.27314514 -0.30219612 0.35907146 0.11909247 0.3508362
00000000: 0040 253f 0af1 2b3f 98f0 7abe e9dc 1f3f
00000010: ff25 1fbc b751 5c3e 5c00 99be 25db 9b3f
00000020: f2a7 a93d 8302 f73b 9488 563f 26ce 94bd
00000030: 4c4c 063f 8fd1 fc3e 7b11 b6bd 6dea 2d3f
00000040: 8741 7e3f 47c1 a6bd 33ec b0be a982 7dbe
00000050: 156c 1c3d be7b 95be 5287 82be dd63 8c3f
00000060: cfbb a2be 149a 27bf 491d fabd 6371 933d
00000070: f24f a6be 4f83 253b cd8c cdbe f1b3 a3bd
00000080: 34b8 23bf 8a44 50be 3345 17bc 768d 8bbe
00000090: 4201 28be ff18 ebbe db31 99be cc2c e63d
000000a0: b9fb 04be 3d46 f4be d2af 95bd 6448 5b3e
000000b0: 9c89 b03e be64 4a3e 4eb3 bd3d c7a0 b93d
000000c0: 7a4c 8dbf ce9e c93e e7e6 01bf 79f0 843e
000000d0: dbde 1c3e 5ed3 ffbe 3c8f 77be b5de a8be
000000e0: 3aa1 353e 19bd 07bf 6eac 4cbd e0c5 2dbe
000000f0: 418c 1abf 2226 78be 9899 f9be 6aa1 663e
00000100: 8ce1 993c f071 9e3e 3648 30be 4abc 813e
00000110: c64c 693e bd22 613e 9087 f9bd cd8b 863d
00000120: b0ad a43e 4dc3 a5bf 0fe7 7e3e 9776 fc3e
00000130: 7865 1d3f 45bb c5be 6b6f fa3e 0a53 b33d
00000140: f0ed 903e 4647 8ebd 69e6 103f c58c 1abc
00000150: b35d ea3d aa0c cc3e 7b0d f63d 1988 d93e
00000160: ec1c b83e 0ac4 c6be 14db e73e 42f9 923f
00000170: 2730 523d f5a0 adbe 094c 00bf c850 3fbe
00000180: ff3f 0dbc 2cf4 93be c9ac 913f 2f94 f2be
00000190: f15a 183f cf90 383f fdcb a7be 3d85 0c3f
000001a0: b907 5abd e82a 113e dce1 9b3c 1a3f a53f
000001b0: e43d abbc 3686 b23d 0cdb 4b3f eb0b 6c3e
000001c0: 9f12 1a3f 640e 173f 149e 3bbe 0638 0f3f
000001d0: eb7a 693f 8404 3cbe 7aeb dbbe e91f 1dbe
000001e0: 6fad 3bbe 4f99 00bc 0734 b9be 33ef 893f
000001f0: 6b1b cabe 7adf 1c3f adbe 153f 34e5 babe
00000200: 3473 a93e 073d bfbc 4ae9 863e 65a6 30bb
00000210: c79f 243f 0861 f23d b44b b2bd 6956 c83e
00000220: f90a 4e3d f658 d63e 992c dd3e fe55 71be
00000230: fcff 493e 7190 6d3f 9b1a 08be 6b85 adbe
00000240: 9708 a4be a304 1bbe 54e7 b8bd e422 cebe
00000250: 3069 6b3f b28b fbbe bf8f 19bf 9ccd c73c
00000260: b5d7 893e 9c0d dcbe 6efc 80be b9f1 58be
00000270: d5f4 7a3d b1c0 0bbf f2bb 6fbe 74f4 31bd
00000280: e4e6 fcbe 2f6e 1abe b7e2 19bf e37e 4f3e
00000290: 97d8 933e 4d45 45bd cb8e 25be 5001 0e3e
000002a0: 34cc 8f3e fbee b73e bd4b 3ebd 85a1 a23d
000002b0: 5ee4 f63c f8ad c5bf f455 e93e f54d 3fbf
000002c0: 3616 58be b8e0 4d3e 0337 f8be acd9 893a
000002d0: 9c5a a0be 71c0 8a3e 4498 d5be 1830 1fbc
000002e0: be9e 66be 959a 8bbe b0bf 8abe d369 d8be
000002f0: bbc6 32be 42c5 d83d bc41 e33d 0ff8 8abe
00000300: ea46 4fbd f7bf 5f3e 4acd 193e 7107 8bbc
00000310: f084 adbb 9b87 523e d9dd 98bf 38a5 693e
00000320: fcad 1a40 2452 dabe 99be d2be 7b6d 0240
00000330: 5fd6 9cbe 81c3 14bf 64d7 b1be b9c6 963f
00000340: fd9e a4be 1385 a4bf acd2 f03f a986 bcbe
00000350: cf27 d53f 457b 8bbe 58f5 3bbf 596b 00bf
00000360: 5524 7ebf 5130 74bf 1cf3 d0be b3bc 71be
00000370: 2035 7bbf 8875 8fbf c112 fbbe 90af 103f
00000380: de4e 09bf fda7 fdbf 72f8 58bf cf67 333f
00000390: 1509 bcbf b461 7c3f 0db3 383f 8eda 933f
000003a0: 0e08 9bbf 2f46 5e3f 5c8d 1140 2e15 c6bf
000003b0: 398a 033f 02ee aebf 4c45 6ebf 73b9 873f
000003c0: b234 5bbf 3def 4dbf 6429 ab3f 48a1 803f
000003d0: d8f8 883f 9b9b c53f 3afc b13f fb31 503f
000003e0: 2cda ed3d 9e6c 653f 49a8 243f aed9 8b3e
000003f0: 73b9 9abe 37d8 b73e c1e6 f33d cda0 b33e

linear_sigmoid_stack.2.bias f4 [25]
0.18540293 -0.34360254 -0.29267398 0.30679846 0.12994404 0.26348007 -0.42452404 -0.3438731
-0.1257204 -0.35838687 0.10636476 -0.48369977 -0.34013653 -0.20822433 0.3199952 -0.29437983
0.20219973 0.06971143 0.2936249 0.18400533 0.24802011 0.3603918 -0.40316123 0.41217247
-0.31648007
00000000: 44da 3d3e acec afbe 5dd9 95be b014 9d3e
00000010: 0d10 053e dce6 863e 375b d9be 2310 b0be
00000020: d9bc 00be 7c7e b7be c4d5 d93d 7fa7 f7be
00000030: 6026 aebe c238 55be 69d6 a33e f4b8 96be
00000040: 720d 4f3e dec4 8e3d 0156 963e e56b 3c3e
00000050: fcf8 7d3e 4685 b83e 266b cebe 4508 d33e
00000060: ad09 a2be

linear_sigmoid_stack.4.weight f4 [25, 25]
0.3149984 -0.47934216 -0.42956987 0.38912898 0.13063852 0.2685767 -0.34475076 -0.41736883
-0.1958086 -0.57051057 0.16273512 -0.4944624 -0.37168097 -0.4040858 0.44804144 -0.3950472
0.2226473 0.2625277 0.14196713 0.08103212 0.4458356 0.44618693 -0.26369774 0.45329127
-0.38526946 -0.60151434 0.14094257 0.16286838 -0.36919853 -0.47638002 -0.49907157 0.3803399
-6.903558e-05 -0.18207006 0.16894948 -0.39079955 0.13609567 0.13178924 0.39780784 -0.57803786
0.31004685 -0.33890513 -0.538918 -0.352263 -0.5264465 -0.4954899 -0.64177454 0.282004
-0.40674603 -0.043138843 -0.04540302 -0.13534872 -0.48446018 0.061486457 -0.07454468 0.21641529
-0.504063 -0.26507032 -2.631757 -1.0971537 0.21577197 -0.18062352 -0.41317818 -0.4940892
-0.0067435787 -0.48476017 0.10837598 0.004243742 0.015817726 -0.057437297 0.7001876 -0.024197128
-0.3156743 0.036674313 -0.52505726 0.43481165 -0.5174651 -0.46890673 0.4141534 0.2220535
0.43940723 -0.70722646 -0.22189075 0.28484875 -0.17774361 0.43172538 -0.4669541 -0.5615033
-0.510734 0.47429883 -0.49106336 0.14239 0.4539389 0.23564869 0.31731123 0.48304215
0.40755025 -0.22111364 0.36978322 -0.15169907 -0.09521111 -0.27793777 -0.16162628 -0.12000784
-0.20485348 -0.13601056 -0.57378346 -0.29625744 -1.333621 -0.62397903 0.15901072 -0.39081115
-0.46577677 -0.474723 -0.022508608 -0.2988766 0.04226615 -0.27631986 -0.17150214 -0.22125848
0.45179066 0.05357567 -0.24148585 0.20997809 -0.16306517 -0.34231973 0.15024462 0.10928652
-0.43249875 -0.3223513 -0.36127174 0.59168375 0.22942431 -0.30759522 0.393154 -0.42856047
0.16497885 0.34998485 0.50119823 -0.40050983 0.3853949 -0.53043425 -0.29690024 -0.3819737
-0.24437839 -0.6044952 -0.49682987 0.2267675 -0.535315 0.36185512 0.36552712 -0.35108304
-0.47238737 0.45778292 0.3014783 0.3135016 -0.6898476 -0.1804073 0.115466386 -0.25859565
0.39273867 -0.35531425 -0.32053062 -0.5802171 0.50832945 -0.6164438 0.1502555 0.31739384
0.39610136 0.45821336 0.390336 0.21034703 -0.55292434 0.4008242 -0.24071719 -0.39808697
0.2651152 0.4315194 -0.565048 -0.42853138 -0.24262466 0.38551357 0.24527362 0.0639071
0.5158934 -0.522808 0.23712985 0.33972335 0.27820224 -0.48947248 0.32406434 -0.36151573
-0.37536788 -0.2605309 -0.50109583 -0.32489192 -0.34143803 0.4751904 -0.47365367 0.032941677
0.2706582 -0.5143065 -0.33713952 0.14712982 0.44509596 0.30411837 -0.6354366 -0.44765913
0.30961937 -0.2120776 0.3181136 -0.2715729 -0.5425828 -0.21776415 0.5032061 -0.52811927
0.46083453 0.33054155 0.4898282 0.27705184 0.39810944 0.45798776 -0.5738275 0.28466538
-0.3173164 -0.36745384 -0.18048273 -0.3049014 -0.61822075 -0.6205154 -0.2983718 -0.35034335
-0.25389105 -0.30971938 -0.2665643 -0.41477895 -0.252199 -0.06616634 -0.114461824 -0.46661884
-0.34212714 -0.5072573 -0.5677104 -0.54562473 -0.53359944 -0.19834837 -0.6633772 -0.01776114
-0.56811583 -0.4424697 -0.47466433 0.067020014 0.37740335 -0.38004243 -0.56312513 -0.23224793
00000000: 7847 a13e 566c f5be 95f0 dbbe ea3b c73e
00000010: 1bc6 053e e382 893e 2c83 b0be 5eb1 d5be
00000020: 0d82 48be fb0c 12bf 09a4 263e 2d2a fdbe
00000030: f84c bebe 55e4 cebe b065 e53e a043 cabe
00000040: a7fd 633e 086a 863e d55f 113e 2bf4 a53d
00000050: 9044 e43e 9d72 e43e 6403 87be cb15 e83e
00000060: 0a42 c5be d8fc 19bf 4053 103e f8c6 263e
00000070: 9707 bdbe 15e8 f3be 4f86 ffbe e9bb c23e
00000080: 32c7 90b8 9370 3abe 1801 2d3e e116 c8be
00000090: aa5c 0b3e c2f3 063e 78ad cb3e 4afa 13bf
000000a0: 76be 9e3e f984 adbe 88f6 09bf d15b b4be
000000b0: 33c5 06bf dab0 fdbe 564b 24bf d462 903e
000000c0: 0441 d0be 5bb2 30bd 84f8 39bd db98 0abe
000000d0: 2a0b f8be 39d9 7b3d e2aa 98bd f89b 5d3e
000000e0: 460a 01bf 4cb7 87be b56e 28c0 886f 8cbf
000000f0: 54f3 5c3e 5ff5 38be 178c d3be 42f9 fcbe
00000100: 3df9 dcbb 7c32 f8be 3af4 dd3d 170f 8b3b
00000110: 2d94 813c 5f43 6bbd 7f3f 333f 0e39 c6bc
00000120: 10a0 a1be ce37 163d 276a 06bf a29f de3e
00000130: 9878 04bf 8b14 f0be ea0b d43e fe61 633e
00000140: fcf9 e03e cb0c 35bf 5437 63be b2d7 913e
00000150: 6c02 36be 1c0b dd3e 9c14 efbe aebe 0fbf
00000160: 77bf 02bf 4cd7 f23e a86c fbbe afce 113e
00000170: ae6a e83e e44d 713e 9e76 a23e 4d51 f73e
00000180: 6daa d03e 9d6b 62be 3a54 bd3e 0057 1bbe
00000190: 0bfe c2bd dc4d 8ebe 5c81 25be acc6 f5bd
000001a0: 1cc5 51be 5a46 0bbe 79e3 12bf 0eaf 97be
000001b0: 18b4 aabf 17bd 1fbf b5d3 223e 6618 c8be
000001c0: 4b7a eebe e50e f3be f963 b8bc 5b06 99be
000001d0: 451f 2d3d cc79 8dbe 429e 2fbe 9591 62be
000001e0: 1b51 e73e 2972 5b3d 1148 77be 7f04 573e
000001f0: 8efa 26be 8844 afbe bad9 193e 9cd1 df3d
00000200: 7a70 ddbe 3b0b a5be 9cf8 b8be 9678 173f
00000210: 35ee 6a3e 1f7d 9dbe 7b4b c93e 476c dbbe
00000220: 37f0 283e 3731 b33e 874e 003f a00f cdbe
00000230: 7b52 c53e 8aca 07bf 4f03 98be 0f92 c3be
00000240: 543e 7abe 33c0 1abf 7c60 febe bd35 683e
00000250: 670a 09bf 1345 b93e 5f26 bb3e 28c1 b3be
00000260: c2dc f1be 8662 ea3e 5d5b 9a3e 4883 a03e
00000270: da99 30bf b1bc 38be a479 ec3d a666 84be
00000280: 0b15 c93e c0eb b5be 971c a4be 1c89 14bf
00000290: e121 023f 43cf 1dbf 94dc 193e 7281 a23e
000002a0: cccd ca3e f19a ea3e 1fda c73e 3665 573e
000002b0: 738c 0dbf d438 cd3e 917e 76be 0ed2 cbbe
000002c0: 2ebd 873e 1cf0 dc3e fca6 10bf 7768 dbbe
000002d0: 9972 78be 0962 c53e 0229 7b3e bae1 823d
000002e0: 9711 043f bfd6 05bf 2bd2 723e 38f0 ad3e
000002f0: 8670 8e3e 239c fabe c3eb a53e 9718 b9be
00000300: 3830 c0be 4e64 85be d147 00bf 3c58 a6be
00000310: f7d0 aebe 284c f33e bc82 f2be daed 063d
00000320: b693 8a3e 97a9 03bf 8d9d acbe 33a9 163e
00000330: 9ee3 e33e 67b5 9b3e f9ab 22bf 9433 e5be
00000340: 6e86 9e3e df2a 59be c9df a23e 9a0b 8bbe
00000350: b5e6 0abf 91fd 5ebe 1dd2 003f d332 07bf
00000360: 81f2 eb3e be3c a93e c3ca fa3e bdd9 8d3e
00000370: 00d5 cb3e 5f7d ea3e 5ce6 12bf a9bf 913e
00000380: 4c77 a2be e922 bcbe 77d0 38be 091c 9cbe
00000390: b743 1ebf 19da 1ebf 30c4 98be 3460 b3be
000003a0: 02fe 81be 8a93 9ebe 1e7b 88be e85d d4be
000003b0: 3a20 81be 3882 87bd f66a eabd aae8 eebe
000003c0: 4a2b afbe 9ddb 01bf 7855 11bf 10ae 0bbf
000003d0: f999 08bf d61b 4bbe 17d3 29bf cf7f 91bc
000003e0: 0a70 11bf 638b e2be 3407 f3be ca41 893d
000003f0: 033b c13e ec94 c2be f828 10bf 67d2 6dbe

linear_sigmoid_stack.4.bias f4 [25]
0.07721961 -0.045063503 -0.2643904 0.05644303 -0.1959943 -0.18642572 0.18688494 -0.110107064
0.13002665 -0.5811994 0.15842988 -0.21525735 -0.05911059 -0.23244694 0.040853236 0.15460432
-0.038923744 -0.17299964 -0.5130137 -0.19562127 -0.2499091 -0.14573722 0.19113341 -0.021023214
-0.11376041
00000000: 5125 9e3d 8294 38bd 2e5e 87be ce30 673d
00000010: bbb2 48be 62e6 3ebe c45e 3f3e d07f e1bd
00000020: b525 053e 7cc9 14bf 713b 223e 6c6c 5cbe
00000030: f21d 72bd 9206 6ebe b955 273d 9850 1e3e
00000040: 816e 1fbd d126 31be de54 03bf f150 48be
00000050: 2ce8 7fbe 233c 15be 7ab8 433e e038 acbc
00000060: 38fb e8bd

linear_sigmoid_stack.6.weight f4 [25, 25]
-0.5027688 -0.2960175 -0.40184638 -0.5399047 -0.31866682 -0.40179834 -0.32188115 -0.16123642
-0.35483563 -0.3299449 -0.36947697 -0.17627381 -0.1319309 -0.3465236 -0.17852886 -0.5706312
-0.55430716 -0.28081688 -0.19456252 -0.2595349 -0.30220836 -0.28884536 -0.19780159 -0.6005963
-0.37176347 -0.107602045 -0.39379182 0.23211338 -0.15811454 -0.20293769 -0.33002055 0.10335179
-0.42958674 -0.08869872 -0.09514985 -0.3283921 -0.07595901 -0.2639195 -0.38824415 -0.39480793
-0.003577988 -0.10331509 -0.2866388 -0.017836932 -0.13786073 -0.31071204 -0.53602105 -0.31595728
-0.116852276 -0.5091337 -0.028192244 -0.074442714 -0.36804253 -0.03058242 -0.27205917 0.01740613
-0.3936589 0.32269344 -0.14275645 -0.15080042 -0.007350003 0.14853032 0.39337382 -0.061014708
0.39775947 -0.12946479 -0.09538917 -0.022438573 -0.049085803 -0.1778696 0.009187308 0.36930835
0.3595971 -0.14865467 0.41774073 0.14495483 -0.07112195 0.11631461 0.0048637376 0.16301508
-0.14753273 0.09488618 -0.42966756 0.109522946 0.003579408 -0.35636464 -0.3620374 -0.50132555
-0.42640185 -0.49691105 -0.068117335 0.10917985 -0.121245496 -0.067153744 -0.049057946 0.11250602
-0.49914697 -0.5815171 0.124383554 -0.38869816 -0.34385514 0.13077569 -0.12443513 -0.39510125
-0.108471654 0.0790035 -0.21523772 0.2751567 -0.23469366 0.034722812 0.36397114 0.18097402
0.15755159 0.0045262775 0.42553505 -0.19178477 -0.025178954 0.2624567 0.039811317 -0.08813824
-0.02450809 0.010179771 0.3639036 -0.42418432 0.46271425 -0.22466986 -0.34432083 -0.10085631
-0.35312587 -0.015622546 -0.53533864 -0.36350212 -0.32531577 -0.4173602 -0.22447559 -0.45499524
-0.36586988 -0.43806663 -0.28786498 -0.5701895 -0.3959611 -0.42281005 -0.46046522 -0.24458037
-0.25182343 -0.4042393 -0.37756595 -0.44765174 -0.544357 -0.4070502 -0.068085894 -0.12760133
-0.3752871 -0.087779894 -0.21404576 0.2967204 -0.31471574 0.03296964 -0.22114816 0.023655925
0.28283107 0.039818496 0.17867428 0.274388 0.11859614 -0.21932527 -0.09290709 0.20455477
-0.22841166 -0.26643762 0.10093105 0.21890986 0.20631543 -0.2859178 0.26176044 -0.4551146
-0.14345475 -0.32387492 -0.4686484 -0.49318144 -0.29358405 -0.5332933 -0.30542058 -0.3553756
-0.09759353 -0.34758943 -0.34278792 -0.48801652 -0.5116422 -0.58398336 -0.631385 -0.41040632
-0.3145798 -0.22011687 -0.40984955 -0.43095228 -0.3568531 -0.47605127 -0.70314515 -0.45787776
-0.5641827 -0.64596915 -0.50655204 -0.36786833 -0.48114103 -0.659156 -0.65689576 -0.6231986
-0.3409027 -0.2655886 -0.59402484 -0.54605377 -0.48420918 -0.6310944 -0.3845952 -0.2633113
-0.6094214 -0.6674779 -0.23417589 -0.213927 -0.5623453 -0.6872662 -0.6682571 -0.33147645
-0.7162699 -0.15833326 0.22473817 -0.17829627 -0.32471222 -0.25996488 0.11890816 -0.173651
0.20945568 -0.25506756 -0.13158551 0.2167528 0.042420026 0.2818719 -0.009850603 0.388803
-0.37318632 -0.33227894 0.2204303 -0.08735906 0.0119923465 0.012561889 0.017238567 0.3217204
-0.2786027 0.22717452 -0.38724563 0.13702369 -0.39078414 -0.11533775 -0.2559701 0.12910187
00000000: 75b5 00bf 9b8f 97be cfbe cdbe 3237 0abf
00000010: 4c28 a3be 83b8 cdbe 9bcd a4be 291b 25be
00000020: 04ad b5be 8aee a8be 162c bdbe 1f81 34be
00000030: e518 07be 8b6b b1be 45d0 36be e314 12bf
00000040: 13e7 0dbf 3bc7 8fbe 663b 47be c2e1 84be
00000050: 0ebb 9abe 8ae3 93be 808c 4abe aec0 19bf
00000060: c857 bebe 765e dcbd 159f c9be 21af 6d3e
00000070: c7e8 21be e6ce 4fbe 74f8 a8be 1aaa d33d
00000080: cbf2 dbbe ada7 b5bd eddd c2bd 0223 a8be
00000090: 6690 9bbd 7520 87be f0c7 c6be 4424 cabe
000000a0: ad7c 6abb dd96 d3bd 52c2 92be c21e 92bc
000000b0: 5d2b 0dbe a615 9fbe ad38 09bf 27c5 a1be
000000c0: 3f50 efbd 9656 02bf 6cf3 e6bc 6c75 98bd
000000d0: 1270 bcbe fc87 fabc 574b 8bbe 4d97 8e3c
000000e0: a98d c9be 1338 a53e bf2e 12be 6d6b 1abe
000000f0: 4bd8 f0bb 5518 183e 4b68 c93e 8fea 79bd
00000100: 21a7 cb3e 6b92 04be 665b c3bd 19d1 b7bc
00000110: 320e 49bd 7323 36be 5d86 163c fc15 bd3e
00000120: 1c1d b83e ee38 18be 1de2 d53e 0a6f 143e
00000130: 63a8 91bd 5b36 ee3d fd5f 9f3b 6ded 263e
00000140: d212 17be af53 c23d 63fd dbbe 914d e03d
00000150: 8094 6a3b 6d75 b6be f75c b9be df56 00bf
00000160: 5851 dabe 206b febe 1a81 8bbd af99 df3d
00000170: 8f4f f8bd e787 89bd fcf0 48bd 8e69 e63d
00000180: 3190 ffbe 4ede 14bf cebc fe3d 7203 c7be
00000190: c80d b0be 10ea 053e d8d7 febd b64a cabe
000001a0: 6326 debd 96cc a13d 4767 5cbe 57e1 8c3e
000001b0: 8953 70be 8239 0e3d 6d5a ba3e 4151 393e
000001c0: 3455 213e 2b51 943b bbdf d93e 3a63 44be
000001d0: 1844 cebc b960 863e 3111 233d d281 b4bd
000001e0: 31c5 c8bc 0ec9 263c 9351 ba3e b02e d9be
000001f0: e2e8 ec3e db0f 66be d24a b0be c18d cebd
00000200: eacc b4be b5f5 7fbc f40b 09bf f31c babe
00000210: ca8f a6be 3cb0 d5be eedc 65be 23f5 e8be
00000220: 4c53 bbbe 454a e0be 0a63 93be f0f7 11bf
00000230: 6abb cabe 8f7a d8be 19c2 ebbe 4773 7abe
00000240: 00ef 80be 74f8 cebe 5350 c1be 9c32 e5be
00000250: fb5a 0bbf e268 d0be 9e70 8bbd eca9 02be
00000260: a125 c0be f2c5 b3bd d02e 5bbe bceb 973e
00000270: 6c22 a1be 2c0b 073d aa74 62be 12ca c13c
00000280: 3ccf 903e b818 233d 64f6 363e 957c 8c3e
00000290: 88e2 f23d ce96 60be 1346 bebd ce76 513e
000002a0: bfe4 69be 836a 88be f0b4 ce3d e829 603e
000002b0: 5a44 533e d163 92be 7705 863e c804 e9be
000002c0: cde5 12be efd2 a5be aff2 efbe 4782 fcbe
000002d0: a650 96be e985 08bf 1660 9cbe caf3 b5be
000002e0: 1edf c7bd 3ef7 b1be e681 afbe 4ddd f9be
000002f0: fcfa 02bf ef7f 15bf 73a2 21bf c720 d2be
00000300: 9b10 a1be 5166 61be cdd7 d1be c7a5 dcbe
00000310: 73b5 b6be febc f3be 5201 34bf f46e eabe
00000320: 476e 10bf 3c5e 25bf 65ad 01bf 3d59 bcbe
00000330: 1e58 f6be 73be 28bf 522a 28bf f289 1fbf
00000340: cc8a aebe 3bfb 87be 0312 18bf 2eca 0bbf
00000350: 44ea f7be 678f 21bf a9e9 c4be bdd0 86be
00000360: 0a03 1cbf d5df 2abf cecb 6fbe ae0f 5bbe
00000370: ddf5 0fbf adf0 2fbf e612 2bbf 48b7 a9be
00000380: 775d 37bf 1d22 22be c321 663e 4c93 36be
00000390: ae40 a6be 1e1a 85be 1f86 f33d 91d1 31be
000003a0: 8d7b 563e 3798 82be 5abe 06be 72f4 5d3e
000003b0: 9fc0 2d3d 8451 903e 6c64 21bc 3011 c73e
000003c0: 4712 bfbe 7720 aabe 7bb8 613e 4fe9 b2bd
000003d0: 8c7b 443c 62d0 4d3c e537 8d3c 89b8 a43e
000003e0: 03a5 8ebe 70a0 683e 0f45 c6be f04f 0c3e
000003f0: dc14 c8be 3336 ecbd 830e 83be 4833 043e

linear_sigmoid_stack.6.bias f4 [25]
-0.36681968 -0.13462485 -0.21646447 -0.14340918 -0.09543517 -0.5338055 0.03838554 -0.7561747
-0.5542967 0.009552727 -0.14859317 0.07191396 -0.5150663 -0.4168547 -0.4678923 0.0845324
-0.23913933 -0.08784972 -0.5090095 0.08263301 -0.17345576 0.12546176 -0.10087838 -0.33624795
0.029741677
00000000: cacf bbbe 19db 09be dda8 5dbe dbd9 12be
00000010: 8473 c3bd 7aa7 08bf 283a 1d3d aa94 41bf
00000020: 63e6 0dbf 0b83 1c3c cf28 18be a047 933d
00000030: 63db 03bf fb6d d5be 948f efbe 531f ad3d
00000040: f1e0 74be 8eea b3bd 724e 02bf 7f3b a93d
00000050: 639e 31be 0c79 003e 5399 cebd b128 acbe
00000060: d1a4 f33c

linear_sigmoid_stack.8.weight f4 [1, 25]
0.011995313 -0.05619512 0.19390671 -0.10838889 0.22327231 -0.0014293621 0.14729698 0.0029079458
-0.0014380779 0.23612551 0.11193889 0.2111386 0.004152861 0.03182705 -0.014265493 0.18953487
0.17345321 -0.12030029 0.005121306 0.1268974 0.28520736 0.24678183 -0.182474 -0.008935615
0.22770236
00000000: fd87 443c db2c 66bd 7b8f 463e fffa ddbd
00000010: 7fa1 643e 6f59 bbba 05d5 163e 3c93 3e3b
00000020: e37d bcba e3ca 713e 3740 e53d b834 583e
00000030: b914 883b 155d 023d d0b9 69bc 6e15 423e
00000040: b89d 313e 0060 f6bd a1d0 a73b 64f1 013e
00000050: b306 923e 60b4 7c3e 77da 3abe b066 12bc
00000060: cf2a 693e
