Logistic Delay a1.4/Results including the additional condition/sol_w33.pt (torch_old, 10095 bytes, 9 tensors)

linear_sigmoid_stack.0.weight f4 [25, 1]
00000000: fa03 41c1 a352 a0bf daf8 a83f 62f8 82c0
00000010: a5d4 6b3f 1bc4 3740 4460 9f3f 469f c7c0
00000020: 2e89 523f 78eb 3f42 502c 81c0 01bf a13f
00000030: 4a14 75c0 f107 9fbf bd88 5740 d17a 9abf
00000040: b653 78bf 317f a940 a660 c53f 00bf c53f
00000050: 2160 8740 aad3 c040 be48 c03f a2ee 0940
00000060: 9ecb 2a3f
-12.063471 -1.2525219 1.3200943 -4.09282 0.92121345 2.8713443 1.2451253 -6.2381926
0.8224057 47.97995 -4.0366592 1.2636415 -3.8293633 -1.2424299 3.3677208 -1.206873
-0.9700273 5.2967763 1.542012 1.5448914 4.2304845 6.025838 1.5022199 2.15519
0.66716945

linear_sigmoid_stack.0.bias f4 [25]
00000000: 2488 cfbd c25a 4e3f 44f9 b2bf 2847 ec3e
00000010: 4224 46c1 1210 30be 8dcd adbf 0737 6840
00000020: cc8a f2c0 4ef3 2840 35f9 cf3e bcc5 ea3e
00000030: 3b3e ed3e 0431 3c3f 6f88 34bf 1bf5 0d3f
00000040: 7e23 b440 1f06 8ebe 8a63 0cc0 c43c 0cc0
00000050: a5e2 1cbe 8703 f53e bbf2 05c0 de30 03c1
00000060: d6d4 84c0
-0.10133389 0.80607235 -1.398232 0.46148038 -12.383852 -0.1719363 -1.3578354 3.6283586
-7.579443 2.6398501 0.40619817 0.45853984 0.4633654 0.7351229 -0.7052068 0.55452126
5.6293325 -0.27739045 -2.1935754 -2.1912088 -0.15320833 0.47854254 -2.09294 -8.19943
-4.150981

linear_sigmoid_stack.2.weight f4 [25, 25]
00000000: 57ef 193f dad9 a93f 031d b9be e646 933f
00000010: ead1 fd3f ed96 003e 68da d2be c202 b33f
00000020: 034e 7e3e ba22 9fbd 1de5 ac3f a549 2cbe
00000030: 07b8 973f 6097 963f 93c8 32be 8683 a43f
00000040: 25f2 ff3f 459c 2abe 1a69 f8be cb58 c6be
00000050: 1cdb 40bd 0118 c1be 5413 c8be 2518 d53f
00000060: 0f9e 22bf 4a6d cbbf 2732 25bc 52ec 613e
00000070: b465 2cbf ae2a 8ac0 2f09 8bbe 64c8 853d
00000080: 3a89 52bd 977f 9fbf 5ce0 f33d 2f03 1fbf
00000090: bbf0 e1bc 57d4 48bf 2c28 5cbe 6222 743e
000000a0: 5245 b73c b8ac 3ebf 63ca 593d 5f5f c13e
000000b0: 68c1 023f 8ccc a53e b359 603e e8ac 813e
000000c0: 7a15 acbf 30fc 8d3e 5cc3 713f fd9f 403f
000000d0: 52f7 903e 63c8 633f b6a6 85c0 f48d 49be
000000e0: 38be 9a3e 64ae fe3e 45bd 9bbf 8fa3 ffbc
000000f0: a4fb 543f b064 d7bd 8535 683f ad11 343f
00000100: 66a8 193e 1e61 553f d63d abbe 617e c53e
00000110: 53c5 b93e 0c74 b73e b09a 273c be60 4c3e
00000120: 565a ea3e ac5c c4bf 6ce2 193d 4392 603f
00000130: b194 9f3f 96b9 00bf d783 c23f 8515 0a40
00000140: 7983 413e 272f 3abe 97f2 24bf 36fe 73bc
00000150: 702e cf3c 0ff2 a83f 2260 ae3c 2af2 a33f
00000160: e47c 833f 3b71 f4be 55fd 843f 7ffc 0840
00000170: db31 1abd a342 f4be eacd 23bf c73c 8dbe
00000180: c2c7 c7bd 35fd d8be a222 dc3f 8c67 5abf
00000190: ea53 d93e abe4 b93f 928d e6be bd93 d53f
000001a0: 5932 0540 9ae2 513d ed42 ccbd bcb8 dc3f
000001b0: b55d 39bf 4026 f73a 15eb f43f 7d1c 083e
000001c0: aa4f f13f 85b9 ac3f e1d6 89be 8df7 9e3f
000001d0: 4d65 0240 f7aa 89be d33a 14bf 1b22 9bbe
000001e0: 2c8f 89be dfa5 bebd 81b7 01bf 3cec ea3f
000001f0: f0ac 5bbf aee4 6f3f fd5b 603f 74e0 f8be
00000200: 12b0 323f 2c13 3440 bf85 2d3e bd2f f4bd
00000210: e63e c9be 72ed 31be c4ed 37be b269 333f
00000220: e86b 53bd 2215 273f 8f15 3c3f 51c7 a7be
00000230: 8571 e13e df72 ea3f df54 66be 5b33 f8be
00000240: bde3 eebe 4e38 79be 3abe 3abe d868 0bbf
00000250: 8a74 da3f fcf7 69bf 83eb d8bf 8ee4 813e
00000260: da63 cc3e 1bc7 01bf 7537 71c0 dd04 abbd
00000270: 36cc 3f3e 7065 593e 7bc5 babf 1467 b23d
00000280: 73b0 0dbf f27e 9cbc e05d 20bf 40a0 d73e
00000290: 1622 d53e f971 5a3e 22fa 0abf e0b2 883e
000002a0: 7c89 d53e c179 fe3e fe44 a73d 4675 553e
000002b0: 9215 2a3e b795 ddbf 9e47 543e 2766 8a3f
000002c0: c6b3 d5bd 667d 2c3e e512 e83e 0ea8 4ec0
000002d0: 0fd2 c8be 0a88 6f3e 4a3c 283e 4cfe 7bbf
000002e0: cae6 a0be 6656 323f c1fa aabe eadb fb3e
000002f0: 0bf0 c5bd 56dd 9d3c ded5 803e d19d 6cbe
00000300: b754 0ebe 3370 613e 9e68 1f3e 5519 d6bd
00000310: de9d c2bd a5b4 513e 5c8d f1bf 9bbb a2bd
00000320: b2e8 0340 3354 27bf 3c39 58be 5bdf ee3f
00000330: ee80 9140 9b45 04bf 8a2d 2abe 34ce 753f
00000340: 6017 a73f 0aed c8bf cd00 d83f 5d19 e1be
00000350: 8914 ba3f 2386 ffbe 0a2a 1cbf 97e6 39bf
00000360: 73fd 91bf 9248 73bf 533d 053e 7cee 973e
00000370: d182 82bf 8e1a a6bf f53e 81bc 899a b83f
00000380: 68fc 4b3f f717 aebf 4931 59bf d2b5 1a3f
00000390: 6249 babf 6252 863f 07bc 263f dfbe 873f
000003a0: 45ea 9fbf 968c 6f3f ef06 7e40 335e c2bf
000003b0: 15b5 ff3e 5345 abbf 6a59 6ebf ab34 5f3f
000003c0: 6db4 5abf ca25 54bf 5d00 8f3f ea4a 643f
000003d0: d06d 753f 8072 b13f db5f 9d3f 6aff 333f
000003e0: 17fb 333d 2b23 5a3f e2f3 783f d48a f33e
000003f0: b21c 70be a389 293f 895e 1a40 337e db3e
0.6013083 1.3269608 -0.36154947 1.1506011 1.9829686 0.12557574 -0.41182256 1.3985217
0.24834447 -0.077702954 1.350742 -0.16824968 1.1853036 1.1764946 -0.17459325 1.2852638
1.9995772 -0.16661175 -0.48517686 -0.3873962 -0.04708396 -0.37713626 -0.39077246 1.6647993
-0.6352243 -1.5892727 -0.010082758 0.22062805 -0.67342687 -4.31771 -0.27155444 0.06532362
-0.0514004 -1.2460812 0.119080275 -0.6211423 -0.02758061 -0.78449005 -0.214997 0.23841241
0.022371922 -0.744823 0.053171527 0.37768075 0.51076365 0.3238262 0.21909218 0.2532723
-1.3444054 0.27731466 0.9443872 0.7524412 0.2831369 0.8897764 -4.1766005 -0.19683057
0.3022325 0.49742424 -1.2167135 -0.03120592 0.83196473 -0.105172515 0.90706664 0.7033947
0.15005645 0.83351314 -0.33445615 0.38572982 0.3628336 0.35830724 0.0102297515 0.19958779
0.45772046 -1.5340781 0.03756945 0.8772318 1.2467252 -0.5028318 1.5196484 2.1575634
0.18897809 -0.1818205 -0.6443266 -0.014892152 0.025290698 1.319887 0.021286074 1.2808278
1.0272489 -0.47742638 1.0389811 2.1404111 -0.037645202 -0.4770709 -0.63986075 -0.27585432
-0.09754898 -0.42380682 1.7198069 -0.8531425 0.42446834 1.4522909 -0.45029885 1.6685711
2.081198 0.051241495 -0.099737026 1.7243876 -0.7240861 0.0018856004 1.9134241 0.13292117
1.8852437 1.3494116 -0.26921752 1.2419297 2.037433 -0.26888248 -0.5790226 -0.30299458
-0.26867044 -0.09308981 -0.5067063 1.8353343 -0.85810757 0.9370831 0.8764036 -0.48608744
0.6979991 2.8136702 0.16945551 -0.11923168 -0.393058 -0.17375734 -0.17961794 0.70083153
-0.05161658 0.6526662 0.73470396 -0.32769254 0.4403192 1.8316306 -0.22493313 -0.4847668
-0.46658126 -0.24337885 -0.18236628 -0.54456854 1.7066815 -0.9139402 -1.6946872 0.25369686
0.3991993 -0.50694436 -3.7690098 -0.08350537 0.18730244 0.21230102 -1.4591516 0.08711067
-0.55347365 -0.019103501 -0.6264324 0.4211445 0.41627568 0.2133254 -0.5428792 0.2669897
0.41706455 0.49702266 0.08167456 0.20845518 0.16609791 -1.7311314 0.20730445 1.0812424
-0.1043468 0.1684471 0.45326915 -3.2290072 -0.39222762 0.23391739 0.16429248 -0.984349
-0.31426078 0.69663084 -0.33394435 0.4919122 -0.09664925 0.01927058 0.25163168 -0.23107077
-0.13899504 0.22015457 0.15567252 -0.104540505 -0.09502767 0.20479067 -1.8871264 -0.07945939
2.0610776 -0.6536285 -0.21115583 1.8661913 4.5469885 -0.5166871 -0.16618934 0.96017766
1.3054008 -1.5697339 1.6875244 -0.43964663 1.4537517 -0.49907026 -0.61001647 -0.7261748
-1.1405472 -0.9503261 0.13011675 0.29674137 -1.0196172 -1.2976854 -0.01577709 1.442216
0.79682016 -1.3601063 -0.8484083 0.60433686 -1.4553645 1.0493891 0.65130657 1.0605124
-1.2493368 0.9357389 3.9691732 -1.5184997 0.49942842 -1.3380531 -0.93105185 0.8718974
-0.8543156 -0.8287016 1.1171986 0.8917681 0.95870686 1.3863068 1.2294878 0.70311606
0.04394063 0.8520991 0.97247136 0.47566855 -0.23448446 0.6622564 2.41202 0.4286972

linear_sigmoid_stack.2.bias f4 [25]
00000000: 5b34 cd3d af70 5fbe 9b65 22be 263b 5f3e
00000010: fa5f 373d 76cd 2f3e 6323 98be 164d d9be
00000020: 5799 8cbe 3c67 c3be f91c 3e3e f80c a0be
00000030: b39a 3bbe be85 ffbd aafe 643e 229b b8be
00000040: 02ff d33d 9a94 76bc d031 4a3e 5ff8 d63d
00000050: ea1b 653e 1535 803e c07b aabe 5f2e a43e
00000060: 9c40 78be
0.10019752 -0.21820329 -0.15859072 0.21799907 0.044769265 0.17168221 -0.29714498 -0.42441624
-0.2746074 -0.381647 0.1856574 -0.31259894 -0.18320732 -0.12476681 0.22362772 -0.36055857
0.10351373 -0.015050078 0.19745564 0.10496592 0.2237393 0.25040498 -0.3329754 0.32066628
-0.24243397

linear_sigmoid_stack.4.weight f4 [25, 25]
00000000: c9ca d63e a41c 6bbf 74ea 72bf 17a7 0b3f
00000010: 8ba4 443e e291 a13e 2ce9 82bf 72e7 26bf
00000020: 37ff 5f3f 97d3 f0be b8d1 c53e c0ae 8bbf
00000030: abb3 7abf e16b 69bf eca3 1f3f 476e 2bbf
00000040: 265d 953e c751 ab3e 6615 5e3e 2d73 e73d
00000050: 7943 f23e 6541 0e3f d538 21bf cb88 0d3f
00000060: 9337 6abf 9a8d 2a3f fa9a 03c0 c222 1fc0
00000070: 18fa e53e 14b3 b8bf 919e 20bf 8bd6 2fc0
00000080: c91a cdbf 3a5c d93f 831f 4b40 3f8a 5140
00000090: 9264 0ec0 f0ef 25c0 0f86 fdbf 5f96 223f
000000a0: 1c9e 94bf 0090 88bf 921f 48c0 25fc 9fbf
000000b0: 0fbe 05c0 1bf5 32bf d693 0bc0 56b9 d3bf
000000c0: db30 e5bf 0329 cdbe df26 673d 1d60 afbe
000000d0: ce2c 7cbf 906d 8b3e 60aa ba3d d253 8f3e
000000e0: 3934 7dbf 755f 4ebf 7fda 98c0 5157 41bf
000000f0: e67e ff3e 5e7d afbe 735c 46bf 6c75 5abf
00000100: 1587 753e f3e4 96bf afb2 953e 0508 7f3e
00000110: 1ded 5a3e 1f6d a43d a000 02be 0489 973e
00000120: b957 efbf b9c6 7f3e 1b0f 21bf bf27 f33e
00000130: c325 72bf 8098 76bf 4f8b 013f 3271 5c3e
00000140: d900 dd3e 8957 aebf 1e6e dabe 30ee a63f
00000150: b657 20be 8863 0b3f 3f52 8abf 70ad 94bf
00000160: 10e1 7ebf d45b 103f ef09 39bf b6f2 0d3e
00000170: 9fab dd3e c937 753e 747a 8e3e 8e7a e83e
00000180: 5e23 dc3e ffbd 0ebf e7e7 d13e c085 36bf
00000190: 6f37 ebbe 4b34 2dbf 01e1 54bf d727 dabe
000001a0: e698 59bf f635 6bbf a34f b3bf 02e1 29bf
000001b0: 0718 1ec0 3080 da3b 0c84 653f 5745 66bf
000001c0: 773f 8fbf 8100 7abf c79b 73be 0f8d 3bbf
000001d0: 934d 17bf 606d 84bf cab0 43bf 2615 63bf
000001e0: 67ad b0bf 5203 00bf 3498 babe 26c3 d0be
000001f0: 293e 6fbe 608a 26bf af9f 493e 6db1 9e3e
00000200: f774 4bbf df15 20bf 1c4c 21bf e814 653f
00000210: c066 b83e 676a 8abf 3dc3 1b3e 38fa 45bf
00000220: 7866 5d3e df7d 053f 8abb 283f 7d0b 44bf
00000230: 431e 0d3f 17e5 53bf c493 1dbf 90f5 32bf
00000240: 8135 04bf 970b 5bbf b83b 59bf 94fb 5d3f
00000250: a75f 63bf 05e8 bf3e 4cd2 0a3f 8d6b abbe
00000260: 148f f7be c77d 2e3f 6bdc ef3e db04 e53e
00000270: d2f0 6dbf d076 98bb ea7b 9c3f 8753 bbbd
00000280: b2ed 203f a367 0dbf 5383 f0be 34be 17bf
00000290: 8c7e 333f f5db dfbe d521 983e 9d14 eb3e
000002a0: 5b3b 123f 2730 1f3f dbb6 d83e fe8c c43e
000002b0: d792 f9be f832 223f 8d57 cabe d232 31bf
000002c0: b2ce 993e 7a31 1f3f ebb3 6dbf 9bcb 39bf
000002d0: a0dc 04bf 139b 283f ed4a a83e d3aa 15bf
000002e0: 0ac4 933e c948 56bf c921 833e 9596 f93e
000002f0: 3a14 da3e 1fb9 59bf 54a5 eb3e f3b0 25bf
00000300: 9770 35bf 8750 13bf 9e85 40bf a116 1dbf
00000310: 0525 34bf 9fd1 653f 48d0 51bf d71f 5b3c
00000320: 8ee8 943e 05bc 33bf 932c 13bf becd 5c3e
00000330: 176b eb3e 964a 923e ccfc 89bf eb3a c4be
00000340: 351d 9b3f aed9 55be 146f c23e 6e1a 2bbf
00000350: 26d5 67bf 4acd e1be 10e1 0c3f ed91 f2be
00000360: 5e30 ed3e 3cc7 a73e 819d 033f 8112 8e3e
00000370: 2c10 913e a870 fc3e 10e7 02bf 42a7 b53e
00000380: 7be2 2abf 89c4 50bf 8e78 d6bd 655b 37bf
00000390: eeeb 90bf 4e37 f0bf cf6a a3bf 5114 59bf
000003a0: 16ef d8be fae2 95bf 49df c13f 17ec 9a3f
000003b0: ba71 893c 599e 23be 5a40 5ebe 7576 5fbf
000003c0: 1d84 28bf 4372 d5bf 5616 25c0 4799 debf
000003d0: 9723 01c0 9092 f6bf 1d8c 07c0 b5dd aabf
000003e0: 5c29 04c0 a3ea 253f 3beb 4fbf ca63 1b3e
000003f0: 42cd 1d3f a64f 49bf 53b0 67bf 3121 0bbf
0.41951588 -0.9184058 -0.94889 0.54551834 0.19203393 0.31556612 -1.0227408 -0.6519691
0.874988 -0.4703643 0.38636565 -1.0912704 -0.979304 -0.91180235 0.623595 -0.66965145
0.2917263 0.3346083 0.2168785 0.11301265 0.47317103 0.55568534 -0.62977344 0.55286855
-0.9149105 0.66622317 -2.056334 -2.4864964 0.4491737 -1.442965 -0.62741953 -2.7474697
-1.6023799 1.698127 3.1737983 3.2740629 -2.2248883 -2.5927696 -1.9806536 0.635107
-1.1610751 -1.0668945 -3.126927 -1.2498823 -2.0897253 -0.6990525 -2.1808982 -1.6540935
-1.7905535 -0.40070352 0.056433555 -0.34253016 -0.98505867 0.27232027 0.09114528 0.27993637
-0.9890781 -0.80614406 -4.776672 -0.7552386 0.49901503 -0.34275335 -0.77484816 -0.8533542
0.23977311 -1.178862 0.29237887 0.24905403 0.21379514 0.08028626 -0.12695551 0.29596722
-1.8698646 0.2497815 -0.62913674 0.4749126 -0.9458887 -0.96326447 0.50603193 0.21527556
0.4316471 -1.3620464 -0.42662138 1.3041439 -0.15658459 0.5444875 -1.080635 -1.1615429
-0.9956217 0.5639012 -0.7228078 0.13862118 0.43295 0.23947062 0.278278 0.45406002
0.42995733 -0.5575866 0.4099724 -0.71297836 -0.4594073 -0.6765792 -0.8315583 -0.4260852
-0.8499893 -0.9187921 -1.4008678 -0.6635896 -2.4702165 0.006668113 0.8965461 -0.89949554
-1.1191243 -0.9765702 -0.23789893 -0.73262113 -0.59102744 -1.0345879 -0.76441634 -0.88704145
-1.3802918 -0.50005066 -0.36444247 -0.40773886 -0.23363556 -0.65054893 0.1968982 0.3099474
-0.7947535 -0.6253337 -0.6300676 0.89485025 0.36015892 -1.0813721 0.15211196 -0.7733493
0.2162112 0.5214519 0.6591116 -0.7658003 0.551243 -0.8277144 -0.615536 -0.6990595
-0.5164414 -0.8556456 -0.8485675 0.86712 -0.8881783 0.37481704 0.5422714 -0.33480492
-0.48351347 0.6816067 0.46847853 0.44730267 -0.9294559 -0.0046528354 1.2225316 -0.09146791
0.62862694 -0.5523626 -0.46975192 -0.592746 0.7011497 -0.437225 0.29713312 0.45914164
0.5712182 0.6218285 0.42327008 0.38388819 -0.48744842 0.6335902 -0.3951992 -0.6921817
0.30040509 0.6218487 -0.9285266 -0.725763 -0.5189915 0.65861624 0.32869664 -0.5846378
0.28860503 -0.8370481 0.25611714 0.48747697 0.42593557 -0.850481 0.46024573 -0.6472313
-0.70874923 -0.5754475 -0.75203884 -0.61362654 -0.7036899 0.8977298 -0.81958437 0.01337429
0.29083675 -0.7020877 -0.5748989 0.2156286 0.4598014 0.2857253 -1.0780272 -0.383262
1.2118288 -0.2088382 0.3797537 -0.66837204 -0.90559614 -0.44101936 0.5503092 -0.47376958
0.46325964 0.3276919 0.51412207 0.27748492 0.2833265 0.493047 -0.51133823 0.3547917
-0.6675183 -0.8154989 -0.10472213 -0.7162383 -1.1322 -1.8766878 -1.276697 -0.84796625
-0.42369908 -1.1709893 1.5146266 1.2103299 0.016777862 -0.15978374 -0.21704236 -0.87290126
-0.6582659 -1.6675495 -2.5794883 -1.7390527 -2.0177972 -1.9263477 -2.1179268 -1.334891
-2.0650244 0.6481115 -0.8121831 0.15174785 0.61641324 -0.7863716 -0.90503424 -0.5434752

linear_sigmoid_stack.4.bias f4 [25]
00000000: 324b 383e 7a5f 3d40 9d8d e03c a390 a33d
00000010: 4ed9 df3e fe65 dbbe a514 b63e 94ea acbe
00000020: 1004 0b3e bfae 993f fd32 50bd 7dfe e6be
00000030: c14d 97be ef23 98be dc68 6cbe 639d 613e
00000040: c91c 67bd bd68 d7be 5ee2 1440 37e4 4c3e
00000050: 9294 1540 0564 a4be 5bdf 653d 5e30 e93c
00000060: ff70 cabe
0.17997435 2.9589524 0.027411276 0.07986572 0.43720478 -0.4285125 0.35562626 -0.3377272
0.13575768 1.2006453 -0.050829876 -0.45116034 -0.2955151 -0.29714915 -0.23086876 0.22032695
-0.056423936 -0.42072096 2.3263164 0.20008932 2.337193 -0.3210756 0.05612121 0.028465446
-0.39539334

linear_sigmoid_stack.6.weight f4 [25, 25]
00000000: 212e 91bf 3bcc dabf 027d 9fbf cfbd 8ebf
00000010: 8a9c 8abf cb97 6abf 0b24 5dbf 7910 30bf
00000020: e3e2 42bf cc23 e0bf a92e 5bbf 3407 2dbf
00000030: 78ec 0abf f297 9fbf 61ea 25bf 07dc 8dbf
00000040: ff69 80bf f51f 22bf 84d8 1ec0 a9ca 83bf
00000050: 6fef 04c0 d088 77bf e12d 30bf 2e8a 8abf
00000060: 56c5 59bf 77d8 8cbf 00b3 66bf c694 08bf
00000070: 7ebb 94bf 89e4 2bbf a3f7 cbbf 5cbb 96bf
00000080: e4cd debf 2547 94bf 5302 8bbf a24a cebf
00000090: 22cd 93bf 8545 b1bf e692 0cc0 4431 c9bf
000000a0: 4a25 82bf 1e31 9ebf 46d0 a4bf e8c1 21bf
000000b0: e73d 14bf 6ecc 61bf 04e8 13c0 2112 e5bf
000000c0: e33c a7bf 1957 edbf 13bb 96be 16d9 743f
000000d0: cc8e 75bf 1094 aebe c263 68bf 713f 9fbe
000000e0: aa84 23bf df81 543c 5e74 b9be 8bcf 08c0
000000f0: b79e 9fbe 17f1 6dbe 819b de3c 5b47 c1be
00000100: f35c 043d 979b aabe d52a 97be 034f e3be
00000110: 5339 783f ee79 78bf 0e4c 1b3f 2418 0e3e
00000120: 3456 ab3d 7491 c2be a595 df3d d156 cabe
00000130: 61ea 37c0 f879 a53f ba52 dabe 2ee6 78be
00000140: d035 7ebf 0776 90be 5b04 9ebf d3bb 8bbe
00000150: fb41 53c0 db2f a2bf 2772 b6bf 9b2a b4bf
00000160: 4b1e a5bf cf21 b8bf 7aa7 07bf ca90 b5be
00000170: 3297 82bf 9e44 8abf e71e 1e3f e97a dabf
00000180: 7696 b0bf 1c1d c0bf dca9 82be 0f09 a9bf
00000190: bda4 67bf 8bf1 a23f d5a8 34bf 083a 6fbf
000001a0: 2bd9 27bf cdb4 71be 77a1 debe 12b3 babc
000001b0: 8e88 0abf 7e79 aebf d9b3 923d e80a 67be
000001c0: b7d5 44be a6d5 91be 2399 803d 64b8 1dbf
000001d0: a75e abbe 4906 03be ac60 643f cff8 61bf
000001e0: b563 523e 62cc 49be 4773 fe3d 1463 2fbf
000001f0: c3c1 0f3e d0e7 8fbf a337 aebf 0dbd 74bf
00000200: 1db7 a2bf 6ad1 29bf 8d0b 97bf 5c1d 9abf
00000210: aaf5 7cbf ec5a 91bf 1f6b 88bf a922 8ebf
00000220: 3be6 6bbf d5dc 7abf 3bb8 b0bf 458a 97bf
00000230: 9d44 95bf a4b7 96bf 7a9d 75bf 03f7 cabf
00000240: e5c3 77bf b70f d1bf f763 8ebf bb17 94bf
00000250: f816 a8bf 7b15 81bf aad3 06bf 32a0 e9be
00000260: 4c55 84bf 7a1b 0fbf cc50 66bf 879f 81bd
00000270: 87e7 3bbf d7fd a0be 1fb3 1fbf 20ba 25c0
00000280: 1f3d 61bd 6243 afbe f1a2 6fbe 1f49 f1bd
00000290: dd82 8abe c51e 27bf bc54 f5be 9682 87be
000002a0: ec08 0b3e 7124 57bf 06ba 2d3e aa3f a4bd
000002b0: c3b4 1ebe 4ee2 2fbf ff57 7fbd 5e88 9abf
000002c0: f8c0 90bf c888 91bf 5fa2 99bf ab54 8ebf
000002d0: 933c 62bf cac1 93bf c221 68bf 8795 5abf
000002e0: 695f 77bf 4edc 7bbf aa22 60bf b76c 82bf
000002f0: 4fd8 c0bf a269 98bf 622d a2bf f9b9 71bf
00000300: 2fad 3bbf 3bb9 eabf bac2 87bf 8fa8 e1bf
00000310: fbcf 8bbf 92c4 9dbf 408f 9fbf 2fdd 8bbf
00000320: 069e b3bf 30b9 edbf df95 a0bf ee4a 94bf
00000330: 464f 72bf abb2 8cbf 7d71 9ebf 1fca 8ebf
00000340: 1845 58bf 60fb 6abf 7eeb 84bf 0473 6dbf
00000350: 677f 55bf 32d5 bebf b508 4ebf 1ad9 70bf
00000360: 9e28 95bf 4852 77bf 0db1 14c0 60a0 4bbf
00000370: 6ac4 09c0 9297 a2bf b9c1 93bf f136 5bbf
00000380: bc9e 91bf 122f 3ebf 085f c23f 5c43 4fbf
00000390: 1ddf 61bf 6dbf 5ebf 085b fabd 15e1 c3be
000003a0: c2a5 80bc 1b06 0fbf 9f5f cdbf 6552 74ba
000003b0: 5a8f 8dbe b9dd 273c 4c07 70be 276d de3d
000003c0: a05a 4ebf aae2 23bf 5698 babd 6dbd 733f
000003d0: ee8d 5cbf ea88 b83e a80d f5bd f12f 273e
000003e0: 385c 08bf b643 11bc 7881 3fbf 366b 3ec0
000003f0: 62ec 81bf eb25 00bf 16da d2bf 2427 643e
-1.1342202 -1.7093576 -1.2460024 -1.1151675 -1.0829022 -0.9163787 -0.8638312 -0.68775135
-0.7612745 -1.7510924 -0.8561807 -0.67589116 -0.5426707 -1.2468245 -0.6481076 -1.1082772
-1.0032347 -0.6333001 -2.481965 -1.0296222 -2.0771139 -0.96693134 -0.68820006 -1.0823419
-0.85066736 -1.100356 -0.9011688 -0.5335201 -1.1619718 -0.6714559 -1.5934948 -1.1775928
-1.7406583 -1.1584212 -1.0860084 -1.6116526 -1.1546977 -1.3849341 -2.196466 -1.571816
-1.016763 -1.2358739 -1.287606 -0.631865 -0.57906955 -0.8820256 -2.311036 -1.7896158
-1.3065456 -1.8542205 -0.294396 0.95643747 -0.95921016 -0.34097338 -0.9077722 -0.3110309
-0.63874304 0.012970417 -0.36221594 -2.1376674 -0.31175777 -0.232365 0.02717376 -0.37749752
0.032315206 -0.3332183 -0.29524866 -0.4439622 0.9696247 -0.9706105 0.60662925 0.13876396
0.08366051 -0.38001597 0.10917214 -0.3951936 -2.8736804 1.2927847 -0.4264124 -0.24306557
-0.9930086 -0.28215048 -1.2345079 -0.27291736 -3.3009021 -1.2670854 -1.4253587 -1.4075502
-1.289987 -1.4385318 -0.52989924 -0.35462028 -1.0202391 -1.080219 0.61765903 -1.7068759
-1.3795917 -1.5008883 -0.25520217 -1.320589 -0.90485746 1.2729963 -0.7057012 -0.93447924
-0.6556575 -0.23604126 -0.43482563 -0.022790466 -0.54114616 -1.3630826 0.071632095 -0.22562754
-0.1922215 -0.28483313 0.062792085 -0.6160948 -0.33470652 -0.12795366 0.8921001 -0.88270277
0.20545848 -0.19706872 0.12424331 -0.68510556 0.14038758 -1.1242619 -1.3610729 -0.9560097
-1.2712132 -0.66335166 -1.18004 -1.204021 -0.98812354 -1.1355872 -1.0657691 -1.1104327
-0.9214818 -0.9799321 -1.3806223 -1.1839072 -1.1661564 -1.1774793 -0.95943415 -1.5856632
-0.96783286 -1.6332921 -1.1124257 -1.1569742 -1.313201 -1.008468 -0.52666724 -0.45630032
-1.033853 -0.559013 -0.89967036 -0.063292556 -0.7340016 -0.31443664 -0.6238269 -2.5894852
-0.05498993 -0.34231097 -0.23402001 -0.11781525 -0.27052966 -0.65281326 -0.4791621 -0.26466817
0.13577622 -0.8403998 0.16965494 -0.080199555 -0.15498643 -0.6870469 -0.06233978 -1.2072866
-1.1308889 -1.1369867 -1.2002677 -1.1119589 -0.8837368 -1.1543515 -0.9067651 -0.8538441
-0.9662996 -0.98383033 -0.87552893 -1.0189427 -1.5066012 -1.1907237 -1.26701 -0.94424397
-0.7331113 -1.8337778 -1.0606301 -1.7629565 -1.0922846 -1.2325613 -1.2465591 -1.0926875
-1.40326 -1.857214 -1.2545737 -1.1585367 -0.9465221 -1.0992025 -1.2378384 -1.1155432
-0.8448043 -0.9178982 -1.0384367 -0.92753625 -0.83397526 -1.4908812 -0.80482036 -0.9408127
-1.165302 -0.96609926 -2.3233063 -0.7954159 -2.1526132 -1.2702506 -1.1543494 -0.8563071
-1.1376567 -0.74290574 1.5185251 -0.8096216 -0.8823107 -0.8701084 -0.12224394 -0.3825766
-0.01570404 -0.5586869 -1.6044806 -0.0009320139 -0.2764843 0.010245734 -0.23440284 0.10860663
-0.8060703 -0.64017737 -0.09111087 0.95210916 -0.8615407 0.36041957 -0.11965495 0.16326882
-0.53265715 -0.008866241 -0.7480693 -2.9752936 -1.0150263 -0.5005786 -1.6472805 0.22280556

linear_sigmoid_stack.6.bias f4 [25]
00000000: a539 6dbf a3a3 c2bf 0af8 f1be 7812 21bf
00000010: ae54 a9be 77e9 bfbf 88a4 b6be 5307 bbbf
00000020: dd98 97bf 8b2e 45be eeca 80be fb75 c1bd
00000030: 1074 92bf 2f82 3cbf 46d8 cfbf d998 a7bd
00000040: 859e 17bf c4b7 1cbf d7e2 9ebf 2d55 66be
00000050: d102 cfbe f350 6f3e 3c57 8ebe 2a78 a1bf
00000060: bbba 28be
-0.92666084 -1.5206188 -0.4725955 -0.62918806 -0.33072418 -1.4993123 -0.35672402 -1.461161
-1.1843525 -0.19256036 -0.25154823 -0.09446331 -1.144167 -0.73636144 -1.6237876 -0.0818345
-0.59226257 -0.61217904 -1.2412976 -0.2249343 -0.40431836 0.23370723 -0.2780093 -1.2614796
-0.16477482

linear_sigmoid_stack.8.weight f4 [1, 25]
00000000: 4606 453e f003 673d b4da 6d3e 77ea cdbd
00000010: 6260 903e a05f 983d dc14 ff3d bddf 383e
00000020: 5d65 693e e40a af3e 09fc 023f 28f8 863e
00000030: a891 593e b7a0 a43f 035a f0bb 220d ce3d
00000040: 8121 343e 9d60 c3bd f153 1f3e 18ea 603e
00000050: f94c 953e 7481 8e3e 1e76 85be 959d e33c
00000060: a8f3 9f3e
0.19240674 0.05640024 0.2322796 -0.10054486 0.28198534 0.07440114 0.124551505 0.180541
0.22792573 0.34187996 0.51165825 0.26361203 0.2124697 1.2861546 -0.007334949 0.10061099
0.17590906 -0.09539912 0.15559365 0.219643 0.29160288 0.2783314 -0.2606668 0.027785102
0.31240582
