Logistic Delay a1.4/Results including the additional condition/sol_w80.pt (torch_old, 10095 bytes, 9 tensors)

linear_sigmoid_stack.0.weight f4 [25, 1]
000000 55 7e 81 c1 98 19 ae bf 99 18 bb 3f 30 1d 45 c0
       -16.186686 -1.360156 1.4616882 -3.0799065
000010 73 83 33 3f ee 12 ec 40 e9 35 ae 3f f5 ef ae c0
       0.7012245 7.3773108 1.3610202 -5.4667916
000020 3c 63 38 3f a0 68 d7 42 96 52 3c c0 58 e9 ba bf
       0.7202642 107.704346 -2.9425406 -1.4602461
000030 79 9a 11 c0 3a 66 ae bf 1f 94 ec 3f 5c 54 a6 bf
       -2.2750533 -1.3624947 1.8482703 -1.2994494
000040 fe dd 88 bf 3f 84 15 41 bc 9e d8 3f 4f 58 db 3f
       -1.0692747 9.344787 1.6923442 1.7136325
000050 8a 28 e2 40 06 cf 28 41 5b ea d4 3f 8d 70 17 40
       7.0674486 10.550543 1.663402 2.3662446
000060 2a e2 3b 3f
       0.73391974

linear_sigmoid_stack.0.bias f4 [25]
000000 0d 1b 85 bf fd 0a 9b 3f 45 b5 ea bf 5a 02 5b 3f
       -1.039888 1.2112728 -1.8336569 0.85550463
000010 87 9a 43 c1 0e 60 04 3f 19 a6 e7 bf 9f 9a b3 40
       -12.225226 0.5170907 -1.8097564 5.6126246
000020 9b 83 03 c1 f1 58 71 40 81 87 55 3f 2a 3a 78 c0
       -8.21963 3.7710536 0.8340989 -3.87855
000030 a7 42 b5 3f 19 dd 90 3f 18 d8 fe bf 74 f1 77 3f
       1.4160966 1.1317474 -1.9909697 0.96852803
000040 ca ad c9 40 60 c8 8d bf e9 17 27 c0 91 e1 25 c0
       6.3024645 -1.1076775 -2.6108344 -2.5918925
000050 a2 db b5 be 30 b5 95 be 8e ab 20 c0 28 fd 0b c1
       -0.3551913 -0.29239798 -2.5104709 -8.749306
000060 f2 03 93 c0
       -4.5942316

linear_sigmoid_stack.2.weight f4 [25, 25]
000000 02 74 1e 3f 5f 5d 02 40 34 81 05 bf 7f d6 76 40
       0.61895764 2.036949 -0.52150273 3.8568418
000010 39 80 a0 40 ed 5e 61 3d 83 11 12 bf 6e f8 48 40
       5.015652 0.05502217 -0.5705797 3.140163
000020 aa 07 9d bb 31 df 15 be 7a 4e 83 40 aa 41 84 bd
       -0.0047921734 -0.14635922 4.1033297 -0.06457837
000030 ee 51 82 40 7a 02 f2 3f 9e 86 8d be 50 cc f9 3f
       4.072501 1.8907006 -0.27641767 1.9515476
000040 d2 1a 0b 40 20 f7 70 be c8 0a 31 bf 73 90 17 bf
       2.173512 -0.2353177 -0.69157076 -0.59204787
000050 93 a7 ed bd 60 40 e4 be 48 b0 17 bf 5c 48 22 40
       -0.11604228 -0.44580364 -0.5925336 2.5356665
000060 74 ae 8d bf 42 82 01 c0 37 ee 00 3e b3 68 8a 3e
       -1.1068864 -2.0235753 0.12590872 0.27033004
000070 65 ec a6 bf 98 7c 64 c1 b7 7e 4a be 25 af d1 3d
       -1.3040892 -14.280418 -0.197749 0.10238484
000080 61 48 fb 3e c1 b4 64 c0 d9 a8 3e 3e f4 f5 a0 bf
       0.49078658 -3.5735323 0.18619098 -1.2575059
000090 73 6a a1 3d d9 24 ae bf 80 30 b9 bd 14 37 9e 3e
       0.07881632 -1.3604995 -0.09042454 0.30901396
0000a0 bb ce 32 3e 34 58 68 bf 0c 83 07 3e b6 8c dd 3e
       0.17461674 -0.9075959 0.13233584 0.43271416
0000b0 48 92 11 3f 56 ef cb 3e 6d 44 96 3e b8 67 9c 3e
       0.5686383 0.39831036 0.2934908 0.3054788
0000c0 f2 85 04 c0 6a c9 ca 3e 34 95 b2 3f 91 37 ca 3f
       -2.0706754 0.39606792 1.3951783 1.5798208
0000d0 b6 0e cf 3e 44 d5 88 3f ac 44 51 c1 df 22 4d bd
       0.4044091 1.0690084 -13.079266 -0.050082084
0000e0 ff ec d3 3e 3e 98 67 3f 48 55 6b c0 88 86 eb 3d
       0.4139175 0.9046668 -3.6770802 0.11500269
0000f0 36 c7 7d 3f d9 fd 31 3e e9 43 8e 3f ba 11 c3 3f
       0.99132097 0.17381991 1.1114475 1.5239785
000100 ef fa 95 3e 6b 28 d8 3f 12 86 cd be 69 3f 08 3f
       0.2929301 1.6887335 -0.4014135 0.53221756
000110 6d 76 f9 3e 1d 24 f8 3e 28 38 20 3e e1 2a b1 3e
       0.48723164 0.48465052 0.15646422 0.34603027
000120 0e 74 14 3f 62 8d 00 c0 54 a9 d8 3d 36 85 7b 3f
       0.57989585 -2.0086293 0.10579172 0.9825014
000130 79 ff f6 3f 99 66 1d bf 69 a1 69 40 8e 2d a0 40
       1.9296714 -0.61484677 3.6504767 5.005561
000140 c0 a0 20 3e 2f 67 95 be 43 c9 a3 3f ac c7 d2 be
       0.15686321 -0.29180285 1.2795795 -0.41167963
000150 ed 30 ad bb 3f 42 5f 40 6c 6c ec 3d d1 82 62 40
       -0.0052853734 3.4884183 0.11544117 3.5392344
000160 f5 6f db 3f 90 6a 09 bf 51 86 d6 3f 3a 3a 19 40
       1.7143542 -0.53678226 1.675974 2.3941789
000170 48 b2 8b bd 98 26 22 bf b6 82 4b bf 2b ff 9c be
       -0.06821114 -0.6334014 -0.79496324 -0.30663428
000180 99 30 03 be 0d 7b 13 bf 9a 3a 32 40 bc b0 be bf
       -0.12811507 -0.57609636 2.7848268 -1.4897685
000190 f3 14 dd 3e f2 a6 f1 3f d2 43 0e bf 20 8d 95 40
       0.43180045 1.8879073 -0.55572236 4.673477
0001a0 e3 f2 8a 40 b9 fc c6 3b c6 4d 4c be 18 24 1c 40
       4.3421493 0.0060726074 -0.19951543 2.439703
0001b0 53 6a af bf f5 7e 28 bd 52 e9 9d 40 92 c4 51 3e
       -1.3704323 -0.0411367 4.9347315 0.20485142
0001c0 59 d1 9c 40 6e 12 e5 3f a1 39 ad be 90 ea d1 3f
       4.900555 1.7896249 -0.3383303 1.6399708
0001d0 6d 94 10 40 e9 b6 9f be 52 3c 39 bf 65 10 e5 be
       2.2590592 -0.31194237 -0.72357666 -0.4473907
0001e0 8a c2 9f be a7 62 0b be c9 97 25 bf 53 f7 61 40
       -0.3120311 -0.13611852 -0.6468473 3.5307205
0001f0 d2 b7 0c c0 d2 8a b7 3f 79 71 ab 3f 3b d4 14 bf
       -2.1987195 1.433924 1.3394004 -0.5813634
000200 f4 23 56 3f 48 2a 0b 41 f7 5a 10 3e f0 5c 52 be
       0.8364861 8.697823 0.140972 -0.20543265
000210 9f ca b2 bf 5f 83 51 bf 99 18 53 be 94 08 6e 3f
       -1.3968085 -0.8184108 -0.20614852 0.9298184
000220 f7 40 fe 3b e0 4b b1 3f 6a b7 99 3f f6 10 c2 be
       0.0077592093 1.385128 1.2009099 -0.37903565
000230 26 c0 5c 3f fd fe fa 3f c4 ff 80 be a4 23 20 bf
       0.86230695 1.9609066 -0.25195134 -0.62554383
000240 ad ab 1b bf 95 2c 8a be cf 83 56 be 58 fb 2d bf
       -0.6080883 -0.26987138 -0.20948718 -0.67961645
000250 c0 05 5e 40 f8 ea de bf 30 e8 31 c0 b1 17 a7 3e
       3.469101 -1.7415457 -2.7797966 0.32635263
000260 05 0f 12 3f 40 9a 8e bf e4 bd 05 c1 17 84 c9 3d
       0.5705417 -1.1140823 -8.35886 0.09839647
000270 dc e8 b2 3e b9 30 ca 3e a8 9f 70 c0 2c 06 83 3e
       0.34943283 0.39490297 -3.7597446 0.25590646
000280 fc 18 94 bf 01 18 32 3d ca 50 95 bf 07 e2 f3 3e
       -1.1570125 0.043479923 -1.166528 0.47633383
000290 31 78 1b 3f 04 02 97 3e 13 c2 21 bf ed 11 ea 3e
       0.6073027 0.29493725 -0.6318676 0.457168
0002a0 94 e0 17 3f a4 d4 2c 3f ea 3d 88 3e 38 de c3 3e
       0.59327054 0.67511964 0.26609737 0.38255477
0002b0 9d 19 ae 3e b4 a4 07 c0 07 64 bc 3e 6a 7f 8f 3f
       0.34003916 -2.1194277 0.36795065 1.1210759
0002c0 9f dc b5 be 51 50 6c 3e fd e1 c6 3d a1 6a c6 c0
       -0.35519883 0.23077513 0.097110726 -6.200516
0002d0 58 68 9d be 78 48 74 3e e9 98 c5 3d 3f d2 0c c0
       -0.3074367 0.2385577 0.09648306 -2.2003324
0002e0 59 c4 c8 be 44 0d ab 3e ec 62 a4 be 05 dd 5c bd
       -0.392123 0.33408558 -0.3210672 -0.05392172
0002f0 a3 39 bb be 26 77 4f 3e 4a f7 93 3c 35 14 9b 3d
       -0.3656741 0.20260295 0.018062253 0.075722136
000300 3b 3d 5a bd 8c ac 80 3e 8d 25 58 3e ab 43 da bc
       -0.05328105 0.25131643 0.21108074 -0.026643595
000310 6e 74 17 bd c5 fd 75 3e 09 73 74 c0 4b 15 b0 bf
       -0.03697627 0.24022587 -3.8195212 -1.3756498
000320 49 b8 19 40 69 03 16 bf 2a 7c 59 be ab 1e eb 3f
       2.4018729 -0.58598953 -0.21238771 1.8368734
000330 99 ea 13 41 91 5b fd be 99 a1 2b be 34 83 86 3f
       9.244775 -0.49483922 -0.16760863 1.050879
000340 94 e0 e7 3f 50 9b e6 bf eb f4 d2 3f 49 83 7d be
       1.8115411 -1.8016148 1.6480993 -0.24757113
000350 ff 78 b9 3f 56 ae df be 16 e8 1b bf d2 19 2d bf
       1.449005 -0.43687695 -0.6090101 -0.67617524
000360 5c ce ff bf 6d a4 6e bf 62 ca 01 3e 0e 3f 96 3e
       -1.9984851 -0.93219644 0.12674859 0.29344982
000370 07 04 80 bf 0b b2 a2 bf 30 60 9b bc cd d4 b5 3f
       -1.0001229 -1.2710584 -0.018966764 1.4205567
000380 5a 66 54 3f 27 28 59 c0 96 dd 4c bf 8c 9a 8a 3f
       0.82968676 -3.3930757 -0.80025613 1.0828414
000390 36 b2 dd bf a0 14 86 3f ea 78 c3 3f 07 d4 c1 3f
       -1.7320011 1.0475044 1.5271275 1.5142831
0003a0 dc 0b 93 bf 32 61 7f 3f 9b 90 9a 40 6a c8 e4 bf
       -1.1487994 0.99757683 4.830152 -1.7873662
0003b0 ad 5c 28 3f 4e 2d be bf d1 20 63 bf b4 44 cd 3f
       0.6576641 -1.4857576 -0.8872195 1.6036592
0003c0 ca 85 51 bf 57 3b 30 bf a4 2e 21 40 61 e9 bc 3f
       -0.8184477 -0.68840545 2.5184717 1.4758722
0003d0 bd f3 c5 3f 3a 14 1b 40 e1 d9 2e 40 f1 91 a2 3f
       1.5465008 2.4231095 2.7320483 1.2700788
0003e0 da 9c 09 3e 3e 45 8f 3f 4f 4d 6f bc 96 74 09 40
       0.1343874 1.1193006 -0.014605834 2.1477408
0003f0 4b 1a 83 be a6 d3 d9 3f 1f 78 81 40 dc 17 00 3f
       -0.25605997 1.7017715 4.045913 0.50036407

linear_sigmoid_stack.2.bias f4 [25]
000000 da 20 01 3d 78 38 1b be 10 1d 4a bc b5 ec 3f 3e
       0.03152547 -0.1515826 -0.012336031 0.1874264
000010 83 f9 e0 3a 31 68 14 3e e6 a7 00 be b9 e0 a7 be
       0.0017164204 0.14492871 -0.12564048 -0.32788637
000020 65 92 86 be 08 30 76 be 8f 01 84 3e 9b c5 5b be
       -0.26283565 -0.2404176 0.2578244 -0.21462099
000030 e1 6a 1a bd 56 d2 5e be 2a 9f 2a 3e e2 88 8c be
       -0.037699584 -0.21759924 0.16662279 -0.27448183
000040 6b aa 7c 3d 66 7d 16 be 0b 30 19 3e c4 2e 5c bc
       0.06168596 -0.14696273 0.14959733 -0.013438884
000050 04 ec 81 3e d4 04 2e 3e a3 de 88 be d8 3f 8d 3e
       0.25375378 0.1699403 -0.26732358 0.2758777
000060 b3 1a 9d be
       -0.30684432

linear_sigmoid_stack.4.weight f4 [25, 25]
000000 91 f1 1f 3f 78 51 ab bf bd 02 cd bf ff 4c 39 3f
       0.62477976 -1.3384237 -1.6016461 0.7238311
000010 9a b2 e1 3e bd 09 8e 3f 0f 20 c8 bf a9 5c 37 bf
       0.44081575 1.1096722 -1.5634784 -0.71625763
000020 e6 c1 9b 3f 95 74 5b bf 74 2f 45 3c d1 60 d7 bf
       1.2168548 -0.85724765 0.0120352395 -1.6826421
000030 13 62 c7 bf e2 d7 ae bf a3 e8 3e 3f 2c 84 9f bf
       -1.5576805 -1.3659632 0.74573725 -1.2462211
000040 01 7c 00 3f 47 c7 02 be 94 93 c4 3e dc 16 88 3d
       0.50189215 -0.12771331 0.38393843 0.06644985
000050 b7 92 6b 40 ac 16 23 3f a9 51 c7 bf 7f c9 7f 3f
       3.6808298 0.6370647 -1.5571796 0.99916834
000060 7d 06 c8 bf ad 94 63 bf 12 14 00 c0 8f 17 1c c0
       -1.562698 -0.88898736 -2.001225 -2.438938
000070 41 8c dd bf 6a 8a 9b c0 d2 ca 0f c0 6a 0a 23 c0
       -1.7308427 -4.8606462 -2.2467542 -2.5475106
000080 7d 08 8b c0 b9 d1 ca 40 2c 84 84 40 38 8d 8c 40
       -4.344786 6.338101 4.1411343 4.3922386
000090 81 4a 04 c0 a0 01 1d c0 bf 06 11 c0 5c ef 55 bf
       -2.0670474 -2.4532242 -2.2660367 -0.8356836
0000a0 49 bb ea bf 15 00 8c c0 61 ba c0 c0 aa 73 94 c0
       -1.8338405 -4.37501 -6.0227513 -4.639119
0000b0 35 c3 a3 c0 f7 d1 89 41 63 29 bf c0 13 0a 66 c0
       -5.117579 17.227522 -5.973802 -3.594365
0000c0 ca ae 81 c0 83 91 88 3f 87 05 87 bd f3 a0 fc be
       -4.0525866 1.0669407 -0.06592851 -0.49341545
0000d0 ad 1c a0 bf 79 84 b7 3e ba f3 e5 3e 21 54 12 3f
       -1.2508751 0.35843256 0.4491251 0.5715962
0000e0 38 f8 a8 bf f4 6b 91 bf ba 87 ff c0 2e 9b 95 bf
       -1.320075 -1.136107 -7.985318 -1.1687982
0000f0 84 f2 b5 3e 03 cd f1 be 75 0e 82 bf c3 25 9e bf
       0.35536587 -0.47226724 -1.0160662 -1.2355274
000100 21 83 8f 3e 73 62 11 c0 6c 6d 30 3f 3b 0c 87 3f
       0.2802973 -2.2716339 0.68916965 1.0550607
000110 47 b8 07 3f ff 9d 56 3f ca 30 1a bf 56 72 54 3f
       0.5301556 0.8383483 -0.60230696 0.8298696
000120 94 5c 80 c0 81 5a 2f 3f e1 dc 83 bf 80 1d 05 3f
       -4.011301 0.68497473 -1.0301782 0.5199814
000130 6c 73 d5 bf 6a ff be bf 0e 3d de 3e 0c 30 ed 3d
       -1.6675849 -1.4921696 0.43405956 0.1158143
000140 82 73 13 3f 89 cd e0 bf cd 36 f7 be 35 21 75 40
       0.57598126 -1.7562724 -0.48283997 3.8301518
000150 02 52 32 3e 1f 3f 7b 3f 0b 55 f9 bf 78 dc e6 bf
       0.17414096 0.9814319 -1.9479078 -1.8036032
000160 cd 3b cd bf 1f f0 11 3f 73 eb 82 bf 26 1b 91 3d
       -1.6033875 0.5700702 -1.0228103 0.07085256
000170 ff cb 49 3e 1d 67 bf 3d 5e 33 ff 3d 14 6f a2 3f
       0.19706725 0.09345839 0.124609694 1.2690148
000180 4d 24 68 3e 1d fd b2 bf 47 ce bc 3e 54 29 2c 3e
       0.22670098 -1.3983494 0.36876127 0.1681264
000190 db f6 78 bf 00 a3 c4 bf 23 b5 a9 bf 75 75 99 bf
       -0.9725167 -1.5362244 -1.3258404 -1.198897
0001a0 d7 51 12 c0 5e b0 d5 bf 7a d6 b7 bf e9 e6 5e bf
       -2.286245 -1.6694448 -1.4362328 -0.8707109
0001b0 3e bb 6f c0 19 94 6e 3e f8 44 8f 3f 3a 54 26 c0
       -3.7458034 0.23298682 1.1192923 -2.5988908
0001c0 ec 33 e9 bf 34 e2 ac bf 61 16 37 bf 6b 94 05 bf
       -1.821897 -1.3506532 -0.7151852 -0.5217959
0001d0 cc 98 f0 bf ea 0c d4 bf 6c 39 09 c0 be 00 db bf
       -1.879663 -1.6566441 -2.1441298 -1.7109601
0001e0 df 48 7e c0 4e 82 e1 bf ee 4d 9a be 0d 3b 99 bf
       -3.9731977 -1.7617891 -0.3013758 -1.1971146
0001f0 eb 0f fa 3e 21 cf 94 bf 01 a1 4a be 40 d6 3b 3d
       0.4884027 -1.1625711 -0.1978798 0.04585862
000200 af 6d 93 bf 8f c0 6e bf 11 ed 6e bf 0d b8 3b 3f
       -1.1517848 -0.9326257 -0.93330485 0.73327714
000210 6b 1e 5e be 38 ab 69 c0 8f 00 6c be 74 7d 96 bf
       -0.21691291 -3.6510754 -0.23047088 -1.1757035
000220 b7 03 70 be 32 08 89 3e c5 fa 02 3f c2 64 9a bf
       -0.23438917 0.26764065 0.51163894 -1.2061999
000230 98 d2 36 3e be a9 9b bf b2 f7 5a bf 63 eb 74 bf
       0.17853773 -1.2161176 -0.85534203 -0.9567167
000240 0e 89 94 bf 06 68 fc bf 1b 55 74 bf 61 13 c4 3f
       -1.1604326 -1.9719245 -0.9544236 1.5318414
000250 bd eb a6 bf b9 bd 17 be f8 94 53 3f 39 81 01 be
       -1.3040692 -0.14818467 0.82649183 -0.12646951
000260 a3 ef a0 be 89 09 72 3f 3d f3 50 3f 2e cb 4c 3f
       -0.31432828 0.945458 0.8162115 0.7999753
000270 fa a3 49 bf 4f 22 a2 3e a6 29 37 3f 6a f9 f2 bd
       -0.78765833 0.316668 0.71547925 -0.11863978
000280 85 13 0f 3f d7 5e ed be b0 c2 b2 be 07 a7 c4 be
       0.5588916 -0.4636142 -0.3491416 -0.38408682
000290 a0 03 70 3f 4e aa 5b be 34 af 33 3f d6 a0 7c 3f
       0.9375553 -0.21451685 0.70189214 0.98682916
0002a0 58 5e 60 3f 4f d9 a0 3f 48 ed 02 40 65 93 33 3f
       0.8764396 1.2566317 2.0457325 0.7014678
0002b0 0f b9 79 bf 04 fb 85 3f b3 2e 6f be f3 3f 7a bf
       -0.97548 1.0467229 -0.23357658 -0.9775383
0002c0 f7 b2 b2 3e 2b b5 3a 3f 10 ce a7 bf a7 77 9b bf
       0.34902164 0.7293269 -1.310976 -1.214589
0002d0 3c 45 7f bf 1b 82 8b 3f 2d 10 59 3f 43 4f 88 c0
       -0.9971502 1.089908 0.8479031 -4.2596755
0002e0 9a 85 e4 3e 18 1a 25 bf e1 6e a8 3e f2 1b 55 3f
       0.4463318 -0.6449294 0.32897094 0.83245766
0002f0 8c 5e 26 3e 4a e3 9a bf 1f 51 1c 3f 79 58 88 bf
       0.16247004 -1.2100613 0.6106128 -1.0652
000300 0d de 80 bf 1b 93 88 bf fd 96 65 bf 41 f7 9a bf
       -1.0067765 -1.0669893 -0.89683515 -1.2106706
000310 f2 39 a8 bf ad 47 97 3e 6c c4 9c bf d0 88 2f 3f
       -1.3142684 0.29546872 -1.2247443 0.68568134
000320 1c 7a b9 3e 82 71 49 bf 3c 85 26 bf 90 cb be 3e
       0.36225975 -0.78688824 -0.6504705 0.3726468
000330 45 8a 48 3f 27 6e 37 3f 1b 1d 99 bf 6a 45 60 bf
       0.7833598 0.71652454 -1.1962007 -0.8760592
000340 12 e3 6b 3f 82 81 03 bf 47 37 64 3d fd 98 58 bf
       0.92143357 -0.5136949 0.05571678 -0.8460844
000350 eb ae 84 bf 89 6c 08 bf b4 f0 28 3f b0 9f 69 bf
       -1.0365881 -0.5329061 0.65992284 -0.9125929
000360 fc 13 4f 3f ee 6b 66 3f 1d 8e 4b 3f 2c 16 48 3f
       0.8088987 0.9000844 0.7951372 0.7815883
000370 35 93 cf 3f f6 73 67 3f fc d6 9b bf 12 80 2e 3f
       1.6216799 0.9041132 -1.2174983 0.6816417
000380 b7 ff 9b bf c1 65 b1 bf 75 19 8b 3e c4 f5 c0 be
       -1.2187413 -1.3859178 0.2716786 -0.37687504
000390 5f 18 e5 bf dd 01 24 c0 80 5f da bf 67 0c 0c bf
       -1.7898062 -2.5626137 -1.7060394 -0.54706424
0003a0 02 d6 f1 be 97 81 d9 3f 04 45 ac 3f 70 6d 64 3f
       -0.47233588 1.6992673 1.3458562 0.8922949
0003b0 2e 0d 41 3e 9e 0f 9e 3d 1b d0 cf 3e 1d e6 c9 bf
       0.18852684 0.077178225 0.4058846 -1.577335
0003c0 ea 09 e4 bd 4d cc 11 c0 18 60 3f c0 92 71 1d c0
       -0.111347035 -2.2780945 -2.99024 -2.4600568
0003d0 37 2e 20 c0 7c 84 e0 bf 9c 87 38 c0 7d aa f1 bf
       -2.5028207 -1.7540431 -2.883277 -1.8880154
0003e0 36 e7 24 c0 9d 9b 74 3f 16 dc 98 bf 57 19 c8 3e
       -2.576612 0.9554995 -1.1942165 0.39081833
0003f0 2f 34 79 3f e9 b5 91 bf 4c 5c a7 bf 19 4c 6a bf
       0.9734525 -1.138364 -1.3075042 -0.91522366

linear_sigmoid_stack.4.bias f4 [25]
000000 e4 5b 2e be 44 64 78 40 69 d9 fb bd 5b 08 f4 3e
       -0.17027241 3.8811197 -0.12297327 0.47662625
000010 d1 e8 29 3f f5 c8 4f bf 8d 2f a8 3e d7 a8 38 be
       0.66370875 -0.8116601 0.32848778 -0.18033157
000020 9e 56 28 be 3c 14 84 3f 09 52 79 3e be d3 1f bf
       -0.16439292 1.0318675 0.243477 -0.6243247
000030 49 75 d0 be 96 b7 99 be d1 fe b6 be 36 22 07 bf
       -0.4071448 -0.30022877 -0.35741284 -0.52786577
000040 d8 72 d7 be 3b ec da 3e 09 74 43 40 a9 40 2c 3f
       -0.42079806 0.42758355 3.0539572 0.67286164
000050 3b 42 3d 40 f4 86 03 bf 43 2e 61 3e 2f ab 81 be
       2.9571674 -0.513778 0.21990304 -0.25325915
000060 7d 17 45 bf
       -0.76988965

linear_sigmoid_stack.6.weight f4 [25, 25]
000000 80 ba b4 bf b6 90 86 bf 4d 8a da bf a0 72 bf bf
       -1.4119415 -1.0512912 -1.7073456 -1.4956856
000010 40 e4 77 bf 4a 8a c1 bf 7a fa 15 c0 06 02 b0 bf
       -0.96832657 -1.5120327 -2.3434129 -1.3750618
000020 8c b0 f2 bf c5 58 ca bf 14 8f c7 bf 88 1f 92 bf
       -1.8960128 -1.580834 -1.5590539 -1.1415873
000030 92 ce 82 bf 64 19 31 c0 02 49 aa bf f4 fa c2 bf
       -1.021929 -2.7671747 -1.330353 -1.5232835
000040 49 3b ef bf 90 30 8f bf de e0 08 c0 22 c7 35 bf
       -1.8689967 -1.1186695 -2.1387248 -0.7100698
000050 a6 a5 09 c0 f9 78 ef bf 96 0c ef bf 83 04 1c c0
       -2.1507354 -1.8708793 -1.8675716 -2.4377754
000060 3a 55 c2 bf 5d 0b e8 bf 0a c6 d7 be c8 a4 3c c0
       -1.5182259 -1.8128468 -0.4214328 -2.9475574
000070 55 d0 1a c0 c0 28 07 bf 19 20 0a c0 41 94 a5 bf
       -2.4189656 -0.52796555 -2.158209 -1.2935869
000080 e7 80 fe bf 4a c9 0b c0 04 30 e1 be 86 07 1f c0
       -1.9883088 -2.1841607 -0.43981946 -2.4848342
000090 b5 cc 1a c0 a3 5a fa bf e9 e1 17 c0 dd 43 21 c0
       -2.4187443 -1.955891 -2.3731635 -2.519767
0000a0 af 06 da bf 54 f4 13 c0 ee 2a 2b c0 45 aa a0 be
       -1.703329 -2.3117876 -2.6744952 -0.31379905
0000b0 4c bd 81 be 7b 01 44 bf 6c ca 3e c0 b0 65 24 c0
       -0.25339735 -0.7656476 -2.9811049 -2.5687065
0000c0 4c 3d 07 c0 80 14 2f c0 14 38 21 c0 4e 72 a5 3e
       -2.1131163 -2.7356262 -2.5190477 0.3231377
0000d0 48 28 9b bf 8e d8 ed bf 0e 81 39 c0 81 c9 38 bf
       -1.2121668 -1.8581712 -2.8985019 -0.7218247
0000e0 99 64 ec bf c2 56 20 bf bb c1 cf bf df f9 09 c0
       -1.84682 -0.6263238 -1.6230997 -2.155876
0000f0 df 48 89 bf 2f 2d 63 bf aa f2 c7 be 1a 5d bb bf
       -1.0725363 -0.8874082 -0.39052325 -1.4637787
000100 54 2b 25 bf 0c 6e cb bf 1a 92 b7 bf 5c 16 8a bf
       -0.6451924 -1.5892959 -1.4341462 -1.0788074
000110 2c e3 1f 3f d7 1b 33 c0 63 67 9a 3e 90 a8 0e bf
       0.6245601 -2.7985742 0.30157003 -0.55725956
000120 fa 22 1e bf 7b b7 ce bf 86 86 02 bf fb 49 ad bf
       -0.6177212 -1.6149744 -0.50986516 -1.3538202
000130 1c 66 9e c0 f0 4b 88 40 3a 3a 33 bf da 70 6e bf
       -4.9499645 4.2592697 -0.7001072 -0.9314095
000140 dd 43 11 c0 5a cf 11 bf 18 20 21 c0 5a 65 4a bf
       -2.269767 -0.5695702 -2.5175838 -0.790609
000150 3f 86 f0 c0 23 07 32 c0 90 d1 53 c0 ae 28 71 c0
       -7.5163875 -2.7816856 -3.3096657 -3.768108
000160 84 b3 d7 bf e4 ce 1c c0 57 6f 74 bf 0e d7 bf bf
       -1.6851659 -2.4501276 -0.9548239 -1.4987504
000170 ec 76 84 c0 2d e5 1f c0 86 bc bf be 86 15 10 c0
       -4.139517 -2.4983628 -0.3744852 -2.2513137
000180 04 a0 f2 bf 7b 39 2d c0 41 d4 13 bf 25 66 0e c0
       -1.8955083 -2.7066333 -0.5774575 -2.2249844
000190 2a 4e 6d c0 8b 92 bb 3f 10 76 3d bf 39 99 27 c0
       -3.7078958 1.4654096 -0.74008274 -2.618727
0001a0 52 db 81 c0 29 b5 4c be 4f ae 41 bf d0 ab cc bd
       -4.0580225 -0.19990982 -0.756566 -0.09993708
0001b0 09 b1 86 bf 11 39 9e bf 6b 96 4c bd 42 5d 99 be
       -1.0522777 -1.2361165 -0.049948137 -0.29953963
0001c0 92 95 00 be bb bc 0c bf 1e 7e bb bd 03 3f 02 c0
       -0.12557057 -0.5497548 -0.09154914 -2.035096
0001d0 b4 4d 81 bf c9 a1 84 be f8 0e a9 3f 05 b0 84 c0
       -1.0101838 -0.25904682 1.3207693 -4.1464868
0001e0 7b 42 07 3f f9 02 9c be 43 fc a7 bd 30 25 8b bf
       0.52835816 -0.30471018 -0.08202412 -1.0870724
0001f0 c7 94 b2 bd 90 ec e8 bf 52 6d d1 bf 8d 42 23 c0
       -0.08719783 -1.8197193 -1.6361487 -2.550937
000200 dd d6 11 c0 25 79 2e bf 19 54 d8 bf fd 9b ce bf
       -2.2787392 -0.681536 -1.6900665 -1.6141354
000210 d7 7b fa bf 65 78 0d c0 80 63 ee bf 3d 6a 2d c0
       -1.9569043 -2.2104733 -1.8624115 -2.7096093
000220 48 95 ef bf cc b7 eb bf cb 6b c3 bf 5f 5c eb bf
       -1.8717432 -1.8415465 -1.5267271 -1.8387564
000230 55 35 ef bf f8 67 14 c0 48 b6 19 c0 fa d4 01 c0
       -1.8688151 -2.3188457 -2.4017506 -2.028624
000240 1f e4 8b bf d5 5e e8 bf 5d 41 c9 bf 74 84 01 c0
       -1.0928992 -1.815394 -1.5723072 -2.0237093
000250 fb c3 0b c0 a0 82 b1 bf bc 58 90 bf 8b 18 41 bf
       -2.1838367 -1.3867989 -1.127708 -0.75428075
000260 39 10 df bf 4b e6 aa bf 96 10 b6 bf 7d de 2d bf
       -1.7426826 -1.335153 -1.4223812 -0.67917615
000270 4b 08 23 c0 02 ea b7 bf 08 6d 0b c0 66 eb 5f c0
       -2.5473812 -1.4368289 -2.1785297 -3.4987426
000280 5d 40 9a bf bd ca 84 bf 99 e0 48 bf 36 18 f1 bf
       -1.2050892 -1.0374371 -0.7846771 -1.8835514
000290 97 ec 88 bf 8d 27 b9 bf 48 e6 c3 bf 34 1a 86 bf
       -1.0697201 -1.4465195 -1.5304651 -1.0476747
0002a0 32 bd 15 3e 9e bd 39 bf 93 7c 0c be f1 b1 9e bf
       0.14622954 -0.7255496 -0.13719396 -1.2398053
0002b0 4e 30 9d bf ce 30 1e c0 92 ba 44 bf 43 b9 b6 bf
       -1.2280366 -2.4717288 -0.76847184 -1.4275287
0002c0 9b 57 39 bf ba 3a bf bf e8 5c c0 bf 50 c2 84 bf
       -0.723993 -1.4939797 -1.5028353 -1.03718
0002d0 fe ae b5 bf 40 3e 18 c0 fd d8 b8 bf 28 e7 e2 bf
       -1.4194028 -2.3787994 -1.444122 -1.7726793
0002e0 e3 5d 3b bf f5 7b c9 bf d9 8e a6 bf c7 cb b4 bf
       -0.73190135 -1.5740954 -1.3012344 -1.4124688
0002f0 0b 2f 31 c0 2e 1d ea bf e9 7a c9 bf cc 1c d4 bf
       -2.7684963 -1.8290155 -1.5740634 -1.6571288
000300 4f 00 91 bf 3b b4 dc bf 5f 48 58 bf 7e ee e6 bf
       -1.1328219 -1.7242502 -0.8448543 -1.8041532
000310 7e 10 f6 bf 93 89 11 c0 39 eb 17 c0 b2 38 e0 bf
       -1.9223783 -2.2740219 -2.3737319 -1.7517302
000320 86 af e1 bf e0 98 7a bf 60 f0 14 c0 a0 9e ec bf
       -1.763169 -0.9788952 -2.3271713 -1.8485909
000330 c6 f0 49 bf e6 cf e2 bf d5 a5 fe bf f2 b0 e8 bf
       -0.78883016 -1.7719696 -1.9894358 -1.8179
000340 2b 12 e7 bf a5 1f 99 be 93 45 fc bf 3b c1 cd bf
       -1.805242 -0.29906955 -1.9708732 -1.6074594
000350 5c 99 ae bf 36 b6 21 c0 3a 20 d1 bf db 5e b1 bf
       -1.3640552 -2.5267463 -1.633796 -1.3857073
000360 ec 8a 05 c0 ad 70 d3 bf c7 67 01 c0 9d 65 b6 be
       -2.086604 -1.6518761 -2.021959 -0.356244
000370 ca bd 10 c0 66 04 0d c0 c1 4e 1a c0 09 63 ea bf
       -2.2615838 -2.2033935 -2.4110568 -1.8311473
000380 3d 38 fb bf f8 28 67 c0 ef db ec 3f 90 e4 f3 be
       -1.9626538 -3.6118755 1.8504618 -0.47635317
000390 4d 7e c7 bf 82 36 27 c0 83 a1 85 3c b1 03 05 bf
       -1.5585419 -2.612702 0.016312366 -0.5195876
0003a0 40 b9 62 3c fb 8a 7d bf dd 39 a6 bf 66 59 6b 3c
       0.013838112 -0.9904019 -1.2986408 0.014364576
0003b0 db 3f c2 be 18 20 e7 3d 3e 01 b6 be ad 47 9a bb
       -0.37939343 0.11285418 -0.35547823 -0.0047082515
0003c0 70 85 fc bf 84 6c a9 bf d1 2c d7 bc e1 87 ba 3f
       -1.9728222 -1.3236241 -0.026266487 1.4572717
0003d0 97 72 1a c0 5a e8 31 3f 18 87 31 be 09 d9 ab 3d
       -2.413244 0.69495165 -0.1733669 0.083910055
0003e0 2c 12 52 bf a7 42 4c be fc b6 54 bf e4 e7 ba c0
       -0.8205898 -0.19947301 -0.8309171 -5.840807
0003f0 dd 34 02 bf 68 3e 42 bf 21 bc c8 bf de 3b 6a 3e
       -0.5086191 -0.75876474 -1.5682412 0.228744

linear_sigmoid_stack.6.bias f4 [25]
000000 79 91 1d c0 fd 7d dc bf fa 92 d4 bf e3 85 6a bf
       -2.462004 -1.7225949 -1.6607354 -0.91610545
000010 82 b8 33 bf a3 b3 ec bf 1a 50 0a c0 79 1c 32 c0
       -0.7020341 -1.8492321 -2.161139 -2.7829878
000020 ee 6d 01 c0 7c 17 ce be 71 0b f7 bd b9 6f f5 be
       -2.0223346 -0.40252292 -0.12062729 -0.479368
000030 57 40 18 c0 78 4d 68 bf 35 b1 b3 bf c2 1e 0c bf
       -2.378927 -0.9074321 -1.4038454 -0.5473443
000040 58 68 01 c0 61 5d 6e bf 0b b6 25 c0 56 be 89 bf
       -2.0219936 -0.93111235 -2.589236 -1.0761211
000050 24 ab 55 bf 24 6e 0d 3d 45 ab 3c bf 6b 55 a7 bf
       -0.83464265 0.034528866 -0.73698837 -1.3072942
000060 40 82 ea be
       -0.45802498

linear_sigmoid_stack.8.weight f4 [1, 25]
000000 d4 ca 9f be 5f f6 e9 be 29 ee 99 bb 8d 51 d0 be
       -0.31209433 -0.4569578 -0.0046975804 -0.40687218
000010 49 f5 d1 3e 8f 67 03 bf 80 e5 c7 bd d7 c9 a8 be
       0.4100745 -0.5132989 -0.097605705 -0.32966492
000020 48 09 90 be 46 10 e9 3e 51 ee 3a 3f e7 47 33 3e
       -0.2813208 0.45520228 0.7301989 0.17507897
000030 bd a1 b8 be 87 fa a1 3f fa c2 41 bf e5 c8 77 3f
       -0.36060897 1.265458 -0.75688136 0.96790916
000040 33 d1 6c bc f8 4d b4 be a2 df b1 be 7c fc d2 3c
       -0.014454174 -0.35215735 -0.3474093 0.02575516
000050 66 6f 9e 3e ff d0 97 3e e5 4d 6b be 1a 09 24 bf
       0.30944365 0.2965164 -0.22978933 -0.6407639
000060 08 02 b1 3e
       0.34571862
