Logistic Delay a1.4/Results including the additional condition/sol_w28.pt (torch_old, 10095 bytes, 9 tensors)

linear_sigmoid_stack.0.weight f4 [25, 1]
00000000: ded6 35c1 57d4 97bf 64e6 a13f d9dc 8ac0
00000010: 48d3 8e3f 1582 2240 3c8c 973f 0487 bfc0
00000020: 7f23 693f 5782 2e42 0b0e 89c0 0aa3 ac3f
00000030: df24 84c0 6022 97bf 83cb 7140 7357 91bf
00000040: 982c 65bf 1037 af40 759b bd3f a143 be3f
00000050: 8e11 9240 9dd2 dd40 7873 b93f c741 0740
00000060: c6a5 323f
-11.364958 -1.1861676 1.2648435 -4.339459 1.1158228 2.5391896 1.1839671 -5.9852314
0.9106979 43.627285 -4.282964 1.3487256 -4.129501 -1.1807365 3.7780464 -1.1354812
-0.8952117 5.4754715 1.4813067 1.4864389 4.564643 6.9319596 1.4488363 2.1133897
0.697842

linear_sigmoid_stack.0.bias f4 [25]
00000000: 8170 b3be 9105 3f3f 6664 a9bf 0a25 dd3e
00000010: c5c5 31c1 01c5 6ebe 7f4b a6bf 659a 7a40
00000020: 20ab eac0 6fa3 2740 a680 c73e b20c d93e
00000030: 8e46 db3e e675 2a3f 9340 1ebf e494 003f
00000040: 5a34 b240 4ed0 2ebe cc19 08c0 6e9b 07c0
00000050: 2d69 dcbd 9607 d53e 3b0e 01c0 1d37 02c1
00000060: fc09 82c0
-0.3504677 0.7461787 -1.3233764 0.4319232 -11.110784 -0.23317339 -1.299179 3.9156735
-7.3333893 2.6193502 0.38965338 0.42392498 0.42827266 0.6658615 -0.6181728 0.5022719
5.5688906 -0.1707165 -2.1265745 -2.1188617 -0.10762248 0.4160735 -2.0164936 -8.138455
-4.063719

linear_sigmoid_stack.2.weight f4 [25, 25]
00000000: 5769 163f f416 9b3f 9a25 b3be a7b0 083f
00000010: ea46 2e3f f6ab 043e 3f6c cdbe c9e0 0940
00000020: 584d 76bd 6b56 99bd 56d2 323f d0bb 25be
00000030: 6be3 be3e e2af 873f c65f 2fbe 02df 963f
00000040: 1b25 ff3f 2bb8 27be 45d6 efbe 7ec5 bdbe
00000050: 4206 35bd 8fa5 bfbe 8ce4 bfbe 9c0f ba3f
00000060: 6c68 29bf 0228 d9bf a6f4 953d 46c2 403e
00000070: f763 32bf daa0 07c0 6843 98be 980c 0c3d
00000080: fe5e 2dbe bb73 7cbf b4bc c03d 3bf8 24bf
00000090: 6de5 63bd 016e 4fbf c963 06be af8a 5a3e
000000a0: c54f c63d ea01 3fbf 8b82 e63c 1864 ae3e
000000b0: 547f f23e f501 993e 0cdd 463e 932d 5e3e
000000c0: 5e53 a0bf 6165 8e3e 0a3f 133f cb77 413f
000000d0: efc4 893e d405 bc3e b8c2 13c0 07c1 56be
000000e0: 3332 943e 95a2 713d d7d8 52bf e49f 33bd
000000f0: 1f49 9e3e 2b70 f4bd e0a4 cc3e 6dce 343f
00000100: 1f1f 0d3e 34e7 533f d844 b6be 650e bf3e
00000110: 2a57 b13e 6bfa ae3e e16f 15bb ca77 3f3e
00000120: 2728 e23e 1490 b7bf cf08 cc3d 772c 4f3f
00000130: 504b 943f 21e6 f5be a58c a73f b5f7 483f
00000140: 8c8b 513e 29e2 23be 676f e2be cdb2 30be
00000150: 800c 243d dc42 8c3f 4a50 203d 5119 803f
00000160: db3e 703f 11b2 ecbe bf88 753f 8a80 0840
00000170: 7d63 bbbc f840 e6be 67ce 1cbf 1ca7 85be
00000180: f38a a9bd 6157 cbbe 1385 c23f 6eba 52bf
00000190: 5b69 d23e 0f75 ab3f bfed ecbe d4ce 053f
000001a0: 5b51 8d3e 9d77 033d 61f5 e8bd f254 2740
000001b0: bdfe 00bf a066 99bc 1861 3c3f af1f ee3d
000001c0: 39e5 053f af1f 9e3f 9f08 94be e08a 913f
000001d0: ea33 ff3f dc38 94be 5d14 16bf 08d0 9ebe
000001e0: 3710 94be 37df e8bd dbc7 03bf 2951 b93f
000001f0: dd16 5bbf d0e4 5a3f ba29 353f c6c6 f6be
00000200: 5aea 303f 49fe d03e 4798 223e be80 eebd
00000210: b85b 47be fd5f 8ebe be2c 44be 6f9a 303f
00000220: 8680 6ebd d1e9 213f 6fbc 103f 90c8 adbe
00000230: 35c8 903e 3155 e73f 1a82 72be 7561 f1be
00000240: f814 e8be 8eb8 82be baec 46be ba57 08bf
00000250: 34c4 ad3f 5bb2 67bf 8dc8 c9bf 0179 903e
00000260: 1991 c53e b093 0bbf 1adf 16c0 90bd c2bd
00000270: 6c56 333e f13a 923d 18cd 94bf 81c3 9b3d
00000280: 37c1 17bf dcc5 02bd 95bd 2bbf 5556 e63e
00000290: 5983 cf3e 8143 703e c352 0bbf 62fa 823e
000002a0: b46a cd3e 7d50 f63e 3b7e 903d 2d2b 4a3e
000002b0: 6d52 1a3e 2a2d d2bf f25a 7a3e 4abd 2b3f
000002c0: 262e 293e d22a 073e 6f7e 083e bc5f dcbf
000002d0: 0f35 cbbe 9e19 4a3e b168 5bbc e2f7 1fbf
000002e0: 6fcd 9fbe eb52 c13e 31fc b1be f5fd 403e
000002f0: 0af5 313e 2cfd 903c 7a02 033f df9b 82be
00000300: 8343 0ebe f7a1 2b3e 7cba d33d 08d8 d7bd
00000310: df35 bfbd cc2a 1e3e 54b0 dbbf f41c a13a
00000320: b067 2b40 8e5b 0abf 3321 08bf c105 0540
00000330: a60d b53e 01e5 34bf 1418 f2be 1565 883f
00000340: 9616 c0be 5bc9 fbbf 496d f33f a36e 04bf
00000350: 0b8a d43f 13e2 c4be 8074 68bf 9722 1cbf
00000360: 066d 90bf c3ea 9dbf a1b1 f9be 8d5a a3be
00000370: fb7d a0bf 48d2 c0bf cc53 14bf 0ce7 033f
00000380: c209 24bf 8f8e dbbf 5635 5abf 7477 2f3f
00000390: 5d0e c4bf 0945 863f 7053 3e3f 4eaa 913f
000003a0: 9ff9 9dbf 01a4 703f ee7b 7a40 f348 ccbf
000003b0: ec28 0b3f 4f7d b4bf 9aac 6fbf 9de4 833f
000003c0: dd80 5cbf 580e 4fbf 58a7 a63f 8a6f 7d3f
000003d0: e24f 873f 2411 c53f 34fb b13f 9997 4c3f
000003e0: 9b87 913d 1414 683f 6ed1 a23f 39dc 8e3e
000003f0: 6bbd 7abe cd4e 293f 1275 be3f 233c d13e
0.58754486 1.211638 -0.34989625 0.5339455 0.68076956 0.12956223 -0.40121648 2.1543448
-0.060132354 -0.07487186 0.698522 -0.16184926 0.3728288 1.060055 -0.17126378 1.1786807
1.9933199 -0.16378848 -0.46843162 -0.37064737 -0.04419542 -0.37431 -0.37479055 1.4536014
-0.6617496 -1.6965334 0.073220536 0.1882411 -0.69683784 -2.1191926 -0.29738927 0.034191698
-0.16930768 -0.9861409 0.09410992 -0.6444127 -0.05563872 -0.8102723 -0.13124003 0.21341966
0.096831836 -0.74612296 0.02813842 0.3406074 0.4736277 0.29884306 0.1942026 0.21697073
-1.2525442 0.2781172 0.57518065 0.75573415 0.2690806 0.36723197 -2.3087597 -0.20972072
0.2894455 0.05899294 -0.8236212 -0.043853655 0.30915162 -0.11935457 0.3996954 0.7062748
0.13781403 0.8277466 -0.355994 0.3731567 0.34636813 0.3417543 -0.002280228 0.1869804
0.4417126 -1.4340844 0.099626176 0.8092722 1.1585484 -0.48027137 1.3089796 0.7850297
0.20463389 -0.16004242 -0.44225618 -0.17255707 0.040050983 1.0957904 0.03913907 1.0007726
0.9384591 -0.46229604 0.9591178 2.1328454 -0.022874588 -0.44971442 -0.61252445 -0.26104057
-0.082784556 -0.39715102 1.5196861 -0.8231572 0.41096005 1.3395098 -0.46275136 0.5226872
0.27601132 0.032096494 -0.11374927 2.6145597 -0.503887 -0.018725693 0.73585653 0.11627137
0.5230289 1.2353419 -0.28912827 1.1370506 1.9937718 -0.2894963 -0.5862482 -0.3101809
-0.2891862 -0.113707 -0.5147683 1.4477893 -0.8558176 0.8550539 0.70766795 -0.48198527
0.6910759 0.40819004 0.15878402 -0.116456494 -0.19468582 -0.27807608 -0.19157693 0.68985647
-0.05822804 0.632474 0.56537527 -0.3394208 0.28277746 1.8072873 -0.23682442 -0.47144666
-0.45328498 -0.2553143 -0.19426242 -0.5325886 1.3575501 -0.90506524 -1.5764328 0.2821732
0.38587263 -0.5452223 -2.357367 -0.095088124 0.17513436 0.071401484 -1.162509 0.07605649
-0.592792 -0.031926975 -0.67086154 0.4498774 0.40529898 0.2346325 -0.5442316 0.25581652
0.4012047 0.48108283 0.070553266 0.19743033 0.15070505 -1.6420033 0.24448755 0.6708571
0.1652151 0.13199928 0.1332948 -1.7216716 -0.39688918 0.19736335 -0.01339166 -0.62487614
-0.3121142 0.37758574 -0.3476272 0.18846877 0.17378631 0.017698847 0.51175654 -0.25509545
-0.13892941 0.16761003 0.103383034 -0.105392516 -0.09336447 0.15446013 -1.7163186 0.0012291954
2.6782036 -0.5404595 -0.5317566 2.0784762 0.35361975 -0.7066193 -0.47283995 1.0655848
-0.37517232 -1.9670824 1.9017726 -0.5173132 1.6604627 -0.3845373 -0.90802765 -0.6099028
-1.1283271 -1.2337269 -0.48768333 -0.31905022 -1.2538446 -1.5064173 -0.57940364 0.51524425
-0.6407739 -1.715288 -0.85237634 0.68541646 -1.5316883 1.0489818 0.74346066 1.1380098
-1.2341803 0.9400025 3.913814 -1.5959762 0.54359317 -1.4100741 -0.93622744 1.0304142
-0.8613413 -0.8088126 1.3019819 0.9899832 1.0571253 1.5395856 1.3904786 0.7991882
0.07105943 0.90655637 1.2720163 0.27902392 -0.2448632 0.66135865 1.4879477 0.40866193

linear_sigmoid_stack.2.bias f4 [25]
00000000: 880b d33d 9917 79be aff9 2fbe e85d 6e3e
00000010: 37de c43c b98d 233e d5ea 9dbe 9695 dbbe
00000020: 4286 81be 3c1a b9be 6548 293e 6559 b0be
00000030: 9ce9 56be 44b2 05be 91fe 693e 12d8 c1be
00000040: bc84 b03d 0bc0 9abc c6fb 3a3e c311 a03d
00000050: b0b8 583e 4a49 763e dce3 cbbe a85b 9c3e
00000060: 4b43 94be
0.10304934 -0.24325408 -0.1718509 0.2327801 0.024031742 0.15972032 -0.30843225 -0.42887563
-0.25297743 -0.36152828 0.16531523 -0.34443203 -0.20987552 -0.13056284 0.22851016 -0.3786016
0.08619067 -0.018890401 0.18260106 0.07815888 0.21164203 0.24051395 -0.3982228 0.30538678
-0.2895759

linear_sigmoid_stack.4.weight f4 [25, 25]
00000000: cd48 bb3e 5555 47bf dfec 53bf 15d7 fb3e
00000010: d272 1a3e 58f5 8d3e 6e74 64bf 73ae 1abf
00000020: c64e 793f 895d 09bf 4d94 923e 0bb8 61bf
00000030: af3c 51bf d527 49bf ed2c 0d3f c2af 1ebf
00000040: 085b 773e 6443 953e c6fc 333e 8a59 853d
00000050: fdb1 ef3e c572 023f cc45 09bf 7947 013f
00000060: 006e 36bf c59d e43d 561a f7bf fc95 0dc0
00000070: 91bf fa3d d0cf 41bf 1399 c1be 3c2d 1ac0
00000080: f6e4 8ebf 8485 7abe 39c0 fd3f a133 dd3f
00000090: f173 1fc0 d031 2ac0 2963 dcbf a614 e1bc
000000a0: 99db 3bbf 5ad1 f0be 68c5 f1bf 7bc2 25bf
000000b0: 6578 85bf 4049 04bf adfa abbf afd6 4bbf
000000c0: a956 81bf 7313 99bf 6c68 7a3d 094e 7bbe
000000d0: 10dc 5dbf 7452 873e 71dd f93c b454 8a3e
000000e0: 5ef6 60bf 8044 21bf 340c 81c0 7d47 54bf
000000f0: cf96 cf3e 2b98 5cbe f213 28bf 2917 3fbf
00000100: 11af 603e 509d 80bf 8750 623e 04fa 063e
00000110: d9eb 1a3e dc45 44bc 95fd 4a3d effb 4d3e
00000120: a72d cabf 2115 303e 19af 02bf 8066 e23e
00000130: b98c 49bf a969 53bf 377a f13e 63ae 3a3e
00000140: 76a9 cc3e 587a 9bbf e164 bdbe ac16 9a3f
00000150: fa87 06be a2b1 0b3f 891d 59bf fc3c 7abf
00000160: b0d3 59bf 011a 053f 5502 2abf b4c4 c83d
00000170: ab66 cc3e cdcc 553e a29c 743e 30e7 d43e
00000180: 6df2 c93e b7dc e5be e9a3 bd3e 91d8 eabe
00000190: 3db2 99bc 2365 10bf f129 37bf f32d 6c3b
000001a0: e4c9 d0be eeec 8bbe c6dd a4bf 73fc 11bf
000001b0: c6df 9abf 7744 383d 631f 723f 07ab 31bf
000001c0: 581d 79bf 94fa 62bf 9c73 093e deeb 22bf
000001d0: 4c37 1abe cd18 3bbf 8eb9 b2be a578 0fbf
000001e0: 54a5 a13b 6f85 25be 822f 36be 2c11 adbc
000001f0: 36d4 67be 41ec 12bf 732d 6e3e c79e ac3e
00000200: 6604 3bbf e3a3 0cbf 3232 11bf 6a68 693f
00000210: b82f bb3e d639 88bf ed96 5d3e 78b8 32bf
00000220: 92f6 923e 3836 113f d44b 2a3f 0d60 31bf
00000230: 3dc0 173f 6c13 40bf 97bc 11bf 6d19 21bf
00000240: f51c ddbe a5e9 4cbf 4125 4bbf d501 473f
00000250: 9de7 4dbf b5dd f13e 01d3 023f 17fc b8be
00000260: 2605 02bf e24a 253f 4d10 d53e 2e64 cd3e
00000270: 1e8b 72bf c691 183d d19c 933f 4daa ebbd
00000280: f971 1a3f c497 10bf efae f9be fbc4 1bbf
00000290: ff2e 2a3f 2ddd cbbe ab39 783e 7d6d c63e
000002a0: 445e 043f e064 103f 8c1c be3e 3f96 a33e
000002b0: 1717 a5be 67c0 123f fa9c dabe 9a1a 1cbf
000002c0: e1c3 b83e 0665 2e3f 8d29 59bf e063 21bf
000002d0: bcdd dbbe 2acc 343f 1bce cc3e 69bd 13bf
000002e0: 6c61 aa3e 6c55 48bf 25c5 b13e c401 0f3f
000002f0: d18b f33e 627c 45bf 4ef4 0a3f 816f 0dbf
00000300: 065e 1abf c446 f6be 41b1 26bf b5bf 07bf
00000310: 5a94 1bbf 673a 763f 8241 38bf 4fe7 cb3d
00000320: e7bd 943e 3a90 27bf abbe 09bf 6e83 593e
00000330: 55d3 dd3e c70e 893e 1a22 84bf 0a92 b1be
00000340: 22f6 a73f cc01 39be dd4f cd3e 279f 14bf
00000350: 1922 58bf a1e8 cbbe 8c38 0c3f fe6b e1be
00000360: ecae dd3e 0987 913e 3d87 f93e 1ea4 7b3e
00000370: 0a27 953e 532c e93e 246e e0be 9b07 a63e
00000380: 2b4b 15bf 6396 12bf c7e0 72be f235 54bf
00000390: 53b1 5ebf ac6b cbbf 570b 63bf f540 72bf
000003a0: 3d07 04bf 68cf 83bd 15b1 a53f 3f01 7f3f
000003b0: 652a e4bd e483 99be df59 aebe 529c 2ebf
000003c0: 7444 42bf 5879 b2bf ed00 17c0 c00a bcbf
000003d0: 7ffb e3bf 843d 80bf 0164 f0bf a4bc a7bf
000003e0: 3c84 e6bf 84df a53e f695 34bf 2764 3b3e
000003f0: 84cb 273f 7c4d 2fbf 219d 48bf da90 dfbe
0.3657898 -0.7786458 -0.8278331 0.49187532 0.15082863 0.27726245 -0.8924016 -0.6042244
0.97385824 -0.5365835 0.2862877 -0.8817145 -0.8173322 -0.78576404 0.55146676 -0.61986935
0.2415582 0.29152977 0.17576894 0.06511219 0.46815482 0.50956374 -0.53622127 0.50499684
-0.71261597 0.11162905 -1.9304912 -2.2122793 0.1224357 -0.7570772 -0.378121 -2.409011
-1.1163623 -0.24464995 1.9824287 1.7281381 -2.4914515 -2.6592903 -1.7217761 -0.027475666
-0.73381954 -0.47034723 -1.8888369 -0.6474988 -1.0427366 -0.5167427 -1.3435875 -0.79624456
-1.0104572 -1.195906 0.06113474 -0.24541487 -0.86663914 0.26430094 0.0305011 0.27017748
-0.87875926 -0.6299515 -4.0327396 -0.8292158 0.40544745 -0.21542422 -0.65655434 -0.74644715
0.21941783 -1.0048008 0.22101031 0.13181311 0.15129031 -0.011979546 0.04955824 0.20115636
-1.5795182 0.1719556 -0.5104843 0.44218826 -0.7873035 -0.825831 0.47163555 0.18230586
0.39973038 -1.2146711 -0.36991027 1.2038169 -0.13137808 0.5456792 -0.8481069 -0.97749305
-0.85088634 0.51992804 -0.6640981 0.09803143 0.3992208 0.20878907 0.23887876 0.41582632
0.3944277 -0.44894955 0.37039116 -0.45868352 -0.018761748 -0.5640432 -0.7154837 0.003603813
-0.4077903 -0.273292 -1.288018 -0.5702583 -1.209954 0.04498717 0.9457914 -0.6940159
-0.973104 -0.886636 0.13423008 -0.63641155 -0.15060157 -0.7308472 -0.34907192 -0.56043464
0.0049330387 -0.16164182 -0.1779156 -0.021126352 -0.22639546 -0.57391745 0.23259525 0.33714887
-0.73053586 -0.5493757 -0.56717217 0.9117495 0.36559844 -1.064265 0.21639605 -0.69812727
0.28703743 0.56723356 0.66521955 -0.69287187 0.5927771 -0.75029635 -0.5692839 -0.6292942
-0.43186155 -0.80044013 -0.7935372 0.7773717 -0.8043154 0.47239462 0.51103216 -0.3612983
-0.50789106 0.6456739 0.41614 0.40115494 -0.94743526 0.037248395 1.1532232 -0.11507092
0.6033016 -0.56481576 -0.48766276 -0.60847443 0.6647796 -0.3981718 0.24240749 0.38755408
0.5170634 0.56403923 0.37131155 0.31950566 -0.3224418 0.5732483 -0.4269789 -0.6097809
0.36086944 0.681229 -0.84829026 -0.6304302 -0.42942607 0.7062403 0.40000996 -0.5771089
0.33277452 -0.78255343 0.34720722 0.5586207 0.4756761 -0.7714292 0.5427903 -0.55248266
-0.6029972 -0.48100865 -0.6511422 -0.53026897 -0.6077324 0.96182865 -0.71974957 0.09956228
0.29051134 -0.6545445 -0.5380656 0.21241543 0.43325296 0.26769087 -1.0322907 -0.3468173
1.3121989 -0.18067092 0.40099993 -0.5805535 -0.8442703 -0.3982592 0.54773784 -0.44027704
0.43297517 0.28423336 0.4873599 0.24574324 0.29131347 0.4554163 -0.4383403 0.32427678
-0.5831782 -0.5726072 -0.23718558 -0.82894814 -0.86989325 -1.5892234 -0.8868918 -0.94630367
-0.51573545 -0.06436044 1.2944666 0.99611276 -0.111408986 -0.29983437 -0.3405294 -0.68207276
-0.758857 -1.3943281 -2.3594315 -1.4690781 -1.7811126 -1.0018773 -1.8780519 -1.3104444
-1.8009105 0.3239709 -0.7054132 0.18299924 0.65544915 -0.68477607 -0.7836476 -0.436652

linear_sigmoid_stack.4.bias f4 [25]
00000000: 9cbd e93d e256 e23f 2eaa 1cbd 3941 d53d
00000010: 5f41 f23e 5660 babe f607 aa3e b05d 96be
00000020: 9c84 273e ec00 7b3f b11a d3bc cc93 bbbe
00000030: 3d3b 81be b213 b5be e501 38be 8be1 363e
00000040: 8038 c7bc 9bfc b9be fe3a 8e3f 172c 423d
00000050: 5744 9e3f a163 88be 5a2c 833d 31a1 463d
00000060: da98 b0be
0.11413118 1.7682765 -0.038248233 0.10412831 0.473155 -0.36401623 0.332092 -0.29368353
0.1635918 0.9804828 -0.025769563 -0.36636198 -0.25240508 -0.3536659 -0.17969473 0.17859475
-0.024318933 -0.36325535 1.1111753 0.04740533 1.2364606 -0.2663851 0.06404944 0.048493568
-0.34491616

linear_sigmoid_stack.6.weight f4 [25, 25]
00000000: 5795 90bf 56bc 07c0 372b a6bf ee9c 8dbf
00000010: 4856 a8bf 9286 52bf 4009 3dbf 835c 19bf
00000020: 651e 40bf fa43 e1bf 8aa0 4dbf f27f 2dbf
00000030: 978e 02bf 40ad 72bf 72d9 13bf d816 8ebf
00000040: b254 78bf c357 25bf ed21 ddbf 1eb0 98bf
00000050: b8f2 00c0 e7e3 3fbf 70a6 0cbf 0272 81bf
00000060: 3e22 35bf 095c 5cbf 9577 71bf 91a8 a7be
00000070: 0446 69bf 38b9 2dbf 8f1d a6bf f0fb 65bf
00000080: 173f b7bf 0d22 73bf c945 8cbf 4457 aabf
00000090: be74 71bf c4d8 92bf 8a10 d0bf ddd0 a4bf
000000a0: a623 49bf 5838 7cbf 56de 8bbf 65b7 0ebf
000000b0: 712d 0abf 9278 5ebf 9f7e e7bf 7b16 b1bf
000000c0: 7180 87bf b79c c1bf fb46 acbe fd98 1e3e
000000d0: 1dfa 46bf edd5 b2be 44dc 16bf da1f 82be
000000e0: 1b47 27bf 4fa1 2e3d e06d d2be 9ff3 a1bf
000000f0: c42c 8dbe c91b 36be 3d71 af3d eb8e a9be
00000100: 5fd7 c83d 3d71 d4be af74 b2be 4a1d c2be
00000110: 4298 2e3e 86aa 07bf 2511 243e a48d 223e
00000120: fad9 cc3d 2084 cfbe e2de 363e 741e 49be
00000130: bd64 b8bf 763b 093f 8d5d 8bbe ae3c ccbd
00000140: c2a8 5abf e9c2 1cbe 565d 8cbf f414 0abe
00000150: b104 dabf d14e 8dbf dd2d 9abf c462 9bbf
00000160: 3cb2 97bf a381 a3bf f487 bdbe 83e1 46be
00000170: 9e9e 47bf eaab a7bf 2079 333e abe0 7abf
00000180: 887d a3bf 49bd afbf 82f8 06be 148b 99bf
00000190: 95f0 16bf d663 023f fd8b dabe 16be 25bf
000001a0: f13a 99be 0429 5cbe cc7e d3be 012c c7bc
000001b0: de15 e0be 01e7 85bf cc1f 923d bc42 39be
000001c0: 6257 32be c327 92be 3606 c13d 4cb1 d3be
000001d0: e702 5ebe eee4 e7bd 2f97 a23e 0ef7 b1be
000001e0: 42c8 2c3e 0d52 65be f7a8 9d3d aec9 1ebf
000001f0: 65d8 3f3e d64f 8cbf e3af d7bf c767 78bf
00000200: 13ee 9ebf 54bc 4ebf 63a5 81bf b3a9 84bf
00000210: 2ec9 53bf 6b8b 8cbf 1f6a 98bf a4f2 7bbf
00000220: a9c0 58bf eae9 5ebf 71ee 7cbf 9427 84bf
00000230: d1bb 92bf a4db 8ebf a55a 64bf b81d a7bf
00000240: 7d5a 86bf ca56 d0bf 3c2b 51bf 0ccb 6ebf
00000250: 04b8 9abf 4a00 4abf 0ba3 febe 7184 efbe
00000260: 2d8f 80bf bb42 07bf 342a 6cbf 7bff 923b
00000270: b965 27bf df55 8abe 398a 14bf 060c d7bf
00000280: 4606 f3bb 236e 96be 7cb5 1cbe 834b b0bc
00000290: 162b 50be 84fd 1bbf a0a0 dfbe 246f 3dbe
000002a0: 8cff 13bf 91a9 64bf cc90 6dbe 2f97 12bc
000002b0: fb75 9ebd 63ec 1fbf 6f64 ad3c f887 9bbf
000002c0: 662f ccbf 3a35 97bf 69c2 99bf cf29 a7bf
000002d0: 81fc 38bf 8608 84bf 6199 40bf a03a 5dbf
000002e0: e60a 91bf 9e6f 5dbf 3467 50bf 7bb2 6bbf
000002f0: 1919 90bf fb16 86bf 9e38 a5bf 6790 6cbf
00000300: 887a 2ebf 4ea3 aebf f289 97bf 8705 dfbf
00000310: 9402 4dbf 90af 81bf de4a 98bf f50b 60bf
00000320: 1e5b b4bf 38ff 18c0 ae48 a3bf 67d6 93bf
00000330: 5263 93bf 0555 6ebf 76f0 91bf 1b3d 74bf
00000340: f297 5fbf b3fb 9ebf f7b1 69bf 5aa9 5dbf
00000350: f470 3bbf 278b 8dbf 11ad 27bf 6171 78bf
00000360: 914a 94bf 0f32 6abf f351 bcbf 3a2a 68bf
00000370: ae9c 04c0 3175 78bf e1a0 6cbf 28c5 52bf
00000380: 6b20 69bf 150c dabe 7404 1a3f b5e5 07bf
00000390: 7e9e 19bf 9e27 04bf 11ae 0fbe 4afd c4be
000003a0: d803 67bd 621d f3be ea38 a6bf 9506 2cbd
000003b0: 770f 8dbe c033 83bc b2c8 88be cc21 c73d
000003c0: af33 1dbf add6 09bf 3338 00be 1da9 623e
000003d0: bb7c 95be 3baf 5b3e c042 37be d697 933d
000003e0: a8bc f9be 7f83 153a 054d 55bf fcca a6bf
000003f0: df37 96bf 350b 15bf 48aa cdbf ed6e 283e
-1.1295575 -2.12087 -1.2981938 -1.1063516 -1.3151331 -0.8223659 -0.7384224 -0.59906787
-0.7504638 -1.759887 -0.8032309 -0.67773354 -0.50998825 -0.9479561 -0.5775367 -1.1100721
-0.97004235 -0.6458704 -1.7275978 -1.1928747 -2.0148144 -0.74957126 -0.54941463 -1.0112917
-0.70755374 -0.86077935 -0.9432309 -0.32745793 -0.9112246 -0.67860746 -1.297777 -0.8983755
-1.4316128 -0.9497383 -1.0958797 -1.3307881 -0.9431876 -1.1472402 -1.6255047 -1.287624
-0.7857002 -0.98523474 -1.0927227 -0.5574859 -0.5397559 -0.86902726 -1.8085517 -1.3834985
-1.0586072 -1.512595 -0.33647904 0.15488048 -0.7772539 -0.34928837 -0.5892985 -0.25414926
-0.65342873 0.042634305 -0.41099453 -1.2652472 -0.27573216 -0.17784037 0.0856652 -0.3311685
0.09806704 -0.41492644 -0.34854648 -0.3791297 0.17050269 -0.52994573 0.16022165 0.15874344
0.10002513 -0.4053049 0.1785846 -0.19640523 -1.4405743 0.53606355 -0.2721981 -0.09972511
-0.85413754 -0.15308727 -1.0965984 -0.13484555 -1.7032682 -1.1039678 -1.2045246 -1.2139516
-1.1851268 -1.2773937 -0.37017787 -0.19421963 -0.77976406 -1.3099339 0.17526674 -0.97999066
-1.2772684 -1.372964 -0.13180736 -1.1995568 -0.5896085 0.5093359 -0.42684928 -0.64743173
-0.2992778 -0.21500021 -0.41307676 -0.024312975 -0.43766683 -1.0461122 0.07134971 -0.18091863
-0.17416146 -0.2854596 0.09425013 -0.41346204 -0.21680795 -0.11322962 0.3175597 -0.347588
0.16873267 -0.22394581 0.07698243 -0.6202649 0.18734892 -1.0961864 -1.6850551 -0.9703335
-1.2416404 -0.80756116 -1.0128597 -1.0364288 -0.8272885 -1.0980047 -1.1907386 -0.98417115
-0.84668976 -0.87075675 -0.9880133 -1.0324578 -1.1463567 -1.1160779 -0.8920081 -1.3055944
-1.0496365 -1.6276486 -0.81706595 -0.93278575 -1.2087407 -0.7890669 -0.49733767 -0.46780732
-1.0043694 -0.528362 -0.92251897 0.004486022 -0.6538959 -0.2701864 -0.5802341 -1.6800544
-0.0074165193 -0.29380903 -0.15303606 -0.021520382 -0.20328936 -0.6093371 -0.43677235 -0.18499428
-0.5781181 -0.8932124 -0.23199767 -0.008947178 -0.07737347 -0.6247007 0.021166055 -1.2150869
-1.5951965 -1.1813118 -1.2012454 -1.3059634 -0.7226029 -1.0315101 -0.7523404 -0.8641758
-1.1331451 -0.8649844 -0.81407475 -0.92069215 -1.1257659 -1.0475763 -1.2907903 -0.9240784
-0.6815572 -1.3643587 -1.1838973 -1.7423562 -0.8008206 -1.0131702 -1.1897848 -0.87518245
-1.4090307 -2.3905773 -1.2756555 -1.1549805 -1.1514685 -0.9309848 -1.1401508 -0.9540574
-0.87341225 -1.2420563 -0.9128718 -0.86586535 -0.7321923 -1.1058091 -0.65498453 -0.97048
-1.1585256 -0.91482633 -1.4712509 -0.9068943 -2.072063 -0.9705382 -0.9243298 -0.82332087
-0.9106509 -0.42587343 0.60163045 -0.5308488 -0.60007465 -0.5162295 -0.14031245 -0.38474494
-0.05640015 -0.47483355 -1.2986119 -0.041998465 -0.2755086 -0.016015887 -0.26715618 0.09723243
-0.6140699 -0.53843194 -0.12521438 0.22134824 -0.29196724 0.21453564 -0.17896557 0.07206695
-0.48776746 0.00057034934 -0.8332065 -1.3030696 -1.17358 -0.58220226 -1.6067591 0.16448565

linear_sigmoid_stack.6.bias f4 [25]
00000000: f792 44bf e0c2 97bf ed15 ecbe 5ead 01bf
00000010: 4924 9ebe e017 a5bf 8541 87be 3ac0 a4bf
00000020: 60d5 83bf 2920 4abe e2da 90be 563f d5bb
00000030: cb82 76bf 8861 2bbf 4358 a7bf 0664 c93c
00000040: 1907 07bf 4b1c fabe 874e 87bf 999c 3abe
00000050: 1e31 cdbe c756 603e 00d1 35be ec94 84bf
00000060: beec 0fbe
-0.7678675 -1.1856346 -0.46110478 -0.5065516 -0.30887058 -1.2897911 -0.26417175 -1.2871163
-1.0299492 -0.1973883 -0.28291994 -0.0065077944 -0.96293324 -0.66945696 -1.307381 0.024583828
-0.52745205 -0.4884971 -1.057084 -0.182238 -0.40076536 0.21908103 -0.17755508 -1.0357947
-0.14055154

linear_sigmoid_stack.8.weight f4 [1, 25]
00000000: 274e 9f3e cd45 3dbc bda3 213e 125e b1bd
00000010: ee4c 4d3e f0ae 6c3e 6e5b 053e ce39 a03e
00000020: 2820 ae3e c6b0 623e 09d6 cf3e 3278 973e
00000030: 2f4a b83e d92b 8b3f 4420 953d ff8d 043e
00000040: aa87 2d3e 3791 9abd 315e 983e 3d3f 4e3e
00000050: 474b 723e 749a bd3e 1426 9ebe e729 253e
00000060: 1dae 663e
0.31114313 -0.011552286 0.15785117 -0.086605206 0.20048878 0.23113608 0.13023159 0.312941
0.34008908 0.22137746 0.40592983 0.2958389 0.35994098 1.0872756 0.07281545 0.12944792
0.16946283 -0.07547229 0.29759362 0.20141311 0.23661529 0.370319 -0.30888426 0.16129266
0.22527356
