Logistic Delay a1.4/Results including the additional condition/sol_w14.pt (torch_old, 10095 bytes, 9 tensors)

linear_sigmoid_stack.0.weight f4 [25, 1]
0	0xc10fbd9f	-8.983794
1	0xbf6b9d4a	-0.9203688
2	0x3f8d519f	1.1040534
3	0xc08ca245	-4.3948083
4	0x3f3f2aa3	0.74674433
5	0x3ff3c6a0	1.904499
6	0x3f861136	1.0474002
7	0xc0899909	-4.299931
8	0x3f30f11e	0.69117916
9	0x41fefd67	31.873732
10	0xc087459c	-4.227247
11	0x3fae4032	1.3613341
12	0xc08317fe	-4.0966787
13	0xbf704bdd	-0.9386576
14	0x407e0d12	3.9695477
15	0xbf61d21f	-0.88211244
16	0xbf783dc1	-0.9696923
17	0x40b8cf84	5.7753315
18	0x3fa4e0f2	1.2881148
19	0x3fa7ba76	1.3103778
20	0x40a9280a	5.2861376
21	0x41084ca9	8.518716
22	0x3fa2485f	1.2678336
23	0x40019dca	2.0252557
24	0x3f3de615	0.741792

linear_sigmoid_stack.0.bias f4 [25]
0	0xbece429a	-0.40285188
1	0x3f2e81e4	0.6816695
2	0xbf8d0430	-1.1016903
3	0x3e3de145	0.18542965
4	0xc09f37eb	-4.975576
5	0xbf2f644c	-0.68512416
6	0xbf8ed190	-1.1157703
7	0x40307382	2.75705
8	0xc088736d	-4.26409
9	0x3f9b653b	1.2140268
10	0x3e71ad60	0.23601294
11	0x3e6dea15	0.23233826
12	0x3e8d19fa	0.2755888
13	0x3f115dfe	0.56784046
14	0xbe4de04b	-0.20105092
15	0x3ee8d2bc	0.45473278
16	0x40961c3c	4.6909466
17	0x3e69509f	0.22784661
18	0xbfe3135c	-1.7740283
19	0xbfdfee70	-1.749464
20	0x3e5dd4b3	0.2166317
21	0x3f31a92e	0.6939877
22	0xbfd50687	-1.6642617
23	0xc1028891	-8.158341
24	0xc04445f4	-3.0667696

linear_sigmoid_stack.2.weight f4 [25, 25]
0	0x3f33f69e	0.7029818
1	0x3f7d6aa0	0.9899082
2	0xbe9eb371	-0.30996278
3	0x3f454d48	0.77071047
4	0x3e487dd7	0.19579254
5	0x3e20a9b8	0.15689743
6	0xbeba0e70	-0.3633914
7	0x3feae847	1.8352135
8	0x3e40b7fc	0.18820184
9	0xbd4befc7	-0.049789216
10	0x3f7f1c00	0.996521
11	0xbe0665af	-0.13124727
12	0x3f26ff1c	0.65233016
13	0x3f52ef46	0.8239635
14	0xbe159ba0	-0.14610147
15	0x3f7c4ca5	0.9855445
16	0x3fd15ad7	1.6355847
17	0xbe0e069f	-0.13869713
18	0xbed4f7a2	-0.4159518
19	0xbea2de3e	-0.31810182
20	0xbc9c61f0	-0.019089669
21	0xbeb2cd59	-0.34922293
22	0xbea618a9	-0.3244069
23	0x3fa5e04b	1.2959074
24	0xbec8636d	-0.39138356
25	0xbf83147a	-1.0240624
26	0x3ea35e48	0.31907868
27	0x3d2f4bd8	0.04279694
28	0xbf0a57a1	-0.5403996
29	0xbee62bf9	-0.44955423
30	0xbed850f0	-0.4224925
31	0xbde27d98	-0.11059111
32	0xbee749bc	-0.45173442
33	0xbf095527	-0.5364556
34	0xbce4e80b	-0.027942678
35	0xbefc1fb4	-0.49242938
36	0xbe3d6561	-0.18495704
37	0xbf295843	-0.661503
38	0x3e01f9fc	0.12693018
39	0x3dbc6f54	0.09200922
40	0x3ea28c2a	0.31747562
41	0xbf03c94c	-0.5147903
42	0xbdbefa7e	-0.09325121
43	0x3e38c89d	0.18045278
44	0x3ea09158	0.31360888
45	0x3e35bc9c	0.1774773
46	0x3d954a63	0.07289579
47	0x3d731d68	0.059354216
48	0xbfac6ff9	-1.3471671
49	0x3ea827b9	0.32842806
50	0xbf3f933f	-0.74834055
51	0x3f36f3d7	0.7146582
52	0x3ddf42ec	0.10901436
53	0xbef5c823	-0.48004255
54	0xbf287164	-0.6579802
55	0xbeb9e1a7	-0.36304972
56	0x3e0696a6	0.13143405
57	0xbe9d4d93	-0.30723247
58	0xbeb453d8	-0.35220218
59	0xbe49ce0b	-0.19707505
60	0xbf1185c7	-0.56844753
61	0xbe8ce2af	-0.27516696
62	0xbeded988	-0.43525338
63	0x3f2b8b37	0.670093
64	0xbc557a6a	-0.013029674
65	0x3f44d15b	0.7688195
66	0xbe64c0a1	-0.22339107
67	0x3e63bd0a	0.22240081
68	0x3e35a71b	0.17739527
69	0x3e30aad8	0.17252672
70	0xbe1c9bf2	-0.15293863
71	0x3d1503c4	0.036380544
72	0x3e8c7039	0.2742937
73	0xbfc69ac7	-1.5515984
74	0x3e2e5689	0.17025198
75	0x3f479ce6	0.77973783
76	0x3f7549d7	0.95815796
77	0xbeea4401	-0.45755008
78	0x3f3a7692	0.72837174
79	0x3e90f6c4	0.28313267
80	0x3e5f3811	0.21798731
81	0xbe0fb4fa	-0.14033881
82	0xbdb1c2cb	-0.08679732
83	0x3db21950	0.08696234
84	0x3d50e387	0.050998237
85	0x3f1fca29	0.62417847
86	0x3d62117d	0.05519246
87	0x3f142ec0	0.57883835
88	0x3f38c223	0.7217123
89	0xbee7100c	-0.4512943
90	0x3f49faad	0.78898126
91	0x3fde5444	1.7369466
92	0xbc43bf7a	-0.011947507
93	0xbed4a3de	-0.4153127
94	0xbf13ef35	-0.57786876
95	0xbe800cce	-0.2500977
96	0xbd933880	-0.07188511
97	0xbebab454	-0.36465704
98	0x3fac7562	1.3473322
99	0xbf0cddcd	-0.5502594
100	0x3f29416d	0.66115457
101	0x3f86cfdf	1.0532187
102	0xbed326a3	-0.41240415
103	0x3f3e4aa7	0.7433266
104	0x3de37481	0.11106206
105	0x3d84367e	0.06455706
106	0xbd85dc18	-0.0653612
107	0x40018bc0	2.0241547
108	0x3d3f018c	0.046632335
109	0x3c3479b7	0.011015347
110	0x3f818fae	1.0121973
111	0x3e1c994c	0.15292853
112	0x3f494562	0.78621495
113	0x3f6f1684	0.9339373
114	0xbe84c2d0	-0.2592988
115	0x3f6198c3	0.8812372
116	0x3fc7eb3c	1.5618663
117	0xbe84fcc1	-0.25974086
118	0xbf052653	-0.52011603
119	0xbe79f40d	-0.24409504
120	0xbe84d1ef	-0.25941417
121	0xbdabf16b	-0.08395656
122	0xbee70ded	-0.45127812
123	0x3fa235fb	1.2672724
124	0xbefc56e7	-0.4928505
125	0x3f4f3dbf	0.8095359
126	0x3f2baff2	0.67065346
127	0xbedbf966	-0.42963713
128	0x3f004d94	0.50118375
129	0x3e03c500	0.12868118
130	0x3e505c7c	0.2034778
131	0xbd891182	-0.066927925
132	0x3e696f0c	0.22796267
133	0x3e37fa62	0.17966607
134	0xbe182254	-0.14856845
135	0x3f124ddd	0.5715006
136	0xbc2ee48e	-0.010674609
137	0x3f1161a6	0.56789625
138	0x3f05128e	0.5198144
139	0xbe97c25f	-0.2964048
140	0x3e875b1e	0.26436704
141	0x3fbbe45e	1.4679067
142	0xbe467be2	-0.19383195
143	0xbed0d42b	-0.4078687
144	0xbec7745b	-0.3895596
145	0xbe5968b3	-0.21231346
146	0xbe1ae637	-0.15126882
147	0xbef1176f	-0.4708819
148	0x3f93d288	1.1548624
149	0xbf1065d1	-0.5640536
150	0xbf79fee2	-0.97654545
151	0x3e802d5b	0.25034603
152	0x3e8637e9	0.2621453
153	0xbf0cc49a	-0.5498749
154	0xbf2e93a9	-0.6819406
155	0xbe5cd796	-0.21566615
156	0x3d5adf69	0.053435717
157	0xbe744526	-0.23854503
158	0xbf090f41	-0.535389
159	0xbd3213ab	-0.043475788
160	0xbf1a5015	-0.60278445
161	0xbe1dac6c	-0.15397805
162	0xbf308e0f	-0.68966764
163	0x3ed911e3	0.4239646
164	0x3e92861e	0.28617948
165	0x3e3e7923	0.18600897
166	0xbf080020	-0.5312519
167	0x3e0bd9e5	0.13657339
168	0x3e8b17a1	0.27166465
169	0x3eb3ea77	0.3513982
170	0xbd4716c5	-0.0486057
171	0x3da03993	0.078234814
172	0x3cb5c9b4	0.022190906
173	0xbfd672fc	-1.675384
174	0x3ee486e6	0.4463417
175	0xbf856bb5	-1.0423495
176	0x3ebbbb3d	0.3666629
177	0x3e0b061e	0.13576552
178	0xbf1248c4	-0.5714228
179	0xbedefa27	-0.43550226
180	0xbeba384e	-0.36371082
181	0x3e5012a0	0.20319605
182	0xbe8519e0	-0.25996304
183	0xbeafaeb3	-0.34312972
184	0xbe8ad1ba	-0.27113134
185	0xbeb4628f	-0.35231444
186	0xbea49ff8	-0.32153296
187	0xbef95cf4	-0.4870373
188	0x3ec49c01	0.38400272
189	0x3d6642ff	0.056216236
190	0x3f30fa07	0.6913151
191	0xbce716e0	-0.02820915
192	0xbdcc5f80	-0.09979153
193	0x3e156a28	0.14591277
194	0x3da74777	0.08167928
195	0xbd879c86	-0.06621651
196	0xbd5ad067	-0.053421404
197	0x3e0c2535	0.13686068
198	0xbfc5d50a	-1.5455639
199	0x3db9117f	0.0903654
200	0x40350a7a	2.8287644
201	0xbee293a6	-0.44253272
202	0xbf0b0d94	-0.54317594
203	0x401398b6	2.3061957
204	0xbeb21c2a	-0.34787112
205	0xbf4061bc	-0.7514913
206	0xbef4a37e	-0.47780985
207	0x3f921d9e	1.1415288
208	0xbebc6303	-0.3679429
209	0xc01072f6	-2.2570167
210	0x40082624	2.127328
211	0xbf02bcb3	-0.5106918
212	0x3ff11e40	1.8837357
213	0xbe91edf0	-0.28501844
214	0xbf80fc92	-1.0077078
215	0xbf02370c	-0.50865245
216	0xbf88171d	-1.0632054
217	0xbfa742c1	-1.3067247
218	0xbf03af15	-0.5143903
219	0xbeb133d6	-0.3460986
220	0xbfaa191d	-1.3288914
221	0xbfc534a5	-1.5406691
222	0xbf1af205	-0.6052554
223	0x3f0fd262	0.56180394
224	0xbf178a9a	-0.59195864
225	0xc00c9452	-2.1965528
226	0xbf46150f	-0.7737588
227	0x3f58bb6f	0.84661
228	0xbfc5e105	-1.5459296
229	0x3f8623f0	1.0479717
230	0x3f6b6bd6	0.9196142
231	0x3fa641a9	1.2988788
232	0xbf91a3df	-1.1378134
233	0x3f718b46	0.9435314
234	0x405eeea9	3.4833167
235	0xbfce4778	-1.611556
236	0x3f2be732	0.6714965
237	0xbfb52580	-1.4152069
238	0xbf5be3a9	-0.85894257
239	0x3fa4b556	1.2867839
240	0xbf494e85	-0.78635436
241	0xbf34c1f0	-0.70608425
242	0x3fce915b	1.6138109
243	0x3f944ce6	1.1585968
244	0x3f9ce3a2	1.2256968
245	0x3fe86b27	1.81577
246	0x3fdda401	1.7315675
247	0x3f7782fc	0.9668424
248	0x3de9136c	0.113806576
249	0x3f80ea90	1.0071583
250	0x3f543aa6	0.8290199
251	0x3e811ae3	0.25215825
252	0xbead32a4	-0.33827698
253	0x3eea049e	0.45706648
254	0x3ec1c770	0.3784747
255	0x3ea1d2f5	0.3160626

linear_sigmoid_stack.2.bias f4 [25]
0	0x3e033a05	0.12815101
1	0xbeba7fa7	-0.36425516
2	0xbea5bf02	-0.3237229
3	0x3e798718	0.2436794
4	0x3d5c818e	0.05383449
5	0x3e4fa1c7	0.20276557
6	0xbedac32d	-0.42727032
7	0xbec95d3c	-0.39328945
8	0xbe4c0f0a	-0.19927612
9	0xbe8455d3	-0.2584673
10	0x3d925ae5	0.07146243
11	0xbf005c45	-0.5014079
12	0xbeb89f12	-0.3605886
13	0xbe7870c0	-0.2426176
14	0x3e7c1e5d	0.24620958
15	0xbeadd718	-0.33953166
16	0x3df5a114	0.11993614
17	0xbc7bd404	-0.015370373
18	0x3e5e0ba2	0.21684125
19	0x3dcd7adc	0.10033199
20	0x3e5343da	0.20631352
21	0x3e889923	0.26679334
22	0xbeefc6d1	-0.46831372
23	0x3eabab20	0.33528996
24	0xbeae5a45	-0.34053245

linear_sigmoid_stack.4.weight f4 [25, 25]
0	0x3eb54777	0.35406086
1	0xbf1477bd	-0.57995206
2	0xbf152ea5	-0.582743
3	0x3ee48cf8	0.446388
4	0x3e22aaeb	0.15885513
5	0x3e909149	0.28235844
6	0xbf092f52	-0.5358783
7	0xbf0506ad	-0.5196331
8	0x3e95005d	0.2910184
9	0xbf171894	-0.5902188
10	0x3e45ad90	0.1930449
11	0xbf177bad	-0.5917309
12	0xbeff60d3	-0.4987856
13	0xbf0a7e37	-0.5409884
14	0x3f01d8be	0.5072135
15	0xbf0a057e	-0.5391463
16	0x3e800263	0.2500182
17	0x3e9fa851	0.31183103
18	0x3e3a5dc4	0.18199831
19	0x3dc85dae	0.09783493
20	0x3ef42788	0.4768641
21	0x3efe7a2d	0.49702588
22	0xbef1ce19	-0.47227553
23	0x3f0080cc	0.5019653
24	0xbee69d97	-0.45042107
25	0xbf3065dd	-0.6890543
26	0x3e4e5438	0.20149314
27	0x3ea8df40	0.32982826
28	0xbeee7a42	-0.4657765
29	0xbf0d2ee3	-0.5514967
30	0xbf0f3b74	-0.55950093
31	0x3f13bdd6	0.5771154
32	0x3dc29f50	0.09503043
33	0xbe872ac7	-0.26399824
34	0x3df03cfd	0.117303826
35	0xbeefc46b	-0.46829543
36	0x3e28800e	0.16455099
37	0x3e6f922b	0.23395602
38	0x3f06bfd5	0.5263646
39	0xbf2f6de2	-0.6852704
40	0x3eeed389	0.46645764
41	0xbed781b2	-0.42091137
42	0xbf2066de	-0.6265696
43	0xbedeb2b8	-0.43495727
44	0xbf18b8cb	-0.5965697
45	0xbf0b406b	-0.5439517
46	0xbf3d9d31	-0.7406798
47	0x3f075656	0.52866113
48	0xbefad32a	-0.4898923
49	0xbd9464db	-0.07245799
50	0xbd1ec18d	-0.038758803
51	0xbe6d3145	-0.23163326
52	0xbf30d398	-0.69072866
53	0x3dbe1628	0.0928157
54	0xbd9e4c32	-0.07729377
55	0x3e2d8573	0.16945438
56	0xbf38e1b8	-0.7221942
57	0xbece3226	-0.40272635
58	0xc06d165d	-3.70449
59	0xbf86629e	-1.0498846
60	0x3e5fcdbc	0.21855825
61	0xbe757ad9	-0.23972644
62	0xbf0c43e4	-0.5479109
63	0xbf246311	-0.64213663
64	0x3d363b62	0.044490226
65	0xbf323205	-0.69607574
66	0x3dfddb7a	0.123953775
67	0x3ca8da39	0.02061187
68	0x3cfa7cb2	0.030577037
69	0xbd8097a4	-0.06278923
70	0x3e88c42b	0.26712164
71	0x3cd0a1b6	0.025467735
72	0xbf2e04c0	-0.67976
73	0x3d479dff	0.04873466
74	0xbf0f82a0	-0.5605869
75	0x3eeb79d1	0.45991376
76	0xbf12da24	-0.57364106
77	0xbf117e08	-0.56832933
78	0x3eea7963	0.45795736
79	0x3e6cff37	0.23144232
80	0x3ee38886	0.44440097
81	0xbf55a9ac	-0.83462024
82	0xbe8ee338	-0.2790773
83	0x3f2cd9b5	0.67519695
84	0xbe3a803d	-0.18212982
85	0x3ee9ab57	0.45638534
86	0xbf071c39	-0.5277744
87	0xbf22f126	-0.63649213
88	0xbf18119c	-0.5940187
89	0x3f02d1bb	0.51101273
90	0xbf14dcbc	-0.58149314
91	0x3e14d61d	0.14534803
92	0x3ef13c6f	0.4711642
93	0x3e832f38	0.25621963
94	0x3ea091dc	0.31361282
95	0x3eeb5674	0.45964396
96	0x3eda1d98	0.42600703
97	0xbec625cf	-0.3870072
98	0x3ed03bc9	0.40670612
99	0xbe348b94	-0.1763137
100	0xbe232612	-0.15932491
101	0xbebbcdce	-0.36680454
102	0xbea3ded0	-0.3200593
103	0xbe2bfc2e	-0.16795418
104	0xbe93a8d8	-0.28839755
105	0xbe6ba52a	-0.23012224
106	0xbf4438a9	-0.76648957
107	0xbec34500	-0.3813858
108	0xc0041e1c	-2.0643377
109	0xbf23e341	-0.64018637
110	0x3de1035d	0.109869696
111	0xbef1c4cb	-0.47220454
112	0xbf13a4cf	-0.5767335
113	0xbf180579	-0.5938335
114	0xbd8a908a	-0.0676585
115	0xbee27287	-0.44228002
116	0xbd1657cb	-0.03670482
117	0xbeb3dcc0	-0.35129356
118	0xbe7752ac	-0.2415263
119	0xbea172f3	-0.31533012
120	0x3e169329	0.14704575
121	0xbc03725d	-0.008022872
122	0xbef3dd4f	-0.47629783
123	0x3e0d1f6f	0.13781522
124	0xbe43dbc0	-0.19126797
125	0xbed2332a	-0.4105466
126	0x3e867064	0.26257622
127	0x3ea4fea2	0.3222552
128	0xbf03a7c4	-0.51427865
129	0xbebfe8cf	-0.37482306
130	0xbecf4591	-0.40482762
131	0x3f511e2d	0.8168667
132	0x3ec76887	0.38946936
133	0xbefb81bc	-0.49122417
134	0x3ebef66e	0.37297386
135	0xbefbce9b	-0.49181065
136	0x3e7af730	0.24508357
137	0x3f002266	0.5005249
138	0x3f2d4acc	0.67692256
139	0xbef8fc1b	-0.4862984
140	0x3f1904e0	0.59773064
141	0xbf1614c8	-0.5862546
142	0xbeb84a47	-0.3599417
143	0xbee37348	-0.4442389
144	0xbe93e7cf	-0.28887793
145	0xbf1fc656	-0.6241201
146	0xbf1166b9	-0.5679737
147	0x3f11e85e	0.5699519
148	0xbf1a8119	-0.6035324
149	0x3ec56e66	0.3856079
150	0x3ed204b7	0.41019222
151	0xbec95950	-0.39325953
152	0xbf13dc38	-0.577579
153	0x3f04c4ac	0.518626
154	0x3ea72cb0	0.3265128
155	0x3ead2e45	0.33824363
156	0xbf4dfa15	-0.8045972
157	0xbe7e1326	-0.24811992
158	0x3f0c86e6	0.5489334
159	0xbe697e39	-0.22802056
160	0x3ee3443e	0.44388002
161	0xbec7aed5	-0.39000574
162	0xbec56b7c	-0.38558567
163	0xbf28823e	-0.65823734
164	0x3f0fefe2	0.5622541
165	0xbf38ecf8	-0.72236586
166	0x3e2e6fcb	0.17034833
167	0x3eb1dd75	0.3473927
168	0x3edd3236	0.4320237
169	0x3ef0ccb4	0.47031176
170	0x3ec900c6	0.39258403
171	0x3e787a84	0.24265486
172	0xbf48a6a5	-0.7837928
173	0x3ee5c88b	0.44879565
174	0xbe69d3bc	-0.22834677
175	0xbef6b217	-0.48182747
176	0x3eac8a9d	0.33699504
177	0x3f135876	0.57556856
178	0xbf2a1b6d	-0.664481
179	0xbeffcd09	-0.49961117
180	0xbe9bfe01	-0.30467227
181	0x3f0e6e0c	0.5563667
182	0x3eadee68	0.33970952
183	0xbe301726	-0.1719633
184	0x3efa07f5	0.48834196
185	0xbf18ad38	-0.5963931
186	0x3e96e627	0.29472467
187	0x3ee28feb	0.44250426
188	0x3eccc8b3	0.3999687
189	0xbf16959b	-0.5882203
190	0x3eebced7	0.46056244
191	0xbedc5584	-0.43033993
192	0xbeea403c	-0.45752132
193	0xbeae8ae1	-0.3409033
194	0xbf100448	-0.5625653
195	0xbebb1020	-0.3653574
196	0xbeda7c83	-0.4267312
197	0x3f333bf6	0.7001337
198	0xbf1163d3	-0.56792945
199	0x3d3e4232	0.046449848
200	0x3e960bbe	0.29305834
201	0xbf1277ef	-0.57214254
202	0xbee71a2e	-0.4513716
203	0x3e3f11c4	0.18659121
204	0x3ee69a2c	0.450395
205	0x3e9c095c	0.3047589
206	0xbf44582c	-0.7669704
207	0xbf052207	-0.52005047
208	0x3f3dc6a5	0.7413123
209	0xbe54c605	-0.20778663
210	0x3eb03b7b	0.3442038
211	0xbea6a20f	-0.32545516
212	0xbf1f4e6c	-0.6222904
213	0xbe9d28a8	-0.3069508
214	0x3f09d6d1	0.5384341
215	0xbf23c210	-0.6396799
216	0x3eeced26	0.4627468
217	0x3eb1019d	0.34571543
218	0x3f01bb06	0.50676
219	0x3e8a1094	0.26965773
220	0x3ec15043	0.37756547
221	0x3ef3b5bf	0.475996
222	0xbf49fe8f	-0.7890405
223	0x3e9fa384	0.3117944
224	0xbea960b7	-0.330816
225	0xbf0b9bcf	-0.5453462
226	0x3dcdc2cf	0.100469224
227	0xbe25d3bf	-0.16194056
228	0xbf4b8323	-0.79496974
229	0xbf6b26c2	-0.91856015
230	0xbefb58c0	-0.49091148
231	0xbe2db0ce	-0.16961977
232	0x3ccb3e3b	0.024809947
233	0xbe9d0721	-0.306695
234	0xbc8dd8ab	-0.01731523
235	0xbec5d72f	-0.38640735
236	0x3d815cab	0.06316503
237	0x3e700c75	0.23442252
238	0x3e32ba9c	0.17453998
239	0xbf29c6ae	-0.66318786
240	0xbe3b1f79	-0.18273725
241	0xbf4a111b	-0.7893235
242	0xbf74ea4a	-0.95669997
243	0xbf4f4a56	-0.809728
244	0xbf5d94ee	-0.86555374
245	0xbecee1b3	-0.4040657
246	0xbf7e4f9d	-0.9934023
247	0xbde9c614	-0.114147335
248	0xbf6b32b7	-0.9187426
249	0x3d8fa855	0.07014529
250	0xbf0a9534	-0.54133916
251	0x3e3008a7	0.171908
252	0x3f11ae48	0.5690656
253	0xbeeca85e	-0.46222204
254	0xbf1ded86	-0.61690557
255	0xbe8dd9ea	-0.27705318

linear_sigmoid_stack.4.bias f4 [25]
0	0x3d71d1d8	0.059038013
1	0xbdc674aa	-0.09690221
2	0xbe820e54	-0.25401556
3	0x3d58c472	0.05292172
4	0xbe6a0c00	-0.2285614
5	0xbe53e1a7	-0.20691548
6	0x3e5fa86a	0.21841589
7	0xbe0d66b2	-0.13808706
8	0x3e0aa6fb	0.1354026
9	0xbea92907	-0.33039114
10	0x3e19d3fd	0.15022273
11	0xbe7a14a8	-0.24421942
12	0xbda030d0	-0.0782181
13	0xbe8161de	-0.2526998
14	0x3bdc84f8	0.0067297183
15	0x3e18358b	0.14864175
16	0xbd3969cc	-0.04526691
17	0xbe60fba3	-0.21970992
18	0xbf200c9f	-0.6251926
19	0xbe67942e	-0.2261512
20	0xbec1005b	-0.37695584
21	0xbe152fb9	-0.14568986
22	0x3e50b6c0	0.20382214
23	0xbc3455fe	-0.01100683
24	0xbe1f2783	-0.15542416

linear_sigmoid_stack.6.weight f4 [25, 25]
0	0xbf57a13f	-0.84230417
1	0xbf0063ef	-0.50152487
2	0xbf4b4319	-0.7939926
3	0xbf61c293	-0.8818752
4	0xbf10c7f4	-0.56555104
5	0xbf1c3724	-0.6102164
6	0xbf2bd81e	-0.67126644
7	0xbeb9770b	-0.36223635
8	0xbf323310	-0.69609165
9	0xbee912f2	-0.45522267
10	0xbf174daa	-0.5910288
11	0xbeb9400b	-0.36181673
12	0xbead2032	-0.33813626
13	0xbf0eecd5	-0.55830127
14	0xbebe2ecd	-0.3714508
15	0xbf6cdc12	-0.925233
16	0xbf643b93	-0.89153403
17	0xbef1b860	-0.4721098
18	0xbe9c59db	-0.30537304
19	0xbf158f9e	-0.5842227
20	0xbec40e26	-0.38292044
21	0xbeffe472	-0.49978977
22	0xbece03a2	-0.40237147
23	0xbf71736d	-0.9431675
24	0xbf0ada9f	-0.5423984
25	0xbe9b304e	-0.3031029
26	0xbf31d876	-0.6947092
27	0x3e1ce14f	0.15320323
28	0xbeac4dc6	-0.33653086
29	0xbe968246	-0.29396266
30	0xbf19cd06	-0.60078466
31	0xbd9f5495	-0.077798046
32	0xbf319fd1	-0.69384485
33	0xbe87ae31	-0.26500085
34	0xbee9372e	-0.4554991
35	0xbf21a84c	-0.63147426
36	0xbec5b2cb	-0.3861297
37	0xbf0f73b5	-0.5603593
38	0xbf287877	-0.65808815
39	0xbf33acee	-0.70185745
40	0xbe4662ff	-0.19373702
41	0xbe954e62	-0.29161364
42	0xbf0d7561	-0.5525723
43	0xbdf71adc	-0.1206567
44	0xbe4fa085	-0.20276077
45	0xbee4464a	-0.44584876
46	0xbf539d9d	-0.82662374
47	0xbf278e57	-0.6545157
48	0xbe95b5a9	-0.29240158
49	0xbf519087	-0.81861156
50	0xbdf1dfd8	-0.11810273
51	0xbe0a518a	-0.13507667
52	0xbeec3fe0	-0.46142483
53	0xbdfe8125	-0.12426976
54	0xbea82be1	-0.32845977
55	0x3beaad4a	0.007161771
56	0xbefa31e0	-0.48866177
57	0x3ea279f9	0.31733683
58	0xbe6f4aa1	-0.23368312
59	0xbec68e0c	-0.38780248
60	0xbc56f607	-0.013120181
61	0x3e0f66f5	0.14004119
62	0x3ec80dac	0.3907293
63	0xbd9e05dd	-0.07715962
64	0x3ed2e67d	0.41191474
65	0xbe603d7c	-0.21898454
66	0xbe39f15a	-0.18158475
67	0xbd1bec35	-0.03806706
68	0xbde294f2	-0.11063565
69	0xbe7c7a26	-0.24655971
70	0xbc948c1c	-0.018133216
71	0x3ebd0625	0.3691875
72	0x3ec133c4	0.37734807
73	0xbe779efb	-0.2418174
74	0x3ee32e81	0.44371417
75	0x3de1b2bb	0.11020418
76	0xbece7377	-0.40322468
77	0x3e5f5e2b	0.21813266
78	0xbd021047	-0.031753805
79	0x3e306d49	0.17229189
80	0xbee20fb2	-0.441526
81	0x3d553dbd	0.05206083
82	0xbf36fec6	-0.71482503
83	0x3d98eed4	0.07467428
84	0xbf117071	-0.56812197
85	0xbf2f123d	-0.68387204
86	0xbf33ef28	-0.702868
87	0xbf533207	-0.8249821
88	0xbf373188	-0.71559954
89	0xbf55b7bb	-0.83483475
90	0xbdcdb311	-0.1004392
91	0x3d863428	0.06552917
92	0xbed37ab2	-0.41304547
93	0xbe3b702e	-0.18304512
94	0x3cd63b78	0.026151404
95	0xbd193912	-0.037407942
96	0xbf50b62e	-0.81527984
97	0xbf74a56d	-0.9556492
98	0x3db07109	0.0861531
99	0xbf3ae82d	-0.7301052
100	0xbed2ff4a	-0.41210395
101	0x3d2c341b	0.04204188
102	0xbe3957c3	-0.18099885
103	0xbef11f1c	-0.47094047
104	0xbe0f3bff	-0.1398773
105	0x3d341ab4	0.04397078
106	0xbe9642d2	-0.29347855
107	0x3e7b48d7	0.24539505
108	0xbe9d3050	-0.30700922
109	0xbe80f87a	-0.25189573
110	0x3ea99105	0.33118454
111	0x3e13aee3	0.14422183
112	0x3e02c01f	0.12768601
113	0xbd14c281	-0.036318306
114	0x3ed1430b	0.40871462
115	0xbe853d1a	-0.2602318
116	0xbdc0e95d	-0.094195105
117	0x3e63d339	0.22248544
118	0xbbfbcd78	-0.007684406
119	0xbdfdec95	-0.1239864
120	0xbd461e7c	-0.048368916
121	0xbc8a1d03	-0.016859537
122	0x3eb23e5b	0.34813198
123	0xbf006919	-0.50160366
124	0x3eea3206	0.4574129
125	0xbf1095b5	-0.56478435
126	0xbf16d731	-0.58922106
127	0xbebfa090	-0.37427187
128	0xbf3da396	-0.7407774
129	0xbe0db6af	-0.1383922
130	0xbf582a73	-0.8443977
131	0xbf4391f9	-0.7639461
132	0xbf21c461	-0.63190275
133	0xbf4e1faa	-0.80517066
134	0xbe8ad044	-0.2711202
135	0xbf4c3daf	-0.7978162
136	0xbf1bf5de	-0.6092204
137	0xbf3a2688	-0.72715044
138	0xbf24014b	-0.6406447
139	0xbf5d0ad1	-0.8634463
140	0xbf3aa580	-0.7290878
141	0xbf4f535c	-0.8098657
142	0xbf3d1bf4	-0.7387078
143	0xbe8e87c8	-0.27837968
144	0xbee0d934	-0.43915713
145	0xbeea64a3	-0.45779905
146	0xbf26b144	-0.65114236
147	0xbf4d207c	-0.8012769
148	0xbf6ec5d7	-0.9327063
149	0xbf318d70	-0.6935644
150	0xbe3bc2d6	-0.18336043
151	0xbe5c8325	-0.21534403
152	0xbefdea7a	-0.49592954
153	0xbe53c1eb	-0.20679443
154	0xbe9a59e9	-0.3014672
155	0x3e878441	0.2646809
156	0xbedf1ea2	-0.43578058
157	0x3bc8d99a	0.0061294558
158	0xbeacf1e5	-0.337783
159	0xbe89ad51	-0.26890042
160	0x3e81ad99	0.25327757
161	0x3c3c4507	0.011491067
162	0x3e1d50c6	0.15362844
163	0x3e71e4f5	0.23622496
164	0x3de6cdde	0.11269735
165	0xbeaae855	-0.3338038
166	0xbe50a5e8	-0.20375788
167	0x3e2b2988	0.16715062
168	0xbea6bc51	-0.3256555
169	0xbebab5b4	-0.36466753
170	0x3d289d63	0.04116572
171	0x3e498bdd	0.1968226
172	0x3e4e510d	0.20148106
173	0xbecebba2	-0.40377527
174	0x3e8a060b	0.26957735
175	0xbf4cef24	-0.800524
176	0xbed489ce	-0.41511387
177	0xbf29473b	-0.66124314
178	0xbf574866	-0.84094846
179	0xbf260848	-0.64856386
180	0xbf1de725	-0.61680824
181	0xbf69ff0f	-0.91404814
182	0xbf1e58f3	-0.61854476
183	0xbf3a2d26	-0.7272514
184	0xbe10135d	-0.14069887
185	0xbf3b2ab5	-0.7311204
186	0xbf1ed12e	-0.6203793
187	0xbf531814	-0.82458615
188	0xbf59f448	-0.8513837
189	0xbf6cf288	-0.92557573
190	0xbf7e720e	-0.99392784
191	0xbf46dd04	-0.77680993
192	0xbf1837b6	-0.5946001
193	0xbe87e697	-0.26543114
194	0xbf1f93c3	-0.6233484
195	0xbef776fa	-0.4833296
196	0xbf2e66e7	-0.68125767
197	0xbf6c0b0f	-0.92204374
198	0xbf89477d	-1.0724941
199	0xbf514a8c	-0.81754375
200	0xbf5f1f64	-0.87157273
201	0xbf76d53c	-0.9641912
202	0xbf3aba78	-0.7294078
203	0xbf32e8eb	-0.69886655
204	0xbf10a06c	-0.56494784
205	0xbf812ed1	-1.0092412
206	0xbf7f20fd	-0.9965971
207	0xbf7b2753	-0.9810688
208	0xbf2b69a3	-0.66958064
209	0xbeb45173	-0.3521839
210	0xbf782525	-0.9693168
211	0xbf5ed71f	-0.87047
212	0xbf52d71c	-0.8235948
213	0xbf818264	-1.0117917
214	0xbf3d58b7	-0.73963493
215	0xbf109250	-0.56473255
216	0xbf72af77	-0.9479899
217	0xbf7f99c0	-0.9984398
218	0xbe83679e	-0.2566499
219	0xbebc8b3d	-0.3682498
220	0xbf1c6e95	-0.61106235
221	0xbf840aba	-1.0315773
222	0xbf86afcc	-1.0522399
223	0xbf2ad49f	-0.66730684
224	0xbf8688e2	-1.0510523
225	0xbe6f552a	-0.23372331
226	0x3e141a3a	0.1446313
227	0xbe7f5b25	-0.24937113
228	0xbed0664d	-0.4070305
229	0xbe9d5d75	-0.30735365
230	0x3dc71e20	0.09722543
231	0xbe847e13	-0.25877437
232	0x3e462b1e	0.19352385
233	0xbeab56f3	-0.33464774
234	0xbede434d	-0.4341072
235	0x3e4950bf	0.19659708
236	0x3cb9e18e	0.02269056
237	0x3e882472	0.26590306
238	0xbd18dee5	-0.037321944
239	0x3ec80e40	0.39073372
240	0xbee57f93	-0.44823894
241	0xbed02b2c	-0.40657938
242	0x3e460e4a	0.19341388
243	0xbe1ce0e1	-0.1532016
244	0xbd253ca6	-0.040341042
245	0xbccd9f18	-0.025100276
246	0x3b8f171e	0.0043667695
247	0x3ea531c9	0.32264546
248	0xbeb8ede5	-0.36119
249	0x3e780a47	0.2422267
250	0xbf170b80	-0.5900192
251	0x3ca19ba1	0.01972753
252	0xbf1e17ab	-0.61754864
253	0xbeab0fa8	-0.33410382
254	0xbf007b04	-0.50187707
255	0x3e0623c9	0.13099588

linear_sigmoid_stack.6.bias f4 [25]
0	0xbf2dae61	-0.67844206
1	0xbeafc686	-0.3433115
2	0xbe8d255e	-0.2756757
3	0xbe85b1d1	-0.26112226
4	0xbe1e6a73	-0.15470295
5	0xbf82e8b6	-1.0227268
6	0xbd32e163	-0.043671977
7	0xbf959c96	-1.1688411
8	0xbf779a91	-0.96720225
9	0xbd3e29e6	-0.046426676
10	0xbe892560	-0.26786327
11	0x3d582132	0.052766033
12	0xbf67a4a0	-0.9048557
13	0xbefc1a2a	-0.49238712
14	0xbf496871	-0.7867499
15	0x3d1d8c68	0.03846398
16	0xbea5d499	-0.32388762
17	0xbe5be957	-0.21475731
18	0xbf69b394	-0.9128964
19	0xbcc6fb9d	-0.0242899
20	0xbe675c47	-0.22593795
21	0x3e18014f	0.14844249
22	0xbe5a985e	-0.21347186
23	0xbf32ba24	-0.6981528
24	0xbc8ff93f	-0.017574904

linear_sigmoid_stack.8.weight f4 [1, 25]
0	0x3c6726b2	0.014108347
1	0xbd2f4d41	-0.042798284
2	0x3e6fd2dd	0.23420282
3	0xbe037357	-0.12836967
4	0x3e8ae97c	0.2713126
5	0xbb021392	-0.001984809
6	0x3e3e10e1	0.18561126
7	0x39e2739d	0.00043192218
8	0xba1b4668	-0.0005923272
9	0x3e9063ae	0.2820105
10	0x3e67d9ba	0.2264165
11	0x3e8398fc	0.25702655
12	0xb9eaf172	-0.0004481185
13	0x3ed8ec85	0.4236795
14	0xbc5f0e4b	-0.013614248
15	0x3e68db49	0.227399
16	0x3e6724da	0.22572652
17	0xbe022b03	-0.1271172
18	0x3b139243	0.0022517599
19	0x3e41037d	0.18848987
20	0x3eab9c4a	0.33517677
21	0x3e99e12c	0.30054605
22	0xbe672bc7	-0.22575293
23	0xbb9def7f	-0.00481981
24	0x3e88c55e	0.2671308
