Logistic Delay a1.4/Results including the additional condition/sol_w1.pt (torch_old, 10095 bytes, 9 tensors)

linear_sigmoid_stack.0.weight f4 [25, 1]
000000 4a 2c ba bf 8c 9d 6d bf 7f 74 86 3f af fd a5 bf
       -1.4544766 -0.9281852 1.0504302 -1.2968043
000010 0a 0c 66 3f 93 a4 7b 3f b9 8e 7f 3f a3 85 b0 bf
       0.8986212 0.98297995 0.9982715 -1.3790783
000020 c2 8d 45 3f d4 b6 b4 3f 7f 48 a5 bf 9d df 65 3f
       0.7716943 1.4118295 -1.2912749 0.8979433
000030 0a c5 9e bf 29 bf 74 bf 76 1d 8f 3f b9 94 5b bf
       -1.2403882 -0.9560419 1.1180866 -0.8577381
000040 87 c2 8a bf 18 c3 9e 3f 09 33 89 3f 40 a3 89 3f
       -1.0840615 1.2403288 1.07187 1.0752945
000050 6c 9f ad 3f 00 34 a9 3f 96 88 86 3f c1 f8 b1 3f
       1.3564277 1.3218994 1.0510433 1.3904039
000060 0d c5 8b 3f
       1.091951

linear_sigmoid_stack.0.bias f4 [25]
000000 64 9e 06 bf 82 5f 52 3c 5c f9 0d bf 2b 83 97 be
       -0.52585435 0.012840154 -0.5545862 -0.2959226
000010 fc b3 fe bd fa 96 ec bd 50 cf 32 bf 9f f4 09 be
       -0.12436673 -0.11552234 -0.69847584 -0.13472222
000020 db b3 e8 be d3 98 b5 3e 3f 7d ec be 86 02 2a 3f
       -0.4544972 0.35468158 -0.46189305 0.664101
000030 53 ca 92 be 2d 67 8a 3c c0 b7 01 bf 15 92 79 be
       -0.28669986 0.016894901 -0.50671005 -0.24372132
000040 f1 cc a5 3f f5 a9 9f be c7 78 8b bf 1c dc 8d bf
       1.2953168 -0.31184354 -1.0896233 -1.1082797
000050 9b 7a 73 be 97 36 08 be 4f e6 5d bf 1e 91 9a c0
       -0.23777239 -0.13302074 -0.8667955 -4.8302145
000060 80 7b a4 bf
       -1.2850189

linear_sigmoid_stack.2.weight f4 [25, 25]
000000 12 7c d6 3e bc 10 d6 3e b6 1c 69 be be 43 b6 3e
       0.41891533 0.41809642 -0.22764859 0.35598558
000010 a6 f5 01 bb fc 2c 62 3e 4b b6 92 be f6 5d db 3e
       -0.0019830256 0.22087473 -0.28654703 0.42845124
000020 c8 dd bf 3d 1a f2 c1 3c c6 db 0b 3f d7 2b 85 bd
       0.09368473 0.023675013 0.5463222 -0.065025024
000030 e9 a9 79 3e b2 66 86 3e a9 a5 a8 bd df a0 cf 3e
       0.24381222 0.26250225 -0.08234722 0.40552422
000040 01 22 85 3e c7 8d 88 bd 13 25 a3 be 27 b5 63 be
       0.26002505 -0.06667667 -0.31864223 -0.22237073
000050 bc 96 68 3d 18 c6 8c be 04 7f 61 be 59 ee 0a 3f
       0.056784377 -0.27494884 -0.22021109 0.5426994
000060 53 d7 91 be e9 5d 06 bf 64 d0 bb be c1 ee aa 3d
       -0.28484592 -0.52487046 -0.36682427 0.0834632
000070 69 e9 7f be 39 e2 52 3c 2a 66 c7 be 01 96 8b bd
       -0.24991383 0.0128713185 -0.38945132 -0.0681572
000080 ff 0c f2 be 22 7a 47 be 02 5e aa bb cf 79 5a be
       -0.4727554 -0.19480184 -0.005199195 -0.21335529
000090 b2 bf 1d be 87 d0 d6 be 4b 55 0b bf 99 d5 f7 3d
       -0.15405157 -0.4195597 -0.5442702 0.121012874
0000a0 b2 f9 b9 be 53 24 e7 be b4 c0 8c bd 75 e0 65 3e
       -0.36323315 -0.451449 -0.06872693 0.22448905
0000b0 2b c4 b5 3e c9 f7 4c 3e 34 15 c4 3d 9b 48 cc 3d
       0.35501227 0.20016398 0.09574357 0.09974786
0000c0 39 19 fe be c9 7c cd 3e 80 08 a1 be 02 71 0a be
       -0.49628618 0.40134266 -0.31451797 -0.13519672
0000d0 61 ca 24 3e a4 b3 d6 be cd 3d 75 be bf ae a6 be
       0.16092826 -0.4193393 -0.23949356 -0.32555196
0000e0 5f 89 3c 3e 15 62 0b bf be ae 42 bd a5 e6 33 be
       0.18411778 -0.54446536 -0.04752993 -0.17568453
0000f0 38 7b 0d bf 74 e1 75 be b6 00 f1 be d4 4e 28 be
       -0.5526614 -0.24011785 -0.47070855 -0.1643632
000100 15 0d 93 3c 62 a3 ab bd 6a 10 a6 be 27 6f 7c 3e
       0.017950574 -0.08380772 -0.32434398 0.24651776
000110 b2 f7 72 3e e1 3c 6a 3e 22 ff 05 be 17 83 6a 3d
       0.23727301 0.22874786 -0.13085607 0.057253923
000120 01 d2 a9 3e b8 b6 27 bf 95 73 83 3e dc f9 c7 3e
       0.33168033 -0.6551318 0.2567412 0.39057815
000130 1d bf e7 3e 50 d0 a0 be 4e 1a ce 3e 16 df 1a 3e
       0.45262995 -0.3140893 0.40254444 0.15124163
000140 50 a7 b0 3e fd 26 e7 3a 17 0f 77 3e f6 af 75 3d
       0.3450265 0.0017635521 0.2412685 0.059982263
000150 ec ad 37 3e b1 85 a4 3e b5 e7 3a 3e 87 c5 b9 3e
       0.1793744 0.32133248 0.18252452 0.36283514
000160 56 c3 56 3e ae 59 a6 be d5 28 97 3e 7d 73 1e 3f
       0.20972952 -0.32490295 0.2952334 0.6189497
000170 f3 de ed 3d 00 ac 83 be 8f ba d6 be c4 5b f7 bd
       0.1161479 -0.25717163 -0.41939208 -0.1207805
000180 b9 99 68 3d 12 b7 54 be 7a 54 1a 3f 0e f0 c4 be
       0.056787226 -0.20772961 0.6028515 -0.38464397
000190 f8 b1 cc 3e 2a f3 fb 3e d9 8b 9b be 46 90 94 3e
       0.3997953 0.49208957 -0.30380133 0.29016322
0001a0 e7 e2 1c bd 55 71 1e 3e 84 e1 1c 3d d6 2e e1 3e
       -0.03830233 0.1547292 0.038301006 0.43981045
0001b0 e1 fe 33 bb 50 7e e0 3d f8 5f 02 3f 5e e7 7b 3e
       -0.0027465152 0.10961592 0.50927687 0.24599978
0001c0 c5 66 a4 3e 1f d9 c3 3e 13 c0 2d be 07 75 9e 3e
       0.32109657 0.38251588 -0.16967802 0.3094866
0001d0 d4 1b 66 3e 04 ad 26 be a6 ed ca be 5f 6d f9 bd
       0.22471553 -0.16276938 -0.39634436 -0.12179064
0001e0 dc c2 22 be 49 67 75 3c 80 c9 a4 be 24 e9 06 3f
       -0.15894645 0.014978238 -0.32184982 0.52699494
0001f0 57 f9 b5 be f3 2a fb 3e cf ec f0 3e ed 41 a5 be
       -0.35541794 0.49056205 0.4705567 -0.3227686
000200 d2 ed 6b 3e 82 19 0f 3c 53 16 96 3e 08 25 0d 3d
       0.2303994 0.008734109 0.29313907 0.034459144
000210 23 40 91 3e 7d 80 1d 3e 08 1e 3c bd 0b 70 99 3e
       0.28369245 0.15381046 -0.045927078 0.29968295
000220 ea ed a7 3d 70 66 ae 3e 15 9d af 3e 9c 02 51 be
       0.081996754 0.3406253 0.34299532 -0.20411152
000230 2f 0a 8a 3d a8 1e 90 3e 8e 9d be bd d4 be 92 be
       0.067402236 0.2814839 -0.09307395 -0.28661215
000240 b1 27 8a be c1 e7 dc bd ff c8 44 bd a7 ad af be
       -0.26983407 -0.10786391 -0.048043247 -0.34312174
000250 34 69 c3 3e 7c 93 dd be 64 44 d7 be 05 44 b3 be
       0.381662 -0.43276584 -0.42044365 -0.35012832
000260 3e e0 80 3e 2a 17 b2 be 81 d3 8c be 52 85 6e be
       0.25171083 -0.34783298 -0.27505115 -0.23293045
000270 e6 09 2b 3d 87 bf df be ac 99 83 be 42 fc 98 bd
       0.041757487 -0.4370081 -0.2570318 -0.07469989
000280 86 87 e0 be 82 a6 32 be f9 66 14 bf 37 12 28 be
       -0.43853396 -0.1744633 -0.57969624 -0.16413198
000290 cf ed 86 3e ef 39 e0 be bd 9e 86 be c8 59 dc 3d
       0.2635331 -0.437942 -0.26292983 0.10759312
0002a0 79 d2 86 3e 34 86 ae 3e 7f 4f a3 bd 3b a5 3f 3d
       0.26332453 0.34086764 -0.07974147 0.046788435
0002b0 21 97 82 3c 96 13 69 bf bc 94 de 3e b1 51 07 bf
       0.015941205 -0.9104551 0.4347285 -0.52859026
0002c0 5f af ec be 30 75 7d 3e 59 a5 bb be e7 a5 41 3d
       -0.46227548 0.24751735 -0.36649588 0.047277357
0002d0 b6 c7 87 be 41 66 a3 3e 7c 40 a7 be 0a 05 0e 3d
       -0.26519555 0.3191395 -0.32666385 0.034672774
0002e0 57 0d 40 be d8 6e 3a be 45 09 66 be 32 43 bb be
       -0.18755089 -0.18206346 -0.22464474 -0.36574703
0002f0 c2 21 dd be 0c 7e 19 3e ea a3 f4 bd 38 a5 65 be
       -0.43189818 0.1498949 -0.119453266 -0.22426307
000300 1f 68 57 bc 16 96 87 3e 62 74 49 3e 95 ff 8f 3c
       -0.013147383 0.26481694 0.19673303 0.017577926
000310 eb 5c f6 3c bc 25 7d 3e 42 1a 0c bf 51 d5 8b 3e
       0.030073604 0.24721426 -0.54727566 0.27311185
000320 65 c4 d8 3d 0c a5 82 3e fe c7 15 be 4d 71 db 3e
       0.10584334 0.25516546 -0.14627072 0.4285988
000330 56 67 a7 3d b5 83 58 be 58 df ae bd 2a 8b 39 3e
       0.08174007 -0.21143992 -0.08538693 0.18119493
000340 08 6f 3e 3c 0f b9 19 be 06 01 1c 3e 46 87 a0 3d
       0.011623152 -0.15012 0.15234765 0.07838301
000350 4b 03 8c 3e 32 30 bd 3e 47 04 52 be 8b 2e 2e 3d
       0.27346262 0.36950833 -0.20509444 0.042524856
000360 b6 9c b5 3e 83 53 86 be c4 de 74 be d1 85 8a bd
       0.35471123 -0.2623559 -0.23913103 -0.06763805
000370 44 0b 89 be a0 1c a4 be f5 62 95 be 18 90 86 3e
       -0.26766407 -0.3205309 -0.2917706 0.2628181
000380 79 fb cf be 51 c3 24 bf ef 7c 04 bf ce e6 9d 3e
       -0.40621546 -0.6436053 -0.51753134 0.30840153
000390 8a 4b 10 bf 3e 88 bd 3e c3 b7 05 3e dd ce 25 3f
       -0.56365263 0.37018007 0.13058381 0.64768773
0003a0 7c 60 1c bf 57 e1 c3 3e e3 b5 fd 3e df 1d 19 bf
       -0.61084723 0.38257858 0.4955283 -0.59811205
0003b0 48 2c 03 3d 10 26 14 bf 7e bf 0f bf 4f 0f dd 3e
       0.03202465 -0.5787058 -0.5615157 0.43175742
0003c0 ca af 0e bf 69 eb 2d bf b5 37 ed 3e bb cb 23 3f
       -0.5573698 -0.6793733 0.46331564 0.63982743
0003d0 3d 14 31 3f 81 86 1a 3f be 46 9d 3e 65 a3 02 3f
       0.69171506 0.60361487 0.30718035 0.5103057
0003e0 2f 38 e5 3d 4c ef 0d 3f 1d 15 02 3f f2 af 6f 3e
       0.11192357 0.55443263 0.50813466 0.23406962
0003f0 4d d6 80 be 3e a7 89 3e 23 8c 26 3e 35 df c8 3e
       -0.251635 0.26885408 0.16264395 0.39232793

linear_sigmoid_stack.2.bias f4 [25]
000000 24 76 42 3e df a0 aa be f1 a8 94 be d5 4c bc 3e
       0.1899038 -0.3332586 -0.29035142 0.36777368
000010 c4 40 13 3e 24 f4 95 3e 0c 75 e5 be 6b fc 97 be
       0.14380175 0.29287827 -0.44815862 -0.29684767
000020 de 09 4f 3e 25 d2 ce be 3c ed 17 3e 0d 9a dd be
       0.20218608 -0.40394703 0.14836591 -0.43281594
000030 28 0c a5 be 5a 9e 61 be df 7c c1 3e cd 8b 97 be
       -0.32235837 -0.22033063 0.37790582 -0.29598847
000040 41 ae 66 3e f6 c3 9e 3d 9e 9f b1 3e dd 7f 50 3e
       0.2252741 0.0775222 0.3469209 0.20361276
000050 fb f2 8e 3e 51 38 cb 3e d5 c0 cf be 7d 39 e3 3e
       0.27919754 0.39691404 -0.40576807 0.44379798
000060 93 c4 83 be
       -0.25735912

linear_sigmoid_stack.4.weight f4 [25, 25]
000000 1a 53 82 3e e3 0c bf be 19 fb 8c be f0 8f a2 3e
       0.25454026 -0.3731452 -0.27535322 0.3175044
000010 6f 4b 99 3d d8 0e 81 3e dd 68 da bd 0e 5f 9f be
       0.07485091 0.25206637 -0.10664532 -0.31127208
000020 63 e5 f9 bd ae be 98 be 81 af 08 3e 9d 4b dc be
       -0.12201955 -0.29832977 0.133482 -0.43026438
000030 1e 7b 6c be 71 05 62 be ca e0 b3 3e a4 40 6d be
       -0.2309384 -0.22072388 0.35132438 -0.2316919
000040 0c bf 20 3e 8d 97 5b 3e 9e 71 9d 3d 8d c0 cd 3c
       0.15697879 0.21444531 0.076876864 0.02511623
000050 f1 46 ad 3e f2 3a b9 3e a9 fb 28 bd bb 8b c6 3e
       0.33843186 0.36177784 -0.041255627 0.3877848
000060 49 8e a8 be 13 d4 db be 9d d5 d3 3d 02 89 28 3d
       -0.32921055 -0.42935237 0.10343478 0.041146286
000070 f3 68 64 be 3f cf a0 be 05 f6 c6 be ea b1 1d 3e
       -0.2230566 -0.31408116 -0.38859573 0.153999
000080 6e 4a 6d bd 74 4f b7 bd 38 28 0b 3e 14 a0 8e be
       -0.05793231 -0.08950701 0.13589561 -0.27856505
000090 b1 73 18 3e a5 d6 0f 3d d2 a2 82 3e 92 38 c5 be
       0.14887883 0.03511681 0.25514847 -0.38519722
0000a0 92 3d 33 3e 17 cd 25 be 5c 38 c1 be 24 5a 50 be
       0.17503956 -0.16191517 -0.3773831 -0.20346886
0000b0 58 83 ba be 09 69 8f be a5 5b e6 be 42 da 75 3d
       -0.36428332 -0.28009823 -0.44991794 0.0600226
0000c0 b1 c9 88 be 32 78 8b bb 90 5e 77 be 36 37 61 bd
       -0.26716378 -0.0042562718 -0.24157166 -0.054984294
0000d0 48 b8 e0 be d4 f0 32 be d7 a3 87 be 13 f6 85 3c
       -0.43890595 -0.17474681 -0.26492187 0.016352689
0000e0 52 18 b6 be ce 88 55 be 69 9d 24 be c7 9c ec be
       -0.3556543 -0.20852968 -0.16075672 -0.46213362
0000f0 b3 96 24 3c b8 a3 ed bd d5 3b 99 be 66 6b cc be
       0.010045695 -0.116034925 -0.2992846 -0.39925689
000100 e0 98 6a be a1 f9 c9 be 41 fb bd bc 5d 32 0d be
       -0.2290988 -0.39448264 -0.023191096 -0.13788743
000110 2e b4 4a be ba b8 5e be 84 56 74 be 1c 74 64 be
       -0.19795296 -0.21750155 -0.23861128 -0.22309917
000120 3c e3 84 be 67 fc 6b be 6d 82 e7 be 49 0f a9 3e
       -0.25954616 -0.23045503 -0.45216694 0.33019474
000130 c1 2e cd be 51 93 97 be 73 c0 a0 3e 98 da ff 3d
       -0.40074733 -0.2960458 0.31396827 0.12492865
000140 c6 d2 bd 3e c8 50 e2 be 49 c6 d2 bd eb 66 50 3e
       0.3707487 -0.44202256 -0.10291726 0.2035176
000150 f2 b8 39 bd ba 5c bd 3e c5 8d ca be 15 97 cf be
       -0.045342393 0.36984807 -0.39561287 -0.40544954
000160 85 57 9d be 99 5b b3 3e 28 74 9d be 4a c3 20 3d
       -0.30730835 0.3503082 -0.30752683 0.039248742
000170 7b 6e b7 3e e1 7c 0f 3e aa f0 63 3e 36 b0 a6 3e
       0.35826477 0.14012481 0.22259775 0.32556313
000180 9d 58 95 3e 44 14 be 3c 4b 3a 8a 3e b7 26 ba bd
       0.2916917 0.023203023 0.269976 -0.090894155
000190 f3 0f 25 bc 2f 73 37 be a1 cb 73 bd 5f 2b b2 bd
       -0.010074603 -0.17915033 -0.059520368 -0.08699679
0001a0 ea 66 fb bd 34 b0 f7 bc bc bc c3 be e1 bd 58 be
       -0.12275489 -0.030235387 -0.3822993 -0.21166183
0001b0 21 cc 98 be 47 f3 16 be ce 48 6c 3e b4 35 a5 be
       -0.29843238 -0.1474124 0.23074648 -0.32267535
0001c0 3e d2 a9 be 17 bf ac be c4 9f d1 b8 1f 46 2d be
       -0.33168215 -0.3373954 -9.995655e-05 -0.1692128
0001d0 85 04 11 3e e3 2c 21 be e5 2c fa bd 60 ac 04 be
       0.1416188 -0.15739779 -0.12215594 -0.12956381
0001e0 b3 38 4d 3e 30 a3 c6 3d 3f 77 d0 bd d9 8e 76 3e
       0.2004116 0.09699094 -0.101789944 0.2407793
0001f0 c9 98 ce bd f1 85 47 be 73 e1 f6 3d e0 a8 84 3c
       -0.10087735 -0.19484688 0.1205472 0.016193807
000200 35 25 93 be 37 7e 3a be ce 3a 85 be 82 e6 d1 3e
       -0.28739324 -0.1821221 -0.26021427 0.40996176
000210 b0 88 41 3e 02 ef 82 be c0 2d aa 3e 32 48 a5 be
       0.18899798 -0.25572973 0.3323803 -0.32281643
000220 05 a1 38 3e 85 be 8d 3e 86 e6 c3 3e b9 86 65 be
       0.18030174 0.27684417 0.38261813 -0.22414674
000230 5f bd 90 3e cf 00 c0 be e7 f3 22 be 40 4e 76 be
       0.2826948 -0.37500617 -0.15913354 -0.24053288
000240 ed ab d0 bd 2f 94 ea be c7 47 a8 be de a1 60 3d
       -0.10189042 -0.4581618 -0.32867262 0.05484187
000250 51 f1 cb be a9 70 c8 3e 0c 2f 8a 3e 09 64 68 be
       -0.39832547 0.39148453 0.2698902 -0.2269441
000260 37 42 95 be ab 70 bb 3e ae 20 5a 3e 0b a2 82 3e
       -0.2915208 0.36609396 0.21301529 0.25514254
000270 0e aa d4 be 17 d8 5c bd 38 ce 5f 3d 28 88 e0 bd
       -0.4153599 -0.053917017 0.054640025 -0.1096347
000280 ec 1e ae 3e 4c a4 8d be 32 05 20 be 41 90 bc be
       0.34007967 -0.2766441 -0.15626982 -0.36828807
000290 3e 8e c8 3e 61 63 d9 be c5 f4 63 3d 23 a4 6c 3e
       0.39171022 -0.42458633 0.055653352 0.23109488
0002a0 fe 32 9e 3e ad 94 be 3e be 61 7e 3e ef 91 d0 3d
       0.3089828 0.37222806 0.24841973 0.101840846
0002b0 2a 64 99 be c7 6b 9e 3e db 22 31 be 24 1d 8a be
       -0.29959232 0.30941603 -0.17298453 -0.26975358
0002c0 af 36 6d 3e d4 19 ac 3e 47 05 dd be 85 b2 9c be
       0.23165391 0.33613455 -0.4316809 -0.3060495
0002d0 34 dd 23 be f3 cf 4d 3e a7 83 4f 3e 0f ff 66 3d
       -0.16002351 0.20098858 0.20265065 0.056395587
0002e0 f5 dd d8 3e ce 73 dc be 69 cb 7e 3e 87 fa 86 3e
       0.4235684 -0.43057102 0.24882282 0.26363012
0002f0 0d bd 20 3e 5c 81 a6 be 97 15 60 3e a9 93 62 be
       0.15697117 -0.32520568 0.21883236 -0.2212664
000300 d3 6d 83 be df da 06 be 26 02 c0 be 7b 04 71 be
       -0.25669727 -0.1316943 -0.3750164 -0.23536865
000310 14 2b 3f be 8d 96 9a 3e f5 aa b3 be ad 98 6f 3d
       -0.18668777 0.30192986 -0.35091367 0.058495212
000320 a3 05 32 3e 66 82 c9 be 70 cb 23 be 28 8a 61 3d
       0.17384963 -0.393573 -0.15995574 0.055063397
000330 45 2a b6 3e f8 bf 79 3e 42 2b bb be 40 8f a6 be
       0.35579124 0.24389637 -0.3655644 -0.32531166
000340 ee 22 6d 3e 12 2c 89 bd 67 15 87 3e d5 16 49 be
       0.23157856 -0.06697859 0.26383516 -0.19637616
000350 2e f1 c3 be af 9e 2b bc fc ff c5 3e 7d 2f ae be
       -0.38269943 -0.010474845 0.38671863 -0.34020606
000360 f3 14 bb 3e d8 4d 78 3e be de cd 3e 47 fe 42 3e
       0.3653942 0.24248445 0.40209 0.19042312
000370 38 c0 72 3e 3b 01 b3 3e a5 5b a6 be e5 62 46 3e
       0.23706138 0.34961876 -0.32491794 0.19373663
000380 be 5b 81 be a2 88 94 bd 9f 3b 81 bc 3a c9 1f be
       -0.25265306 -0.07252623 -0.0157755 -0.15604106
000390 65 4f aa be 13 40 a7 be db 9d 66 bd 37 06 62 be
       -0.33263698 -0.32666072 -0.056302886 -0.22072683
0003a0 40 ac cd bd 77 e5 7c be 6f e7 2e bc c3 7b 0b be
       -0.1004262 -0.24696909 -0.010675295 -0.1362143
0003b0 29 fa 67 bd cb 55 a6 3d 01 f3 25 3d 55 5b 1a be
       -0.056635056 0.081218325 0.04051495 -0.15073903
0003c0 f7 66 4d be 3d 6f 35 be 3c 24 8c be d9 19 83 be
       -0.20058809 -0.17718215 -0.27371395 -0.25605658
0003d0 2f ae 65 be 5b 92 ed bd 47 66 ae be 59 95 d7 3d
       -0.22429727 -0.11600181 -0.34062406 0.10526533
0003e0 80 0a 99 be d9 ac 60 be 71 a3 b7 be 21 56 71 bc
       -0.29890823 -0.21940936 -0.35866883 -0.014730007
0003f0 af 7e 66 3e f2 8b 88 be f9 90 e8 be 8f ad 29 be
       0.22509263 -0.2666927 -0.45423105 -0.16570114

linear_sigmoid_stack.4.bias f4 [25]
000000 05 b0 cf 3d 03 f0 41 3c be 06 b6 be bd 97 99 3d
       0.10140995 0.011837008 -0.3555202 0.07499645
000010 51 d5 e7 bd f3 d4 06 be c5 70 5b 3e 29 ae 81 bd
       -0.11319984 -0.13167171 0.21429737 -0.063320465
000020 a5 25 1e 3e ca 80 7e be fb 11 29 3e 7c 04 30 be
       0.15444048 -0.24853817 0.16510765 -0.1718921
000030 53 de 0e bd 2d 8e 3d be 14 75 60 3d 5d 4d 24 3e
       -0.034879994 -0.18511267 0.054799154 0.16045137
000040 18 09 dc bc 5a 55 c1 bd d5 ef 9a be 36 51 49 be
       -0.026859805 -0.09440108 -0.30261102 -0.19659886
000050 cb 09 8a 3c a1 cc 06 be 6c 88 e0 3d b8 1f 8e 3c
       0.016850373 -0.13163997 0.109635204 0.017349109
000060 e8 ae 16 be
       -0.14715159

linear_sigmoid_stack.6.weight f4 [25, 25]
000000 c1 97 68 be fb 01 d6 bd f2 8c 0d 3c c9 cc 78 be
       -0.2271414 -0.104495965 0.008639561 -0.2429687
000010 0e 24 ca bd 1a 79 4b be 3c 0e af bc 7e 6c 15 3d
       -0.09870158 -0.19870415 -0.021369092 0.03648042
000020 b7 b9 5e bd 6d a8 42 be 77 47 33 be 8d d1 96 3b
       -0.05437633 -0.19009562 -0.1750773 0.004602617
000030 19 1a 71 3d 58 56 16 be 37 ed 41 bc b7 63 91 be
       0.05886278 -0.14681375 -0.011836342 -0.2839639
000040 51 5b 88 be 88 98 a4 bd ca f1 75 bd d0 1b 19 3d
       -0.2663217 -0.080369055 -0.06004504 0.03738004
000050 54 a5 1b be fb 7e be bd 9d 58 21 bd ad 42 98 be
       -0.15199786 -0.09301563 -0.03939115 -0.2973837
000060 33 60 50 be 42 b0 25 3d d5 89 7c be 58 c6 18 3d
       -0.20349197 0.040451296 -0.24661954 0.03729853
000070 ef 52 9e bc 44 c6 38 be 54 20 2b be 05 de 73 3e
       -0.019326655 -0.18044382 -0.16711551 0.23815162
000080 72 61 84 be 40 b7 43 3d bc 1c 4e bd 5a 87 12 be
       -0.25855595 0.047782183 -0.050320372 -0.14309445
000090 f4 51 92 3d 75 a9 bc bd 36 e5 5c be 34 d4 4f be
       0.071445376 -0.09212009 -0.21571812 -0.20295793
0000a0 72 35 07 3e ad 21 3e 3d fa 83 09 be 4f 9b bb 3b
       0.13203982 0.046418834 -0.13429251 0.0057253013
0000b0 74 c2 49 be 54 1b 35 be a2 85 bd be 9b 77 a7 bd
       -0.19703084 -0.17686206 -0.37016016 -0.0817711
0000c0 a0 d9 4b 3c ca 5c 9e be dd 26 f0 3c 7c e8 96 bd
       0.012442023 -0.30930167 0.029315406 -0.073685616
0000d0 af 5f bb bc 8e 4c 24 3d 74 be 28 be ab 83 10 3c
       -0.022872774 0.04011207 -0.16478902 0.008820455
0000e0 05 d7 a2 be d4 58 9b 3e c7 15 8d bd cc e4 d0 bd
       -0.31804672 0.30341208 -0.06888919 -0.101998895
0000f0 a6 9c 2c bd e0 31 13 3e 83 8d bc 3e b9 b0 9a bd
       -0.04214158 0.14374495 0.36826715 -0.075532384
000100 73 13 ae 3e 12 26 75 bd f3 48 18 bd 4d 2e b1 bc
       0.33999214 -0.05985076 -0.037178945 -0.021628523
000110 0a d2 7a 3c b1 e1 71 3c c1 8d 4e 3c 8c f1 b1 3e
       0.015308866 0.014763282 0.012607039 0.34754598
000120 d5 a6 84 3e e3 fa 8d bd 7f d8 b5 3e f8 49 65 3e
       0.25908533 -0.069326185 0.35516736 0.22391498
000130 74 87 9c 3d 5c d2 ae bd 47 b3 98 3d 4f 28 29 3e
       0.07643023 -0.085362166 0.074560694 0.16519283
000140 59 7d fb 3a 7c 2d 24 3e 95 b7 8b be 36 a2 35 3e
       0.0019187137 0.16032976 -0.272885 0.1773766
000150 55 2f 7e 3d 1b bc 34 be a7 d4 57 be e8 2c ab be
       0.062056858 -0.17649882 -0.21077214 -0.33432698
000160 dd c6 8a be 71 01 9d be b2 3a da 3a 58 41 42 3e
       -0.27104846 -0.30665162 0.0016649573 0.18970239
000170 56 90 8a 3c 4c 09 45 bd bd 12 d9 bd 66 9e 44 3e
       0.016914528 -0.04810457 -0.10599277 0.19201049
000180 6c a2 ab be 89 94 ad be 30 b2 3d 3e c9 37 3d be
       -0.33522356 -0.33902386 0.18525004 -0.18478312
000190 65 cb 88 be 3b 8b f5 3d 8a 8f 07 3e ec c0 9e be
       -0.26717678 0.11989447 0.1323835 -0.31006563
0001a0 2e a6 d0 bc fe cd 80 3d af 91 00 be 81 01 7f 3e
       -0.025469866 0.0628929 -0.12555574 0.24902917
0001b0 48 a9 16 be 1f 0a 8e 3d a6 18 a3 3e 6a 51 28 3e
       -0.14713013 0.06935524 0.31854743 0.16437307
0001c0 27 83 fc 3d 95 51 86 bc c1 c2 b6 3e dc 51 d8 bd
       0.12329703 -0.016396323 0.3569546 -0.105624884
0001d0 13 e3 47 3d b6 82 83 3e 6e ec b4 3d 83 05 2e 3d
       0.04880054 0.25685662 0.08834158 0.042485725
0001e0 ac df fa ba 1b 2b b9 bc 52 86 7c 3e 99 e7 a9 be
       -0.0019140146 -0.022603562 0.24660614 -0.33184507
0001f0 b8 f2 c5 3e d1 78 9c 3d 92 28 1f be 67 63 47 3d
       0.38661742 0.076402314 -0.1554282 0.04867878
000200 a4 07 50 3b 28 97 e5 3d b8 ca 89 be 16 16 6e bb
       0.0031742835 0.112104714 -0.26912475 -0.0036329082
000210 62 0d 58 bd 4b f6 76 bd 22 ee 1a be 5e b1 56 be
       -0.052747138 -0.060293477 -0.15129903 -0.20966098
000220 6a b9 44 be dc fc 5f be b4 a1 a6 3c 60 ca b0 be
       -0.19211355 -0.21873802 0.020340778 -0.345294
000230 a1 6a 00 be cf e4 82 bd 8e 28 4f be 0d 7d 3e be
       -0.12540676 -0.06391298 -0.20230314 -0.1860239
000240 c0 1d f9 bd 4e 5b 4b be 5d d9 31 be af 6b 55 be
       -0.121638775 -0.19859049 -0.17368074 -0.2084186
000250 c6 a3 3c be fd 87 43 be 43 ab 19 3b 32 6f e1 bd
       -0.1842185 -0.19094844 0.0023448027 -0.11007537
000260 75 95 86 3b a8 99 9f bb d1 f6 b9 bd d6 53 9c 3e
       0.004107172 -0.004870612 -0.090802796 0.30532712
000270 ec 18 68 be 32 32 f9 3c bb 52 0a be c0 e2 b4 3d
       -0.22665757 0.030419443 -0.13508122 0.08832312
000280 a9 75 87 3e a8 5e 53 3d e8 ed 2d 3e 19 e2 8d 3e
       0.26456955 0.051603943 0.16985285 0.2771156
000290 19 aa 9d 3d b8 09 0b be f6 20 b4 bc 15 d1 63 3e
       0.07698459 -0.13577926 -0.021988373 0.22247727
0002a0 2c ed 1a be 38 ef 38 bd 18 fa e0 3d 4b 91 5a 3e
       -0.15129536 -0.04515001 0.109852016 0.21344487
0002b0 80 de f3 3d 52 7c 46 be 42 01 5b 3e 7a 61 0b be
       0.11907673 -0.19383362 0.21387199 -0.13611403
0002c0 58 9d a7 3d bb 2b f3 bc 4b 27 c7 bd c2 1a 96 be
       0.08184308 -0.029683938 -0.097242914 -0.2931729
0002d0 b6 26 c6 3a 53 77 24 be 5a 69 97 bc 90 00 9c 3c
       0.0015117738 -0.16061144 -0.018482853 0.019043237
0002e0 35 fc 18 3c 2d 11 90 bd af 42 0d be 26 d8 68 be
       0.009337475 -0.07034526 -0.13794969 -0.22738704
0002f0 bc cf 50 be 7f 9f aa be 25 b7 a1 be 1a 9e 54 bd
       -0.20391744 -0.3332481 -0.3158504 -0.05190859
000300 6a 0c 0f bd 5c 9d f2 bd a1 a3 45 be e3 21 82 be
       -0.03492395 -0.1184642 -0.193007 -0.2541648
000310 16 5e e0 bd 15 2f 4c be 1a 4a a5 be 65 c7 4b be
       -0.109554455 -0.19939835 -0.32283098 -0.19900282
000320 49 02 98 be 75 20 a6 be 3c da a4 be be 27 49 bd
       -0.29689243 -0.32446638 -0.3219775 -0.049110167
000330 8b b3 bd be 11 01 80 be 03 f0 a9 be e0 77 35 be
       -0.37051043 -0.25000814 -0.33190927 -0.1772151
000340 42 f6 a6 bc 56 74 01 be 67 ce 66 be 9a 7a 7d be
       -0.020381097 -0.12642035 -0.22539674 -0.247538
000350 19 07 19 be 2d a3 1d be 28 f3 00 bd 71 cb b2 bc
       -0.14944114 -0.15394278 -0.031481892 -0.021825524
000360 b6 fa 92 be aa cd 81 be f0 13 3b be bf bb 5d bd
       -0.28706902 -0.25352222 -0.18269324 -0.054134127
000370 2a 4d c0 be d0 3a b3 be f4 44 aa be ef c2 83 bb
       -0.37558872 -0.35005808 -0.33255732 -0.0040210406
000380 04 d0 cb be 04 38 b2 bd 72 ed 5f 3e 33 c4 a2 3d
       -0.3980714 -0.087020904 0.21867922 0.07947578
000390 06 74 7a be 2e d8 32 be 17 c7 d5 3d d5 af b5 bd
       -0.24458322 -0.17465279 0.10438364 -0.08871428
0003a0 0b 16 3d 3e 0f 1d 30 be af dd c4 bd 33 f5 34 3e
       0.1846544 -0.17198585 -0.09612595 0.17671661
0003b0 2f 31 ff 3c 28 2d 81 3e 3b 96 f5 bc 3a b1 a6 3e
       0.031151382 0.25229764 -0.029978862 0.32557088
0003c0 40 4d 95 be 6e 02 87 be 59 84 5c 3e c5 20 16 bd
       -0.291605 -0.2636904 0.21534862 -0.036652345
0003d0 32 e9 12 3e 7a b2 f9 3c 96 a4 29 bc ad 92 5e 3e
       0.1434677 0.030480612 -0.010354182 0.2173564
0003e0 d0 10 44 be ce 18 24 3e 41 9a 8a be 66 cf 34 3e
       -0.19147038 0.16025087 -0.2707081 0.17657241
0003f0 0a 4b 12 be c6 40 63 3c 3c a4 15 be d5 1d 26 3e
       -0.14286438 0.013870424 -0.14613432 0.16222318

linear_sigmoid_stack.6.bias f4 [25]
000000 5f ad ab bd cd ac bf 3c 45 a3 33 be 52 de 1d bd
       -0.08382677 0.023397828 -0.17542751 -0.0385421
000010 56 2c 4a bd 2e 2f ae bd b4 4f c5 3d f8 28 bc be
       -0.04935869 -0.085050926 0.09634343 -0.36750007
000020 ba 74 c3 bd a7 2c 4f 3d 59 df 7e bd ea f8 fb 3d
       -0.09543748 0.050579693 -0.06222472 0.12303336
000030 0a 3a 01 be 72 99 63 be 82 ca 50 be 0d c1 02 3e
       -0.12619796 -0.22226503 -0.2038975 0.12768956
000040 81 96 35 be b9 86 c3 3c 29 0e e4 bd da f2 24 3e
       -0.17733194 0.023867952 -0.11135513 0.16108266
000050 86 86 11 be 8f 3a 15 3e 9c 06 bc bc 1d 94 8f bd
       -0.14211473 0.1457312 -0.02295237 -0.07010672
000060 ba 91 90 3d
       0.07059045

linear_sigmoid_stack.8.weight f4 [1, 25]
000000 ee 7c b9 3c a0 5c e3 bd 74 c9 3b 3e c3 67 1d be
       0.022642579 -0.11101651 0.18338567 -0.15371613
000010 6f f1 59 3e bc 42 43 bc f4 cb 0e 3e 90 c0 2e 3c
       0.21283506 -0.011917766 0.1394499 0.010666028
000020 7e 5f 93 bb eb 48 69 3e 0c 1c d6 3d c7 95 4e 3e
       -0.0044974675 0.22781722 0.10454568 0.20174323
000030 7c b0 ee 3b 09 bd 10 3d c2 aa 56 bd 48 fe 39 3e
       0.007284222 0.035336528 -0.05240894 0.18163407
000040 50 e5 28 3e ec 03 2e be 9d 44 44 3c 14 cb f8 3d
       0.16493726 -0.16993684 0.011979249 0.12148109
000050 4b 7a 8b 3e 64 94 6d 3e 6c 16 61 be ac f3 54 bd
       0.2724174 0.23201138 -0.2198121 -0.051990196
000060 13 da 65 3e
       0.2244647
