Van der Pol/Results/sol_w42.pt (torch_old, 46575 bytes, 9 tensors)

linear_tanh_stack.0.weight f4 [60, 1]
-0.70378995 -0.46363065 0.056119602 -0.2578052 1.0252934 0.71429527 -0.21410148 0.44087458
-0.07654846 0.7074646 0.38148147 0.20837398 -0.28046063 -0.096513666 0.2955954 1.0035045
0.93435377 0.70269793 0.069446966 -0.6359872 0.09641874 0.13271312 0.704574 0.79209167
1.1338099 0.5475302 -0.5097307 1.0385627 0.8718329 -0.5442085 -0.43647945 -0.69081056
0.10166345 0.56787103 0.76325303 -0.03731609 -0.7119067 -0.6714678 0.2249516 -0.76785254
0.3398787 0.6030879 -0.685887 -0.3072428 -0.6266959 0.98578084 0.55421287 0.70332116
-0.89645463 0.19659093 -0.49547935 -0.08959648 -0.5707655 -1.0689512 -0.56703365 0.63171566
-0.23685083 -0.62572145 0.9257717 -0.87273085
00000000: 942b 34bf ff60 edbe abdd 653d 0bff 83be
00000010: d03c 833f 0edc 363f 6b3d 5bbe 50ba e13e
00000020: 70c5 9cbd 661c 353f 8a51 c33e fd5f 553e
00000030: 8998 8fbe f5a8 c5bd 4858 973e d672 803f
00000040: cf31 6f3f 03e4 333f 363a 8e3d 0fd0 22bf
00000050: 3077 c53d f3e5 073e f65e 343f 85c6 4a3f
00000060: af20 913f f02a 0c3f b67d 02bf 9fef 843f
00000070: 7130 5f3f 4051 0bbf 3c7a dfbe f6d8 30bf
00000080: ed34 d03d ff5f 113f 8d64 433f c2d8 18bd
00000090: 843f 36bf 50e5 2bbf b659 663e fc91 44bf
000000a0: 9504 ae3e f863 1a3f 4a96 2fbf ee4e 9dbe
000000b0: 246f 20bf 225c 7c3f e5e0 0d3f db0c 343f
000000c0: 0d7e 65bf 224f 493e 78af fdbe 5c7e b7bd
000000d0: b01d 12bf 65d3 88bf 1e29 11bf 1eb8 213f
000000e0: 0689 72be 482f 20bf 60ff 6c3f 4a6b 5fbf

linear_tanh_stack.0.bias f4 [60]
0.5379192 -0.5047467 -0.098396316 -0.10932901 0.4398911 0.74895227 0.8013441 0.7369288
0.32421252 0.20721401 -1.7027609 0.011507488 -0.08613671 -0.813654 -0.44133854 -0.1505291
-0.36387107 0.7329393 -0.53645813 0.46187422 -0.7300273 0.20537208 -1.5820475 0.5330674
0.3910051 0.48668408 -0.2710434 0.785444 0.6762122 -0.654114 0.921724 1.3277863
-0.27756786 -0.081019185 0.9052812 -0.3026035 0.74631476 0.8422623 -0.058228042 -0.3989354
0.2408186 0.47934616 0.43970293 -0.9895479 0.76906615 0.9138692 -0.1202303 -0.015439385
-0.26788127 -3.6483266 -0.56260526 1.3448988 -0.7903704 -0.56030416 -0.9519901 0.9711603
0.8725874 0.61425155 -0.01756979 0.27116686
00000000: 13b5 093f 1437 01bf 0284 c9bd e3e7 dfbd
00000010: 6839 e13e 56bb 3f3f e324 4d3f 5ea7 3c3f
00000020: 2fff a53e e92f 543e 12f4 d9bf e789 3c3c
00000030: 7268 b0bd a14b 50bf 20f7 e1be 4d24 1abe
00000040: 4f4d babe e9a1 3b3f 5255 09bf c77a ec3e
00000050: 12e3 3abf 0f4d 523e 8880 cabf 1b77 083f
00000060: d231 c83e a82e f93e 33c6 8abe dc12 493f
00000070: 3e1c 2d3f 0474 27bf 1bf6 6b3f e7f4 a93f
00000080: 601d 8ebe 63ed a5bd 82c0 673f d9ee 9abe
00000090: 7c0e 3f3f 819e 573f 8780 6ebd 4341 ccbe
000000a0: 2799 763e dc6c f53e be20 e13e 0353 7dbf
000000b0: 85e1 443f 55f3 693f 4e3b f6bd 79f5 7cbc
000000c0: bc27 89be 2f7e 69c0 e606 10bf a525 ac3f
000000d0: b755 4abf 1870 0fbf a0b5 73bf f69d 783f
000000e0: e361 5f3f 973f 1d3f 85ee 8fbc 62d6 8a3e

linear_tanh_stack.2.weight f4 [60, 60]
-0.028030422 -0.04220994 -0.27413356 0.1496917 0.0435291 -0.057367433 0.03725481 -0.10638539
0.31472644 0.016159412 -0.033924907 -0.06834343 -0.0077955225 0.01539335 0.02644252 -0.070936844
0.13862427 -0.03176509 -0.056592118 -0.121630795 0.10358024 -0.043786835 0.14016499 -0.124037586
-0.038595837 -0.1407014 -0.038039107 0.06306621 0.0024410763 -0.04089152 -0.107736625 -0.084485486
-0.075797394 -0.06351428 0.048271775 0.14651722 -0.011163267 0.08548951 0.021459475 -0.023368552
0.0587659 0.0038537518 -0.1432535 0.035172135 -0.10108009 -0.07693931 -0.0317286 -0.11550289
0.1369235 -0.34739146 -0.05848344 0.18045832 0.038178317 -0.052407157 0.016844993 -0.10727433
-0.10804811 -0.1251933 0.087931626 -0.07216895 -0.15555568 -0.0800336 -0.031669535 0.027970118
-0.1367335 -0.11448985 0.13328755 0.01712564 0.15727766 0.07000235 -0.30781984 -0.13857515
-0.025984652 0.0067869397 -0.122054175 -0.0775748 0.0839663 -0.02520723 0.020605769 -0.13923213
0.1214564 -0.14240146 0.10040299 0.06897232 -0.02874527 0.10323174 -0.013386295 -0.027148873
-0.008053878 0.07592908 -0.07622625 -0.17213196 0.12930006 0.15337855 -0.060965598 0.015366191
-0.11257309 -0.15458882 -0.12024578 -0.047629602 0.016686983 0.09380021 0.0059704683 0.038223695
-0.0014783624 -0.10866793 -0.057049684 -0.042564347 0.08538697 0.12501264 0.134774 -0.04172415
-0.06684981 -0.09355788 0.075714074 0.0068188314 0.13778608 -0.11367684 0.09002058 -0.0852963
-0.10198344 -0.078579254 0.12843421 -0.12287738 0.02538623 0.08918319 0.06904028 0.11730251
-0.1868768 -0.06157092 0.039491188 0.10301374 -0.105792165 -0.10342475 0.035877354 -0.11387682
-0.09860196 0.03503154 -0.0009691582 0.08195816 0.07052202 0.08011345 -0.08399131 0.0107646175
0.0012815954 -0.08094309 0.08949756 0.011914739 -0.02413841 0.023299277 0.08764559 -0.028520761
0.13570662 0.089518666 0.06492003 -0.17339697 0.086913705 0.056905292 0.00889771 -0.03904549
-0.10832816 0.10634009 -0.0718185 0.04405038 0.05015199 0.03945143 0.1301546 -0.03335202
0.0009495055 0.03367144 0.06810736 -0.015986057 0.05325066 0.0049368124 -0.08629545 -0.069500014
0.015970217 0.016517662 -0.11153248 0.006160659 -0.1524328 0.043206688 0.15757157 -0.11426271
-0.097754836 0.02250527 0.053196322 -0.12053955 -0.03297379 -0.059359368 0.018515509 -0.07166185
0.05569748 -0.086895235 0.07887564 -0.08796367 0.07927531 0.079352155 0.20264973 -0.017415835
0.31718388 0.07562492 0.04749884 -0.017792637 0.0050880043 0.119351715 0.04735856 -0.049083687
0.12408826 -0.053211305 -0.16476998 -0.12737131 0.22910984 -0.089410484 -0.11559245 -0.06395581
-0.15784241 -0.063714154 -0.03665805 0.034661543 0.020222725 -0.0077630873 -0.08201938 -0.11992873
-0.06925504 -0.06506715 0.12144647 0.08943244 -0.06635398 0.073324025 0.040022273 -0.14308882
0.0906826 -0.049041796 -0.043651946 -0.102186546 -0.080973424 0.02105647 0.09306712 -0.09743904
-0.15633382 -0.081949085 -0.054101083 -0.02700922 0.001789511 -0.021624463 -0.05102784 0.11690862
-0.0801089 0.06679262 0.009717358 -0.09063332 0.109292 0.0482508 -0.06158152 -0.06191335
00000000: 0ea0 e5bc 54e4 2cbd 3c5b 8cbe c848 193e
00000010: 924b 323d 1dfa 6abd 8098 183d 95e0 d9bd
00000020: d323 a13e be60 843c d8f4 0abd a4f7 8bbd
00000030: 9571 ffbb 6434 7c3c fc9d d83c 5647 91bd
00000040: 85f3 0d3e 1c1c 02bd 23cd 67bd 9119 f9bd
00000050: e021 d43d d359 33bd 6987 0f3e 6b07 febd
00000060: ab16 1ebd 0714 10be e5ce 1bbd db28 813d
00000070: 77fa 1f3b de7d 27bd 05a5 dcbd ba06 adbd
00000080: aa3b 9bbd c613 82bd a0b8 453d 9c08 163e
00000090: 23e6 36bc 2015 af3d c8cb af3c 686f bfbc
000000a0: 83b4 703d 3a8f 7c3b 0cb1 12be a810 103d
000000b0: 1403 cfbd 5b92 9dbd d9f5 01bd c78c ecbd
000000c0: ad35 0c3e 4bdd b1be 558c 6fbd 11ca 383e
000000d0: de60 1c3d e3a8 56bd 83fe 893c a5b2 dbbd
000000e0: 5448 ddbd ac32 00be 7f15 b43d 51cd 93bd
000000f0: fd49 1fbe a8e8 a3bd eab7 01bd 9721 e53c
00000100: de03 0cbe a879 eabd 887c 083e 124b 8c3c
00000110: 650d 213e 645d 8f3d 909a 9dbe a5e6 0dbe
00000120: c4dd d4bc fa64 de3b 8af7 f9bd 89df 9ebd
00000130: 86f6 ab3d 657f cebc 6ecd a83c de92 0ebe
00000140: 22be f83d b0d1 11be 15a0 cd3d 5c41 8d3d
00000150: 337b ebbc 2a6b d33d 3152 5bbc 5067 debc
00000160: 6af4 03bc b580 9b3d 821c 9cbd 5c43 30be
00000170: 3c67 043e 440f 1d3e 10b7 79bd 7ac2 7b3c
00000180: b88c e6bd 884c 1ebe 6b43 f6bd 4217 43bd
00000190: 24b3 883c 531a c03d eba3 c33b 7390 1c3d
000001a0: 9cc5 c1ba 4b8d debd eeac 69bd f457 2ebd
000001b0: 5ddf ae3d 5003 003e 3202 0a3e f1e6 2abd
000001c0: 8ee8 88bd 469b bfbd fb0f 9b3d 8170 df3b
000001d0: cb17 0d3e 67cf e8bd b65c b83d d4af aebd
000001e0: b2dc d0bd 29ee a0bd 4284 033e 23a7 fbbd
000001f0: c8f6 cf3c ada5 b63d fe64 8d3d 4c3c f03d
00000200: a25c 3fbe ca31 7cbd 83c1 213d def8 d23d
00000210: 90a9 d8bd 5bd0 d3bd 22f4 123d 4038 e9bd
00000220: d3ef c9bd 3b7d 0f3d 1b0f 7eba aed9 a73d
00000230: d96d 903d 8512 a43d a303 acbd 145e 303c
00000240: 35fb a73a 7ec5 a5bd 7f4a b73d 0a36 433c
00000250: eabd c5bc 20de be3c 887f b33d 5fa4 e9bc
00000260: adf6 0a3e 9055 b73d cbf4 843d fa8e 31be
00000270: d0ff b13d 8615 693d b3c7 113c 2aee 1fbd
00000280: 28db ddbd d5c8 d93d 9415 93bd 2c6e 343d
00000290: 2c6c 4d3d d397 213d 3f47 053e 219c 08bd
000002a0: 3ce8 783a 10eb 093d df7b 8b3d 31f5 82bc
000002b0: 5d1d 5a3d fcc4 a13b abbb b0bd 0656 8ebd
000002c0: f9d3 823c 0c50 873c 246b e4bd 5adf c93b
000002d0: 5817 1cbe 7ff9 303d 715a 213e 9102 eabd
000002e0: b033 c8bd f95c b83c 63e4 593d 71dd f6bd
000002f0: 860f 07bd cf22 73bd d6ad 973c 73c3 92bd
00000300: 0a23 643d 21f6 b1bd 8d89 a13d 4c26 b4bd
00000310: 185b a23d 6283 a23d 6983 4f3e a7ab 8ebc
00000320: ed65 a23e 3de1 9a3d 258e 423d ddc1 91bc
00000330: 46b9 a63b ac6e f43d 0dfb 413d fa0b 49bd
00000340: fc21 fe3d 19f4 59bd 76b9 28be a06d 02be
00000350: c59b 6a3e d81c b7bd bcbb ecbd 44fb 82bd
00000360: 71a1 21be 917c 82bd c026 16bd 43f9 0d3d
00000370: 21aa a53c 7f61 febb c7f9 a7bd 329d f5bd
00000380: 96d5 8dbd ed41 85bd edb8 f83d 5b28 b73d
00000390: 98e4 87bd e82a 963d 65ee 233d e085 12be
000003a0: cdb7 b93d 0de0 48bd 62cc 32bd 2e47 d1bd
000003b0: 65d5 a5bd 9e7e ac3c f999 be3d 1f8e c7bd
000003c0: f915 20be ecd4 a7bd 1999 5dbd 7142 ddbc
000003d0: 068e ea3a c925 b1bc 9102 51bd c96d ef3d
000003e0: 2310 a4bd 92ca 883d 8e35 1f3c f69d b9bd
000003f0: 7cd4 df3d a2a2 453d e73c 7cbd da98 7dbd

linear_tanh_stack.2.bias f4 [60]
-0.15217355 -0.039057184 -0.110213734 0.11620468 0.05195332 0.01413288 -0.06800287 0.07653503
0.095805004 0.10574642 -0.046936147 -0.119358554 0.041874714 0.09176676 -0.034926094 0.11927221
0.07166843 -0.034811113 0.11502142 0.03313109 -0.01919184 0.12434553 0.084448755 0.068547964
0.011989815 -0.010944556 0.064937785 0.13772145 0.050498527 -0.03892816 0.09738326 -0.07020737
0.03930633 0.05109299 0.121113576 0.081741735 0.06392182 0.12569039 -0.10493515 0.08049732
-0.020150429 -0.06836233 0.055944275 0.087462656 -0.10169357 -0.010085593 0.050235428 0.09965159
0.10969107 -0.05998334 0.05940063 0.077257946 0.1220253 0.043078084 0.1461724 0.06764348
-0.00069889415 0.047512487 -0.025160858 -0.06147962
00000000: 62d3 1bbe 6dfa 1fbd bdb7 e1bd b8fc ed3d
00000010: 01cd 543d 988d 673c 1745 8bbd 66be 9c3d
00000020: 6a35 c43d 9491 d83d 1e40 40bd 4272 f4bd
00000030: d284 2b3d 36f0 bb3d aa0e 0fbd fd44 f43d
00000040: e6c6 923d 1996 0ebd 5a90 eb3d 77b4 073d
00000050: 3538 9dbc dfa8 fe3d 78f3 ac3d e062 8c3d
00000060: ee70 443c cc50 33bc 1afe 843d da06 0d3e
00000070: 8bd7 4e3d 2273 1fbd e070 c73d e2c8 8fbd
00000080: adff 203d e246 513d 650a f83d 3668 a73d
00000090: 71e9 823d fbb4 003e 3de8 d6bd c7db a43d
000000a0: 8312 a5bc 8d01 8cbd d325 653d 9f1f b33d
000000b0: b844 d0bd 0b3e 25bc aac3 4d3d 2216 cc3d
000000c0: b6a5 e03d 17b1 75bd 134e 733d 6a39 9e3d
000000d0: 67e8 f93d a572 303d 38ae 153e aa88 8a3d
000000e0: fe35 37ba 749c 423d 251e cebc 0ed2 7bbd

linear_tanh_stack.4.weight f4 [60, 60]
-0.076800026 0.0818293 -0.040882267 0.007740201 -0.079265326 -0.07734211 0.09998764 -0.058178708
0.09184635 -0.08255031 0.124286294 -0.04819453 -0.0066935024 0.09746658 0.106308185 0.005638643
0.10062145 -0.08300093 0.11769982 0.0044751116 -0.010707083 -0.29983324 -0.005037725 0.15294029
0.100848086 -0.11089745 0.052423444 0.114233814 0.020583417 -0.013008134 0.13147478 0.1200821
0.07085466 0.05752167 -0.0724549 0.105102204 0.010206481 -0.065412015 -0.053184558 0.04115617
0.025137514 -0.11549013 0.058793515 0.05046804 -0.099823445 -0.0987098 0.068731256 -0.083947554
0.06148466 -0.06324765 -0.08903941 0.043426014 -0.08869501 -0.1291771 -0.038577 0.093917444
0.0010094254 0.016976327 -0.10238551 -0.07547256 0.2760555 -0.10472111 -0.027417473 -0.21379018
-0.36892313 0.048914593 0.9420714 -0.1412959 -0.34562615 0.3015581 0.8545905 -0.89362746
-0.11519834 0.025667153 -0.16281071 0.044598807 0.29418936 0.2628374 -0.036668614 0.58511174
0.22434947 0.79990566 -0.28262368 -0.009799213 -0.087490134 -0.55590355 0.07315903 0.3745334
-0.8386331 -0.35581255 -0.16469337 0.12025946 0.2511917 0.28641528 -0.2715071 0.28010008
-0.20278962 -0.22385676 0.11439344 -0.58916855 -0.21706156 0.27750337 -0.008120965 -0.028627044
0.4311744 0.2484176 -0.5287274 0.11494438 -0.16460368 0.23564781 0.17879729 -0.61018676
0.91584855 0.29584423 -0.500556 0.06319156 -0.08162495 0.22160345 0.15363565 -0.08603859
0.043323375 0.022929605 0.0561017 0.021406138 0.07266732 -0.14143084 0.09367277 0.08122588
0.113957606 0.022490092 -0.05989366 -0.016705254 0.09582863 0.060314175 -0.052186128 -0.09137681
-0.12821418 0.031864464 0.032189336 -0.021484876 -0.012307686 -0.08863849 0.059377626 0.09606699
0.09808894 0.10786932 0.13522798 0.15303984 0.04894876 0.02578917 -0.1097946 0.11847222
0.022431182 0.027240967 0.1292989 0.11676021 -0.07393645 0.042676605 0.07667745 0.1386058
0.078873284 -0.02712992 0.019701112 -0.15091287 -0.12471784 -0.103534214 -0.105185874 0.06445974
-0.13037072 0.08816568 0.071602724 -0.058655463 0.05632469 -0.08684674 0.06687936 -0.013389391
0.15363118 -0.0046253726 -0.026644614 0.085615024 -0.0358816 -0.047079656 0.117713615 0.07336936
-0.017875291 -0.05826652 0.1533749 -0.13406622 0.012578714 0.021836648 -0.13304922 0.029619187
-0.015635705 0.062080972 0.06762392 0.10756176 -0.049956556 0.0635374 0.1608438 0.036508422
-0.18549877 -0.02319657 -0.035161797 -0.010124559 -0.13215515 0.099786095 0.07680686 -0.11245625
0.046799272 0.13703124 -0.03502115 0.09648328 -0.05285912 0.14172512 -0.06663526 0.08318875
0.15824535 0.010983966 0.013012313 -0.033787213 -0.016798306 -0.058714893 -0.097836964 0.033305388
-0.14890437 -0.09783634 0.048146706 -0.0386512 0.10617165 -0.1712535 -0.069120474 -0.07976708
-0.106384404 0.11311533 0.009946351 -0.16665405 0.172432 0.17312177 -0.02287237 -0.015076448
0.010147671 -0.27383 -0.07585211 0.079991 -0.103625745 -0.10205558 0.003277923 0.05260014
-0.05541193 0.016397675 0.06845456 -0.08859738 -0.085597605 -0.06136842 -0.06482377 0.011744177
00000000: 5549 9dbd 1f96 a73d 2a74 27bd 83a1 fd3b
00000010: dc55 a2bd 8a65 9ebd 52c6 cc3d cc4c 6ebd
00000020: f019 bc3d 2310 a9bd d089 fe3d a167 45bd
00000030: 2b55 dbbb 8f9c c73d 1bb8 d93d 5ec4 b83b
00000040: 9e12 ce3d 64fc a9bd 9a0c f13d f5a3 923b
00000050: c36c 2fbc be83 99be 8013 a5bb 619c 1c3e
00000060: 7189 ce3d 341e e3bd f7b9 563d 6bf3 e93d
00000070: 8e9e a83c 1220 55bc 53a1 063e 9bed f53d
00000080: 3f1c 913d d89b 6b3d 3c63 94bd d33f d73d
00000090: 1639 273c bcf6 85bd 0dd8 59bd 5f93 283d
000000a0: 30ed cd3c 1786 ecbd 78d1 703d 93b7 4e3d
000000b0: 3c70 ccbd 5d28 cabd f9c2 8c3d b2ec abbd
000000c0: 57d7 7b3d fc87 81bd 4b5a b6bd 7adf 313d
000000d0: bba5 b5bd 0047 04be eb02 1ebd ca57 c03d
000000e0: b24e 843a f011 8b3c 7faf d1bd 5c91 9abd
000000f0: 2657 8d3e 0578 d6bd 9c9a e0bc d0eb 5abe
00000100: 7ee3 bcbe ab5a 483d 972b 713f dfaf 10be
00000110: e9f5 b0be d365 9a3e 71c6 5a3f c5c4 64bf
00000120: 1bed ebbd ec43 d23c dab7 26be 3dad 363d
00000130: fd9f 963e a092 863e d431 16bd e2c9 153f
00000140: debb 653e 9ec6 4c3f 0db4 90be e18c 20bc
00000150: 072e b3bd b24f 0ebf 67d4 953d d8c2 bf3e
00000160: a9b0 56bf 102d b6be 61a5 28be 974a f63d
00000170: 339c 803e 06a5 923e fb02 8bbe 4769 8f3e
00000180: 15a8 4fbe b53a 65be 1c47 ea3d c0d3 16bf
00000190: 6345 5ebe ec14 8e3e cc0d 05bc 4383 eabc
000001a0: e4c2 dc3e 2f61 7e3e ae5a 07bf f667 eb3d
000001b0: de8d 28be a94d 713e a316 373e 3335 1cbf
000001c0: 0d75 6a3f e578 973e 7024 00bf 946a 813d
000001d0: fb2a a7bd 04ec 623e aa52 1d3e 0035 b0bd
000001e0: da73 313d ded6 bb3c e5ca 653d ed5b af3c
000001f0: 9bd2 943d 3fd3 10be 82d7 bf3d c159 a63d
00000200: 9b62 e93d 243d b83c 0e53 75bd 75d9 88bc
00000210: cd41 c43d ff0b 773d 1fc1 55bd c423 bbbd
00000220: 944a 03be 5084 023d f7d8 033d 0d01 b0bc
00000230: 2da6 49bc 1988 b5bd f435 733d c5be c43d
00000240: dbe2 c83d 97ea dc3d 3479 0a3e 7ab6 1c3e
00000250: 7f7e 483d cf43 d33c fedb e0bd 90a1 f23d
00000260: 99c1 b73c 7328 df3c ee66 043e fa1f ef3d
00000270: fe6b 97bd aacd 2e3d 1109 9d3d aeee 0d3e
00000280: 5188 a13d 913f debc 3a64 a13c e788 1abe
00000290: 116c ffbd bf09 d4bd b16b d7bd 7803 843d
000002a0: e77f 05be 3590 b43d 73a4 923d b640 70bd
000002b0: b8b4 663d b4dc b1bd 0cf8 883d 2d5f 5bbc
000002c0: 7e51 1d3e 7090 97bb ce45 dabc ee56 af3d
000002d0: 96f8 12bd 99d6 40bd d613 f13d ad42 963d
000002e0: 346f 92bc e0a8 6ebd 4f0e 1d3e a848 09be
000002f0: f316 4e3c c5e2 b23c 0e3e 08be f0a3 f23c
00000300: 7316 80bc 9e48 7e3d 697e 8a3d 5749 dc3d
00000310: 3f9f 4cbd e51f 823d 3db4 243e db89 153d
00000320: 64f3 3dbe bc06 bebc d105 10bd 7ae1 25bc
00000330: ae53 07be a75c cc3d ea4c 9d3d 764f e6bd
00000340: 98b0 3f3d eb51 0c3e 5672 0fbd 0799 c53d
00000350: ce82 58bd 6420 113e 1178 88bd dd5e aa3d
00000360: 120b 223e 18f6 333c 9931 553c 7664 0abd
00000370: 9a9c 89bc 077f 70bd bf5e c8bd 3b6b 083d
00000380: 637a 18be 6b5e c8bd 7b35 453d b850 1ebd
00000390: 8670 d93d 145d 2fbe 098f 8dbd ec5c a3bd
000003a0: 11e0 d9bd 03a9 e73d 05f6 223c 5ca7 2abe
000003b0: 0492 303e d546 313e d65e bbbc 3503 77bc
000003c0: 6b42 263c 7233 8cbe 5a58 9bbd 52d2 a33d
000003d0: bc39 d4bd 8402 d1bd 6cd2 563b 3f73 573d
000003e0: 9ff7 62bd 6b54 863c e831 8c3d 8b72 b5bd
000003f0: cc4d afbd 745d 7bbd 53c2 84bd a66a 403c

linear_tanh_stack.4.bias f4 [60]
-0.06494936 0.11498875 -0.020050658 -0.034727633 0.012739749 -0.07457093 -0.044905454 0.0058975723
-0.0943504 -0.008875916 -0.07580679 0.06504784 0.0044875294 -0.15494269 0.022111163 -0.08940772
-0.114121385 -0.0011882908 -0.06439937 -0.026633775 -0.05054109 0.015846185 -0.10518164 0.06887663
0.048635334 -0.05004882 -0.09824897 -0.016588207 0.10595036 -0.04323736 -0.11151692 -0.07382737
0.116434775 0.04554178 -0.16022408 0.0471104 0.0033249594 -0.030753097 -0.046741277 0.09615695
-0.07675713 0.003288552 0.096854016 -0.11087865 0.0041843266 0.09529057 0.06880087 0.10016672
0.014956507 0.08021053 0.04053817 -0.014218933 0.08387662 -0.11728199 -0.057974514 0.071777105
-0.055653602 -0.07298873 -0.060882375 -0.092588395
00000000: 2c04 85bd 397f eb3d 4741 a4bc 903e 0ebd
00000010: 61ba 503c a5b8 98bd c8ee 37bd 6c40 c13b
00000020: c83a c1bd 4a6c 11bc 9740 9bbd cd37 853d
00000030: 200c 933b 4ca9 1ebe 7822 b53c 651b b7bd
00000040: 79b8 e9bd 6cc0 9bba d1e3 83bd 132f dabc
00000050: 2d04 4fbd dccf 813c 7969 d7bd 310f 8d3d
00000060: d835 473d feff 4cbd c236 c9bd fee3 87bc
00000070: 81fc d83d a819 31bd fc62 e4bd ce32 97bd
00000080: 5b75 ee3d 048a 3a3d c811 24be d6f6 403d
00000090: 90e7 593b ebed fbbc c873 3fbd efed c43d
000000a0: d832 9dbd bf84 573b 665b c63d 5814 e3bd
000000b0: ad1c 893b b427 c33d 78e7 8c3d 3624 cd3d
000000c0: 230c 753c 6b45 a43d 5a0b 263d 87f6 68bc
000000d0: 81c7 ab3d 8a31 f0bd af76 6dbd e0ff 923d
000000e0: 08f5 63bd 1e7b 95bd cc5f 79bd fc9e bdbd

linear_tanh_stack.6.weight f4 [60, 60]
-0.055983916 -0.0047514034 -0.013675601 -0.032245744 0.055201232 0.0440382 0.26527157 0.0027279668
0.010915165 -0.0021977439 0.11219566 0.10896621 -0.015487902 -0.036594998 -0.020832183 -0.19305743
0.1174809 0.07280244 0.07170604 0.09937696 0.11452081 -0.033092335 -0.07831079 -0.09135477
-0.010984531 -0.0932731 0.11634256 -0.12655269 -0.036007408 0.070331454 0.091661036 -0.07817351
0.045679796 0.07106225 0.084025 0.11001211 -0.10959198 -0.009606928 -0.11789068 -0.10413847
-0.047479466 0.032277428 0.077268146 0.04128219 0.06573216 -0.023366341 -0.08574336 0.05580012
0.04029322 0.027885657 0.022674728 0.05191631 -0.10263806 0.018929312 0.024453592 -0.038049027
-0.07193025 -0.07333416 -0.119361095 -0.07821524 0.09515698 -0.26726547 0.08587453 0.025492802
-0.13762869 0.11156404 -0.093189195 0.10448264 -0.34490865 0.046754554 -0.11659056 -0.050041337
0.52595514 0.036295567 0.022111237 0.32262596 -0.015181989 0.1304843 -0.047270592 -0.028862366
-0.07682981 -0.39681175 -0.39643162 0.04742316 0.040677916 0.19110219 -0.04063782 -0.16167144
-0.48319793 -0.11833448 -0.0032745458 -0.051304374 0.048331488 -0.31042963 -0.24505125 -0.032043822
-0.5168698 -0.049486652 0.5089097 0.12341394 -0.31419113 -0.062609434 -0.1336565 0.16798033
0.06870503 -0.06275486 0.19306257 0.3254303 -0.10065672 0.085008465 -0.05785752 -0.16204542
0.103880666 0.08922815 -0.04251444 0.11031962 -0.28262046 -0.37717417 -0.26515767 0.21817741
0.028679516 -0.21943353 -0.054349814 0.053591892 0.09932746 -0.006014388 0.2809259 -0.009053871
-0.060359888 -0.0017345787 -0.079572804 -0.028276158 -0.044589847 0.0016463062 -0.141795 -0.2191244
0.06946521 0.08408788 -0.0075156153 0.05948616 0.11908215 0.018496288 -0.00033729622 0.033816606
-0.0025646882 -0.13174668 -0.05103861 -0.15672074 -0.014485575 0.06790166 -0.07630784 0.076922335
-0.10949584 0.0783725 -0.06698067 -0.060363356 0.11884195 0.105605565 0.006013108 0.016865665
0.039389797 -0.06518698 0.094163574 0.0038704078 -0.037346713 -0.16049282 0.056645222 -0.008986687
-0.021002475 -0.08155554 0.030270835 0.051388327 0.037921503 -0.00053703005 0.041700408 -0.09168083
-0.121161185 0.08732201 -0.16396716 -0.11789397 0.05473876 0.119022936 -0.12007271 -0.13385877
0.084644444 -0.066216186 -0.2906135 -0.047955964 -0.04941995 -0.17961568 0.13421994 -0.0022564875
0.07404445 -0.051335037 0.024411004 0.2239421 -0.067640625 -0.05388257 0.073468216 0.068752594
-0.05089141 -0.10771721 -0.078747354 -0.18851234 -0.0642507 0.026967071 -0.11173693 0.0453371
0.05686299 0.16138774 -0.11814671 0.1473159 -0.1424577 0.096280545 0.15821001 0.010540051
-0.042709563 0.09842818 -0.101046115 0.13988034 -0.055510253 0.011719016 0.13256629 -0.066387184
-0.01925483 -0.055597965 0.0852033 0.008564752 -0.030147627 -0.03485452 0.021054963 -0.041482747
-0.11011404 0.07232503 0.14017251 0.062564746 0.17690115 -0.057264347 -0.04316377 0.11106722
-0.022461176 -0.13789944 -0.019511098 -0.034980558 0.11580812 0.07006065 0.15415065 -0.1105843
0.13497199 0.051152516 -0.06435503 0.019237958 -0.13213225 0.069381416 0.028974686 0.026629385
00000000: 644f 65bd a9b1 9bbb a10f 60bc 1d14 04bd
00000010: b01a 623d 6661 343d add1 873e b0c7 323b
00000020: 85d5 323c 0608 10bb d7c6 e53d ad29 df3d
00000030: f8c0 7dbc a3e4 15bd 41a8 aabc d9b0 45be
00000040: d399 f03d 7219 953d 9eda 923d 2686 cb3d
00000050: e389 ea3d d48b 07bd 6861 a0bd 3618 bbbd
00000060: 76f8 33bc f805 bfbd 0245 ee3d 0797 01be
00000070: 817c 13bd f009 903d c8b8 bb3d 6f19 a0bd
00000080: bd1a 3b3d 1689 913d 4d15 ac3d 074e e13d
00000090: c371 e0bd 6066 1dbc ab70 f1bd 8d46 d5bd
000000a0: d479 42bd 5635 043d c33e 9e3d 8317 293d
000000b0: 959e 863d c56a bfbc 379a afbd ab8e 643d
000000c0: 810a 253d 7670 e43c 5ac0 b93c 32a6 543d
000000d0: e733 d2bd a511 9b3c e652 c83c 4cd9 1bbd
000000e0: 2b50 93bd 3830 96bd 9773 f4bd 502f a0bd
000000f0: aae1 c23d 05d7 88be fcde af3d 48d6 d03c
00000100: 89ee 0cbe b07b e43d fad9 bebd fffa d53d
00000110: de97 b0be b481 3f3d 08c7 eebd 25f8 4cbd
00000120: ffa4 063f a9aa 143d a022 b53c 3b2f a53e
00000130: e1bd 78bc ad9d 053e cf9e 41bd c570 ecbc
00000140: f358 9dbd e92a cbbe 16f9 cabe ca3e 423d
00000150: e39d 263d 4bb0 433e d873 26bd 338d 25be
00000160: b865 f7be 5959 f2bd c399 56bb 8924 52bd
00000170: 3df7 453d a2f0 9ebe b7ee 7abe 6240 03bd
00000180: 9451 04bf 84b2 4abd e847 023f 73c0 fc3d
00000190: a9dd a0be 6039 80bd 40dd 08be 0903 2c3e
000001a0: 39b5 8c3d 9f85 80bd 32b2 453e cd9e a63e
000001b0: 1c25 cebd eb18 ae3d 02fc 6cbd 3cef 25be
000001c0: 63bf d43d 40bd b63d 9f23 2ebd 41ef e13d
000001d0: a1b3 90be f91c c1be bfc2 87be e669 5f3e
000001e0: 4ef1 ea3c 2fb3 60be e99d 5ebd 2c83 5b3d
000001f0: 326c cb3d 5814 c5bb 85d5 8f3e b056 14bc
00000200: ee3b 77bd ce5a e3ba 11f7 a2bd 67a3 e7bc
00000210: d8a3 36bd dfc8 d73a b532 11be 2662 60be
00000220: c743 8e3d 4436 ac3d 8d45 f6bb c2a7 733d
00000230: 58e1 f33d 8785 973c 22d7 b0b9 4883 0a3d
00000240: 5414 28bb 9ae8 06be dd0d 51bd 677b 20be
00000250: e854 6dbc 0710 8b3d 4947 9cbd 7589 9d3d
00000260: 5b3f e0bd c381 a03d 292d 89bd 913f 77bd
00000270: 6963 f33d bb47 d83d 9b09 c53b dd29 8a3c
00000280: 3257 213d c080 85bd d5d8 c03d aba6 7d3b
00000290: def8 18bd 3b58 24be d204 683d e63c 13bc
000002a0: 620d acbc 9706 a7bd 8bfa f73c 917c 523d
000002b0: 9453 1b3d 7ac7 0cba 0cce 2a3d 29c3 bbbd
000002c0: 5b23 f8bd e2d5 b23d 02e7 27be 6572 f1bd
000002d0: c035 603d 4cc2 f33d aee8 f5bd 4612 09be
000002e0: 115a ad3d 5a9c 87bd 4bcb 94be 796d 44bd
000002f0: 936c 4abd 2ced 37be f470 093e 94e1 13bb
00000300: 9ea4 973d b044 52bd 96f9 c73c 1451 653e
00000310: 2b87 8abd f8b3 5cbd 8176 963d 29ce 8c3d
00000320: 8373 50bd d79a dcbd 4b46 a1bd 6109 41be
00000330: df95 83bd 0cea dc3c 55d6 e4bd 65b3 393d
00000340: 2be9 683d d442 253e e7f6 f1bd fbd9 163e
00000350: 6ee0 11be bc2e c53d ce01 223e 2eb0 2c3c
00000360: 39f0 2ebd b794 c93d 44f1 cebd cb3c 0f3e
00000370: b85e 63bd 1e01 403c 75bf 073e 01f6 87bd
00000380: 4ebc 9dbc b1ba 63bd 117f ae3d 2c53 0c3c
00000390: 28f8 f6bc 9dc3 0ebd 757b ac3c d0e9 29bd
000003a0: 7883 e1bd 251f 943d 6289 0f3e f221 803d
000003b0: 9325 353e 058e 6abd 7ecc 30bd 3677 e33d
000003c0: 8000 b8bc 8335 0dbe bdd5 9fbc c647 0fbd
000003d0: cf2c ed3d f57b 8f3d abd9 1d3e 057a e2bd
000003e0: 1936 0a3e 4d85 513d 92cc 83bd ec98 9d3c
000003f0: ad4d 07be d817 8e3d 525c ed3c de25 da3c

linear_tanh_stack.6.bias f4 [60]
-0.065796465 0.0621909 -0.100704774 -0.053230662 0.064324416 -0.028062258 0.05690484 0.054486755
-0.10023938 0.046702623 0.14375962 0.057598364 0.17869964 -0.09532658 0.05167629 0.045985196
-0.017941695 0.07106882 0.21734093 -0.07308548 -0.0830513 -0.13888541 -0.10573952 0.038798068
0.14570057 0.029017158 -0.10160476 0.03996397 -0.10639052 -0.15290183 0.13242024 0.07552971
0.08749209 0.027471704 0.03522978 0.10002472 0.07945349 0.0705376 -0.03346731 0.10985586
0.16107318 -0.028561506 0.02551539 -1.8254505e-05 -0.016965814 -0.1017651 0.03310723 -0.01857101
0.08692716 0.08970899 0.022314154 -0.02647117 0.13614665 -0.09114848 0.033972617 -0.039230987
0.04155859 -0.069494516 -0.011503604 0.0007215957
00000000: 4cc0 86bd e3bb 7e3d 4e3e cebd 6508 5abd
00000010: 85bc 833d d2e2 e5bc 0d15 693d 812d 5f3d
00000020: 4e4a cdbd 404b 3f3d b935 133e 43ec 6b3d
00000030: 0afd 363e 953a c3bd 84aa 533d f95a 3c3d
00000040: 76fa 92bc 888c 913d 9f8e 5e3e d7ad 95bd
00000050: cd16 aabd fa37 0ebe f68d d8bd b9ea 1e3d
00000060: 8832 153e 64b5 ed3c 2816 d0bd 43b1 233d
00000070: 46e3 d9bd 4c92 1cbe 2c99 073e 52af 9a3d
00000080: 0e2f b33d 570c e13c 1a4d 103d c3d9 cc3d
00000090: 83b8 a23d 0476 903d 0515 09bd 1cfc e03d
000000a0: 5ef0 243e d2f9 e9bc a705 d13c 4021 99b7
000000b0: e4fb 8abc 396a d0bd 729b 073d 3b22 98bc
000000c0: de06 b23d 59b9 b73d 2ccc b63c 11da d8bc
000000d0: 076a 0b3e 0eac babd df26 0b3d acb0 20bd
000000e0: 5739 2a3d 2453 8ebd 9d79 3cbc 7829 3d3a

linear_tanh_stack.8.weight f4 [1, 60]
0.035490524 -0.1740107 0.11853456 -0.19844301 0.09013093 0.14268543 -0.18392155 -0.29281026
0.08588492 0.25060326 -0.013966527 0.111896366 -0.15095836 0.12096127 0.12327773 -0.0004022484
0.21984701 -0.17035598 0.26044005 0.21772687 0.0065761986 0.3371727 0.11445513 -0.16321342
-0.016242526 -0.271408 -0.2713034 0.27564502 0.16061188 -0.08740205 -0.13895346 0.16820444
0.24069884 -0.5577111 -0.32494247 -0.08269549 -0.29837 -0.3377284 0.18340845 -0.06475101
0.20021307 -0.16703618 -0.15292357 0.31660682 -0.00059148326 -0.6663169 0.39601654 0.28297445
0.22338739 -0.0044919425 -0.12186559 -0.13273732 -0.18031853 -0.11033777 0.15869309 0.69864196
-0.28986093 -0.2993626 0.26643416 0.17829274
00000000: 835e 113d dc2f 32be 3fc2 f23d a534 4bbe
00000010: 9196 b83d 211c 123e ee55 3cbe 3aeb 95be
00000020: 6fe4 af3d 124f 803e dcd3 64bc ec29 e53d
00000030: d494 1abe 8bba f73d 0979 fc3d dee4 d2b9
00000040: 931f 613e cc71 2ebe 6658 853e cbf3 5e3e
00000050: 277d d73b e6a1 ac3e 7467 ea3d 6b21 27be
00000060: 0c0f 85bc fdf5 8abe 47e8 8abe 5821 8d3e
00000070: 7177 243e d9ff b2bd d149 0ebe c93d 2c3e
00000080: c279 763e 28c6 0ebf dc5e a6be 415c a9bd
00000090: f4c3 98be bdea acbe 6dcf 3b3e 2d9c 84bd
000000a0: a804 4d3e 880b 2bbe ff97 1cbe 4a1a a23e
000000b0: c50d 1bba bf93 2abf aec2 ca3e 07e2 903e
000000c0: aabf 643e 2531 93bb ab94 f9bd 4bec 07be
000000d0: 6ca5 38be c5f8 e1bd 7180 223e 33da 323f
000000e0: a768 94be 0e46 99be 0f6a 883e 5f92 363e
