Logistic/Results without the additional condition/sol_w30.pt (torch_old, 15258 bytes, 7 tensors)

linear_sigmoid_stack.0.weight f4 [40, 1]
00000000: 0c4f 723d cd7e 03bf b371 193f dfbc 0e3f
00000010: 8ec6 17bf 8cb0 68be 7d90 07bf c1ad 2e3f
00000020: c934 59bd 3990 723f f5de 4b3f 7ad7 013e
00000030: 95e2 edbe 5cac 83bf 0e0d 9cbd 59ba 0bbf
00000040: a64e 303f 0edc 01c0 856c e03f a70b 49bf
00000050: a6ea d93f 5f69 b5be b509 883f 2ae5 d73e
00000060: 51bd 4dbc 4c67 b93e 4d10 e23f c236 853e
00000070: f501 af3f b14e 68bf 89c8 a03f 0f04 063f
00000080: c5ac ae3e 35d7 133e 21af ca3e d513 a33f
00000090: 39d8 85be 06c4 c1be e584 9ebe d4c1 80bf
0.059157416 -0.5136536 0.59939116 0.55756944 -0.59287345 -0.22723597 -0.52954847 0.6823388
-0.053028855 0.94751316 0.7963708 0.12679854 -0.4646193 -1.0286975 -0.076196775 -0.5458122
0.6887001 -2.029056 1.7533118 -0.78533405 1.7024734 -0.35431954 1.0627962 0.42167026
-0.012557344 0.36211622 1.7661225 0.2601834 1.3672472 -0.90745074 1.2561198 0.5234994
0.34116188 0.14437564 0.39586738 1.2740427 -0.26141527 -0.37844867 -0.30960765 -1.0059152

linear_sigmoid_stack.0.bias f4 [40]
00000000: 484a d23e ea80 0fbf c819 ddbe a3c6 643f
00000010: e45b 673f baf8 be3d 0f17 2dbe c297 d53c
00000020: bed1 1b3f d722 69bf fda3 4cbf 3133 4b3f
00000030: 73e1 833f 6ed3 dabd 450f 54bf fbd4 2fbd
00000040: 2df3 c4be d6aa 24be 4884 b13e c644 d63e
00000050: 1f39 213c a49a 283d 7fcb 633e a76b 4cbf
00000060: 00aa bbbe 50ba 903d f70a 96be ef34 00bf
00000070: 089c 963e 0e9a f83e 404b ce3c eafc a6be
00000080: 27bf 173f 2616 10bf 00f0 a9be 5f16 433f
00000090: 3719 2a3e bb3f b23d 7dfe a83e 9efd 9dbe
0.41072297 -0.5605608 -0.43183732 0.89365596 0.9037459 0.093247846 -0.16903327 0.02607334
0.60866916 -0.91068786 -0.79937726 0.79374987 1.0303177 -0.10684858 -0.828358 -0.042927723
-0.38466778 -0.16080794 0.34671235 0.41849345 0.009840279 0.0411631 0.22245596 -0.79851764
-0.36653137 0.07066786 -0.2930524 -0.5008077 0.29415917 0.48555034 0.025182366 -0.32614833
0.5927605 -0.56283796 -0.33190918 0.7620601 0.16611181 0.08703562 0.3300666 -0.30857557

linear_sigmoid_stack.2.weight f4 [40, 40]
00000000: c075 be3d 2144 26be 2489 fcbd 9222 a4bd
00000010: b671 b1bd a680 aebd 7278 903d 3585 1d3c
00000020: 70f5 efbc 382c 253d 2e90 51be 4ed9 06be
00000030: f968 2c3d 5158 59bc 9e06 56be d7db 10be
00000040: 5578 39be 935e 313e 8833 51bd 4366 e73d
00000050: 6906 7abe 4145 4abe bef5 44be 2118 68bd
00000060: 6ea2 bcbd 8758 23be 535b 65bc fe7a e7bd
00000070: 0fc5 45be 3b48 8c3d 4bd8 13be 950b d33c
00000080: ad8a 4abc 973c 6dbd cf97 16bd 4c93 52be
00000090: 3c06 04be de1c dfbd 0337 04be a19b aa3c
000000a0: 8678 32bd b13a 11be dd3d 793c fbf5 2cbe
000000b0: 9d96 20bd f8be fbbd 1802 5abe adb0 43be
000000c0: 51f5 adbc 508a d5bc f2bf 3dbe 236c 01be
000000d0: 288d 65be ed0c 5f3c 7ae2 6d3d 24fb 96bc
000000e0: 00ca 3dbe 559d 7b3c 0973 1d3d 0183 d8bd
000000f0: 1530 eebd 4e29 9fbc d4db 87bd e80d 09be
00000100: 13a2 68be b437 46be 5fbf a0bd 330e aebd
00000110: a3c8 2a3d 0d87 88bd eb59 02be e468 75be
00000120: abf8 65be 55ca 27bc 9119 743d a27d b4bd
00000130: 54b4 60be 32c2 aebc 7e80 553d 3c3f 35be
00000140: 3887 4c3d f6e4 a23c 94f6 3bbc 32ae 0ebc
00000150: cd30 1e3e 81d6 abbd d467 39bc bd35 8a3c
00000160: 6e84 663e 334c b33d 9bc4 063e 2edc ce3c
00000170: b261 633e e528 483d 9f7a afbd f808 cd3c
00000180: 2120 04bd a1ae 453d ab0d 363e e6f7 1cbc
00000190: fe36 5e3e 1da2 b53d 74d6 993d be43 e23d
000001a0: c2ba d83c a937 883d 37ab d0bc 7bfa 223e
000001b0: 761a 483e 5077 ef3d d222 3f3e c22c 773e
000001c0: e24d 8d3e 83d2 c7bd 67a5 f03d 793d d83d
000001d0: 8259 d93d 866a 513c 1e96 cc3d 5374 f8bd
000001e0: 6f55 043e cc27 303e ec4d 14bc e29c 73bd
000001f0: 6bf0 89bd c871 37bc 9394 083d eb41 443d
00000200: 8ed4 a43d 64e2 e93d 1d71 01bd 787f 023e
00000210: 9782 05bd 1423 5b3e 9f6f 3b3d 15ab 343c
00000220: 371b f23d 04f0 3b3e 95af e23b 9354 b63c
00000230: 3e95 863b 324d fc3c 908b 8ebd d877 da3c
00000240: c5f9 613d 8e74 2bbd 23cd 9b3c 6b32 52bc
00000250: 0801 fabd 13c0 bbbc 82dd ebbd 523f 823d
00000260: f245 283e 5172 323e 8514 413e a83c b23d
00000270: bced cc3d a3eb 983b 40f3 223e 0cf7 edbb
00000280: c33a ccbc 4902 b23d 5611 4abe 5adc 35be
00000290: c296 793d 5384 353e ef0b 793d 33ba 7abe
000002a0: 46b8 2abc a916 0f3c a9cc a7bd 8f35 96bb
000002b0: 7ade b93c 5dbf c23e 808f 09be a014 4f3e
000002c0: 04ea 8abd ad7a 1a3f 5af1 cfbe 5a60 f73d
000002d0: ef0f c5be 4741 5f3e 02ff 41be 5cf1 55be
000002e0: 9de7 9b3d 4255 71bc b8d5 9bbe 88b0 07be
000002f0: 4d59 c1be fa84 aa3e 7631 abbe c4c5 e1bd
00000300: 727d 7fbd d1ad 9a3d 0ece 4abe bc11 8ebe
00000310: a05c 0dbd 0328 6a3c b376 243e a3e9 af3e
00000320: 3cd6 723e 6c9f 593e f12c 733d 7d1b 553e
00000330: 3009 2b3d 7b9a 053e 893e dabc 1283 013d
00000340: 6a4d 983e d7da 923d 5d26 053e 7912 203e
00000350: 3140 493d cd92 bf3d 7ebc e33d 21e3 783e
00000360: b3fc c53d 2d29 853e f3ff d23d 428e 763e
00000370: e433 9e3e 6340 103e 2da7 023e e439 843e
00000380: 8537 cb3d 6ec7 e83d dc7a e23d 6431 7f3c
00000390: 07d0 2a3e b2db 363c 8e92 8e3e eaad 643c
000003a0: 2604 a83d f98f 2b3e 3251 833e 37d9 b13e
000003b0: 806a 633c 3866 853e 5a09 813e f532 fabb
000003c0: 91bb 173e e77e dfb9 7a44 d93d 90ce 34bd
000003d0: 0a47 9cbc fb71 67bd b1f1 c03c 5fed 7e3d
000003e0: b13f 9a3d 11e8 44bd 9401 fd3d 6149 3f3e
000003f0: bcab 97bd f194 93bd bea7 96bc 6799 be3d
0.09299803 -0.16236927 -0.12330845 -0.08014406 -0.08664267 -0.085206315 0.07054223 0.009614279
-0.029291838 0.040325373 -0.20465156 -0.13168833 0.042092297 -0.013265685 -0.20900962 -0.14146362
-0.1811231 0.17321233 -0.051074535 0.11298802 -0.24416508 -0.19752981 -0.19234368 -0.056663636
-0.092106685 -0.15951739 -0.013998824 -0.11302756 -0.19313453 0.06849714 -0.14437978 0.025762359
-0.012362164 -0.05791911 -0.03676587 -0.20564002 -0.12893003 -0.10894178 -0.1291161 0.020826163
-0.04357197 -0.14182545 0.015212503 -0.16890709 -0.039206136 -0.12292284 -0.21289861 -0.19110365
-0.02123514 -0.02606693 -0.18530253 -0.12638907 -0.22417128 0.013613922 0.058077313 -0.0184303
-0.18534088 0.015357335 0.038439784 -0.10571862 -0.11630265 -0.019428875 -0.06633726 -0.13384211
-0.22718076 -0.19357187 -0.07849001 -0.08498802 0.04169525 -0.06666384 -0.12729613 -0.23965794
-0.2245814 -0.010241111 0.059594695 -0.08813025 -0.2194379 -0.021332834 0.052124493 -0.17699903
0.049933642 0.019884568 -0.011472363 -0.008708524 0.15448304 -0.08390523 -0.011316258 0.016871328
0.22511455 0.08754768 0.13160937 0.025251474 0.22205237 0.048867125 -0.0856831 0.02502869
-0.032257203 0.048262242 0.17778651 -0.009580588 0.21700665 0.08868811 0.07511607 0.11048077
0.02645624 0.06651241 -0.025472267 0.15915863 0.19541344 0.11692679 0.18665627 0.24138168
0.27598482 -0.09756949 0.11750298 0.105586 0.106127754 0.012781745 0.0998957 -0.12131562
0.12923215 0.17202681 -0.009051781 -0.059475787 -0.06735309 -0.011196561 0.033344816 0.047914427
0.08048354 0.11420134 -0.031602014 0.12743938 -0.032595243 0.214001 0.045760747 0.011027117
0.11821597 0.18353277 0.0069179037 0.022257125 0.0041071465 0.030798528 -0.06960213 0.026668474
0.05516984 -0.041859202 0.019018715 -0.012829403 -0.12207228 -0.022918737 -0.11516859 0.06359734
0.16432932 0.17426421 0.18855484 0.087029755 0.10006282 0.004666762 0.15913105 -0.0072621163
-0.024930364 0.08691842 -0.19733176 -0.17759839 0.06093479 0.17726259 0.060802396 -0.24485092
-0.010419911 0.00873343 -0.08193333 -0.0045840214 0.022689093 0.38036624 -0.13433647 0.20222712
-0.06782916 0.6034344 -0.40613824 0.120789245 -0.3848872 0.21802245 -0.18944934 -0.20892853
0.07612536 -0.0147298 -0.30436492 -0.13250935 -0.37763444 0.33304578 -0.33436173 -0.11024049
-0.062375493 0.07552684 -0.19805166 -0.27747905 -0.034512162 0.014291766 0.16060905 0.34357938
0.23714536 0.21252221 0.05936903 0.20811267 0.04175681 0.13047211 -0.026641147 0.03161914
0.29746562 0.07170647 0.13002916 0.15632047 0.049133483 0.09354172 0.111199364 0.24305393
0.09667339 0.26007977 0.10302725 0.24077705 0.30898964 0.14087062 0.12759085 0.25825417
0.09922699 0.11366163 0.1105859 0.0155757405 0.16680919 0.011160778 0.27846187 0.01395748
0.08203916 0.1675414 0.25647885 0.34736034 0.013880372 0.2605455 0.25202447 -0.007635469
0.14817645 -0.00042628424 0.10608764 -0.044142306 -0.019076843 -0.056505185 0.023552747 0.062238093
0.075316794 -0.04807288 0.12353817 0.18680336 -0.074058026 -0.07206143 -0.018390533 0.09306603

linear_sigmoid_stack.2.bias f4 [40]
00000000: b368 a83c cfbb bfbd 2a50 703e 458b 2d3d
00000010: 6f49 a63d 5021 c33d 0f14 713e 0288 34bd
00000020: 1535 38be f63b 753e be76 cfbd 9d11 6a3d
00000030: c7c5 283e 455a 85bd 5ae4 39bd 5994 51bd
00000040: e5e0 003d 5e44 57bd 129b e7bd b8ca 853d
00000050: 69f2 703e 9996 063e b53c 23be f352 523e
00000060: 7dd4 543c cbca ea3d ada5 45be c575 133e
00000070: 280f 53bd 8dd8 263e 6fb1 6a3e fa4c 9a3e
00000080: a5c0 c43d f885 57bc 38b0 753e e621 9b3d
00000090: 4d92 fc3d 7f12 863e 7714 0d3e ab95 e8bd
0.020557737 -0.093619935 0.2346808 0.042369146 0.08119475 0.09527838 0.23542808 -0.04407502
-0.17988999 0.23948655 -0.1013007 0.057145704 0.16481696 -0.06511358 -0.04538379 -0.051166866
0.031464476 -0.052555434 -0.11308874 0.06532806 0.23529972 0.13143386 -0.15941127 0.20539455
0.012990114 0.11464461 -0.19301482 0.14400394 -0.051528126 0.16293545 0.22919248 0.30136853
0.096070565 -0.013154499 0.23993003 0.07574825 0.12332592 0.26185986 0.13777338 -0.11356672

linear_sigmoid_stack.4.weight f4 [40, 40]
00000000: a1f2 913d 40b7 a93d 3e60 0dbe a857 57be
00000010: 8256 ea3d ca71 0cbe ee13 46be 5900 8ebc
00000020: be21 f73c ebb7 88be af27 debd 8ed7 03be
00000030: 9b31 5fbc 2de0 82bd 7f33 0ebe b328 1dbe
00000040: a32a c13d 50c0 9e3d c251 9abe 31d5 b8be
00000050: b580 8fbe 3e47 7fbe bc15 0bbd b2e2 b3be
00000060: c533 75bd f7bf bfbe cbfa 8a3d 6792 64be
00000070: c249 12be 3b82 9abd 49a2 6ebe 84c5 8abe
00000080: eec5 a6bd 54d7 8f3d 7fef 3ebe 8fbc d5bd
00000090: d306 b3be df2d a0be 9a8d 72be 1337 a2bd
000000a0: 2a2f 5dbe ddca d4bd 9d73 a2bd c4f7 98bc
000000b0: 7244 89be ab24 04be 46fc 13bd 4023 853a
000000c0: 00dc 2c3d ff53 79be cb19 0bbe 3324 e3bc
000000d0: 6859 f1bd 261a 88bd cf89 17be bcf4 4cbe
000000e0: f0d6 a1be 4545 a3be d132 60be 8f25 63be
000000f0: 0d1e 1fbe ef04 a6be 7515 ccbd 7151 9bbe
00000100: cace 2cbe 06bd 00be 9d71 3abd 9f48 08be
00000110: c5dc 40be 6565 9dbd 05ef b3be dcb2 76be
00000120: 8eda 43be 8144 263d 6c45 dbbd c2a5 84be
00000130: 8be2 3dbe 184e 64be 61f4 bbbe acb0 5ebe
00000140: 1cba 84be a771 9c3c 3106 50bd 6b88 89be
00000150: de13 89be de9b b4bd 3e45 35be 5b92 ae3c
00000160: 8caf df3c a2ec 1abe 468c 14be 2240 643c
00000170: 1185 3abe 7da3 34bd f931 8abe 1089 dbbd
00000180: 2418 fcbd 584f d0be 941f 55be 8649 63be
00000190: a7b7 08be d507 86be 50f8 09be 9b2c b3be
000001a0: 7678 11be 33bb 51be 7ead 91be 9b97 26be
000001b0: 0882 f7bd b6df 9fbe d86f f4bd c56b f4bd
000001c0: 18cd b1be 93cc 3dbe d97f 79be 9518 69be
000001d0: 6ff8 3ebe 16cd acbd bbd9 9cbd 59a8 75be
000001e0: 56e0 f83c 0721 18be 0163 b3be 8016 80bd
000001f0: 2cb3 b4bd 14cb c2be a9bc bfbe 0273 523c
00000200: de12 44be 3560 cbbe 9fc4 19be d672 2dbe
00000210: 0c31 02be d6ca b1bd b1f1 dfbd a70a 3ebe
00000220: 5eb1 7fbe 23bc 89be 7936 91bd 88f1 3cbe
00000230: 0fa1 2dbe e885 d5be bfaa e0bd ea0f f6be
00000240: 880f 51be 6330 94be 23f1 87be e5c6 6ebe
00000250: 89a0 35be 5507 67bd 8f7d 1dbe b568 4abe
00000260: 77ea 5cbe 1ea1 94bc cefc 99be 9bce 11be
00000270: 2655 d9be 5fb1 37be fdfb 92be 4be8 81bd
00000280: cc3c 69bd ed1b 28bc 8e2e 60be c047 85be
00000290: 0843 a9be e6a0 e1be 3fd4 7fbe facc 843d
000002a0: e9b9 abbc e1f7 6bbe 4864 113d cede 89be
000002b0: 2775 c1bd 67c8 dfbb bb95 92be 616c 97be
000002c0: 320b a43c 243c 4fbe 7c78 84be a8ca 22bd
000002d0: f102 6bbe 4380 46be 5074 b0bd f87c 43be
000002e0: f403 7f3b 04aa bbbd ff70 5fbe 60e0 46be
000002f0: 7ecf 92be 14f5 b6bd c345 b8be 8afd 92be
00000300: 0b52 18be 0758 9bbd 1e7e 85bd ba57 89be
00000310: 2267 c7be ec98 dabd c1cd a8be 73e5 7dbe
00000320: 9f7e 15be 9515 37be eea3 b5be ecfc 25be
00000330: fb11 21be 4f83 54be fe06 1dbe e772 0bbd
00000340: 24f7 83bd 33ad c1be af79 dbbd 8951 4bbe
00000350: 4c74 94bd 658e 8dbc b4c0 66bc abe8 85be
00000360: bb93 0bbe 8770 34be 8f2c 5cbe 3464 cfbd
00000370: 797e 11be e585 99be 4a56 5bbe 3de4 3fbe
00000380: d705 f8bb 6487 84be 833c 3ebe 1244 46be
00000390: 872b a8be c97b 53be eca7 92be 97a3 aabe
000003a0: d81a 88be ea77 3fbe a64f 8cbe 4280 1ebe
000003b0: f3af 48be 5e37 abbe 8924 fbbd 7f07 9fbd
000003c0: e82e 15be 6e94 1f3c 4080 5cbe c001 46be
000003d0: 0873 cebe f454 94be 9d2c 51be 2924 b0bb
000003e0: 236b 5fbe 485c a9bd a9b1 8cbd ce7b aebd
000003f0: 828d 49be 8bef 0bbe 8d2c 67be 8345 1fbe
0.07126356 0.08286905 -0.13806245 -0.21029532 0.11442281 -0.13715282 -0.1934354 -0.01733415
0.030167457 -0.26702818 -0.10847413 -0.12875196 -0.013622667 -0.063904144 -0.13886832 -0.15347557
0.094319604 0.077515244 -0.301405 -0.36100152 -0.28027883 -0.2492952 -0.033956274 -0.35133892
-0.059863824 -0.37451145 0.06786116 -0.22321473 -0.14285949 -0.07544371 -0.23304094 -0.27103817
-0.08143221 0.070234925 -0.18646048 -0.10436355 -0.34966144 -0.31284997 -0.23686829 -0.07920661
-0.21600023 -0.103902556 -0.07932208 -0.018672831 -0.26810032 -0.12904613 -0.03612926 0.00101576
0.042201996 -0.24348448 -0.13584058 -0.027727222 -0.11784631 -0.066456124 -0.14798664 -0.20015234
-0.31609297 -0.31888786 -0.21894385 -0.22182296 -0.15538807 -0.3242564 -0.0996503 -0.30335572
-0.16875759 -0.12572107 -0.045518506 -0.13308953 -0.18834217 -0.07685355 -0.35143295 -0.24091667
-0.19126341 0.040592674 -0.107066005 -0.25907713 -0.1854345 -0.22295415 -0.36709884 -0.21747082
-0.2592324 0.019097162 -0.050787155 -0.2686189 -0.2677297 -0.08818792 -0.17702195 0.021310022
0.027305387 -0.15129331 -0.14506635 0.013931306 -0.18214823 -0.044101227 -0.2699125 -0.10719502
-0.12309292 -0.40685534 -0.20812827 -0.22196016 -0.13351308 -0.2617785 -0.1347363 -0.3499497
-0.14206108 -0.20481567 -0.28452677 -0.1626877 -0.12085348 -0.31225365 -0.11935395 -0.11934618
-0.34726787 -0.1853507 -0.24365176 -0.22763284 -0.18649457 -0.084375545 -0.07658716 -0.23990001
0.03038041 -0.14856349 -0.3503647 -0.062542915 -0.08823237 -0.3804556 -0.37448624 0.012844803
-0.19147822 -0.39721838 -0.15016411 -0.16938338 -0.12714022 -0.08681266 -0.10934771 -0.18558751
-0.24970004 -0.2690135 -0.07090468 -0.18451512 -0.1695597 -0.41703725 -0.10970067 -0.48059016
-0.20416081 -0.28943166 -0.2655116 -0.2331806 -0.1773702 -0.056403477 -0.15379928 -0.19766505
-0.21573816 -0.018143233 -0.30075687 -0.1423897 -0.42447776 -0.17938755 -0.28707877 -0.063431345
-0.056942746 -0.010260564 -0.21892759 -0.26031303 -0.33058953 -0.44068068 -0.24983309 0.06484409
-0.020962672 -0.23043777 0.035496026 -0.269278 -0.09446173 -0.0068293097 -0.2862986 -0.29574874
0.02002487 -0.20237786 -0.25873172 -0.03974405 -0.22950341 -0.19384865 -0.08615935 -0.1909064
0.0038912268 -0.09163287 -0.21820448 -0.1942153 -0.2867393 -0.08933464 -0.35990724 -0.2870906
-0.14875047 -0.07585149 -0.065181956 -0.26824743 -0.38945872 -0.10673699 -0.32969478 -0.24794559
-0.14599083 -0.17879327 -0.3547663 -0.16209763 -0.15729515 -0.20753215 -0.15334699 -0.034045126
-0.06443623 -0.37827453 -0.10716569 -0.19855322 -0.07248744 -0.017279813 -0.01408403 -0.26154074
-0.13630573 -0.17621051 -0.21501373 -0.10126534 -0.14208402 -0.29984966 -0.21419635 -0.1873941
-0.0075690555 -0.25884545 -0.18577771 -0.19361904 -0.3284571 -0.20652689 -0.2864374 -0.33327934
-0.2658298 -0.18698087 -0.27404517 -0.15478614 -0.1959837 -0.3344068 -0.12262828 -0.07765102
-0.14568675 0.009739978 -0.21533298 -0.19336605 -0.40322137 -0.28971064 -0.20427175 -0.0053754044
-0.21818213 -0.082695544 -0.068698235 -0.085197076 -0.19682887 -0.13665597 -0.22575589 -0.1555386

linear_sigmoid_stack.4.bias f4 [40]
00000000: f9fb 90be 223e 2bbe 6df1 38be b0d3 b4be
00000010: eebb 90be 8a7a 48be 7ec7 6abe d1f9 51be
00000020: 08a7 cdbd 7a8c a6be cc99 c6bd 4f3e a6be
00000030: e64d a9be 8824 b1be 6f90 99be b837 e6bd
00000040: f028 bcbd d0a7 dbbe 73de a4be ee5d 21be
00000050: 55c5 1fbe e1dd 2abf cd89 04bf 91a1 18be
00000060: 7af5 71be b670 c8be d2a1 7dbe ed1a a0be
00000070: f460 c9be 940b b1be bace 95bd 187d 52be
00000080: a179 51be 2ef4 7fbe 2863 d8be fb68 aabe
00000090: d5c0 f3be baf6 79be b8e4 8abe fc40 26bf
-0.2831724 -0.1672292 -0.18060847 -0.35317755 -0.2826838 -0.19577995 -0.22927663 -0.20505454
-0.10041624 -0.3252905 -0.09697303 -0.32469413 -0.33067244 -0.34598184 -0.29993007 -0.11241096
-0.09187496 -0.42901468 -0.32200965 -0.15758488 -0.1560262 -0.6674481 -0.5177277 -0.14905383
-0.23628798 -0.39148492 -0.24768761 -0.31270543 -0.39331782 -0.34579146 -0.073148206 -0.20555532
-0.20456554 -0.24995491 -0.4226315 -0.3328322 -0.47608057 -0.24410525 -0.27127624 -0.6494291

linear_sigmoid_stack.6.weight f4 [1, 40]
00000000: 6ebe 9b3d 2064 c3bd ac05 d8bd 6962 67bd
00000010: 9e44 97bd 5520 98bd 6983 bebd 946f 09bd
00000020: 2581 d5bd ca06 97bd d007 32bd 3d97 d2bc
00000030: a532 523d 0252 9fbd 0446 edbb 7dd1 9ebd
00000040: 4e68 efbd 372a 34bd 8c04 40bd e144 4fbd
00000050: fd49 a4bd 2c78 96bd 0e35 c0bd 66f3 edbd
00000060: 7264 203d e273 babd 98d7 c5bd 6daa 45bd
00000070: ad9e 87bd 222b b9bd 5708 94bc 4227 2dbc
00000080: 6c86 6ebd 44a8 7bbd 4f19 edbc da22 bc3c
00000090: 5596 9dbd 37d0 b53c 74f0 b2bd 9ea4 81bd
0.07604681 -0.09540582 -0.10547957 -0.056490336 -0.073861346 -0.07428042 -0.09302408 -0.033553675
-0.10425023 -0.07374342 -0.04346448 -0.025706882 0.05131783 -0.077793136 -0.0072410125 -0.077548005
-0.116898164 -0.04398557 -0.046879336 -0.050602797 -0.08021925 -0.0734714 -0.093851194 -0.1161869
0.039158292 -0.09104134 -0.09660262 -0.048258234 -0.06622062 -0.0904143 -0.018070383 -0.010568442
-0.058233663 -0.061439767 -0.028942732 0.022965837 -0.07694689 0.022194011 -0.08737269 -0.06330226
