Logistic/Results without the additional condition/sol_w81.pt (torch_old, 15258 bytes, 7 tensors)

linear_sigmoid_stack.0.weight f4 [40, 1]
0	0x3ccdaaaa	0.025105793
1	0xbf0d6f1d	-0.5524767
2	0x3f197328	0.5994134
3	0x3f0c07e6	0.5469955
4	0xbf35d652	-0.7103015
5	0xbe56cb8d	-0.20976086
6	0xbf15152d	-0.58235437
7	0x3f357b46	0.70891225
8	0xbdace6cd	-0.08442459
9	0x3f71e1cc	0.94485164
10	0x3f4c5893	0.79822654
11	0x3e15f09f	0.14642571
12	0xbee70b59	-0.45125845
13	0xbf88a4ee	-1.0675333
14	0xbd75e840	-0.060035944
15	0xbf25046e	-0.64459884
16	0x3f357f7e	0.7089766
17	0xc012967a	-2.2904344
18	0x3fee9a19	1.8640777
19	0xbf614d48	-0.88008547
20	0x3fe46b03	1.7845157
21	0xbec36280	-0.38161087
22	0x3f8c48e2	1.0959742
23	0x3ee3ce38	0.4449327
24	0xbc40dfa0	-0.011772066
25	0x3ebb9e72	0.36644322
26	0x3fe8379f	1.8141974
27	0x3eaffeb4	0.3437401
28	0x3fb540bb	1.4160379
29	0xbf7ccf3b	-0.9875371
30	0x3fa64598	1.2989988
31	0x3f05bb27	0.52238697
32	0x3eac7761	0.3368483
33	0x3e1d9998	0.15390623
34	0x3eced6d1	0.40398267
35	0x3fa835fb	1.3141474
36	0xbe74746a	-0.23872533
37	0xbec7b1a9	-0.3900273
38	0xbe8c6e70	-0.27428007
39	0xbf864b89	-1.0491802

linear_sigmoid_stack.0.bias f4 [40]
0	0x3ed9d30a	0.42543823
1	0xbf0d8c56	-0.5529226
2	0xbedd2dac	-0.43198907
3	0x3f66012c	0.8984554
4	0x3f62aebd	0.8854788
5	0x3dcfa6ac	0.10139212
6	0xbe291ee2	-0.16515687
7	0x3cddc948	0.027073517
8	0x3f1dbe02	0.61618054
9	0xbf689917	-0.90858597
10	0xbf4be59e	-0.79647243
11	0x3f4eceb8	0.8078418
12	0x3f8295b4	1.0201936
13	0xbdb2852c	-0.08716807
14	0xbf54b320	-0.83085823
15	0xbd1edfa1	-0.038787488
16	0xbec57f22	-0.38573557
17	0xbe8d30b1	-0.2757621
18	0x3eb9773b	0.36223778
19	0x3edc647a	0.43045408
20	0x3d7a314a	0.061082162
21	0x3d27449d	0.04083692
22	0x3e6eff0d	0.23339482
23	0xbf4da6d7	-0.803327
24	0xbebc3dd8	-0.36765933
25	0x3d93f50d	0.07224474
26	0xbe55f893	-0.20895605
27	0xbefcb1f0	-0.49354506
28	0x3e9954c1	0.29947475
29	0x3f032f56	0.51244104
30	0x3d38712e	0.04502981
31	0xbea7239d	-0.32644358
32	0x3f18c331	0.5967284
33	0xbf0f5311	-0.55986124
34	0xbeacb77f	-0.33733746
35	0x3f421e48	0.75827456
36	0x3e2f86b6	0.17141232
37	0x3db276e3	0.08714082
38	0x3eac06c3	0.3359891
39	0xbe90df18	-0.28295207

linear_sigmoid_stack.2.weight f4 [40, 40]
0	0x3ddba293	0.10724368
1	0xbe1877db	-0.14889471
2	0xbdee62e1	-0.116399534
3	0xbd87591e	-0.06608795
4	0xbd893ae6	-0.06700687
5	0xbd90349f	-0.07041287
6	0x3db14c0a	0.086570814
7	0x3c7b47ac	0.015336912
8	0xbc342eb1	-0.01099746
9	0x3d09cbf5	0.033641774
10	0xbe526ef2	-0.20550135
11	0xbdec47ec	-0.115371555
12	0x3d65f0de	0.056137912
13	0x3c29b416	0.010357877
14	0xbe4cd620	-0.20003557
15	0xbdfdc6ea	-0.123914555
16	0xbe35bf1f	-0.17748688
17	0x3e4d745c	0.20063919
18	0xbd469ac0	-0.048487425
19	0x3e0e97dd	0.13925119
20	0xbe759953	-0.2398427
21	0xbe3c8f2a	-0.18413988
22	0xbe415f55	-0.18884023
23	0xbd3a1733	-0.04543228
24	0xbda654cc	-0.081216425
25	0xbe1645a7	-0.14675008
26	0xbbf2af80	-0.007406175
27	0xbdd2ef39	-0.10299534
28	0xbe4176e8	-0.18893015
29	0x3dc7eb43	0.097616695
30	0xbe1160dd	-0.14197107
31	0x3d0f911c	0.035050496
32	0x3b3d0d26	0.0028846948
33	0xbd52a9b9	-0.05143139
34	0xbccf8dc5	-0.025336156
35	0xbe4b348e	-0.19844267
36	0xbde9cb83	-0.1141577
37	0xbdc31d51	-0.09527076
38	0xbde9b3e9	-0.11411268
39	0x3d2e3223	0.042528283
40	0xbd196f14	-0.037459448
41	0xbe0a5839	-0.13510217
42	0x3c8e9204	0.01740361
43	0xbe2741a3	-0.16333632
44	0xbcf45760	-0.02982682
45	0xbdede537	-0.11615985
46	0xbe51d41c	-0.2049107
47	0xbe42b77e	-0.19015309
48	0xbc50efc3	-0.012752476
49	0xbd06f6b0	-0.032950103
50	0xbe40b02c	-0.18817204
51	0xbdf4660d	-0.11933527
52	0xbe603205	-0.21894081
53	0x3cd6acd9	0.026205467
54	0x3d7f0086	0.06225636
55	0xbc1cb776	-0.009565225
56	0xbe3de485	-0.18544205
57	0x3cde43ad	0.02713188
58	0x3d219fe7	0.039459135
59	0xbdbb2b18	-0.09139079
60	0xbdea1ccb	-0.11431273
61	0xbc5ce545	-0.0134823965
62	0xbd886459	-0.06659765
63	0xbe033d71	-0.12816407
64	0xbe63a249	-0.22229876
65	0xbe4072f5	-0.18793853
66	0xbd99d255	-0.07510821
67	0xbda4aafd	-0.08040426
68	0x3d2e51cc	0.042558476
69	0xbd4e9916	-0.050438963
70	0xbe02f035	-0.12786944
71	0xbe7198ff	-0.2359352
72	0xbe5f3521	-0.21797611
73	0xbc01ad39	-0.007914835
74	0x3d84cf29	0.06484825
75	0xbdafd7f2	-0.0858611
76	0xbe59e4be	-0.21278664
77	0xbc79fa22	-0.01525739
78	0x3d707e20	0.058714032
79	0xbe298965	-0.16556318
80	0x3d8f9f50	0.07012808
81	0x3d14de2d	0.036344696
82	0x3a4026c9	0.0007329998
83	0x3c4d0327	0.012512959
84	0x3e37193a	0.17880717
85	0xbd85449f	-0.06507229
86	0x3c0884d8	0.008332454
87	0x3ce5373f	0.027980445
88	0x3e7f7789	0.24947943
89	0x3dab6908	0.083696425
90	0x3e09dd49	0.1346332
91	0x3d473900	0.048638344
92	0x3e75f937	0.24020849
93	0x3d9eb70a	0.07749756
94	0xbd9759a5	-0.07390145
95	0x3d3e6c67	0.0464901
96	0xbcc302c4	-0.02380503
97	0x3da41da4	0.08013466
98	0x3e3e5bb1	0.18589665
99	0x3cb6f8c8	0.022335425
100	0x3e67c7ba	0.22634783
101	0x3dd81fe8	0.10552961
102	0x3dab6c38	0.083702505
103	0x3e02734e	0.12739298
104	0x3d294e7e	0.04133462
105	0x3daf83e2	0.085700765
106	0xbc692179	-0.014229172
107	0x3e32d17f	0.17462729
108	0x3e51d447	0.20491134
109	0x3e1bf3b7	0.15229689
110	0x3e465871	0.19369675
111	0x3e834575	0.2563893
112	0x3e98bee3	0.29833135
113	0xbdb20596	-0.08692472
114	0x3e0a25bf	0.13490961
115	0x3df3c4b3	0.11902752
116	0x3dffca5c	0.12489769
117	0x3cf57bbb	0.029966226
118	0x3df39f72	0.11895646
119	0xbdc2cb34	-0.09511414
120	0x3e1961ed	0.14978762
121	0x3e41f7f8	0.18942249
122	0x3bb4f0ae	0.0055218553
123	0xbd1a0adc	-0.037608013
124	0xbd3b3aac	-0.04571025
125	0x3bd44682	0.0064781317
126	0x3d5c8750	0.05383998
127	0x3d67603d	0.056488264
128	0x3ddb27f1	0.107009776
129	0x3dc4152e	0.09574352
130	0xbd0ead3c	-0.034833178
131	0x3e1be313	0.1522334
132	0xbcd5fbbe	-0.026121017
133	0x3e8022a4	0.2502643
134	0x3d700cb4	0.058605865
135	0x3d0c2ec8	0.0342243
136	0x3dfe650d	0.12421618
137	0x3e4fe1e4	0.20301014
138	0x3cc4122c	0.023934446
139	0x3d840beb	0.06447586
140	0x3cbcf113	0.023064172
141	0x3d3319d8	0.04372582
142	0xbd84679d	-0.06465075
143	0x3d603d80	0.05474615
144	0x3d91a332	0.07111205
145	0xbc8efb25	-0.01745374
146	0x3d2af16d	0.041734148
147	0x3c10e3ce	0.008843375
148	0xbde2aa68	-0.11067659
149	0x3cd96fd6	0.026542585
150	0xbde19fe9	-0.110168286
151	0x3daa9c3c	0.083305806
152	0x3e42bf77	0.1901835
153	0x3e3d2232	0.18470076
154	0x3e5a6ee5	0.21331365
155	0x3dd06a66	0.10176544
156	0x3deecbf8	0.11659998
157	0x3c91bbcc	0.017789744
158	0x3e3285fd	0.17433925
159	0x3ccced52	0.025015507
160	0xbcc298d2	-0.023754511
161	0x3df968b2	0.12178172
162	0xbe6b2e9a	-0.22966996
163	0xbe4e9d64	-0.20177227
164	0x3dc72b8e	0.09725104
165	0x3e471502	0.19441608
166	0x3dcb08af	0.09913766
167	0xbe91e587	-0.28495428
168	0xbae35540	-0.0017344132
169	0xbd13fef7	-0.036131825
170	0xbdf9e55c	-0.1220195
171	0xbbe8c689	-0.0071037454
172	0x3d3f4edf	0.046706077
173	0x3ee64e3a	0.44981557
174	0xbe03394a	-0.12814823
175	0x3e790dcf	0.24321674
176	0xbdda9081	-0.10672093
177	0x3f47216b	0.77785367
178	0xbf07a443	-0.5298502
179	0x3e31ab33	0.17350464
180	0xbefec4a9	-0.49759415
181	0x3e79bd15	0.24388535
182	0xbe8177f9	-0.25286844
183	0xbe68b4d3	-0.22725229
184	0x3da3ae38	0.07992214
185	0xbd068fc1	-0.03285194
186	0xbed0eb6b	-0.4080461
187	0xbe15f14b	-0.14642827
188	0xbeed24b2	-0.4631706
189	0x3ec7c049	0.3901389
190	0xbed1a5ea	-0.40946895
191	0xbe0d80a3	-0.13818602
192	0xbd9d5631	-0.07682455
193	0x3d8d3baa	0.06896146
194	0xbe5ef2e4	-0.21772343
195	0xbeb32d7a	-0.34995633
196	0xbc7fec8c	-0.015620362
197	0x3d28537a	0.041095234
198	0x3e39ed79	0.18156995
199	0x3ed309f4	0.4121853
200	0x3e7d00a4	0.24707276
201	0x3e61f479	0.22065915
202	0x3d8626e8	0.065503895
203	0x3e5fc0b2	0.21850851
204	0x3d5ad811	0.053428713
205	0x3e0f0f57	0.13970695
206	0xbc8b0955	-0.016972223
207	0x3d173d9e	0.036923997
208	0x3e9e7d9e	0.30955213
209	0x3d8e56d5	0.06950156
210	0x3e069cba	0.13145724
211	0x3e2be5ea	0.16786924
212	0x3d6bdc34	0.05758305
213	0x3ddd6876	0.1081094
214	0x3defa0eb	0.117006145
215	0x3e81dabb	0.2536219
216	0x3dce6451	0.100777276
217	0x3e8dc838	0.27691817
218	0x3dd94a72	0.106099024
219	0x3e837133	0.25672302
220	0x3ea029cc	0.31281888
221	0x3e1890b9	0.14898957
222	0x3e06705f	0.13128804
223	0x3e88b008	0.266968
224	0x3dda3686	0.10654931
225	0x3dfc706a	0.12326129
226	0x3dec968f	0.11552154
227	0x3cbf50dd	0.023353988
228	0x3e2eea4f	0.17081569
229	0x3ced0b3a	0.028936017
230	0x3e9006ae	0.28130096
231	0x3cb059b6	0.021527153
232	0x3dbec4b4	0.09314862
233	0x3e30d2cb	0.17267911
234	0x3e87d2bd	0.26527968
235	0x3eb4f01d	0.35339442
236	0x3cbcc5ee	0.023043599
237	0x3e89a37a	0.26882535
238	0x3e85c5df	0.26127526
239	0x3bbb9311	0.005724319
240	0x3e2c4ae0	0.16825438
241	0x3c8b909f	0.017036734
242	0x3df4e0e0	0.11956954
243	0xbcc23401	-0.023706438
244	0x3b17542f	0.0023090949
245	0xbd2212cc	-0.039568707
246	0x3d342b16	0.043986402
247	0x3d8f4973	0.06996431
248	0x3dcdcb84	0.10048583
249	0xbd83f9d0	-0.06444132
250	0x3df79ed2	0.120908394
251	0x3e57f5ca	0.21089855
252	0xbd88673b	-0.06660315
253	0xbd124b2a	-0.035716213
254	0xbbcc107d	-0.0062275515
255	0x3deda6c4	0.11604074

linear_sigmoid_stack.2.bias f4 [40]
0	0x3d3bacb8	0.045819014
1	0xbda8864f	-0.08228742
2	0x3e89f126	0.26941794
3	0x3da0c15f	0.078493826
4	0x3db3f144	0.08786252
5	0x3de68a4f	0.11256849
6	0x3e8a697f	0.27033612
7	0xbd2063d5	-0.039157707
8	0xbe2ecf92	-0.1707137
9	0x3e883490	0.26602602
10	0xbdc473b4	-0.09592381
11	0x3dcb556c	0.09928402
12	0x3e4667ab	0.19375484
13	0xbd5038b9	-0.050835345
14	0xbc4d6a83	-0.012537601
15	0xbc285bbd	-0.010275778
16	0x3d76d4b7	0.060261454
17	0xbd5b8fa0	-0.05360377
18	0xbda693a7	-0.08133631
19	0x3dc5b81e	0.09654258
20	0x3e8c57a3	0.27410612
21	0x3e1496fb	0.1451072
22	0xbe10837e	-0.1411266
23	0x3e646265	0.2230316
24	0x3d1521be	0.036409132
25	0x3e137465	0.1439987
26	0xbe3109f4	-0.17288953
27	0x3e263f22	0.16235021
28	0xbc67ca5a	-0.0141473655
29	0x3e4c2f41	0.19939901
30	0x3e7e7437	0.2484902
31	0x3eab3b86	0.3344385
32	0x3df66a84	0.12032035
33	0x3c18041e	0.009278325
34	0x3e8ec59c	0.2788514
35	0x3de16069	0.11004717
36	0x3e17d33f	0.14826678
37	0x3e90c582	0.28275687
38	0x3e29b34b	0.16572301
39	0xbdaa908d	-0.08328352

linear_sigmoid_stack.4.weight f4 [40, 40]
0	0x3d9c607a	0.07635589
1	0x3da6c607	0.081432395
2	0xbe3196c3	-0.17342667
3	0xbe6fafde	-0.23406932
4	0x3e2c04d1	0.16798712
5	0xbe2f49f8	-0.1711806
6	0xbe63bcee	-0.2224004
7	0xbc84682a	-0.01616295
8	0x3cf68962	0.030094806
9	0xbe996937	-0.29963085
10	0xbde21692	-0.11039461
11	0xbe2a397e	-0.16623494
12	0x3bcbb4cc	0.006216621
13	0xbd74159a	-0.059590913
14	0xbe23c062	-0.15991357
15	0xbe36a1e5	-0.17835195
16	0x3dde562d	0.108562805
17	0x3df88eab	0.12136587
18	0xbea3ed58	-0.32017016
19	0xbec90e8f	-0.3926892
20	0xbe9f9930	-0.3117156
21	0xbe913458	-0.28360248
22	0xbd1620ea	-0.036652483
23	0xbec5c3c0	-0.38625908
24	0xbd91ad44	-0.07113126
25	0xbecd93d4	-0.40151846
26	0x3d96745b	0.07346412
27	0xbe84223b	-0.25807366
28	0xbe29ae6b	-0.16570441
29	0xbdd6aa90	-0.10481751
30	0xbe88b2fb	-0.2669905
31	0xbe9d0d4f	-0.30674216
32	0xbd75a2a0	-0.059969544
33	0x3d967233	0.073460005
34	0xbe52a89a	-0.20572129
35	0xbdd797c1	-0.10526992
36	0xbec44987	-0.38337347
37	0xbeadc72f	-0.33941028
38	0xbe8afbdd	-0.2714528
39	0xbdb4a738	-0.08820957
40	0xbe6f0cd7	-0.23344742
41	0xbde504a4	-0.11182526
42	0xbdf1a5a3	-0.11799171
43	0xbd5b6934	-0.053567126
44	0xbea871d6	-0.3289935
45	0xbe312988	-0.17300999
46	0xbd97084a	-0.07374628
47	0xbb930ba4	-0.0044874717
48	0x3d0f2d87	0.034955528
49	0xbe91bb8a	-0.28463393
50	0xbe0fbea2	-0.14037564
51	0xbd623edd	-0.055235732
52	0xbe179ccb	-0.14805906
53	0xbd9d96cd	-0.076947786
54	0xbe27f377	-0.16401468
55	0xbe6c8c71	-0.23100449
56	0xbeb25522	-0.34830576
57	0xbebd66a6	-0.36992377
58	0xbe72980e	-0.23690817
59	0xbe85c37d	-0.26125708
60	0xbe4280e7	-0.18994485
61	0xbebcd2e8	-0.3687966
62	0xbde4a262	-0.111637846
63	0xbeb1b462	-0.34707934
64	0xbe39ede2	-0.18157151
65	0xbe2a07ba	-0.1660451
66	0xbd71cebb	-0.059035044
67	0xbe34f097	-0.17669903
68	0xbe60e0ae	-0.21960708
69	0xbde6e320	-0.112737894
70	0xbeca1cd6	-0.39475125
71	0xbe8f6b0d	-0.2801136
72	0xbe664817	-0.22488438
73	0x3cd786be	0.026309367
74	0xbe0d5db7	-0.1380528
75	0xbe92999e	-0.28632826
76	0xbe68ec38	-0.2274636
77	0xbe883733	-0.26604614
78	0xbed0ff86	-0.4081995
79	0xbe72e23f	-0.23719119
80	0xbe8ea17d	-0.2785758
81	0x3c213626	0.00983957
82	0xbdc892a3	-0.09793594
83	0xbe9ecb74	-0.31014597
84	0xbea95bbf	-0.3307781
85	0xbe10892a	-0.14114824
86	0xbe63d9e4	-0.22251087
87	0x3c767b97	0.015044115
88	0x3c992033	0.018692112
89	0xbe4d85b6	-0.20070538
90	0xbe1a4bdd	-0.15068002
91	0xbcad418e	-0.021149423
92	0xbe5ac5a1	-0.21364452
93	0xbd621bc9	-0.05520228
94	0xbe945e3c	-0.28978145
95	0xbe13ecc0	-0.14445782
96	0xbe20f2fc	-0.15717691
97	0xbeeb19ce	-0.45918125
98	0xbe6bde87	-0.23034106
99	0xbe89f208	-0.26942468
100	0xbe33cc6b	-0.17558448
101	0xbea17afc	-0.31539142
102	0xbe1856f9	-0.14876927
103	0xbece343b	-0.40274224
104	0xbe20f703	-0.15719227
105	0xbe81c0fc	-0.25342548
106	0xbe993ad3	-0.29927692
107	0xbe5c7de2	-0.21532395
108	0xbe21d4d5	-0.15803845
109	0xbeb5e43c	-0.35525692
110	0xbe2fa630	-0.17153239
111	0xbe2b319e	-0.16718146
112	0xbec39ed6	-0.3820712
113	0xbe4df696	-0.20113596
114	0xbe8efecb	-0.27928767
115	0xbe83fe8e	-0.25780147
116	0xbe72e379	-0.23719586
117	0xbe0aebf2	-0.13566568
118	0xbe015d5a	-0.12633267
119	0xbe86dc12	-0.26339775
120	0x3cd9bc95	0.02657918
121	0xbe1977d1	-0.14987113
122	0xbeb5bc5c	-0.3549527
123	0xbd8a0f01	-0.06741143
124	0xbdd6b2bb	-0.10483309
125	0xbec5c123	-0.38623914
126	0xbec2452f	-0.37943408
127	0x3c4003f3	0.011719692
128	0xbe457a20	-0.19284868
129	0xbece1afe	-0.40254968
130	0xbe1a77ec	-0.15084809
131	0xbe2f96b6	-0.17147335
132	0xbe0a0829	-0.13479675
133	0xbdb6ad55	-0.08919779
134	0xbde277be	-0.11057995
135	0xbe420567	-0.18947373
136	0xbe83caad	-0.25740567
137	0xbe90d25a	-0.28285486
138	0xbd94e475	-0.07270137
139	0xbe422c8e	-0.18962309
140	0xbe31cff6	-0.17364487
141	0xbed888b5	-0.422918
142	0xbde4d564	-0.111735135
143	0xbef8f590	-0.4862485
144	0xbe528832	-0.20559767
145	0xbe9716f4	-0.295097
146	0xbe89948b	-0.26871142
147	0xbe74996b	-0.2388665
148	0xbe39f059	-0.18158092
149	0xbd79b69f	-0.060965177
150	0xbe2355cf	-0.15950702
151	0xbe4f3684	-0.2023564
152	0xbe65a616	-0.22426638
153	0xbcad7b47	-0.021176947
154	0xbe9c4ef6	-0.30528992
155	0xbe1747ab	-0.14773433
156	0xbedc1c82	-0.429905
157	0xbe3e2131	-0.18567349
158	0xbe959f3d	-0.29223052
159	0xbd881916	-0.0664541
160	0xbd861271	-0.06546486
161	0xbc5fde51	-0.013663844
162	0xbe6ef0dc	-0.23334068
163	0xbe8c632a	-0.27419406
164	0xbebae456	-0.36502331
165	0xbeea6180	-0.45777512
166	0xbe8757ef	-0.26434276
167	0x3d7f1894	0.0622793
168	0xbcc55107	-0.024086488
169	0xbe7c5c3c	-0.2464456
170	0x3d0a46c9	0.033758912
171	0xbe8e596e	-0.27802604
172	0xbde2ef49	-0.11080796
173	0xbc485b99	-0.01222887
174	0xbe954cd7	-0.29160187
175	0xbe9d77fc	-0.30755603
176	0x3b5726cd	0.0032829524
177	0xbe6cd192	-0.2312682
178	0xbe87a94a	-0.26496345
179	0xbd613723	-0.054984223
180	0xbe7834d8	-0.24238908
181	0xbe58440c	-0.21119708
182	0xbdbaf2d6	-0.091283485
183	0xbe54c50b	-0.20778291
184	0xba8486fe	-0.0010111032
185	0xbddc2ab8	-0.107503355
186	0xbe6666a4	-0.22500092
187	0xbe581e5a	-0.21105328
188	0xbe992061	-0.29907516
189	0xbdd36cdd	-0.103234984
190	0xbec0e14e	-0.37671894
191	0xbe9a7727	-0.3016903
192	0xbe2afb93	-0.1669753
193	0xbda97f6d	-0.08276258
194	0xbd9ffc4f	-0.07811796
195	0xbe8fe41c	-0.2810372
196	0xbecfb643	-0.40568742
197	0xbdfe437b	-0.12415215
198	0xbeb0d69c	-0.34538734
199	0xbe83028b	-0.25587878
200	0xbe1f4cdc	-0.15556663
201	0xbe3b2ebd	-0.18279548
202	0xbebebc91	-0.3725324
203	0xbe37346c	-0.17891091
204	0xbe466134	-0.19373018
205	0xbe69c7a7	-0.22830068
206	0xbe2f133d	-0.17097183
207	0xbd1760cb	-0.036957543
208	0xbd8b6071	-0.06805504
209	0xbecba3a3	-0.39773282
210	0xbddfba22	-0.10924174
211	0xbe56f3f1	-0.20991494
212	0xbdb930ec	-0.09042534
213	0xbcbee156	-0.023300808
214	0xbcabc852	-0.020969544
215	0xbe8d4944	-0.2759496
216	0xbe1ed862	-0.15512231
217	0xbe54076f	-0.2070596
218	0xbe644546	-0.2229205
219	0xbdf56fa9	-0.11984188
220	0xbe21bb7d	-0.15794177
221	0xbea44fb4	-0.3209206
222	0xbe617eb9	-0.22020997
223	0xbe54f23d	-0.20795532
224	0xbc5f084d	-0.013612819
225	0xbe8e5521	-0.27799323
226	0xbe45fa54	-0.19333774
227	0xbe5b4638	-0.21413505
228	0xbeafdbca	-0.34347373
229	0xbe64cce5	-0.22343786
230	0xbe9d1f78	-0.3068807
231	0xbeb3db25	-0.35128132
232	0xbe926c85	-0.2859842
233	0xbe477a49	-0.19480242
234	0xbe944fb7	-0.28967068
235	0xbe2db7fc	-0.16964716
236	0xbe5ceb51	-0.21574141
237	0xbeb5ea6b	-0.3553041
238	0xbe113331	-0.14179684
239	0xbdb2b73a	-0.08726354
240	0xbe265c4f	-0.1624615
241	0x3b1b8c40	0.0023734719
242	0xbe80047a	-0.25003415
243	0xbe66ae95	-0.22527535
244	0xbeee12b5	-0.46498647
245	0xbea8b41e	-0.32949919
246	0xbe73fa19	-0.23825873
247	0xbc2d3d16	-0.010573646
248	0xbe662676	-0.22475609
249	0xbdf5fca1	-0.12011076
250	0xbd94f0f5	-0.072725214
251	0xbddf60a1	-0.109071024
252	0xbe689a7f	-0.22715186
253	0xbe16acc1	-0.14714338
254	0xbe75eacf	-0.24015354
255	0xbe3be8fc	-0.18350595

linear_sigmoid_stack.4.bias f4 [40]
0	0xbea22db6	-0.316755
1	0xbe5ad510	-0.2137034
2	0xbe71f34a	-0.23627964
3	0xbeb8148b	-0.35953173
4	0xbe9a2556	-0.3010661
5	0xbe5f3cec	-0.21800584
6	0xbe8b0019	-0.27148512
7	0xbe6bb9e4	-0.2302013
8	0xbe105040	-0.14093113
9	0xbeaded34	-0.33970034
10	0xbe043254	-0.12909824
11	0xbeb755e9	-0.35807732
12	0xbebeb7da	-0.37249643
13	0xbec53194	-0.38514388
14	0xbea9f417	-0.33194038
15	0xbe1abadb	-0.15110342
16	0xbe15e5a8	-0.14638388
17	0xbedafb83	-0.42770013
18	0xbeb066ee	-0.3445353
19	0xbe3f3035	-0.18670733
20	0xbe43eb27	-0.19132672
21	0xbf2a21b6	-0.6645769
22	0xbf060338	-0.5234866
23	0xbe43fa04	-0.19138342
24	0xbe8a20e8	-0.2697823
25	0xbee0cced	-0.43906346
26	0xbe996103	-0.29956827
27	0xbea2f8f2	-0.31830555
28	0xbed36e76	-0.41295213
29	0xbec1a076	-0.37817734
30	0xbde14813	-0.11000075
31	0xbe73d5a9	-0.23811974
32	0xbe72ca52	-0.23709992
33	0xbe968460	-0.2939787
34	0xbeda7846	-0.42669886
35	0xbebd5c71	-0.3698459
36	0xbefea0ed	-0.49732152
37	0xbe8b0cc0	-0.27158165
38	0xbe9f6cc9	-0.31137684
39	0xbf265880	-0.6497879

linear_sigmoid_stack.6.weight f4 [1, 40]
0	0x3dff0028	0.12451202
1	0xbe2a2d1b	-0.16618769
2	0xbe353ea3	-0.17699675
3	0xbdecabd4	-0.11556211
4	0xbe0c5e4c	-0.13707846
5	0xbe0abf0a	-0.13549438
6	0xbe214bd7	-0.15751587
7	0xbda189b2	-0.078875914
8	0xbe320581	-0.17384912
9	0xbe0c97cd	-0.13729782
10	0xbdd82a10	-0.10554898
11	0xbd9039a1	-0.07042242
12	0x3da275ff	0.07932662
13	0xbe100ef8	-0.1406821
14	0xbd068ed2	-0.032851048
15	0xbe0cb5d2	-0.13741234
16	0xbe454e51	-0.19268157
17	0xbdb03e7d	-0.08605669
18	0xbdbff48d	-0.09372816
19	0xbdec021e	-0.11523841
20	0xbe0bf1e9	-0.136665
21	0xbe16b068	-0.14715731
22	0xbe3651ba	-0.17804614
23	0xbe3f3439	-0.18672265
24	0x3d450977	0.04810473
25	0xbe27aa86	-0.16373643
26	0xbe293a37	-0.16526113
27	0xbdcc5c01	-0.09978486
28	0xbe0158fc	-0.12631601
29	0xbe0db985	-0.13840301
30	0xbd8ca2a6	-0.0686696
31	0xbd2c99e0	-0.042138934
32	0xbdd80969	-0.1054867
33	0xbdee1d1a	-0.116266444
34	0xbd79f31b	-0.06102286
35	0x3c788de1	0.015170545
36	0xbe099eca	-0.1343948
37	0x3cb6d00a	0.022315998
38	0xbe1fcd0d	-0.15605564
39	0xbe00dcb3	-0.1258419
