Logistic/Results without the additional condition/sol_w123.pt (torch_old, 15258 bytes, 7 tensors)

linear_sigmoid_stack.0.weight f4 [40, 1]
00000000: 3a0b a93c 0093 11bf 5ffa 193f 9029 0b3f
00000010: 8662 42bf d35f 59be 5aa7 1abf ba8a 383f
00000020: e12e b4bd 0bdb 743f d959 4e3f 88e5 153e
00000030: 94ce debe edc2 8bbf b242 5dbd 6d59 2fbf
00000040: 7401 383f 523c 1ac0 7be0 f43f c70f 6ebf
00000050: 59f0 e83f 8e79 c9be 3216 8e3f 902c eb3e
00000060: d7bd 50bc fd24 bd3e 5cca ea3f abcf b93e
00000070: a71d b83f 95e7 84bf 8291 a83f 5dd2 053f
00000080: cacb ab3e e765 1f3e 9127 d33e 059b aa3f
00000090: 5b57 74be 0379 cabe 0909 8abe 675a 89bf
0.020635236 -0.5686493 0.6014766 0.54360294 -0.75931585 -0.2122796 -0.6041161 0.7208668
-0.08798004 0.95646733 0.80605847 0.1463834 -0.43516982 -1.0918862 -0.054018684 -0.6849583
0.7187722 -2.4099317 1.9131006 -0.92992824 1.8198348 -0.3935055 1.1100523 0.45932436
-0.012740574 0.36942282 1.8343005 0.3629125 1.4384049 -1.0383173 1.3169405 0.52274114
0.33553916 0.15566216 0.41241124 1.3328558 -0.23861448 -0.3954545 -0.26960018 -1.0730714

linear_sigmoid_stack.0.bias f4 [40]
00000000: 5ef2 db3e 8eb1 0cbf b71e debe 5b23 663f
00000010: 3478 603f 277e d53d c17b 27be fb80 d13c
00000020: b152 1e3f 53a9 68bf 11ce 4bbf 00c5 4f3f
00000030: 3182 823f 280e 97bd 30f7 54bf d735 14bd
00000040: 9521 c6be 1a64 9cbe c883 b93e 1b55 df3e
00000050: 4519 9a3d b643 2a3d 7935 703e 530c 4ebf
00000060: 6a3c bcbe 79da 933d e887 3abe ce44 fcbe
00000070: 4bfb 973e 428e 063f 1793 483d 4ce5 a7be
00000080: a7ff 183f b933 0fbf 8b94 adbe dce5 403f
00000090: b95d 313e d8fb b23d 9065 ad3e 7aee 88be
0.4295835 -0.54958427 -0.4338281 0.898977 0.87683415 0.10424452 -0.16355802 0.025574198
0.6184493 -0.9088337 -0.7961131 0.81159973 1.0195981 -0.07375747 -0.8318968 -0.03618416
-0.38697496 -0.3054512 0.36233354 0.43619618 0.07524351 0.04156848 0.23457898 -0.80487555
-0.36764842 0.07219405 -0.18215907 -0.49271244 0.2968391 0.5256082 0.0489684 -0.32792127
0.59765095 -0.559383 -0.33902392 0.7535074 0.17320909 0.08739442 0.3386655 -0.26744443

linear_sigmoid_stack.2.weight f4 [40, 40]
00000000: 6e89 e53d f190 13be 42f7 e9bd 9146 7cbd
00000010: 8e9b 73bd e20e 86bd ab16 bd3d 5ba7 893c
00000020: 5a56 adbb a538 fc3c efc7 52be 8a40 e1bd
00000030: 7eb0 7c3d 7407 9c3c 41fe 49be 8458 f0bd
00000040: 70d5 34be 52e1 563e c4b8 41bd 12b0 183e
00000050: 77e7 73be 8b97 37be 65ee 40be 8af0 2dbd
00000060: e724 9fbd 2b68 12be a7d9 a9bb e2e6 ccbd
00000070: d572 40be e58f de3d 966d 11be 1d07 1b3d
00000080: dd13 fa3b 0083 48bd fd69 b5bc 6403 49be
00000090: 735e dfbd b100 b9bd 15b2 debd cb7c 4e3d
000000a0: 2401 11bd 12c8 07be 03e0 923c f494 25be
000000b0: c694 d4bc b130 e9bd b9c0 4ebe 62d3 42be
000000c0: e30f 27bc 6e52 12bd 05ca 41be f3c8 efbd
000000d0: 97c2 5dbe 79d6 fe3c 940f 823d 8bb9 c6bb
000000e0: 5a46 3ebe de87 ff3c 99a9 223d deb7 afbd
000000f0: ee54 e9bd 3b39 37bc 8c07 8abd f7f1 01be
00000100: 990a 62be fef7 3ebe 7695 98bd cf49 a2bd
00000110: 6622 2d3d 3a61 34bd 6a05 04be 2ba6 70be
00000120: 6644 5dbe 24c3 e4bb 0258 873d 9a17 afbd
00000130: d179 57be 17b2 53bc 8fa7 7a3d 9a13 25be
00000140: aca2 9b3d 0752 283d b765 943b 829f 983c
00000150: 03ae 3e3e 31e1 74bd 7b18 663c 25d7 fe3c
00000160: 0415 833e 8c4d a93d 1d52 0b3e b4ed 623d
00000170: 5cde 7b3e 6b93 b03d 98ed 90bd 0905 593d
00000180: 1ce9 adbc 6062 b63d 0627 413e 7869 033d
00000190: 40b9 6a3e ea3c e23d 487a af3d 01fc 063e
000001a0: cb3c 3a3d 7c57 ba3d 37b6 35bc 9f45 373e
000001b0: 1353 543e 6130 273e c3bd 473e ba82 853e
000001c0: 43f8 9b3e 7ae5 aabd 99f1 0e3e 8071 fb3d
000001d0: d96a 053e 1951 0f3d af38 ff3d 899b b2bd
000001e0: 7250 1f3e ca59 473e b3a3 263c e61e 02bd
000001f0: 031f 1ebd 4353 383c c909 763d 9a76 6e3d
00000200: f63e e83d aa4d b83d 8ac1 0ebd a517 233e
00000210: 62b0 bfbc 8597 863e d8ed 7c3d e768 2b3d
00000220: afde 003e bde5 543e c3d9 e93c 8fcd a03d
00000230: 873a e03c 10fc 423d aa4a 86bd caec 7d3d
00000240: be3c 9a3d 7eda 35bc 1d10 3d3d 55ff 733c
00000250: cf4c e0bd c4ea 313d dee1 e4bd 6b48 b63d
00000260: a9c6 493e ae08 413e 5cf7 603e d22b d63d
00000270: bb78 f83d 8fc3 b13c 6f61 373e d9c4 133d
00000280: 7bce 8cbc d24e 103e 6e2a 76be 87c6 52be
00000290: f112 f93d d153 533e 3de8 f73d 53e0 98be
000002a0: 6d66 043c 3d37 5bbd 1819 0cbe fedd 1abb
000002b0: 9143 833d cabc f83e e712 fcbd 37f9 883e
000002c0: 35f2 f6bd 22c6 5d3f 63e3 14bf f3dc 503e
000002d0: 37df 0bbf 0c5d 853e aac1 8dbe bd43 6fbe
000002e0: 1782 ae3d abe0 15bd 7bf8 e8be 7264 1abe
000002f0: 6e93 febe 8469 d83e 854f e1be 6b5f 16be
00000300: c4d6 9ebd a72e 8e3d ddb7 64be ed88 c0be
00000310: c3e3 35bb 0f53 6d3d 133d 483e f6ef e43e
00000320: e408 803e 916b 643e c157 8a3d e0f8 623e
00000330: 4bb5 693d 7fca 113e 500b 67bc 93d1 1d3d
00000340: 9535 a03e 8040 8d3d 996f 073e 2276 2f3e
00000350: d845 773d d1b3 e63d 29e2 f23d c889 833e
00000360: be33 d13d 663d 903e f7cd db3d e306 863e
00000370: 9de6 a03e 5110 1b3e da61 073e b3eb 893e
00000380: ef86 de3d 010b 013e 24de ef3d 0a2a d23c
00000390: 1a12 303e b7b3 0d3d f058 903e 3495 c33c
000003a0: 506c c53d 96a4 323e 6616 893e 5ddb b53e
000003b0: 3301 d33c bee7 8a3e 9838 873e 2f22 213c
000003c0: cc2e 323e 5463 b53c bf87 fe3d 20ef 92bc
000003d0: f387 123c 5b25 0fbd b5b9 4c3d 5b49 933d
000003e0: cc99 da3d 954e 8dbd b4c8 f83d 501b 5f3e
000003f0: a0c5 82bd 1806 c1bc 8e58 4fbb 2390 fc3d
0.11207853 -0.1441076 -0.11424114 -0.061590735 -0.05947452 -0.065458074 0.09232839 0.016803434
-0.005289835 0.030788729 -0.20584081 -0.10998638 0.061691754 0.019046523 -0.19725896 -0.11735633
-0.17659545 0.2098439 -0.047295347 0.14910915 -0.23818766 -0.17928903 -0.1884094 -0.042465724
-0.077707104 -0.1429755 -0.005183417 -0.10004975 -0.18793805 0.108672895 -0.1420196 0.03784858
0.0076317624 -0.048953056 -0.022145266 -0.196302 -0.10906687 -0.09033335 -0.1087381 0.05041198
-0.03540148 -0.13259915 0.017929083 -0.16170102 -0.025949847 -0.1138624 -0.20190705 -0.19025949
-0.010196659 -0.035723142 -0.1892472 -0.1170825 -0.21656261 0.031108128 0.063506275 -0.006064599
-0.18581524 0.031192716 0.039712522 -0.08579992 -0.11393152 -0.011183078 -0.06739721 -0.12689959
-0.22074355 -0.18649289 -0.074503824 -0.07924234 0.042269133 -0.044038035 -0.1289269 -0.23500888
-0.21608123 -0.0069812704 0.06608583 -0.085494235 -0.21042563 -0.012920878 0.061194953 -0.16120759
0.075993866 0.041093852 0.004528727 0.018630747 0.18621068 -0.05978507 0.014043923 0.031108448
0.2560197 0.08266744 0.13605542 0.055402473 0.24596542 0.08621868 -0.070765674 0.052983318
-0.02122932 0.08905482 0.18862543 0.032083005 0.2292223 0.11046775 0.08568245 0.1318207
0.045468133 0.090987176 -0.011090807 0.17897652 0.20734815 0.16327049 0.19505982 0.260763
0.30462846 -0.083445504 0.1395935 0.12277508 0.1302904 0.03498945 0.124619834 -0.08721072
0.15558031 0.19467846 0.010170865 -0.03176775 -0.038603794 0.01125032 0.060067926 0.058218576
0.11340134 0.08999188 -0.034852542 0.15926988 -0.023399536 0.26287475 0.061750263 0.04184809
0.12584947 0.20790763 0.02854622 0.07851707 0.027371658 0.047603667 -0.0655721 0.061993398
0.07531117 -0.011099456 0.046157945 0.014892419 -0.1095215 0.04343678 -0.11175893 0.089005314
0.19704689 0.18850967 0.2196936 0.10457577 0.121324025 0.021699695 0.17908262 0.0360764
-0.017188301 0.14092568 -0.24039623 -0.20583545 0.12161816 0.20637442 0.12104843 -0.29858646
0.008081061 -0.053519476 -0.13681448 -0.0023630853 0.06409372 0.48581535 -0.12308293 0.26752636
-0.12057916 0.8663045 -0.58159465 0.20396785 -0.54637474 0.26047552 -0.27686816 -0.23365684
0.085209064 -0.036591213 -0.45502076 -0.1507738 -0.49721855 0.42268002 -0.4400598 -0.14684837
-0.07755807 0.06942492 -0.22335763 -0.37604466 -0.0027754165 0.05794054 0.19554548 0.44714326
0.25006783 0.22306658 0.06755019 0.22165251 0.05705766 0.14237402 -0.014101818 0.038529944
0.3129088 0.06897068 0.13226165 0.17134908 0.060369343 0.11264766 0.11859543 0.25691056
0.10214947 0.28171843 0.10732644 0.2617713 0.31425944 0.15142943 0.13220921 0.26937637
0.1086558 0.12601854 0.11712292 0.025654811 0.17194405 0.034595218 0.28192854 0.023874857
0.096397996 0.17445597 0.267749 0.35518923 0.025757408 0.2712993 0.26410365 0.00983481
0.17400664 0.02214209 0.12428235 -0.01793629 0.008943546 -0.034947734 0.04998179 0.07191726
0.10673866 -0.06899754 0.12147656 0.21787763 -0.0638535 -0.023562476 -0.0031638476 0.123321794

linear_sigmoid_stack.2.bias f4 [40]
00000000: 73b2 5d3d 8e0c a1bd bf00 8f3e 2131 b53d
00000010: 0c84 cb3d 67f3 f03d 9072 8f3e 0e21 1abd
00000020: 2fd9 2bbe d10a 8c3e b058 c1bd 01f4 e63d
00000030: f5be 4e3e 37a6 3cbd 71e2 ecba 45ab eb3a
00000040: 4625 8d3d 5c43 49bd bd34 91bd 02ec d63d
00000050: 6b56 923e 8ab5 183e 8e6a 0abe eb87 693e
00000060: 6911 333d 248e 1b3e 05cc 29be 1bb1 2b3e
00000070: 81d9 2bbb c3a1 563e f7f7 813e 8af4 af3e
00000080: 4568 023e aa6a 8a3c c4ba 943e b5e3 f63d
00000090: 7204 1f3e 0ec4 933e a888 313e 1535 96bd
0.05412526 -0.07863723 0.27930257 0.08847261 0.09937295 0.11765175 0.28017092 -0.03762918
-0.16782068 0.27352002 -0.09440744 0.11277009 0.20190032 -0.046056952 -0.0018072856 0.001798012
0.06891875 -0.049136505 -0.07090137 0.10494234 0.28581557 0.14913002 -0.1351721 0.22805755
0.043717775 0.15190941 -0.16581734 0.16766779 -0.0026222172 0.20960145 0.25384495 0.34366256
0.12735088 0.016896565 0.2904874 0.120551504 0.1552904 0.28860515 0.17337286 -0.07334343

linear_sigmoid_stack.4.weight f4 [40, 40]
00000000: 4f22 a03d d4c8 a53d bb84 3dbe 363f 78be
00000010: e96e 423e 6de4 3abe 17d2 6dbe 709f 81bc
00000020: f46e f53c 4002 9fbe 0bad e3bd 3606 37be
00000030: ed9a 5c3c c0b8 6dbd 58ad 2bbe 158f 3fbe
00000040: 4dde e83d 16bc 0d3e 1c8d a7be d981 cebe
00000050: 9914 a5be fd0f 97be 5244 1abd a9b3 cbbe
00000060: 1df7 99bd 8246 d2be 88ba 9a3d ee0f 8abe
00000070: a4e5 31be 9659 ebbd 837c 8ebe 5e13 a3be
00000080: 67e7 55bd b3c0 983d 62e1 59be e964 d8bd
00000090: 6309 cabe b064 b2be a3dc 90be a3e6 bbbd
000000a0: 3249 74be de4e e9bd ac6f 04be f7f1 82bd
000000b0: 651a b3be 94f3 3dbe 4c91 adbd 696f c1bb
000000c0: 2728 073d abca 97be 0dc9 10be 789c 82bd
000000d0: 8f53 20be 348d a3bd afb0 2cbe 7412 76be
000000e0: b2ed b6be be7a c5be 419d 77be 17a9 8bbe
000000f0: cbed 4cbe e24b c3be 7374 ebbd c717 b8be
00000100: 1d52 3dbe 08ef 35be eaee 80bd 80ad 41be
00000110: cb54 6abe f378 fcbd aa71 d0be fb4d 95be
00000120: 25b7 6fbe 7867 b63c 71db 16be 8b99 96be
00000130: 1f45 75be 8d77 8ebe de14 d7be 4e6c 78be
00000140: c333 91be 8f1f fd3b 7899 e1bd 016c a4be
00000150: 3966 b3be d93c 1ebe ebe9 6fbe c348 5f3c
00000160: 1730 883c 2175 5abe d569 1bbe 1f71 fabc
00000170: 08c4 62be 582a 6dbd 64e2 96be 2c10 1ebe
00000180: 4b8e 29be d38e f2be 5434 71be ef3e 90be
00000190: e9f8 3ebe e76a a8be 17d2 1bbe 3f10 d5be
000001a0: 1551 24be cb21 88be 3f29 9bbe 912a 6abe
000001b0: 5bc2 2bbe 749d bbbe 7036 3dbe eee7 37be
000001c0: d3eb c7be 43fb 51be 8bde 93be 5be8 87be
000001d0: e30e 80be 412e 18be 686d 0ebe fdb8 89be
000001e0: ec3b c93c 8716 1abe 4a0d b7be 5868 8fbd
000001f0: 2bbc eabd 824d c7be 189b c3be 3b63 373c
00000200: 9530 46be 9a91 cfbe 4ac8 1abe 3b06 31be
00000210: 2709 0ebe c02c b9bd 5dea e3bd d63f 44be
00000220: 38d5 85be e2ab 94be faa6 96bd 04f9 44be
00000230: 4f1f 34be b11a dabe e0f5 e6bd b37c fabe
00000240: 224e 53be de92 98be 957c 8abe 4e99 77be
00000250: 9641 3cbe 27ea 81bd 8458 26be edd7 51be
00000260: 161b 6abe 5e5b babc 9c99 9dbe 0727 1abe
00000270: f296 ddbe 1862 41be 6a0c 97be 071e 8bbd
00000280: 0728 8dbd 5aaf 74bc e3de 74be 893d 8fbe
00000290: ab21 c3be 41bd edbe ac4d 8abe 6953 7b3d
000002a0: 9fbd cebc 3d5f 81be 210a 083d aa56 90be
000002b0: 1a27 f0bd d1d8 6abc 8868 96be ebf5 9fbe
000002c0: a267 50bb db84 79be 7ddf 88be f7ed 79bd
000002d0: 038b 7dbe c210 5fbe 6a03 bfbd 2c6f 5bbe
000002e0: 5752 38bb 10db e8bd 1638 69be 28c4 5ebe
000002f0: 9ca9 9bbe 0dcc debd 9133 c4be 7d77 9dbe
00000300: 9d20 32be 9510 afbd c19f aabd 6476 92be
00000310: 81f1 d2be 96ef 05be 2dff b3be 1883 84be
00000320: fc2b 23be b4b4 3cbe ca50 c2be 1903 3ebe
00000330: f7d0 56be 05c9 71be af20 36be 3d93 1bbd
00000340: bf11 8ebd e273 cfbe 2d0e e1bd cdfc 5bbe
00000350: 985a c7bd 54ba d1bc acb3 c2bc f346 90be
00000360: b133 26be b4dc 60be d050 67be e61a 02be
00000370: 452d 28be 925d a8be 2bd9 63be fae8 5cbe
00000380: dbf0 81bc 4f14 92be fa09 49be 7e38 63be
00000390: 31e6 b2be 4b9b 6bbe 2116 a1be 4c7a b7be
000003a0: 9656 96be 888d 4abe 2e82 97be 1fab 33be
000003b0: 27a2 64be 05ef b9be bcc1 18be 0320 babd
000003c0: 7998 2bbe 68b9 b439 4555 85be b988 70be
000003d0: f07e f9be 4999 aebe 4f5f 7ebe 3105 44bc
000003e0: 080d 68be 6634 06be ffec 96bd 4efc eebd
000003f0: 9abf 71be 63c5 19be bf3e 7abe 31ba 44be
0.07819044 0.080949455 -0.18507664 -0.24242863 0.18987621 -0.182512 -0.23224674 -0.015823096
0.029960133 -0.31056404 -0.1111699 -0.17873463 0.013464672 -0.05803752 -0.16765344 -0.18706925
0.113705255 0.1384128 -0.32724845 -0.4033344 -0.32242277 -0.29504386 -0.03766281 -0.39785507
-0.07517836 -0.41069418 0.07555109 -0.26965278 -0.17372757 -0.114916965 -0.2782937 -0.31850713
-0.052222636 0.074586295 -0.21277383 -0.10566122 -0.39460286 -0.34842443 -0.28293332 -0.0917485
-0.23856047 -0.11391996 -0.12933224 -0.063938074 -0.34981075 -0.18549949 -0.08474979 -0.0059031737
0.032997277 -0.2964681 -0.14139195 -0.063775 -0.15656875 -0.07985917 -0.16864274 -0.24030477
-0.35728222 -0.38570207 -0.24181081 -0.27277443 -0.20012586 -0.38143831 -0.1149682 -0.3595564
-0.18488355 -0.17766964 -0.06295569 -0.18913841 -0.22883908 -0.12327757 -0.4071172 -0.29161057
-0.23409708 0.022266135 -0.14732148 -0.2941402 -0.23952149 -0.27825585 -0.42008108 -0.24260065
-0.28359804 0.0077247093 -0.110156 -0.3211365 -0.35038927 -0.15452899 -0.23429076 0.013628188
0.016624494 -0.21333744 -0.1517709 -0.030571518 -0.22145092 -0.05790171 -0.29469597 -0.15435857
-0.16558187 -0.4737459 -0.23555118 -0.28173015 -0.18649639 -0.3289406 -0.15216862 -0.41613957
-0.16046555 -0.26588282 -0.30304906 -0.228678 -0.1677336 -0.36643565 -0.18477798 -0.17959568
-0.39047107 -0.20506005 -0.28880724 -0.2654446 -0.25011358 -0.14861394 -0.13908923 -0.26898947
0.024564706 -0.15047656 -0.35752326 -0.07002324 -0.114616714 -0.3892632 -0.38204265 0.011193092
-0.1935447 -0.40540773 -0.15115467 -0.17287533 -0.13870679 -0.090417385 -0.111286856 -0.19164976
-0.26139235 -0.29037386 -0.07356067 -0.19235617 -0.17590068 -0.4259849 -0.11277366 -0.48923263
-0.20635274 -0.2979955 -0.27048174 -0.24179575 -0.18384394 -0.06343489 -0.16244704 -0.20492525
-0.22861895 -0.022748645 -0.30781257 -0.1505395 -0.43279225 -0.18885076 -0.2950166 -0.06792837
-0.068924 -0.014934385 -0.2391315 -0.27976635 -0.38111624 -0.46433452 -0.27012384 0.061358843
-0.025236903 -0.25267974 0.033212785 -0.2819112 -0.11726208 -0.01433392 -0.29376626 -0.31242308
-0.0031800051 -0.24367087 -0.26733008 -0.061017957 -0.2476006 -0.21783736 -0.09326823 -0.21429127
-0.002812525 -0.11369908 -0.22775301 -0.21754515 -0.3040284 -0.10878763 -0.38320592 -0.30755225
-0.17395253 -0.08548085 -0.08331252 -0.2860595 -0.41199878 -0.13079676 -0.3515562 -0.25881267
-0.15934747 -0.18428308 -0.37952262 -0.18555869 -0.20978151 -0.23611839 -0.17785905 -0.037982214
-0.069369785 -0.405181 -0.10989032 -0.21483155 -0.09734076 -0.025601543 -0.023767315 -0.2817913
-0.16230656 -0.21959192 -0.22589421 -0.12705573 -0.16423519 -0.32883888 -0.22250812 -0.21573249
-0.01586192 -0.2853112 -0.19632712 -0.22189519 -0.34941247 -0.23008458 -0.31462196 -0.35835493
-0.29362935 -0.19780552 -0.29591507 -0.17545746 -0.22327481 -0.3631517 -0.14917654 -0.09088137
-0.16757382 0.00034470414 -0.26041618 -0.23489656 -0.48729658 -0.34101322 -0.24841045 -0.011964128
-0.22661221 -0.13105926 -0.07369422 -0.11669217 -0.23608246 -0.15016703 -0.24437998 -0.19211651

linear_sigmoid_stack.4.bias f4 [40]
00000000: adef a7be 7943 68be 5f26 80be 3abf b9be
00000010: 43b6 9dbe b9b6 67be 9534 91be f06d 74be
00000020: 9a1c 1dbe 4c4e b1be c28e 0ebe 4d6b bcbe
00000030: 1d57 c5be 0c13 cbbe a6f7 aebe 4674 26be
00000040: 583f 25be 6177 dabe 77c6 b4be 3bd2 48be
00000050: 1ce8 4ebe 12c5 29bf 163d 07bf 48dd 51be
00000060: a1be 8fbe 9174 e7be 2346 a0be 1c4a a4be
00000070: 475c d7be 11ca c6be 0b3f f7bd f939 7ebe
00000080: e95b 7dbe c7b3 9cbe 9b6b dbbe fe0b c3be
00000090: 8692 01bf d8db 8fbe 3a7f a5be 9660 26bf
-0.32800046 -0.22681989 -0.25029275 -0.36278707 -0.30803117 -0.22628297 -0.2836043 -0.23870063
-0.15342942 -0.34630048 -0.13921645 -0.36800614 -0.38543025 -0.3966297 -0.34173316 -0.16255292
-0.16137445 -0.42669204 -0.35307667 -0.19611447 -0.2020573 -0.6631633 -0.52827585 -0.20494568
-0.28075126 -0.4520612 -0.3130351 -0.3208779 -0.4206259 -0.3882604 -0.12072571 -0.24826802
-0.24742092 -0.3060591 -0.42855534 -0.38095087 -0.506142 -0.28097415 -0.3232363 -0.6499113

linear_sigmoid_stack.6.weight f4 [1, 40]
00000000: 3026 103e e6f5 41be 2584 4ebe 294b 0cbe
00000010: b654 23be 1812 1fbe fbf2 39be 5dbf c1bd
00000020: 8ee5 49be cec5 20be 7a3f 02be 19dc b4bd
00000030: f442 b03d 9875 28be 761d 33bd 7b25 22be
00000040: b537 60be 043b d5bd efcf e0bd bfbf 0bbe
00000050: 5547 21be 15b3 34be c4e2 50be f5bf 55be
00000060: 9ce0 463d 474e 43be 3ed8 42be 5ede f6bd
00000070: 1760 16be 9626 20be a240 b4bd 1ca1 60bd
00000080: 0912 febd 14e5 0bbe b495 97bd d584 2e3c
00000090: f7d1 1cbe 7ff5 9d3c 0186 38be 8af4 19be
0.14077067 -0.18941459 -0.20167597 -0.13700546 -0.15950283 -0.15534246 -0.18159096 -0.09460328
-0.19716474 -0.15700457 -0.12719527 -0.08831043 0.0860652 -0.16451108 -0.043729268 -0.1583461
-0.2189625 -0.10411647 -0.1097716 -0.13647364 -0.15749867 -0.1764644 -0.20399004 -0.20874007
0.048554048 -0.19072829 -0.19027802 -0.12054132 -0.14685093 -0.1563972 -0.0880139 -0.054841146
-0.12405784 -0.13661605 -0.074016005 0.010651787 -0.1531447 0.0192821 -0.18019868 -0.1503469
