Logistic/Results without the additional condition/sol_w198.pt (torch_old, 15258 bytes, 7 tensors)

linear_sigmoid_stack.0.weight f4 [40, 1]
00000000: 93c9 0d3d 8612 16bf 2c4b 1c3f 6aff 0a3f
00000010: 8113 50bf b211 6bbe 8b9f 20bf f2b6 3c3f
00000020: d3cf a2bd 19c0 7a3f e1a3 513f 03c7 0b3e
00000030: 5b84 d7be 14fe 90bf 42fc 3cbd 3d40 3bbf
00000040: 4b5b 3b3f 742e 24c0 1cf8 fc3f afe3 7fbf
00000050: 46b8 ee3f 4af4 d0be 7e6b 903f b602 f73e
00000060: c1ba 3fbc d748 bf3e fbfd ed3f 8410 c13e
00000070: d5fb bb3f 49ff 8ebf 2e77 ab3f af6e 073f
00000080: bfe7 aa3e cee3 1f3e b786 da3e 37d5 ad3f
00000090: 6769 81be 69db cdbe 8815 91be 9b34 8ebf
0.034616064 -0.58622015 0.61052203 0.5429598 -0.8127976 -0.22955969 -0.62743443 0.7371665
-0.079497956 0.9794937 0.81890684 0.13650136 -0.42093167 -1.1327538 -0.04613901 -0.73144895
0.73186177 -2.5653353 1.9763217 -0.9995679 1.8649986 -0.40811378 1.1282804 0.48244256
-0.01170224 0.3736026 1.8593134 0.37707913 1.4686228 -1.1171657 1.3395746 0.52903265
0.33379933 0.15614244 0.42680904 1.3580693 -0.25275728 -0.4020646 -0.2833674 -1.1109804

linear_sigmoid_stack.0.bias f4 [40]
00000000: 5521 de3e 918e 0bbf 7271 dfbe 9b22 663f
00000010: d17d 5d3f 383b db3d 9906 25be c3fc b73c
00000020: 8cc3 1e3f fa73 68bf 8dc5 4bbf 30ab 503f
00000030: 27e6 823f 92c2 5ebd 2843 55bf 2f41 05bd
00000040: 8e43 c7be 950a a5be b68f b63e ce93 e23e
00000050: a4c8 af3d b5fa 333d 0480 6e3e d2cc 4dbf
00000060: 9e21 bcbe 5951 943d e1fc 20be 775d fbbe
00000070: ca1f 943e 018d 0a3f 7575 4a3d 80d0 a8be
00000080: 5044 193f fc24 0fbf 2e33 adbe c0cd 3e3f
00000090: 833b 333e 2fab b43d 5acd ae3e 420c 7bbe
0.43384805 -0.54514414 -0.4364124 0.89896554 0.86520106 0.107046545 -0.16115798 0.022459393
0.6201713 -0.90801966 -0.79598314 0.8151121 1.0226487 -0.054384775 -0.833056 -0.032532867
-0.38918728 -0.32234636 0.35656518 0.4425339 0.08583191 0.043940265 0.23291022 -0.80390656
-0.36744398 0.07242078 -0.15721466 -0.49094746 0.28930503 0.54121405 0.049428422 -0.32971573
0.5986986 -0.5591581 -0.3382811 0.745327 0.1750317 0.08821713 0.34141046 -0.24516395

linear_sigmoid_stack.2.weight f4 [40, 40]
00000000: b4b2 f03d 99f6 0dbe 2ba7 e5bd c10a 68bd
00000010: 75d7 4fbd 91a2 75bd 08aa ca3d b9a8 963c
00000020: f60f af39 c007 e53c 8fbb 52be a5c0 d4bd
00000030: a097 8e3d 8c78 ee3c 1d1d 47be 0fc5 e0bd
00000040: 62c8 33be a66a 603e 2b1c 39bd e374 243e
00000050: cfb0 71be aa61 31be 9fb2 40be 15dc 25bd
00000060: 5b64 97bd 5ebd 0ebe 018a 3fbb bd23 c8bd
00000070: 6274 3fbe 3769 f93d fcfd 11be 226d 253d
00000080: 55c3 4d3c e977 3abd bfd9 9fbc 4575 46be
00000090: 2f7d d3bd 245a acbd efbd d1bd 4481 733d
000000a0: 5ea7 07bd cccb 04be dcbb 953c 74e1 23be
000000b0: baa8 afbc 7710 e4bd 8c30 4bbe 740c 43be
000000c0: abb6 00bc 75f4 1dbd 2ac8 42be d2a1 eabd
000000d0: 6bfe 59be 1b0e 173d cb81 843d 653c 01bb
000000e0: 44ad 3ebe ebbb 103d 1e3f 243d c451 a2bd
000000f0: 5ef1 e8bd 04e4 06bc 6f82 8cbd 5369 01be
00000100: 0e5d 60be e6d0 3dbe 3475 98bd ccf1 a0bd
00000110: cd4b 2a3d f132 15bd 0cd6 05be 4703 70be
00000120: 425a 5bbe cf25 b6bb 94e3 883d 6694 aebd
00000130: 1fc1 54be 5397 22bc c653 833d 09ea 1fbe
00000140: 0e41 a83d 21b6 3b3d a537 0d3c dab1 cd3c
00000150: 5b31 463e 47b7 5fbd cfc2 a13c 2c44 0e3d
00000160: 041c 863e 2d61 a93d 66d3 0d3e 8130 803d
00000170: d394 813e a1ba c23d 45e1 8abd 05c3 733d
00000180: 63b3 93bc f01a c73d 56d2 443e 24d6 2b3d
00000190: 172d 6e3e 7a2e ed3d ea0f b43d b5e1 0a3e
000001a0: 762d 4b3d ecfc c43d fd72 01bc 7461 3b3e
000001b0: 8e09 573e e6c0 323e 9223 493e 1aba 873e
000001c0: 1f36 9f3e b5ed a1bd 806d 133e 3400 023e
000001d0: 31f2 0a3e 10a2 253d 0898 053e e54c a2bd
000001e0: 7f8d 253e 31f7 4c3e 1706 763c 0c1d d4bc
000001f0: 5c28 02bd 1a7e 813c 6632 883d 1fb9 763d
00000200: 367a f23d bd59 b03d b8bd 06bd c0b1 2a3e
00000210: 6577 8fbc 29c2 8d3e 97f5 833d 2a36 4c3d
00000220: ce60 033e 5539 593e 85b0 063d 8750 bf3d
00000230: 7d75 f83c 4808 573d b245 8abd 5cf6 893d
00000240: 4376 a23d 5a4c b6bb 37d0 443d ec7d a03c
00000250: 711f e1bd 2282 7d3d bf29 ecbd 81fc c03d
00000260: 6061 503e c581 463e 7336 663e 135d da3d
00000270: d82d 013e 4680 da3c bdc0 3c3e c4c9 453d
00000280: 3844 f2bb 02c9 2b3e 3b34 82be 05ce 56be
00000290: e106 213e bb1d 653e fcb6 1b3e 0606 a2be
000002a0: 9f8c b63c 0776 9dbd 1222 20be 6ae0 b33b
000002b0: e8d3 b53d f456 093f 2892 edbd cbf1 9a3e
000002c0: 052c 0ebe 7cfb 7d3f efeb 26bf 7a1c 7e3e
000002d0: a404 1dbf d78a 913e cf17 9ebe b061 78be
000002e0: 0a8a be3d 6766 27bd ed2e 05bf f866 20be
000002f0: 3504 0bbf 6998 f03e 1b8f f6be 3db8 21be
00000300: f351 9ebd 10f9 903d 9b42 6cbe e5f6 d1be
00000310: edf7 803c ff93 a73d 22ca 5c3e 4906 fe3e
00000320: f9a1 813e a5e9 663e 521c 8f3d ca90 663e
00000330: fed4 783d fe8c 143e 56e3 36bc 991b 263d
00000340: 1bdc a13e 5a92 8d3d 9cfc 083e 926a 333e
00000350: b841 833d 8b48 f03d 0b10 f63d 694d 853e
00000360: 79fc d43d b56a 923e dbbc df3d c4ab 883e
00000370: bde1 a13e 13e7 1d3e dea1 083e edf7 8a3e
00000380: 1005 e33d 19f3 033e 58b1 f33d 7a2d e43c
00000390: 838e 313e 511d 263d 8cab 903e 34d5 d73c
000003a0: 417b cc3d 5817 353e 5a4f 8a3e f8f4 b63e
000003b0: b92f ea3c a260 8c3e b6cf 883e 820d 663c
000003c0: 6a8e 383e 7cf8 df3c d2ba 043e c536 3fbc
000003d0: e9da 783c 6516 f8bc 4d8c 653d 8ff2 983d
000003e0: 0b87 e53d 0be5 91bd 08b2 fe3d 81d9 663e
000003f0: 2db4 6dbd bc57 2cbc c385 c0b9 5bed 053e
0.11752835 -0.13863601 -0.112135254 -0.05665088 -0.050742585 -0.05996949 0.09895712 0.018391
0.00033390493 0.027957797 -0.2057936 -0.103883065 0.06962514 0.029110216 -0.194447 -0.10975086
-0.17556909 0.21915683 -0.04519288 0.16060214 -0.23602603 -0.17322412 -0.18818139 -0.04049309
-0.07392188 -0.13939425 -0.0029226544 -0.097724415 -0.1869674 0.12178271 -0.14257044 0.04038728
0.012558778 -0.04552451 -0.01951301 -0.19380672 -0.10326611 -0.084156305 -0.10241305 0.05944945
-0.0331186 -0.12968367 0.018278055 -0.16003972 -0.02144276 -0.11135953 -0.19842738 -0.19047719
-0.007856051 -0.03856321 -0.19021669 -0.11456646 -0.21288459 0.036878686 0.064700685 -0.0019719836
-0.18620783 0.035335463 0.040099256 -0.07925752 -0.11374162 -0.008233074 -0.06860816 -0.12637834
-0.21910498 -0.1853672 -0.0744423 -0.07858619 0.041576196 -0.036425535 -0.13069934 -0.2343875
-0.2142115 -0.0055587064 0.06684032 -0.085243985 -0.20776795 -0.009923774 0.06412463 -0.15616621
0.08215533 0.04582799 0.008619224 0.02510922 0.19354765 -0.054618146 0.019746212 0.034732983
0.2619325 0.08270488 0.13850173 0.062592514 0.25308856 0.09508253 -0.06781248 0.059512157
-0.018029874 0.09721935 0.19220862 0.041952267 0.23259388 0.1158113 0.08792098 0.13562663
0.0496039 0.096185535 -0.0079009505 0.18298894 0.20999739 0.17456397 0.19642475 0.26509172
0.3109598 -0.07906667 0.1439724 0.1269539 0.13568951 0.040437758 0.13046277 -0.07924823
0.16167258 0.20016171 0.0150161 -0.025892757 -0.03177677 0.0158072 0.06650238 0.06023514
0.11839716 0.08610866 -0.032895774 0.16669369 -0.017512986 0.27687195 0.06443327 0.049856342
0.12829897 0.21213277 0.032883186 0.09341531 0.03032946 0.052498132 -0.067515746 0.067364424
0.07932713 -0.005563301 0.04805013 0.019591294 -0.10992325 0.061891682 -0.115314 0.09423161
0.20349646 0.1938544 0.22481708 0.10662284 0.12615144 0.026672494 0.18432899 0.04828812
-0.007393386 0.16775897 -0.25430474 -0.20977028 0.1572528 0.22374623 0.15206522 -0.3164522
0.02228385 -0.076885276 -0.15637997 0.0054893987 0.088783085 0.53648305 -0.11600143 0.30262598
-0.1388398 0.9921186 -0.65203756 0.2481555 -0.61335206 0.2842624 -0.3087754 -0.24256015
0.093036726 -0.040869143 -0.5202473 -0.1566428 -0.54303294 0.4699128 -0.48156056 -0.15792938
-0.07730474 0.07078755 -0.23072283 -0.41008678 0.01574322 0.08182525 0.21561483 0.4961417
0.25318888 0.22550066 0.069878235 0.2251617 0.06075 0.14506909 -0.0111626 0.040553663
0.3161324 0.0691268 0.13377613 0.17521122 0.06409019 0.117325865 0.12014779 0.26035622
0.10399718 0.28597036 0.10924693 0.26693547 0.31617537 0.15420179 0.13342997 0.27142277
0.1108495 0.12885703 0.1189906 0.027853716 0.1733952 0.040555302 0.2825588 0.02634678
0.09984446 0.17684686 0.27013665 0.3573377 0.028587209 0.27417475 0.2672097 0.014041306
0.18023077 0.027340166 0.12961891 -0.011670773 0.015188911 -0.030284116 0.056042004 0.074681394
0.11207398 -0.071237646 0.124363005 0.22543909 -0.058033157 -0.010518964 -0.00036720754 0.13078825

linear_sigmoid_stack.2.bias f4 [40]
00000000: ebb9 813d aaf1 98bd 7437 943e 63e7 c93d
00000010: 65fc ee3d 6120 fc3d a7b9 943e 744d 13bd
00000020: 02a4 28be 1de4 8f3e 224f bebd 256a 023e
00000030: a1c3 583e b397 25bd 07a3 203c 2b9a 693c
00000040: abf4 a23d 15ee 27bd 16c1 73bd 6a2f e83d
00000050: bcb7 983e 6f0c 1d3e 02b9 03be 41d7 6e3e
00000060: d64e 523d 8c46 243e 818d 21be 573a 313e
00000070: 082a 213c ec54 613e f5ce 843e f8a9 b43e
00000080: 9722 0d3e 1872 d03c 6ce1 9a3e 4c81 063e
00000090: 1981 263e c62e 973e bc7b 393e 4cb9 80bd
0.06334289 -0.07467969 0.28948557 0.09858587 0.11669234 0.12310863 0.29047891 -0.035962537
-0.16468814 0.28103724 -0.09292437 0.12735803 0.21168377 -0.040427875 0.009804494 0.014257948
0.07956823 -0.040998537 -0.059510313 0.113371685 0.29827678 0.15336774 -0.12863544 0.233243
0.051344715 0.16042536 -0.15776636 0.17307411 0.009836681 0.22005051 0.25939146 0.35285926
0.13782726 0.02544503 0.30250108 0.1313526 0.16260184 0.29527873 0.18113607 -0.062853426

linear_sigmoid_stack.4.weight f4 [40, 40]
00000000: 79b0 a33d c9a2 a43d 5f1c 4abe 1ed1 80be
00000010: 5fa0 5c3e 1f39 47be 27b4 78be 89ac 7ebc
00000020: 295e f33c 61ef a4be 518f e5bd 257c 44be
00000030: 01e0 aa3c 9272 67bd 2a77 34be e946 49be
00000040: 95e0 f33d 557f 203e 34bf abbe f64f d4be
00000050: 20ee aabe c245 9dbe 585c 1fbd aff7 d1be
00000060: 411c a3bd 9b5a d7be 2518 9f3d 8a51 90be
00000070: 75fd 3abe 66ce 00be 919d 94be 8e60 a9be
00000080: 7063 35bd aece 9a3d 73ed 61be 2585 d9bd
00000090: d921 d0be 3767 b7be 1b12 97be 8e80 c4bd
000000a0: 29a8 79be fa76 edbd 0b12 10be 9635 98bd
000000b0: 4868 bfbe d2a4 4abe f8e7 c3bd 3d57 eebb
000000c0: b1c4 fe3c 9adb 9dbe bfac 11be 346b 94bd
000000d0: c90c 29be 81d0 a9bd 843c 31be 17a8 7fbe
000000e0: f697 bbbe 4a04 cebe f649 7cbe bc90 91be
000000f0: ca59 57be b6bb c9be b53a f2bd e974 bebe
00000100: 8c68 40be 5c8c 41be d21d 89bd 1660 4ebe
00000110: 52bf 73be 3f03 09be ffbe d6be ae39 9bbe
00000120: 3539 79be 7429 953c d674 20be 6096 9abe
00000130: 9cc8 80be 7796 94be f727 ddbe e874 7dbe
00000140: 7dc9 93be 0b1c bc3b f8e1 f9bd 4ce4 a9be
00000150: e4cb bebe 5e71 2bbe 8b7f 7bbe 1f43 493c
00000160: 7b45 703c d804 67be 0661 1cbe ecec 22bd
00000170: 63a8 6abe a8cb 78bd 1833 99be e8ee 27be
00000180: f429 32be 0141 fabe 78e6 75be b461 96be
00000190: 86c5 49be dd1d afbe 2f2f 1fbe 9cb2 dbbe
000001a0: aa2d 27be 6a26 8ebe f31c 9dbe e167 77be
000001b0: 6758 35be 1c27 c1be c651 4abe 044d 44be
000001c0: d437 ccbe 0cec 55be 59ae 98be 53b5 8bbe
000001d0: 0474 86be dbc9 24be 6915 1bbe dc37 8cbe
000001e0: f855 b23c 9608 1bbe 8b10 b9be 527c 97bd
000001f0: e805 04be 3199 c9be d294 c5be e608 2c3c
00000200: ec29 47be 46c6 d1be 5434 1bbe ddb3 33be
00000210: b860 13be 53cf bcbd 5791 e6bd 98c8 47be
00000220: fba5 88be e8eb 99be 0c7e 99bd bc40 49be
00000230: e9c1 37be 326f dcbe 39f9 e9bd b2c4 fcbe
00000240: b088 54be 94b1 9abe c3c5 8bbe b32e 7cbe
00000250: aed8 3fbe a8c3 89bd 7deb 2abe fffc 55be
00000260: a613 70be de2f ccbc 1989 9fbe 613b 1ebe
00000270: 65c9 dfbe 3615 46be 9030 99be b247 8fbd
00000280: f45c 95bd 8425 86bc eff4 7bbe d09e 92be
00000290: dcd2 cdbe 5aac f1be e4ca 8dbe 612a 773d
000002a0: f32d d9bc bc24 85be 98b5 053d 9de0 92be
000002b0: 18f2 febd b981 89bc 36ac 97be 7bf4 a2be
000002c0: ba84 2cbc dc51 84be d44e 8abe c999 8bbd
000002d0: b4fa 81be cd09 67be f2ae c3bd fc47 63be
000002e0: fe6a 9ebb 4472 f7bd e068 6cbe 8899 66be
000002f0: 2ead 9ebe 7744 ecbd 0f1a c8be 4c10 a1be
00000300: 7121 3abe 516e b5bd dc35 b7bd 6c71 95be
00000310: dabe d6be 7ebd 0dbe 46bb b7be a730 86be
00000320: 62b9 27be e157 3ebe 9075 c6be 58da 45be
00000330: 746d 6bbe 3eec 7abe 4c34 3ebe 421a 20bd
00000340: 77f7 90bd 3bd5 d3be a459 e2bd af18 62be
00000350: 983f d7bd 51a8 e7bc 90a1 ddbc d7ce 93be
00000360: f89e 2ebe 11a5 6fbe e2c8 6abe 77a2 0abe
00000370: 0fae 2fbe 6bfc acbe 5079 66be 0309 66be
00000380: e7bf 96bc 5a52 96be 779a 4cbe 5655 6cbe
00000390: 0677 b6be fc78 73be 939c a5be 1aaf bbbe
000003a0: 42ab 9abe eb24 4ebe d237 9bbe cd81 3abe
000003b0: 457a 6dbe 4070 bebe 0d76 21be c429 c2bd
000003c0: 38fa 30be 2311 d8ba 42bc 8abe a77b 7abe
000003d0: 4691 03bf 9984 b4be f668 84be a22e 5abc
000003e0: 3ee9 69be c08a 11be 34a3 98bd 1831 ffbd
000003f0: e4df 7abe 4bfb 1cbe 0a71 7ebe 10b7 4dbe
0.07992644 0.08038861 -0.19737385 -0.25159544 0.21545552 -0.19455384 -0.24287473 -0.015544065
0.029707985 -0.32213882 -0.11208976 -0.19187982 0.020858767 -0.056505747 -0.17623582 -0.19655956
0.1190807 0.15673573 -0.33544314 -0.41467255 -0.333848 -0.30717283 -0.038906425 -0.4100928
-0.079643734 -0.42061314 0.07768277 -0.2818721 -0.18260749 -0.12578735 -0.29026464 -0.33081478
-0.044284284 0.07558952 -0.22063236 -0.106210984 -0.40650824 -0.35820934 -0.29506 -0.09594832
-0.24380554 -0.115949586 -0.14069383 -0.07432096 -0.37384248 -0.19789436 -0.09565729 -0.007273583
0.03109965 -0.30831605 -0.14226054 -0.0724701 -0.16508783 -0.08291722 -0.17308241 -0.24966465
-0.36639374 -0.40237647 -0.24637589 -0.28430736 -0.21030346 -0.39401025 -0.11827604 -0.3719857
-0.18789881 -0.18901199 -0.06695141 -0.20153841 -0.23803452 -0.13380145 -0.41942593 -0.30317444
-0.24338229 0.018208243 -0.1566957 -0.30192852 -0.25153053 -0.29021046 -0.43194553 -0.24751627
-0.2886466 0.0057406477 -0.12201303 -0.3318199 -0.3726493 -0.16742465 -0.24560373 0.012284069
0.014665003 -0.22560441 -0.15271387 -0.039776728 -0.22915797 -0.060741097 -0.29921794 -0.16399729
-0.17398816 -0.4887772 -0.24013698 -0.29371417 -0.19704255 -0.3420247 -0.15545343 -0.42909706
-0.16326013 -0.27763683 -0.3068615 -0.2416072 -0.17709504 -0.3772515 -0.19757757 -0.19170004
-0.39886343 -0.20890826 -0.29820517 -0.27286777 -0.26260388 -0.16092627 -0.15144886 -0.27386367
0.021769509 -0.15139994 -0.36145434 -0.07396759 -0.12892878 -0.39374688 -0.38590103 0.010500168
-0.19449586 -0.40971583 -0.1515668 -0.17549081 -0.14392364 -0.092192315 -0.1125819 -0.19510114
-0.26689133 -0.30062795 -0.07494745 -0.196536 -0.17945065 -0.43053585 -0.114244886 -0.49368817
-0.20755267 -0.30213606 -0.27299318 -0.2462719 -0.18735 -0.067267716 -0.16691394 -0.20897292
-0.23444995 -0.024925169 -0.31159285 -0.15452339 -0.4370834 -0.19344029 -0.29919863 -0.06996097
-0.0729312 -0.01637531 -0.24605154 -0.2863679 -0.40199935 -0.47201806 -0.27693856 0.06034315
-0.026511168 -0.2600459 0.032643884 -0.2868699 -0.124485195 -0.01678549 -0.29623574 -0.3182715
-0.010529691 -0.25843704 -0.27013266 -0.068164416 -0.25386584 -0.22562332 -0.095548525 -0.22195429
-0.004834532 -0.12082341 -0.23086882 -0.22519505 -0.309915 -0.11536496 -0.3908238 -0.31457746
-0.1817682 -0.08858932 -0.0894582 -0.29188097 -0.41942483 -0.13841817 -0.35885066 -0.26208994
-0.16379312 -0.1858821 -0.38761568 -0.19321573 -0.22990972 -0.24504182 -0.18574637 -0.03908754
-0.0707845 -0.4137362 -0.11052254 -0.22079729 -0.105101764 -0.028278502 -0.027054578 -0.28868744
-0.1705283 -0.23402812 -0.22928193 -0.13538538 -0.17156242 -0.3378633 -0.22507215 -0.22464375
-0.018402053 -0.29359704 -0.19980799 -0.23079428 -0.35637683 -0.2377662 -0.3234602 -0.3665703
-0.30208784 -0.2013127 -0.30316025 -0.18213578 -0.23191173 -0.37195015 -0.15767689 -0.094806224
-0.17282951 -0.0016484599 -0.27096754 -0.24461232 -0.51393545 -0.35257414 -0.2586133 -0.013316782
-0.22842881 -0.14213085 -0.074530035 -0.12460536 -0.2449947 -0.15330236 -0.24847808 -0.20089364

linear_sigmoid_stack.4.bias f4 [40]
00000000: 6910 aebe 0c9a 75be 3813 87be 2538 bcbe
00000010: 8de0 a1be 725d 71be 9b6d 97be cb07 7ebe
00000020: c320 2abe 2397 b5be 2e95 19be abbe c1be
00000030: 3328 ccbe bb09 d1be d73a b4be 1880 32be
00000040: dc24 34be f8d9 d9be 8eb2 b9be 0230 53be
00000050: fc4c 5abe 1389 29bf 6120 09bf 7ade 5fbe
00000060: 9ca6 95be 6b0b eebe 080a a7be 492d a6be
00000070: dbe9 dbbe 2d2a ccbe 76d8 06be 23a7 84be
00000080: 7e40 84be b7f1 a2be 2abd dcbe 23e7 c8be
00000090: 7825 04bf d50d 95be 8fa4 abbe f49d 26bf
-0.33996895 -0.23984545 -0.2638185 -0.36761585 -0.3161663 -0.23570803 -0.2957581 -0.2480766
-0.1661406 -0.3546687 -0.14998314 -0.3784078 -0.3987442 -0.40827736 -0.3520114 -0.17431676
-0.17592186 -0.4254911 -0.3626904 -0.20623782 -0.2131843 -0.66224784 -0.5356503 -0.21862212
-0.29228675 -0.46493086 -0.3262484 -0.32456425 -0.42951855 -0.39875928 -0.13168511 -0.25908765
-0.25830454 -0.3182504 -0.4311307 -0.39238843 -0.5161967 -0.29112116 -0.33523986 -0.6508477

linear_sigmoid_stack.6.weight f4 [1, 40]
00000000: a290 223e e685 5abe c2d4 67be 2e69 22be
00000010: 293a 3bbe 1763 33be da64 54be 2981 e1bd
00000020: 57a2 62be 991d 34be 6802 19be aeb9 dcbd
00000030: 8b94 bd3d 7507 43be f47f 60bd bc3b 38be
00000040: 0a71 7cbe 2f40 01be d9e2 00be 23c9 21be
00000050: 02c9 37be 3e5b 55be 7507 6abe c1b4 6cbe
00000060: 954e 4a3d dcaf 60be 498b 5dbe 7c67 12be
00000070: 8a3f 2cbe 74cb 33be 0326 dfbd c4b6 8abd
00000080: e944 13be de52 21be 6f6b b4bd 6181 d43b
00000090: 74cb 2fbe 33b1 813c 25d3 52be b128 35be
0.15875486 -0.2134014 -0.22639754 -0.15860435 -0.18283905 -0.17518269 -0.20741597 -0.110109635
-0.2213224 -0.17589416 -0.14942324 -0.10777603 0.09256848 -0.19045813 -0.054809526 -0.17991537
-0.24652496 -0.1262214 -0.12586536 -0.15799384 -0.17947772 -0.20835587 -0.22854407 -0.23115827
0.049391348 -0.21942085 -0.21635164 -0.14297289 -0.16821113 -0.1755808 -0.10895922 -0.06773141
-0.14381756 -0.15754268 -0.08809554 0.0064851497 -0.17167455 0.015831565 -0.20588358 -0.17691304
