Lotka Volterra/Results/sol_w41.pt (torch_old, 355963 bytes, 20 tensors)

linear_sigmoid_stack.0.weight f4 [120, 1]
000000 3c db 49 3f d4 6e 44 bd 5d d4 9d 3e e4 c0 53 bd
       0.7885015 -0.047957256 0.30826083 -0.051697627
000010 77 aa c6 3f bc e4 9d 3e 86 38 2e bd 31 e3 88 bf
       1.5520772 0.30838573 -0.042534374 -1.0694333
000020 56 ea 48 3d c0 d2 23 c0 28 3e 24 bd 91 40 40 bd
       0.049051605 -2.5597382 -0.04009834 -0.046936575
000030 39 f6 2b bd a7 3e d6 3f d9 cb 43 bd ef 21 cd 3f
       -0.041982863 1.673787 -0.047801826 1.6025981
000040 a7 70 ac 3f ca 62 e9 bf 81 05 5e bd 6b 17 1f 40
       1.3471879 -1.8233273 -0.054204468 2.4858043
000050 77 3e 30 c0 15 8b 30 bd 9d a9 4f bd f7 3b 0b 40
       -2.7538126 -0.04310139 -0.050698865 2.175535
000060 61 38 35 bd 57 22 8e 3f 49 20 20 bd d9 6f cd be
       -0.04424322 1.110423 -0.03909329 -0.40124395
000070 88 15 b9 be 23 b0 70 bf 09 4d f6 bf bb 48 96 bf
       -0.3614924 -0.94018763 -1.9242259 -1.1740946
000080 d8 d1 60 3d 9a a1 f5 3f 5c 0e 2c bd 0e e9 5f bf
       0.054887623 1.9189942 -0.04200588 -0.8746499
000090 b5 13 20 3f 62 ae a7 be b8 bc 5b bd 73 84 04 bf
       0.6253007 -0.3275023 -0.053646773 -0.517646
0000a0 f5 a8 59 be 22 d4 bf bf 9a 0e 8c 3f 68 59 d6 3e
       -0.21255858 -1.4986613 1.0941956 0.41865087
0000b0 64 54 ea 3e 36 0c d2 3f 13 4d 29 3f a3 03 33 bd
       0.4576751 1.6409976 0.6613323 -0.04370464
0000c0 d2 73 27 bd 44 d5 21 bd fc 27 5f 3f 9f e0 04 40
       -0.04088194 -0.039510027 0.87170386 2.0762098
0000d0 5a dc 0d 40 53 80 ad 3f f3 ea 20 bd 31 c4 34 bd
       2.2165742 1.3554786 -0.039286565 -0.044132415
0000e0 6d 30 20 bd 5a 7a d8 3f d2 05 53 bd ff 71 1f 40
       -0.039108682 1.6912339 -0.051519223 2.4913328
0000f0 f8 e9 6a 3f 2b 84 13 c0 5b 81 4e 3f 9d da 22 40
       0.9176326 -2.304942 0.8066613 2.544593
000100 11 7e f6 3f 30 63 26 bd 55 c3 e5 3e 91 a5 01 c0
       1.9257222 -0.040621936 0.4487559 -2.0257304
000110 98 2b 5b bd f2 4a cc 3f 40 59 f9 bf 0a 11 00 40
       -0.05350837 1.5960371 -1.9480362 2.00104
000120 e3 4f 2a bf a5 89 82 3f 6a 1e 2c bd f6 68 27 bd
       -0.6652815 1.0198256 -0.042021193 -0.040871583
000130 12 ee 3e bd 7a 7f 23 c0 1d 53 45 bd 3b d6 ed be
       -0.04661376 -2.5546556 -0.048174966 -0.46452507
000140 0e a1 04 40 b1 6a 24 bd 12 fd 25 c0 43 e0 20 bd
       2.07233 -0.04014081 -2.5935712 -0.039276373
000150 f8 ca 5f 3f 84 e6 b1 be b1 55 42 bd 44 bf 30 3f
       0.8741908 -0.34746182 -0.047445003 0.6904185
000160 70 b6 7c bf df d8 42 bf 5e 49 22 bd 4d 7b c3 bf
       -0.9871588 -0.7611217 -0.03962075 -1.5272003
000170 fe be f2 3f 8c 4c 28 bd 2a fe 8f 3f f6 1f e0 3f
       1.8964536 -0.041088626 1.124944 1.7509754
000180 3f 0f cb bf 81 3c 9c bf f3 ae 6d bf 7a af 5e bd
       -1.5864028 -1.2205964 -0.92845076 -0.054366566
000190 5d 46 a3 be 5f 41 24 bd 57 9d bf bf ef 9d aa 3f
       -0.3188962 -0.040101405 -1.4969891 1.3329448
0001a0 02 07 ea 3f f2 22 e0 3e b3 ca dc 3f 9b 00 11 40
       1.8283389 0.4377666 1.7249359 2.265662
0001b0 e4 12 07 c0 7e 57 27 bd 82 5a 1d 40 b3 e2 9f bf
       -2.110528 -0.040854923 2.4586492 -1.2491058
0001c0 6b 5b bb be 22 f3 33 bd 3f a5 c0 bf dc ec 34 bd
       -0.36593184 -0.04393304 -1.5050429 -0.0441712
0001d0 d2 f9 32 bd 6c d5 13 40 00 b7 27 bd 9e b8 96 3f
       -0.04369528 2.3099012 -0.040946007 1.1775091

linear_sigmoid_stack.0.bias f4 [120]
000000 e2 7b 16 3f df ae 74 3f 47 e0 76 bf 2b 2a aa 3f
       0.5878278 0.9557933 -0.9643597 1.3294119
000010 5d 7d 00 3f 2a cc 49 bf 6f c2 82 3d 34 64 00 3f
       0.5019129 -0.78827155 0.063847415 0.501529
000020 0d c4 9d bf 66 35 fb be 4c ce 71 be d0 3c 56 3f
       -1.2325455 -0.49064177 -0.23613852 0.8368654
000030 88 ee 07 3d dd 47 0b bf a6 8b 6f 3f a1 a0 c4 3e
       0.033186466 -0.5440653 0.9357246 0.384038
000040 da 89 80 3e 00 2e 10 bf 79 3b c7 3f b7 60 5e 3c
       0.25105172 -0.5632019 1.5565025 0.013572863
000050 0a b4 01 bf 4a b2 a7 3e f4 5b 9e 3f 6c f5 9c 3e
       -0.5066534 0.3275321 1.2371812 0.30655992
000060 b2 41 fe 3e 22 c9 0b 3f f4 fd 03 bf 80 fc 47 3f
       0.49659497 0.5460378 -0.51559377 0.7811966
000070 cd 03 93 3f be 09 cd be 21 b2 0e 3e e1 ad a0 bd
       1.1485535 -0.40046495 0.13935138 -0.07845665
000080 e5 63 8b bf d1 8d b3 3c a1 11 1b 3e fa 5c 25 bf
       -1.088986 0.02191821 0.15143444 -0.64594996
000090 f8 ab 20 bf db c8 63 3e 1b 04 c1 3f f8 27 df 3e
       -0.62762403 0.22244589 1.5079378 0.4358518
0000a0 56 bb ec be 7f d2 f6 3e 1b 89 15 3d 52 20 6c bf
       -0.46236676 0.4820747 0.036507707 -0.92236817
0000b0 40 2f b4 bc 28 4f ee 3e e3 db f8 be 05 d5 d6 3e
       -0.021995187 0.46544766 -0.4860526 0.41959396
0000c0 c0 6b 63 bd 41 07 c6 be 37 e1 ea be 8a c8 a2 3d
       -0.05552268 -0.3867741 -0.4587495 0.07948406
0000d0 5c a6 d5 3e 25 f7 01 be db d4 06 bf fc 31 f6 3e
       0.41728485 -0.12691934 -0.5266854 0.4808501
0000e0 b9 03 07 bf 7c ab 73 3d ae 61 a8 3f 3c 17 89 3e
       -0.52740055 0.059489712 1.315481 0.2677554
0000f0 98 1f e8 be a5 22 0a be f1 86 9c 3e 5c 9f 37 3e
       -0.45336604 -0.13489778 0.30571702 0.17931885
000100 f2 43 0d bf 95 34 df bd 08 fb c8 be 2c 6c 5b 3e
       -0.551818 -0.10898701 -0.39254022 0.21427983
000110 29 28 bf 3f a8 b8 a0 3e eb ce 67 3e a7 07 f0 be
       1.4934131 0.31390882 0.22637527 -0.46880838
000120 82 c8 24 3f 3e 37 89 3e 45 82 0a 3e f0 49 a5 bd
       0.6436845 0.2679996 0.13526256 -0.08070743
000130 1b 97 4b 3f 0f f8 a6 be e8 20 7a 3f 25 29 51 3f
       0.79527444 -0.3261113 0.9770646 0.81703407
000140 40 42 b1 be 47 ae 83 be 25 3f 5e be e4 38 e7 be
       -0.34620857 -0.257189 -0.21703775 -0.45160592
000150 e4 53 04 be f2 2b 48 3f b2 a2 64 3f 79 8e a6 be
       -0.12922627 0.78192055 0.89310753 -0.32530573
000160 85 4e 19 bd 6a 07 8b be 07 be ec be 6e 72 27 be
       -0.037428398 -0.27154094 -0.4623873 -0.16352245
000170 7b 76 7c 3d d8 54 f1 bc 81 8f 06 bf a5 55 5a 3e
       0.06163643 -0.029459402 -0.5256272 0.21321733
000180 9d 4f d4 3d 2b d4 35 be 65 b2 5b 3e b9 1e c9 3f
       0.103667475 -0.17756717 0.21454771 1.5712501
000190 dd 2d 71 3e 8a 8a 8a be cf 4f 1d 3f 48 15 07 3f
       0.23552652 -0.27058822 0.61449903 0.5276685
0001a0 71 5c 24 bd f3 39 f3 be bc b4 73 be 85 43 16 3f
       -0.04012722 -0.4750515 -0.23799413 0.58696777
0001b0 98 a8 7d 3e 5d 6c 8f bd 36 fe 85 3d fb 95 1f 3e
       0.24771345 -0.070030905 0.065426275 0.15584557
0001c0 f2 61 d1 3e c0 e4 e4 3e 91 c9 a5 be 0c 24 f8 3e
       0.4089504 0.44705772 -0.32380345 0.48465002
0001d0 64 17 d7 3d a3 40 00 be 2b b4 54 bd ed 47 af be
       0.10502508 -0.12524657 -0.051929634 -0.34234563

linear_sigmoid_stack.2.weight f4 [120, 120]
000000 fa 32 b2 bd c7 a5 93 3e 7c 56 64 be 56 4a 49 3e
       -0.08701129 0.28837416 -0.22298616 0.19657263
000010 17 84 2b 3d 74 3b d6 bd 08 06 93 3e f0 c6 43 3e
       0.041874018 -0.104605585 0.2871554 0.19118857
000020 cf 75 8a be 6b a5 8c 3d 92 8b 29 3e e7 cf 84 3e
       -0.27043006 0.068674885 0.16557148 0.25939867
000030 e7 d9 84 3e ae 7b 05 be d8 83 4c 3e 42 48 44 3c
       0.25947496 -0.13035461 0.1997217 0.011980118
000040 d1 79 f4 bc 4d 32 3d 3e 3f 46 ac 3e 06 54 73 3c
       -0.029843243 0.1847622 0.33647344 0.014851576
000050 36 0d de 3d 3f e3 49 3e 62 ee 9b 3e 61 a7 1e 3d
       0.108423635 0.19715594 0.3045531 0.038733844
000060 04 30 26 3e d3 e8 9c bc 33 53 19 3e e4 46 a5 3d
       0.16229254 -0.019153988 0.14973144 0.08070162
000070 2c 9b 44 3e 22 ef 42 3e 2c 98 2d 3e 11 44 2b 3e
       0.19199818 0.19036534 0.1695258 0.16725184
000080 93 5a 4b be cf d5 1e bd 3a 13 1f 3e 8e 60 a1 3d
       -0.1985877 -0.038778123 0.15534678 0.078797445
000090 23 21 91 bd 7f c4 07 3e d9 80 87 3e 55 79 5c 3e
       -0.070863985 0.13258551 0.2646549 0.2153066
0000a0 0d ce 30 3e 12 f3 f1 3d 9f 01 a0 bd d0 85 32 be
       0.17266102 0.1181394 -0.07812809 -0.17433858
0000b0 b3 84 df bc 63 42 cc bd 76 b8 28 bd 89 b0 6e 3e
       -0.027284956 -0.099736 -0.04119154 0.2330953
0000c0 f9 17 9e 3e 5b ea 29 3e cf 77 ed bd c0 b4 ed bc
       0.30877665 0.16593306 -0.11595117 -0.029016852
0000d0 6e fc ff bc 56 23 ae bd f1 61 9c 3e 1a 6f 30 3e
       -0.031248298 -0.085028335 0.30543473 0.17229882
0000e0 e2 f9 87 3e f0 55 3a 3b 09 77 87 3e 68 e3 a6 bb
       0.26557833 0.002843257 0.26458004 -0.005093027
0000f0 50 f3 95 bd 1f a9 84 3d 2d b3 48 3c cb 1c 81 bd
       -0.07321799 0.0647757 0.01224975 -0.0630432
000100 af d6 67 bd 75 72 a4 3e ab 45 2e 3c 69 b8 8f 3d
       -0.056601223 0.32118574 0.010636727 0.07017595
000110 15 69 74 3e 65 2c 53 3c 58 8b 48 3e 6c 1f e2 bd
       0.2386821 0.012889002 0.19584405 -0.110411495
000120 60 95 ea 3d 05 c2 0d bc d1 c0 3a 3e e9 f2 99 3e
       0.11454272 -0.008652215 0.18237616 0.30068138
000130 bc b4 4b 3e b7 4e 9e 3d 8c ab 96 3e 64 5e 50 3e
       0.19893163 0.077298574 0.29427755 0.20348507
000140 f5 1c 9a bd d8 95 31 3e 23 00 2e 3e 1e c0 6f 3e
       -0.07525054 0.17342317 0.1699224 0.2341313
000150 f8 86 fc bc 8f 39 9d 3d 8a 07 6b 3e a3 d5 c0 bd
       -0.030826077 0.07676994 0.22952095 -0.09415748
000160 9b 0b 1b 3e 4f f7 74 3e 38 93 22 3e 2b 84 09 3e
       0.15141146 0.23922466 0.15876472 0.13429324
000170 c9 83 c1 bb eb 0e 91 3e fd 96 15 be d3 46 12 bd
       -0.0059056026 0.28331694 -0.14608379 -0.035712074
000180 75 1d 59 3e cf 1c a2 3d c4 ed 5c 3e a9 24 82 3e
       0.21202643 0.07915651 0.21575075 0.25418594
000190 8d 25 6f 3e f7 4b 16 3e cf 77 1b 3e 4b dc f8 3c
       0.23354168 0.14677416 0.15182422 0.030378481
0001a0 fd 59 b2 3c 1d 29 09 be 19 74 f8 bd a1 91 f0 bc
       0.021771425 -0.1339459 -0.12131519 -0.029366316
0001b0 0f 01 bd 3d cd 38 94 3e 40 d5 b2 bd 42 c9 1b 3e
       0.092287175 0.28949586 -0.087320805 0.15213493
0001c0 dc c4 97 3d df 99 78 3e 12 6e 59 3e 7b 1f 94 3e
       0.07410595 0.24277447 0.21233395 0.28930268
0001d0 a9 c9 8c 3e b0 03 c2 bd 17 31 9e 3e f9 73 c8 bd
       0.27497604 -0.094733596 0.30896828 -0.09787745
0001e0 df 27 4f 3e b3 36 f8 bd 47 f6 e3 3d e7 03 8f bd
       0.20230053 -0.12119808 0.11130958 -0.06983166
0001f0 94 77 39 3e d9 9f 4c 3e 2b bf 5a bc 7e 05 37 be
       0.18112022 0.19982852 -0.013351242 -0.17873189
000200 43 ea 8a 3d c5 a1 6e be 4d 1a 5e bd 67 ca bb bd
       0.06782963 -0.23303898 -0.0542243 -0.091694646
000210 99 40 cf 3c bc bf 9a 3e 9e e6 af bd 07 ad 5c 3e
       0.025299357 0.30224407 -0.085889086 0.2155038
000220 ac 51 00 3e 4d 76 4f be b4 31 7f bd fe 51 bf 3e
       0.12531155 -0.20259972 -0.06230326 0.37367243
000230 74 a5 2f be 61 df c2 bd b3 f8 d9 bd 87 ee 88 3e
       -0.17152959 -0.095152624 -0.10643139 0.26744482
000240 a9 78 1e bd f6 9f 0a 3e fb ec 8c ba b3 cc 22 be
       -0.03868929 0.13537583 -0.0010751778 -0.15898399
000250 36 31 cb bd 31 14 19 be 0a c2 50 be d8 1e b2 bd
       -0.099214956 -0.14949109 -0.2038652 -0.08697289
000260 2c 57 6d 3d c0 69 85 3e 54 0d 86 3d 00 30 3a be
       0.05794446 0.26057243 0.06545511 -0.18182373
000270 52 2f 79 3e 54 71 89 3c 93 97 a4 3b bd 2d 63 bd
       0.24334458 0.016777672 0.005022952 -0.05546354
000280 bf a0 99 bd a0 bc 00 be 80 10 53 3e 7e 6f 8f 3e
       -0.07501363 -0.12571955 0.20611763 0.2801475
000290 1c 03 53 3d 3e c8 65 3e 22 23 1b 3e 44 17 ea bd
       0.051516637 0.22439668 0.15150121 -0.11430219
0002a0 5a 7b 8d 3d f1 3d 16 3c 36 2e 39 3e 8a 56 2b 3e
       0.06908293 0.009170041 0.18084034 0.16732231
0002b0 4a e4 54 3e c7 b6 61 3e 6c 8b b9 bc 2d 10 72 bd
       0.2079021 0.2204238 -0.02264949 -0.059097458
0002c0 15 37 85 3c c0 dd 96 3e a6 c7 e6 bd a3 8f 78 3e
       0.016261617 0.29466057 -0.11268549 0.24273543
0002d0 14 6d 9e 3e 64 46 93 be a9 59 64 3e c1 5c 8e 3e
       0.30942595 -0.2876464 0.22299828 0.2780514
0002e0 86 10 a6 3e 13 cc 84 bd ad 11 60 3e 20 1f 36 be
       0.3243448 -0.064842366 0.21881743 -0.17785311
0002f0 17 19 94 bd a6 02 8d 3e 6c f8 88 be 87 a2 c1 3e
       -0.07231348 0.27541083 -0.2675203 0.3781931
000300 ee 0c 60 bd 35 8f 18 3e 76 fd 5e bd 87 fa 5c 3d
       -0.05469983 0.14898379 -0.054440938 0.05394986
000310 e9 8d 9c 3b ce ee 96 be 7c 86 e7 bd 68 71 41 be
       0.004777659 -0.2947907 -0.11304948 -0.18890917
000320 33 c2 85 3e 70 61 12 bd 77 b6 43 be c5 bb 59 3d
       0.26124725 -0.035737455 -0.19112574 0.053157587
000330 13 73 f0 3d 19 e0 f2 bc 8c 32 2b bc 40 0e 6e 3e
       0.11740699 -0.029647874 -0.010449063 0.23247623
000340 a7 45 62 be 4f 9d 34 be 18 65 ba bc 69 53 f3 bd
       -0.22096883 -0.17638133 -0.022753283 -0.118811436
000350 fb f5 60 3e 15 db 3c bd 29 12 82 3e 10 25 61 3e
       0.21968834 -0.04610737 0.2540448 0.21986794
000360 31 01 3a be 1b bc 11 be eb 66 3e be 66 aa e4 3c
       -0.18164517 -0.14231913 -0.18593948 0.027913284
000370 ee 97 8b bd c2 4d dc 3c 9c d0 6f be a4 1b 06 3e
       -0.06816088 0.026892547 -0.23419422 0.13096482
000380 79 1a 8b 3e bc 21 ea 3d 06 81 87 3e 65 31 22 3e
       0.27168635 0.114322156 0.26465625 0.15839155
000390 ff 7f 62 be c8 88 53 bc 95 7f 6d 3e fc 6d 00 be
       -0.22119139 -0.012911029 0.231932 -0.12541956
0003a0 37 3a dc bc e7 f7 e9 bd 26 eb 20 be bf 54 6d bd
       -0.026883228 -0.11424237 -0.15714702 -0.05794215
0003b0 5f 75 f2 bd 4a ca 93 3e f9 a9 55 3d ef 3d 7f 3e
       -0.11838793 0.28865272 0.05216405 0.2492597
0003c0 e7 25 44 bd 3c 5e a9 3e 23 2e 01 be 03 20 a8 3e
       -0.04788771 0.33079708 -0.12615256 0.32836923
0003d0 76 4d ec bd 4e 4e ba bd c7 8c a2 3e 13 a2 50 3e
       -0.11538212 -0.09096967 0.3174803 0.20374326
0003e0 b0 ad 6e be 05 f2 6f 3e 61 99 35 3e 19 05 8e 3e
       -0.23308444 0.23432167 0.1773429 0.27738264
0003f0 2b 8d 20 3e 72 17 e9 bd 4a 31 26 3e 69 62 ed bd
       0.15678851 -0.11381425 0.1622974 -0.11591036

linear_sigmoid_stack.2.bias f4 [120]
000000 f7 97 b4 bc 22 91 85 3d c0 48 87 3d d0 62 bb bd
       -0.022045119 0.065218225 0.06605673 -0.09149706
000010 bc 17 dd 3d 9b 76 ba 3d 39 49 b1 bd 78 3d c6 bc
       0.107955426 0.091046534 -0.08656544 -0.024199232
000020 63 cf 0e 3d ca 2d 81 3d 7e 49 ae 3d e8 71 86 bc
       0.034865748 0.06307562 0.08510111 -0.016411737
000030 cc 94 d1 3d d5 7c a9 bd 3e 87 07 3d 72 d2 c8 3c
       0.10233459 -0.08275763 0.03308796 0.02451441
000040 19 7c 54 bd 0d 78 be 3c aa 84 b1 bc e4 7b d4 bc
       -0.05187616 0.023250604 -0.021669704 -0.025937982
000050 00 ab 37 3d 10 d3 83 bd 64 11 56 be cc cf f4 3d
       0.044840813 -0.06436741 -0.20905071 0.119536966
000060 b4 cc d5 3d 07 25 2b bd 8a b8 3d bb 29 0f bd bc
       0.10439435 -0.04178336 -0.0028949105 -0.023078518
000070 f6 d8 0f bb 3d 54 a9 3d d5 17 d9 3d 9b 2b 87 3d
       -0.0021949387 0.0826802 0.10600249 0.06600114
000080 0c 78 2c be c0 28 10 3d 05 e3 21 bd 87 b6 5c bd
       -0.16842669 0.035195112 -0.039523143 -0.05388501
000090 b4 ef 6f 3c fd ec 5f 3d 72 df 28 bd 4a 35 00 be
       0.014644552 0.05466937 -0.04122872 -0.12520328
0000a0 cf 45 6a 3c 16 5b 0d bd 3f 96 12 3d e6 e2 80 3d
       0.01429887 -0.034510694 0.035787817 0.062932774
0000b0 e5 52 a2 3d d1 1f 0c be 55 26 f0 3d b1 7c 29 be
       0.07925967 -0.13684012 0.11726061 -0.16551472
0000c0 58 0e 88 bc f9 e1 e8 bb 9e b0 4d bd bc f5 76 bc
       -0.016608402 -0.007107016 -0.050217263 -0.015073236
0000d0 1a 0f 2d bd 0c d2 8d bd 73 f0 2d bd 31 47 94 3d
       -0.04225073 -0.06924829 -0.04246564 0.07240141
0000e0 d9 91 20 bd a5 83 e5 bc 06 0a a3 bd 0a 49 af bc
       -0.03920159 -0.028016875 -0.07960896 -0.021397132
0000f0 18 0c b0 3d ae 28 51 ba 91 08 a0 bd d4 aa 63 3c
       0.08596057 -0.0007978779 -0.07814134 0.013895709
000100 11 1d 74 bd f1 1a 74 3d b1 e4 55 bd 1b 1d 43 bd
       -0.059598032 0.059596006 -0.05222005 -0.04763518
000110 77 b0 29 3b bb 18 0e be 9b 6d b0 3c 23 18 8c bd
       0.0025892535 -0.13876621 0.021536639 -0.06840541
000120 02 18 0f bd 61 bf 2d 3d a7 98 29 3c c1 16 83 3d
       -0.034935005 0.04241884 0.010351337 0.06400824
000130 22 d6 64 3d d2 c3 5c bd 89 5c f0 3c 2f f3 25 be
       0.055868275 -0.053897686 0.029341 -0.16206048
000140 5b 42 83 bd 65 cc 94 bc 09 fd 42 bd 65 c9 75 3d
       -0.06409141 -0.01816387 -0.047604594 0.060006518
000150 f9 85 1a bd 53 ab 32 3c b5 c9 b9 3d 2d 6c dc bd
       -0.037725423 0.010905105 0.09071676 -0.107628204
000160 97 3b 9d bd c3 72 36 be 6a 83 b4 bd 15 d1 33 3d
       -0.076773815 -0.17817216 -0.08814128 0.043900568
000170 bf dd 38 bd 37 6a 08 ba e7 ef 11 be 90 a1 aa bd
       -0.04513335 -0.00052038155 -0.14251672 -0.08331597
000180 1e c1 48 bd 5a ae 25 be 84 cd 54 bd f0 55 e6 3c
       -0.049012296 -0.16179791 -0.051953807 0.02811715
000190 ab 27 0b be c3 ef 89 bd f0 3a b8 bc 60 bd 3b be
       -0.13589351 -0.06735184 -0.022489041 -0.1833396
0001a0 11 62 a6 bc 5d 04 d9 bb 9f 2b 86 3d 0f f7 c0 bd
       -0.020310434 -0.0066228346 0.06551289 -0.09422123
0001b0 d3 83 ba 3d c8 71 e9 bc 1b f2 15 bd 2c e5 80 3d
       0.09107175 -0.028496638 -0.036607843 0.06293711
0001c0 41 27 07 be 29 10 75 bd ce 92 b1 bd ae 44 aa 3c
       -0.13198568 -0.059829865 -0.08670579 0.020784702
0001d0 f6 b6 1a 3d 72 6b f4 3d 70 77 18 be f0 57 ad 3b
       0.03777214 0.11934556 -0.14889312 0.005290024

linear_sigmoid_stack.4.weight f4 [120, 120]
000000 bc 16 b9 bd e9 a6 e9 3d e4 9b 2e be 67 e5 84 bd
       -0.09037539 0.11408789 -0.17051655 -0.064890675
000010 41 e7 1f bc 45 30 03 be 49 5a 0b be 5e b5 34 3e
       -0.009759725 -0.12811382 -0.1360866 0.17647311
000020 10 9b ad ba 0a 09 79 3d 8b 9e 92 3d 07 b0 8e 3d
       -0.0013245065 0.060799636 0.07159146 0.06967168
000030 aa d5 ce 3d 3a 9a 0c 3e b7 e1 c5 bc 4f 0e c0 3b
       0.10099347 0.13730708 -0.02415548 0.0058610807
000040 a1 e2 ac bd 73 82 53 be ac 47 67 3e 4e 0a c1 bd
       -0.084416635 -0.20655231 0.22585934 -0.094257936
000050 3f 16 70 be 4c c1 19 3d 0f df 2f be f6 86 06 3e
       -0.23445986 0.037537858 -0.17174934 0.13137421
000060 b6 44 a5 bb bc 6a 58 bc d2 5a 24 be a3 35 ac bd
       -0.0050435914 -0.013209041 -0.1605027 -0.08408668
000070 c9 95 53 bc e6 cd dd 3c d6 5f 39 3d f3 9e f0 3d
       -0.0129141295 0.02707572 0.045257412 0.11749067
000080 4b 81 a2 bd 0a fc e9 bc b4 87 4a be 71 05 ea bd
       -0.07934817 -0.028562564 -0.19778329 -0.11426819
000090 28 d5 6f 3d 15 3e 15 be e9 5d 8f 3d 4b b2 5f 3e
       0.05855289 -0.14574464 0.07000334 0.21845357
0000a0 91 fe 0a be 2b 77 0e 3b 10 75 07 3f f3 58 d9 3d
       -0.13573672 0.002173851 0.52913 0.10612669
0000b0 98 c6 47 3d 08 1f 29 be 1e 5b 90 3d ee 53 6f 3d
       0.048773378 -0.16515744 0.07048629 0.05842965
0000c0 6c c7 5d 3e 02 d9 4c be 5b 4e f6 bd 13 8f be bd
       0.21658105 -0.20004657 -0.12026664 -0.09304633
0000d0 4b 44 5f 3d fc 77 2b be 5c 94 f7 bd 43 a9 9f bd
       0.05450849 -0.16744989 -0.12088844 -0.07795956
0000e0 c3 2e 66 be 78 d4 0a be 69 5e b8 3d ed 66 36 be
       -0.22478776 -0.13557613 0.09002382 -0.178127
0000f0 63 9d bf bd 01 a1 52 be 12 fd 48 bb c4 3e 36 3d
       -0.09356191 -0.2056923 -0.003066842 0.04449345
000100 f3 65 b9 bb 5a 92 ab 3d 5a 66 97 bd 0e 48 60 bd
       -0.0056579052 0.08377524 -0.07392569 -0.054756217
000110 08 a3 71 be db aa f9 3d 9e 7e 96 3d b9 fd fc 3d
       -0.23597348 0.12190791 0.07348369 0.12353081
000120 63 69 60 3d 06 b0 77 be 30 f0 0e be 13 bc 87 3a
       0.054788005 -0.24188241 -0.13958812 0.0010355733
000130 e1 53 ba bc 73 ab ad 3d ef 7a 04 bb 37 22 11 be
       -0.022745075 0.08479967 -0.0020214876 -0.14173208
000140 91 26 60 3d af 47 00 3f 5e 60 0e 3e a6 03 b7 bc
       0.05472428 0.5010938 0.13903949 -0.022340607
000150 8d f5 86 3d e6 c0 8b 3d cb 36 a1 bd cb e7 23 bd
       0.06589804 0.06823902 -0.07871779 -0.040015977
000160 f0 44 46 be db c3 00 bd 7f 26 44 be a3 93 8f bd
       -0.19362235 -0.031436782 -0.1915531 -0.07010581
000170 f2 52 a9 bd c5 51 fe 3d f0 cc f7 bb 30 6b 8a 3e
       -0.08267774 0.1241794 -0.0075622723 0.27034903
000180 b7 db be bd 31 60 07 be 0e 57 08 3e 2c b2 d3 bd
       -0.09319251 -0.13220288 0.13314459 -0.10336718
000190 20 97 b9 bb 0e 3c 41 3d e5 41 d9 bb ef 6e 03 3e
       -0.0056637675 0.047176413 -0.0066301697 0.12835287
0001a0 85 11 08 be 9e d7 55 3d c1 2e 8a be 89 d5 f9 3d
       -0.13287933 0.05220758 -0.26988795 0.12198932
0001b0 7c e8 90 3d 90 74 9f bd e5 b9 0b 3e b9 33 2d be
       0.07075593 -0.077859044 0.13645132 -0.16914262
0001c0 9e 68 2f be c4 49 f2 bd c1 69 2d bd e5 9a ca 3d
       -0.17129752 -0.11830476 -0.042337183 0.09892825
0001d0 91 59 1b bc 33 6e af bc f4 98 7e 3d 3f 88 e5 3b
       -0.0094818035 -0.021414852 0.062157586 0.007004767
0001e0 96 3e 6b bd a9 a5 27 be 85 83 23 bc 26 f7 63 3e
       -0.057432733 -0.16371788 -0.009980087 0.22262248
0001f0 4d 9f 5a be 5a cd 91 3d 3d d5 35 bd 24 6e 4e bd
       -0.21349831 0.07119246 -0.044392813 -0.050398007
000200 fa 31 9e be 98 0d 79 be 98 e5 2d be 15 f9 56 be
       -0.30897504 -0.24321592 -0.16982114 -0.20993455
000210 a7 20 49 be 41 9d 41 be 36 ca ff 3c 36 15 88 be
       -0.19641362 -0.18907644 0.031224351 -0.26578683
000220 53 53 05 be 1a 10 3c 3c 13 ea 4c be 4f d0 de 3e
       -0.13020067 0.011478448 -0.20011167 0.43518302
000230 6c e2 62 3c 4c 71 b3 be 24 fb cc 3e 72 14 9f be
       0.0138479285 -0.35047376 0.40035355 -0.31070286
000240 30 14 72 be da 45 62 be 83 97 e9 3a 4b 77 77 bd
       -0.23640513 -0.22096959 0.0017821643 -0.0604165
000250 de 37 81 be e6 61 45 be 0a 80 b2 be 22 65 88 be
       -0.25237936 -0.19275627 -0.3486331 -0.26639658
000260 1c f2 cf 3e 88 c0 d7 bd 69 15 94 3d 08 99 01 3f
       0.40614402 -0.10534769 0.07230646 0.5062413
000270 ff ac 94 be d7 5f 4d 3d f1 50 63 be 6a 4e 93 bd
       -0.29038236 0.050140228 -0.22198845 -0.07192691
000280 32 97 9c bd 28 fd c2 be 35 a1 53 be 71 a8 91 be
       -0.07646026 -0.38083768 -0.20666964 -0.28448823
000290 81 f8 a1 be 34 5b 83 3e ae 74 96 be 70 73 e8 bd
       -0.31634906 0.2565552 -0.29385895 -0.11350143
0002a0 44 a8 ca bd 24 e7 a6 3c 74 cc 1b bc a8 09 2d ba
       -0.09895375 0.020373888 -0.009509195 -0.0006600865
0002b0 96 aa 31 be 2e ac a2 bd d3 0b 88 ba 7a ba d4 bd
       -0.1735023 -0.07942997 -0.00103795 -0.1038713
0002c0 df cc e5 bd 4b f5 ed bc 96 6e 44 be bd 0a 12 bd
       -0.11220717 -0.029047629 -0.1918281 -0.035654772
0002d0 1d 85 06 3e aa 23 99 bc 87 d5 d4 bd 19 14 af be
       0.13136716 -0.018693764 -0.103922896 -0.3419502
0002e0 7a e5 2d be a9 c7 4b be 04 7d f5 3e e3 df 47 bd
       -0.1698207 -0.19900383 0.47946942 -0.0487975
0002f0 f5 65 27 bc f8 ce 3a be f0 ec 26 be 7a 21 40 be
       -0.01021718 -0.18243015 -0.16301322 -0.1876277
000300 87 d9 92 be 7d 6f d7 3a 1a d5 96 3d 66 ee 79 be
       -0.28681585 0.0016436424 0.07364865 -0.24407348
000310 28 31 8d be 05 80 94 be ab 4c 58 be f2 be 95 3e
       -0.27576566 -0.2900392 -0.21122997 0.29247242
000320 6b 28 cc bd 2c f2 7b be d8 99 7a be a1 52 c4 be
       -0.099686466 -0.246041 -0.24472749 -0.3834429
000330 6b 3e 8d be 1c fe 4b be 5d 69 47 bd 01 a8 98 3e
       -0.27586684 -0.19921154 -0.048684467 0.29815677
000340 a4 a4 d3 bd e1 e9 c4 3e fe a5 8a 3e e2 d8 88 3d
       -0.10334137 0.38459685 0.27079767 0.06681992
000350 23 1b b6 3e 84 46 bb be 11 0e ae 3e 62 5e a3 be
       0.3556758 -0.36577237 0.33995107 -0.31907946
000360 38 db 84 3e 83 0c 9e 3e 39 8a f9 bd f2 2a d7 bd
       0.259485 0.3086892 -0.12184567 -0.10506238
000370 39 f2 94 3e a6 79 84 be 14 37 3a be d2 6e ce bd
       0.2909105 -0.2587406 -0.18185073 -0.10079731
000380 9d 3a 61 3d 90 cf b6 be be 6a 7c 3e f5 17 58 be
       0.05498754 -0.35705233 0.24650094 -0.21102889
000390 fc b5 b7 be a1 32 b3 3e 18 d8 03 be 1d df 19 3d
       -0.3588103 0.34999564 -0.12875402 0.037566293
0003a0 7d 75 b6 3e a8 d6 29 3d 57 6a 5e 3d 82 bb 6f be
       0.3563651 0.041464478 0.054300632 -0.23411372
0003b0 10 9a 75 be 97 e2 bd be 27 c4 82 be 24 09 81 be
       -0.23984551 -0.37086937 -0.25540277 -0.25202286
0003c0 25 b2 4a be 1a 21 f0 3c 7d 5d 16 be 36 61 4c be
       -0.19794519 0.029312659 -0.146841 -0.19958958
0003d0 79 fe bd 3d 9a 8e 6b bd fd 10 5b bd a3 64 02 bc
       0.092770524 -0.057509042 -0.053483 -0.007958564
0003e0 ff c3 4c 3d 5c df cd 3c 45 6a f0 3d bd 5b a9 3d
       0.049991604 0.02513092 0.11739019 0.08269451
0003f0 29 07 c3 bb d8 a0 e2 3d 6d 91 04 be ec 5e c8 3d
       -0.0059517813 0.11065835 -0.129461 0.0978373

linear_sigmoid_stack.4.bias f4 [120]
000000 af ac 51 bd bb 67 24 be c5 99 80 bd 06 12 80 bd
       -0.051190075 -0.16055195 -0.06279329 -0.06253438
000010 de 83 7e 3d 54 f5 30 be f3 56 33 bc 4c 1e 8c be
       0.062137477 -0.17281085 -0.010946023 -0.27366865
000020 e3 82 16 bc 1d 4a 6f bd 4e 97 66 3d 81 41 30 bd
       -0.009186479 -0.05842029 0.05629664 -0.04303122
000030 c8 70 aa bd 4c 22 ba bd 59 b8 e1 bd 53 8a cf bd
       -0.083222926 -0.09088573 -0.1102149 -0.10133805
000040 8d f9 26 3d 08 1d 06 be 34 cf 37 3d c6 38 21 be
       0.040765334 -0.13097012 0.04487534 -0.15744314
000050 3e 5d b7 bd aa 6a b3 bc 84 76 0b be 32 48 35 bd
       -0.089533314 -0.021901447 -0.13619429 -0.044258304
000060 63 2a 5a bc 5a 47 13 3d 30 8e 95 bc 8b 0a a3 bd
       -0.01331577 0.035956718 -0.018256277 -0.07960995
000070 da 3d cf 3d ca 01 ac bd 45 ae 36 3b 9a f6 9a bd
       0.10119219 -0.08398779 0.0027874869 -0.07566567
000080 7e a6 76 3d 1e 30 df bc 64 b6 24 be f7 e3 d9 bd
       0.060217373 -0.027244624 -0.16085202 -0.10639184
000090 46 40 d5 bd f4 2f 10 be 83 49 89 be 03 5a 9d 3d
       -0.1041265 -0.14080793 -0.26813897 0.07683184
0000a0 95 de 38 3d 89 9d 64 3d 81 32 40 bd c9 ab c6 bd
       0.045134146 0.0558143 -0.046923164 -0.09700734
0000b0 cb d5 8c 3d 30 7c f6 3c d1 80 09 be d0 69 43 bd
       0.06876715 0.030088514 -0.13428046 -0.047708333
0000c0 3b b1 5a be 0a 87 3a be d8 64 ef 3d dc 16 3b 3d
       -0.2135667 -0.18215576 0.11689156 0.045676097
0000d0 26 54 d1 bd 61 62 78 3d 2c 27 85 3d 78 ff ee bd
       -0.10221128 0.060640696 0.06501612 -0.116698205
0000e0 13 a1 94 bd d9 15 7c be cd 5b 51 bc 96 84 93 bd
       -0.07257285 -0.24617709 -0.012778235 -0.07203023
0000f0 38 1b b5 bd 06 bc ad bd a1 74 80 be 64 61 aa bd
       -0.08843082 -0.08483128 -0.2508898 -0.08319357
000100 84 4e 70 3d 0b 68 60 bd 52 7f 78 bb d4 a7 38 bd
       0.05866863 -0.054786723 -0.0037917686 -0.04508193
000110 ed 01 37 bd 8c 9f 3d bd bb c5 54 be 3c c4 99 3d
       -0.04467957 -0.046294734 -0.20778553 0.07508132
000120 b5 14 7d 3d 2c 93 ad 3d c3 2e 34 be e1 30 71 bd
       0.061787326 0.084753364 -0.17595963 -0.058884505
000130 8b e2 ea bd cc 03 0a 3d 3c 98 09 be 48 52 14 be
       -0.11468991 0.033695027 -0.13436979 -0.14484513
000140 45 d4 96 3d 66 a7 15 be f3 6a 0e bd 66 1b 48 3d
       0.07364706 -0.14614639 -0.034769963 0.048854254
000150 ad 51 fc bc 78 82 ad bd 4f 61 c8 bd 3f 62 b3 3e
       -0.030800665 -0.084721506 -0.09784185 0.35035893
000160 1e 5a b5 be 59 75 50 be 10 3f 4c be 56 59 98 be
       -0.35420316 -0.20357265 -0.19945931 -0.29755658
000170 5c 34 83 3d e5 b7 0d be e8 76 a1 bd 1d 89 61 be
       0.06406471 -0.13839681 -0.07884008 -0.22024961
000180 53 0b 99 bd d3 16 9a 3d e0 5b bb be 60 23 43 be
       -0.07472863 0.075238846 -0.36593533 -0.19056463
000190 c4 22 67 ba 9f 92 32 3d 45 99 b8 be 14 6b e8 bd
       -0.0008817131 0.04359686 -0.36054435 -0.113485485
0001a0 14 2a ce 3d 17 93 9d be 8e ce ae bd 58 69 76 be
       0.100666195 -0.30776283 -0.08535491 -0.24063623
0001b0 40 00 19 be e9 9a d5 bc 95 f9 a1 bd 82 18 f3 bc
       -0.14941502 -0.026074843 -0.07908932 -0.029674772
0001c0 8d 52 be 3d 79 0a 8f bd d2 d6 80 3d e4 82 d9 bd
       0.09293089 -0.069844194 0.06290974 -0.106206685
0001d0 4d 0e 53 3c f8 48 ce bd 8f fa 7b 3c 72 54 76 be
       0.012881828 -0.100725114 0.015379562 -0.24055651

linear_sigmoid_stack.6.weight f4 [120, 120]
000000 22 eb 01 be b6 fe 4b 3e 8d e2 4a be 4c bb 5a be
       -0.12687352 0.19921383 -0.19812985 -0.2136051
000010 c7 42 33 be 38 c4 34 3e 46 1a 34 be 06 76 9e 3e
       -0.17505942 0.17652977 -0.17588148 0.3094942
000020 a8 8b c4 bd 45 dc 36 be cd 23 4c be 55 dd 6d be
       -0.0959695 -0.17857464 -0.19935532 -0.23228963
000030 97 f4 cd 3e d9 d7 0d 3f 59 08 9e 3e ca ad 0f 3e
       0.4022567 0.5540748 0.30865744 0.14031139
000040 15 9c 9e be a0 b8 a5 3e 23 56 39 be 0d 25 00 3f
       -0.30978456 0.3236742 -0.18099265 0.50056535
000050 de 48 02 3f b2 07 66 be b6 3d d1 3e f1 77 a9 be
       0.50892437 -0.22463873 0.40867394 -0.3309932
000060 6f 12 66 be 21 17 16 be 46 5c 21 be 57 4d 3b be
       -0.2246797 -0.1465726 -0.15757856 -0.18291222
000070 7a 2e 2d be 4a 34 7a 3e 8c 70 a3 bd 6d f3 51 be
       -0.1691226 0.24434009 -0.07980451 -0.20503016
000080 5c 95 01 be 65 e6 4b 3e 96 4d d2 3e 67 12 66 be
       -0.12654632 0.19912107 0.41074818 -0.22467957
000090 a8 7b df bd 34 66 50 be af f4 83 3e 26 1b c6 be
       -0.109122574 -0.20351487 0.25772616 -0.38692588
0000a0 34 aa a2 be 6a 16 5d be ad 6f 8f be 09 4e 4b 3e
       -0.3177048 -0.21590582 -0.2801489 0.19853987
0000b0 51 cb bd bc 8d ef 44 be b0 77 6c 3e f4 07 21 be
       -0.023168238 -0.19232006 0.23092532 -0.1572569
0000c0 58 20 58 3e 5c 34 f0 3e 33 af 45 be 4a fc 4c be
       0.21106088 0.46914947 -0.19305114 -0.20018116
0000d0 13 b0 2e be ea 20 0f be ee fc ae be ea 28 05 3e
       -0.17059354 -0.139774 -0.34177345 0.13003889
0000e0 a3 e5 15 be 97 9b b7 3e f3 d5 af bd 2b b2 00 be
       -0.1463838 0.35860893 -0.085857294 -0.12567966
0000f0 99 f0 fe bd 2d 38 d5 3e 79 06 3c 3e 9c 24 20 be
       -0.12448234 0.4164442 0.18361844 -0.15638965
000100 42 53 9f 3e dc 32 7d be 59 cf 99 be 90 8e ae be
       0.31118208 -0.24726433 -0.30041006 -0.34093142
000110 64 95 2e be da 1f 15 3e c2 9c 65 3e c2 11 3e be
       -0.17049176 0.14562932 0.2242308 -0.18561462
000120 47 ce 86 be ca 6c a0 be af 5f 03 3f 7c c3 d6 3d
       -0.26329252 -0.31333 0.51317877 0.104865044
000130 09 d2 f6 3e c2 92 6b be 75 a6 aa 3e a2 75 01 3f
       0.4820712 -0.23005202 0.33330122 0.5057012
000140 3a 13 2d be db 53 bd 3e c4 78 5c be 1a 5e 8e be
       -0.16901866 0.3697804 -0.21530443 -0.2780617
000150 56 2c c8 3e 75 b2 90 be 9f 7d eb 3e 7d ec b7 be
       0.39096326 -0.28261152 0.4599428 -0.35922614
000160 52 e8 68 3e fb 84 8d 3e 00 e8 d7 3e b2 d1 7d 3e
       0.22744873 0.2764052 0.4216919 0.24787024
000170 63 37 ce bd 39 d2 91 3e 94 15 c4 3e 41 26 3b 3e
       -0.10069158 0.284807 0.38297713 0.18276311
000180 eb b9 44 be 73 82 23 be c9 72 b3 3e 29 b7 09 3e
       -0.19211547 -0.15967731 0.35048512 0.13448776
000190 21 61 17 bd f5 5b 9d be fd 7b 42 3e 31 e6 a7 3e
       -0.036957864 -0.3073422 0.1899261 0.3279281
0001a0 a3 82 cd bd fe f9 b6 3e d9 76 16 be c2 51 9c 3e
       -0.100346826 0.35737604 -0.14693774 0.30531126
0001b0 d3 63 01 3f 11 df dc be 08 27 4e be 5b ba db bd
       0.50542945 -0.43138936 -0.20132077 -0.10728904
0001c0 98 6c 11 be 38 2e c1 be b4 2c 36 be 9f d2 50 be
       -0.14201581 -0.37730575 -0.1779049 -0.20392846
0001d0 7d 2f b6 be bd 8d 0c be 3d c9 5e be b3 f2 18 3e
       -0.35583106 -0.13725944 -0.21756454 0.14936332
0001e0 3d c3 49 3e e1 eb ad be e8 1b 7b 3e e4 bf 38 3e
       0.19703384 -0.33969024 0.24522364 0.1804195
0001f0 77 2a 02 3e 66 5a a2 be 5a e7 4d 3e e1 fa e9 be
       0.12711512 -0.31709594 0.20107785 -0.45699218
000200 15 12 29 3e f6 8a a4 3e 18 cd 5d 3e 10 22 76 3e
       0.16510804 0.3213727 0.21660268 0.24036431
000210 f4 2f 2d be f4 c8 04 bd 53 68 b2 bd 7c 79 fb be
       -0.16912824 -0.032418206 -0.087113045 -0.49116123
000220 7e c8 21 3e fa b9 07 3c fb 86 d7 3d e1 67 c5 bd
       0.15799138 0.008284086 0.10523792 -0.09638954
000230 34 03 4e bd c5 fa 5b 3e 07 c3 f3 bc 21 ee 91 3e
       -0.050296023 0.2148238 -0.029756082 0.2850199
000240 01 0c c4 3d 15 b5 7a 3e d7 14 f1 3d 39 21 b1 3e
       0.09572602 0.2448314 0.11771553 0.3459566
000250 58 5e 34 3e db 35 75 bd 47 18 d5 3e 34 b0 f0 3d
       0.17614114 -0.059865814 0.41620085 0.11752358
000260 07 3b 47 3e ef c9 3d bb 62 ad 6b bc 0b 8c 3d 3e
       0.19456111 -0.0028959473 -0.014384599 0.18510453
000270 38 c6 ad 3e b9 58 6c 3e 47 33 28 be fa b3 02 3e
       0.3394029 0.2308072 -0.16425811 0.12763968
000280 40 6d 7b 3e ef 83 69 3e 3a d0 31 3e 9a 74 ac be
       0.24553394 0.22804235 0.17364588 -0.3368271
000290 16 88 13 3e 1e b6 f5 3d d0 17 2e bd 13 57 69 3e
       0.14407381 0.11997627 -0.042503178 0.22787122
0002a0 13 1d e3 be 82 f2 ef bc 4d b1 07 3e 98 8a a4 3e
       -0.4435812 -0.029290441 0.13251229 0.3213699
0002b0 da 16 8c 3e bc 15 71 3d 7b f1 88 3e 73 47 99 be
       0.27361184 0.05885862 0.26746735 -0.29937324
0002c0 d0 6c 8f 3e 3a 27 f8 be c2 70 c6 3e 06 ff 9f 3e
       0.28012705 -0.48467427 0.38757902 0.31249255
0002d0 c7 fa 70 3e 28 b0 95 bd 1a 0d b9 be 04 dd 82 3e
       0.23533164 -0.0730899 -0.36142808 0.25559247
0002e0 97 67 01 be 61 d1 61 3e 2c 60 51 3e c6 70 0a 3e
       -0.12637173 0.22052528 0.20446843 0.13519582
0002f0 2f c9 76 3e a8 bf 80 be 4e 68 47 bd 95 a0 86 3e
       0.24100183 -0.25146222 -0.048683457 0.2629439
000300 a6 02 45 3e 05 ce 6e 3e e0 49 03 be 0f 98 cd be
       0.19239292 0.23320778 -0.1282115 -0.40155074
000310 fd e8 29 be 19 c8 1a 3e 05 da 31 be ec 5e fb bd
       -0.16592784 0.15115394 -0.17368324 -0.12273964
000320 35 a5 fe 3d 0a 06 02 be d7 a6 1a 3e 74 e2 3e 3e
       0.124338545 -0.12697616 0.15102707 0.18641073
000330 90 4e 0d bd 3b 74 4f 3e 59 f8 ba bd ad a4 cb 3e
       -0.03449875 0.20259182 -0.091294 0.39774075
000340 9c 16 c4 be 27 d6 ce be ab fc 0f be 5a bc e0 be
       -0.382985 -0.4039776 -0.14061229 -0.438937
000350 5f 9c 1e 3c d2 2e c7 bd 71 14 19 be 97 7f 29 be
       0.009680836 -0.09725727 -0.14949204 -0.16552578
000360 a9 79 a6 3e 7a 77 ab 3d ae 8c ef be 03 48 9c be
       0.32514694 0.08372398 -0.46787018 -0.3052369
000370 b7 a1 a2 3e 16 42 8b 3e 11 c7 e7 be 25 68 8c bd
       0.31764004 0.27198857 -0.45269063 -0.068558015
000380 68 20 e1 3d 21 cf c6 be 1e d9 a0 3e 97 f0 b1 bd
       0.10992509 -0.38829902 0.31415647 -0.08688467
000390 38 6c 82 bd 09 1d 5d 3e 72 83 7f 3e 1e 49 5f 3e
       -0.06368297 0.21593107 0.24952486 0.21805236
0003a0 74 b1 3b 3d ee c1 5f 3e 3f 4c 26 3e f3 a4 4e 3e
       0.04582353 0.21851322 0.16240023 0.2018011
0003b0 46 0b a3 3e 49 ab 40 3e ae 64 88 3e 82 5f 99 be
       0.31844538 0.1881534 0.26639313 -0.2995568
0003c0 2b dd 8f 3e 03 1d b9 bd bb 3b a6 3d 67 f2 09 3d
       0.28098425 -0.09038737 0.081168614 0.03367844
0003d0 80 66 f7 3e fd 3f af bd dd 62 36 bc 01 86 48 be
       0.4832039 -0.08557127 -0.011131969 -0.19582368
0003e0 28 a9 d6 3d 14 c5 94 3e 27 de c5 3e 2c 54 b2 3e
       0.10481483 0.2905661 0.3864605 0.34829843
0003f0 00 df a6 bd 12 41 59 be 05 43 0c be 3b 7f 30 be
       -0.081480026 -0.21216229 -0.13697441 -0.17236035

linear_sigmoid_stack.6.bias f4 [120]
000000 b5 76 1d be 07 13 81 3c 6a 12 38 3d 5e ba 9d bd
       -0.15377314 0.015756143 0.044939436 -0.07701562
000010 c2 80 2e be 57 22 ce bd 9c 06 17 be 69 db d1 bd
       -0.17041305 -0.100651436 -0.14748615 -0.10246927
000020 07 3d 82 bd 63 39 96 3d f2 11 d6 bd 8d 92 43 be
       -0.06359296 0.073351644 -0.104526415 -0.19098873
000030 a0 14 c7 bd 8e 91 88 bd 96 df aa bd 59 d0 30 bd
       -0.09720731 -0.06668387 -0.08343427 -0.043167446
000040 51 f7 64 3d bc 5f 60 be e5 80 39 3d 23 84 ce bd
       0.05589992 -0.2191152 0.04528894 -0.10083797
000050 4a 78 91 bd 78 38 3a bd ca 65 db 3d 9e cd 06 ba
       -0.071030214 -0.04546401 0.10712774 -0.00051423337
000060 20 e6 59 bd fa 99 63 bd ae a4 f4 bc fa ff 84 bd
       -0.05319798 -0.055566765 -0.029863682 -0.06494136
000070 06 f5 92 bd 1d ca 05 be 05 4d 7c 3d 04 f8 d2 bd
       -0.07175641 -0.13065381 0.06159689 -0.103012115
000080 90 89 ad be fb fa 09 bd 27 e0 83 bd 2c d7 cc bd
       -0.33894014 -0.03368662 -0.06439238 -0.10001978
000090 c9 a3 f1 3d 19 19 8a bd 5b 93 0a 3d 07 2a 2f be
       0.11798818 -0.06743068 0.033831935 -0.17105876
0000a0 f3 94 c5 bd 84 85 95 bd d4 90 fc bd 75 cc 07 be
       -0.096475504 -0.07300857 -0.12332311 -0.13261588
0000b0 af d9 d1 3d 90 20 72 3c 18 a2 7a bd a8 52 43 3d
       0.10246598 0.014778271 -0.06118974 0.04768625
0000c0 47 d7 c7 bd ec 94 e7 bd 4e d8 77 3d f3 d2 99 bd
       -0.09757858 -0.113077015 0.06050902 -0.075109385
0000d0 3d 6e 4e b9 02 a1 82 bd c3 53 5c bd b0 53 de ba
       -0.00019686758 -0.06378366 -0.05379082 -0.0016962197
0000e0 60 66 2c bd da 39 03 be 7b bf c0 3d af 5e 4e bd
       -0.04208982 -0.12815037 0.09411522 -0.050383266
0000f0 8f 18 01 3c e1 f8 41 bd 34 7c 19 3e 84 96 16 be
       0.00787939 -0.04735649 0.14988786 -0.14705855
000100 5e 72 fd bd 93 ea 5b bc a5 64 d7 3d 11 a0 a1 bb
       -0.123753294 -0.013422626 0.10517243 -0.0049324115
000110 13 f8 94 bc 46 bd 08 3c 7e 1f 44 3d f0 76 92 3c
       -0.018184697 0.008345908 0.047881596 0.01787898
000120 56 d9 d0 3d 83 28 a0 3d db 04 79 bd da 91 c2 3d
       0.101977035 0.07820227 -0.060795646 0.09500475
000130 7c a1 25 be fd 33 b3 3d 6f dd c5 3c 53 7e d3 bc
       -0.16174883 0.0875015 0.02415344 -0.025817072
000140 2a fd fc bd 81 fc 93 bd 2f 55 e6 bd 2a 80 ad 3c
       -0.12352975 -0.07225896 -0.11246716 0.021179277
000150 35 0c 5d be 53 36 21 bd 88 17 be bd 42 5d 00 bd
       -0.21586688 -0.03935845 -0.09281832 -0.031338938
000160 da 75 14 be 3e ff 77 be ba 8d b1 bc 42 d3 c6 3b
       -0.14498082 -0.24218461 -0.021674026 0.0060676644
000170 1a 29 40 bc 95 c3 1b 3d 86 16 f4 bc 46 2e fa bd
       -0.011728549 0.03802832 -0.029795896 -0.12215857
000180 a5 f6 0f bf 33 18 3e 3e 82 24 35 be e8 52 2d bd
       -0.56235725 0.18563919 -0.17689708 -0.042315394
000190 20 b0 77 bc fb 90 6b 3c 3e ec 84 3d 15 d9 a3 3d
       -0.015117675 0.014377828 0.06490372 0.080003895
0001a0 09 dc a7 3d ed c0 ba bd 84 03 ea bd bc 73 a3 3d
       0.08196265 -0.09118829 -0.11426452 0.07981059
0001b0 f9 62 14 be e8 80 6b be 79 01 26 3b de 9e e5 3d
       -0.1449088 -0.22998393 0.0025330468 0.11211942
0001c0 5e 46 8b bd 5e e2 72 be 19 9e 80 be 96 3a ec 3d
       -0.06800531 -0.23719165 -0.2512062 0.11534612
0001d0 1d de 2b ba 83 bf 03 bd 0d 38 54 3d 0c 3f 9a bd
       -0.000655623 -0.03216506 0.051811267 -0.075315565

linear_sigmoid_stack.8.weight f4 [120, 120]
000000 f3 b7 f1 be 76 b0 10 3e 75 32 1c 3e 79 fb 0a 3f
       -0.47210655 0.14129815 0.15253623 0.54289967
000010 dc ef c9 be 3a 53 41 3e 39 f6 80 3e cb 68 67 be
       -0.3944081 0.18879405 0.25187853 -0.22598569
000020 e1 1f 1d 3f c1 a6 20 3f 73 41 c9 3e 26 23 70 be
       0.6137677 0.62754446 0.39307746 -0.23450908
000030 29 06 97 3e e0 a3 ca 3e 9a cb d6 be 50 19 c9 3e
       0.29496887 0.39578152 -0.4195221 0.39277124
000040 c6 f1 30 3e ae be 08 bf 8b 78 e9 3e 19 90 f4 be
       0.17279729 -0.53415954 0.4559978 -0.47766188
000050 d0 2d 6c 3f 1d 4d f4 3d 20 5f 16 3e 63 3d 43 3f
       0.92257404 0.11928771 0.14684725 0.76265544
000060 a9 83 d8 3d 1c bd e5 be dc 9a 34 3e c2 39 b8 be
       0.10571987 -0.44870842 0.17637199 -0.35981566
000070 f8 66 19 bf af e3 a8 be dd 27 19 3e 60 3c 1d bf
       -0.5992274 -0.3298621 0.14956613 -0.6142025
000080 46 4a f4 be 49 18 4e 3e f2 51 c9 be bd 0d 0e bf
       -0.47712916 0.20126452 -0.39320332 -0.5548971
000090 38 70 91 3c d7 36 d5 be aa d2 c5 be 09 98 15 bf
       0.017753705 -0.41643402 -0.38637286 -0.5843511
0000a0 fb 9a bd be d6 ff 18 bf ae 05 84 3e a2 a9 cb be
       -0.37032303 -0.59765375 0.25785583 -0.39777857
0000b0 c6 e2 90 3e e0 33 94 3d 7e 5e e1 3e b7 20 19 3e
       0.28298014 0.07236457 0.44017404 0.14953886
0000c0 66 a0 10 bf ed 54 f6 be 8e 7e 55 3e 13 13 ed 3e
       -0.5649475 -0.48111668 0.20849058 0.46303615
0000d0 49 27 30 3e 72 3e ec be 50 ea 57 3e f1 a6 c4 be
       0.17202486 -0.46141392 0.21085477 -0.38408616
0000e0 ef b6 65 3f 0f 6b 21 3e 9b b9 09 3d fb 07 9d 3e
       0.8973226 0.15763496 0.033624273 0.3067015
0000f0 63 73 1e 3f b6 ba 6e 3e f2 f6 21 3e 61 01 aa be
       0.61894816 0.23313412 0.15816858 -0.33204177
000100 5b d3 75 3e 20 21 12 3f b3 7b 1a 3e 1e 73 18 bf
       0.24006407 0.57081795 0.1508625 -0.59550655
000110 42 5e 72 3e 58 52 07 3e 8f 57 53 3d dd 57 9f 3e
       0.23668769 0.13215005 0.051597174 0.31121722
000120 4d 39 06 3e f1 55 5f 3e 99 22 23 bf a4 8a 40 3e
       0.13107796 0.21810128 -0.63724667 0.18802887
000130 bb cc 10 bf 7a 25 9d 3d 99 42 e3 3d 79 76 86 3e
       -0.56562394 0.07673164 0.11096687 0.26262262
000140 55 d5 79 3e 3c 62 92 3e 46 3b ea be de d7 20 3e
       0.24397786 0.28590572 -0.45748347 0.15707347
000150 9d 1b d1 be 71 1d af 3e 1b 51 a8 be 82 7e e5 3d
       -0.4084138 0.3420215 -0.3287438 0.1120577
000160 ca 30 07 bf b7 cf 4c be b9 f0 06 bf bb 67 db 3e
       -0.5280882 -0.20001112 -0.52711064 0.42852578
000170 7d 61 cb be ac 72 37 3e 56 c1 9b 3e e2 04 fb be
       -0.39722815 0.17914838 0.3042094 -0.49027163
000180 49 4a 93 be f1 30 93 3f c1 73 14 bf 0e da e9 be
       -0.28767613 1.1499311 -0.57989126 -0.45674175
000190 ab 0c bb be c6 90 12 3e 65 fe 8e 3e 60 55 98 3d
       -0.36533102 0.14313039 0.27928463 0.07438159
0001a0 bd 14 13 3f 0b 2f ef be ac d4 e9 be 7b 58 e6 3d
       0.5745352 -0.46715578 -0.45670068 0.11247345
0001b0 22 8b 0e bf 71 ec 9a be 18 08 be be 38 12 28 3e
       -0.5568105 -0.30258515 -0.3711555 0.164132
0001c0 4b 34 6d be 05 96 b6 be b5 55 0e bf 08 ef b7 3d
       -0.2316448 -0.3566133 -0.5559953 0.089811385
0001d0 75 82 04 3e 7c 16 8c 3e 9a 57 c6 3d 98 3a f6 be
       0.1294039 0.27360904 0.096846774 -0.48091578
0001e0 ce cd 19 3e 44 61 6e 3e d7 5e 3b 3e af 73 77 3e
       0.15019915 0.23279291 0.18297897 0.24165224
0001f0 f1 83 13 3e ef ec 82 3e 83 fb 12 3e cc 9e 20 3e
       0.144058 0.2557139 0.14353757 0.15685576
000200 e1 44 03 3e 00 e9 d4 3d b2 be 20 3e ba 3b b6 3d
       0.12819244 0.10396004 0.15697744 0.08898111
000210 95 36 0f 3e 9e 94 0e 3e 78 2b 91 3d 71 ca 74 3e
       0.13985665 0.1392388 0.07088369 0.2390535
000220 fa 34 4d 3e 0e 8c 86 3e 31 69 75 3e 62 a8 45 3e
       0.2003974 0.26278728 0.23965909 0.19302514
000230 9c 68 15 3e bd 1e 60 3e 3f d8 f5 3d 73 21 2c 3e
       0.14590687 0.21886726 0.12004136 0.16809635
000240 45 3b c8 3e 53 4d 00 3e 04 9a 83 3e 55 65 26 3e
       0.3910772 0.12529497 0.25703442 0.16249593
000250 6a b1 6c 3e bf 55 3b 3e f8 56 22 3e 52 a2 2d 3e
       0.23114553 0.18294428 0.15853488 0.16956452
000260 ac d4 1f 3e ab 44 8f 3e 2f 1f 19 3e 6b 0f c0 3d
       0.15608472 0.27982077 0.14953302 0.09377941
000270 07 5b 85 3e f1 7c a7 3d eb 5e ab 3d d1 31 5b 3e
       0.2604601 0.081781276 0.083677135 0.21405722
000280 c2 91 55 3e 70 2e f6 3d 8c 90 eb 3d b7 6d 36 3d
       0.20856383 0.12020576 0.115021795 0.044538226
000290 8c 32 77 3e 9d 45 f8 3d 6b ff 3d 3e 57 af 32 3e
       0.24140376 0.12122653 0.18554465 0.174497
0002a0 db 1e 4a 3e 6d 8b 04 3e d5 ec 44 3e b1 d1 7a 3e
       0.19738333 0.12943812 0.19230969 0.24494053
0002b0 66 fb 78 3e a1 57 0c 3e 59 5b 92 3e a8 a4 0e 3e
       0.24314651 0.13705303 0.28585318 0.13929999
0002c0 2e a6 0c 3e 40 c6 02 3e 03 29 7e 3e c3 62 59 3e
       0.13735268 0.12770939 0.24820332 0.21229081
0002d0 c3 ca 17 3e 2a b7 87 3e 1b 87 6d 3e 14 51 db 3d
       0.14823441 0.2650693 0.2319607 0.10708824
0002e0 f4 18 84 3e 14 52 13 3e 8d a7 08 3e 19 64 31 3d
       0.25800288 0.14386779 0.13345166 0.04330835
0002f0 02 46 1d 3e ca 3e 5c 3e 20 9d 1f 3e 37 d3 18 3e
       0.15358737 0.21508327 0.15587282 0.14924322
000300 36 5f 8f 3e d8 07 02 3e 65 98 54 3e aa 9b 48 3e
       0.28002328 0.12698305 0.20761259 0.19590631
000310 06 0c a2 3d 13 31 34 3e 0e 2c 5b 3e 1e 8d 51 3e
       0.079124495 0.17596845 0.21403524 0.20463988
000320 a7 a5 85 3e 59 4e 04 3e d1 9a 3c 3d 47 fb 2e 3e
       0.26102945 0.12920512 0.046046082 0.17088042
000330 c8 3a f1 3d b1 6a 3d 3e 85 71 7b 3e 46 ab 10 3e
       0.1177879 0.18497731 0.24555023 0.14127836
000340 c2 4e 31 3e b6 af 12 3e 95 71 1e 3e 20 f6 0c 3e
       0.173152 0.14324841 0.15473016 0.13765764
000350 bd f9 1a 3e 87 ed 3c 3e 30 ac 71 3e 49 f4 49 3e
       0.1513433 0.18449984 0.2360084 0.19722094
000360 9d a0 5b 3e e2 1d 15 3e f1 d1 30 3e c9 34 18 3e
       0.21447988 0.1456218 0.17267586 0.14863886
000370 72 a6 14 3e 04 cd 87 3e e9 5a 12 3e 02 76 88 3e
       0.14516619 0.26523602 0.14292492 0.26652533
000380 ff 1e 01 3e 03 96 15 3e 6d ef e1 3d f5 f3 a1 3e
       0.1260948 0.14608006 0.11031995 0.31631437
000390 5e da 6b 3e 7b 81 88 3e a6 1f 79 3d de 7a 86 3e
       0.23032519 0.26661286 0.060821198 0.26265615
0003a0 7a 5a 97 3e 34 38 c7 3d 93 44 e8 3d 7b 01 43 3e
       0.29561216 0.09727517 0.113412045 0.19043534
0003b0 2c 83 0f 3e 2a ae 2a 3e f8 98 42 3e f1 b4 00 3e
       0.14014882 0.16668001 0.19003665 0.12569024
0003c0 72 f0 0e 3e 3c 91 1e 3e d2 a9 a1 3e 9d 2e 18 3e
       0.1395891 0.1548509 0.31574875 0.14861532
0003d0 0c 7b 1a 3e 7a 3a 8e 3e a4 b9 fc 3d f3 8e 44 3e
       0.15086001 0.2777899 0.12340096 0.19195156
0003e0 3a 0f 4c 3e 82 16 fd 3d 13 cb 62 3e b8 8e 23 3e
       0.19927683 0.12357809 0.22147779 0.15972412
0003f0 73 7c 7b 3e 5f b9 8a 3e 76 cd 75 3d cb 0e fc 3d
       0.24559192 0.27094552 0.060010396 0.12307509

linear_sigmoid_stack.8.bias f4 [120]
000000 2c 88 a7 3d 92 f4 bf 3d dc df e9 3d d3 0e 01 3e
       0.081802696 0.0937282 0.11419651 0.12603311
000010 cd b0 49 3e d8 cc 4f 3e 7c 3a 5c 3e bd 70 93 be
       0.1969635 0.20292985 0.21506685 -0.2879695
000020 42 b1 08 3e 0c 4f 0d 3e ef cd 6b 3e 55 c9 42 be
       0.13348868 0.13799685 0.23027776 -0.19022115
000030 28 20 45 3e 4a 43 75 3e 26 8c 39 3e 59 5a 82 3e
       0.19250548 0.2395145 0.18119869 0.25459555
000040 11 73 4f 3e fa a1 64 3e c1 b4 2c 3e 6b 96 41 3e
       0.20258738 0.22327414 0.16865827 0.18905036
000050 37 04 ce 3d 69 2f 5b 3d b8 db 79 3e 72 52 18 3e
       0.10059398 0.05351201 0.24400222 0.148752
000060 c5 72 2a 3e 7e db 62 3e b4 75 ae 3d 32 a9 82 3c
       0.16645344 0.22154042 0.08518544 0.01594982
000070 e2 61 71 3e a7 62 34 be b7 52 de 3d 74 25 79 be
       0.23572496 -0.17615758 0.1085562 -0.24330693
000080 eb f3 3e 3d cc 08 dd 3d 54 60 40 3e a8 39 10 3e
       0.046619337 0.107926935 0.18786746 0.14084494
000090 20 a5 b2 3d 83 72 00 bd 24 ce eb bd 61 02 09 3e
       0.08722901 -0.031359207 -0.115139276 0.13379814
0000a0 7d 4b 62 be a7 61 a7 bd 20 57 4f be b6 79 11 3e
       -0.22099109 -0.081729226 -0.2024808 0.14206585
0000b0 00 57 9c 3d a0 11 34 3e 90 bd a8 3d f1 39 be bc
       0.076337814 0.17584848 0.08239281 -0.023220988
0000c0 48 22 59 3e d9 21 fb bd 1f 94 99 3d 58 55 53 3c
       0.21204484 -0.12262315 0.07498955 0.0128987655
0000d0 bb e4 15 be 5a f5 13 3e e5 73 25 3e f0 a4 c9 3d
       -0.14638035 0.14449063 0.16157492 0.098459125
0000e0 95 cf 6c 3e 69 e0 2a 3d f3 56 bd 3d c6 8e 2f 3e
       0.23126061 0.04171792 0.092451 0.17144307
0000f0 b8 ea 95 be e2 42 99 3d ef aa 96 be 33 4b 10 3e
       -0.2928064 0.0748346 -0.29427287 0.14091186
000100 90 81 cd 3d 90 3d e2 bd 16 ee e1 3d d5 72 b7 3d
       0.10034478 -0.11046898 0.110317394 0.08957449
000110 82 93 03 3e c9 1d c2 3d 06 f0 4c 3e 33 65 1c 3e
       0.12849239 0.09478337 0.20013437 0.1527298
000120 b3 e9 14 3e 2d e5 6f bd a4 ae bc be 04 97 f7 3d
       0.14542274 -0.05856817 -0.3685199 0.12089351
000130 95 74 11 bd 51 81 e9 3d 7b 80 3f bd f1 ef 91 3e
       -0.035511572 0.11401618 -0.046753388 0.28503373
000140 96 ff 16 3d 64 bd 45 3e c9 b6 18 3e 29 5a ae 3d
       0.03686484 0.19310528 0.14913477 0.085132904
000150 b2 8f 9b bd 42 a4 99 3d 7e 7c 93 3d b5 af 7d be
       -0.07595767 0.07502033 0.072014794 -0.24774058
000160 48 43 25 3e da 10 b2 3d 67 75 52 3e 01 11 2e 3e
       0.16138947 0.086946204 0.20552598 0.16998674
000170 31 c6 ba 3d 07 44 b2 3d 14 86 3e 3e 5d 78 e4 bd
       0.09119833 0.087043814 0.18605834 -0.1115577
000180 ec 56 00 bd 5a 45 88 be 6f 53 60 3e 48 fb 07 be
       -0.031332895 -0.2661541 0.21906827 -0.1327945
000190 0f 98 ad 3e 9f 0e 36 3e 04 48 55 bd d3 8a ff 3d
       0.33905074 0.17779015 -0.052070633 0.124776505
0001a0 7d e9 a6 3d 66 2a a7 3d 62 73 ed bc fb cf 75 be
       0.08150003 0.08162384 -0.028985683 -0.2400512
0001b0 5f 84 7a be 58 41 c4 be 5a 4c 72 3e 63 71 36 3e
       -0.24464558 -0.38331103 0.23661938 0.17816691
0001c0 6d 2a 2e 3e 49 c0 6d 3d af 85 4e 3e 57 73 2d 3d
       0.17008372 0.058044706 0.20168184 0.042346325
0001d0 d1 b6 6b 3e e3 d0 0c 3d a7 aa a2 bd 94 66 5e 3e
       0.23018958 0.034378897 -0.079427056 0.21718818
