Lotka-Volterra/Results/sol_w44.pt (torch_old, 355963 bytes, 20 tensors)

linear_sigmoid_stack.0.weight f4 [120, 1]
000000 82 47 4d 3f 43 60 4b bd b9 a0 a5 3e 4a 69 5a bd
       0.8018724 -0.04965235 0.32349184 -0.053323068
000010 4a 2f c9 3f 36 76 a5 3e e2 f4 32 bd 84 2b 8a bf
       1.5717556 0.3231675 -0.04369057 -1.079453
000020 10 91 4c 3d 23 a7 25 c0 95 07 2c bd 8d 94 47 bd
       0.04994303 -2.5883262 -0.04199942 -0.048725653
000030 52 59 31 bd ab 50 d6 3f 25 e6 4a bd 5c 7e cf 3f
       -0.043298073 1.6743368 -0.04953589 1.6210437
000040 9a 1d af 3f a8 58 ea bf 65 40 64 bd f9 f3 20 40
       1.3680909 -1.8308306 -0.055725474 2.514891
000050 cf d2 32 c0 24 1d 38 bd a5 40 56 bd 69 49 0d 40
       -2.7941167 -0.044949666 -0.052307744 2.2076056
000060 22 cd 3c bd 9d 30 91 3f cc f3 27 bd f3 f5 d1 be
       -0.046094067 1.1342961 -0.041003987 -0.41007957
000070 27 dc be be e7 50 73 bf a7 f4 f5 bf db a2 97 bf
       -0.37277338 -0.9504532 -1.9215287 -1.1846575
000080 0a ef 51 3d 8b 22 f7 3f 94 e4 33 bd b5 7d 62 bf
       0.051253356 1.9307417 -0.04391916 -0.88473064
000090 9d d4 21 3f 7d cf ad be c6 21 62 bd 7b 4d 06 bf
       0.6321505 -0.33947363 -0.05520799 -0.52461976
0000a0 8b 3d 67 be 80 99 c0 bf c8 be 8d 3f 2c 88 da 3e
       -0.2258207 -1.5046844 1.1073847 0.42682016
0000b0 8a bc ee 3e ea 6e d4 3f 78 5f 2b 3f 3c 61 3a bd
       0.4662822 1.6596348 0.6694255 -0.045502886
0000c0 70 9c 2e bd 39 53 29 bd 9d 9f 61 3f 7d 65 06 40
       -0.04262966 -0.041339133 0.88134176 2.0999444
0000d0 d3 ef 0f 40 ed b7 ae 3f ca 99 27 bd 5d 33 3c bd
       2.2490127 1.364988 -0.04091815 -0.04594742
0000e0 cd 0e 28 bd e4 b7 d9 3f 2f 81 59 bd 73 00 22 40
       -0.04102974 1.7009244 -0.053101715 2.5312774
0000f0 2b 29 6d 3f 60 4b 14 c0 63 22 51 3f 72 7b 25 40
       0.9264094 -2.3171005 0.81693095 2.5856595
000100 e9 54 f6 3f 52 e0 2d bd 13 2c ea 3e 27 48 01 c0
       1.9244663 -0.042450257 0.4573675 -2.0200288
000110 8f c0 61 bd 00 a1 cf 3f 2a 08 f9 bf 4e 36 00 40
       -0.05511528 1.6221008 -1.9455616 2.0033145
000120 60 3e 2c bf 93 0b 84 3f fe 6e 33 bd fc 84 2e bd
       -0.67282677 1.0316032 -0.043807022 -0.042607293
000130 57 14 46 bd 59 28 25 c0 80 5c 4c bd 03 95 f1 be
       -0.04835924 -2.5805876 -0.049892902 -0.47184
000140 55 c6 04 40 e4 ee 2b bd 3b 60 27 c0 73 f6 28 bd
       2.0746052 -0.04197587 -2.6152484 -0.041250657
000150 b8 25 62 3f 70 9a b7 be 6a 97 49 bd cc a4 32 3f
       0.88338804 -0.35860014 -0.049216665 0.6978271
000160 c1 4b 7f bf 59 2d 45 bf 2f 92 28 bd 53 4f c4 bf
       -0.99724966 -0.7702232 -0.041155037 -1.5336708
000170 e7 72 f5 3f 6a 9f 30 bd 57 6e 91 3f 65 59 e2 3f
       1.917569 -0.04312078 1.1361798 1.7683531
000180 6b 7c cb bf 85 71 9d bf e5 1c 70 bf bb 21 65 bd
       -1.5897344 -1.2300268 -0.9379409 -0.05594037
000190 e7 dd a9 be a6 d0 2b bd f6 a7 c0 bf be 17 ac 3f
       -0.3317711 -0.04194703 -1.5051258 1.3444746
0001a0 cd 2a eb 3f 0c 08 e4 3e 9f 7a dd 3f f3 e9 13 40
       1.8372437 0.4453739 1.7303046 2.3111541
0001b0 2f b0 06 c0 24 fc 2e bd f9 78 1f 40 06 3a a1 bf
       -2.1045034 -0.04272093 2.4917586 -1.2595832
0001c0 a8 9c c0 be 7d ac 3b bd 23 36 c1 bf 65 50 3c bd
       -0.3761952 -0.045818795 -1.5094646 -0.045975108
0001d0 45 96 35 bd 34 ed 14 40 f6 28 2f bd 5d 09 98 3f
       -0.04433276 2.3269777 -0.042763673 1.1877857

linear_sigmoid_stack.0.bias f4 [120]
000000 ab 09 16 3f c6 f0 77 3f 6e 42 75 bf 08 cd ab 3f
       0.586085 0.96851766 -0.9580449 1.3421946
000010 e8 00 00 3f 24 80 48 bf 24 79 9b 3d 1e 58 00 3f
       0.5000138 -0.7832053 0.07591465 0.50134456
000020 5e 7e 9f bf 89 7b fa be 35 cd 65 be da 73 59 3f
       -1.2460439 -0.48922375 -0.22441562 0.849424
000030 a0 84 38 3d 72 b4 0b bf d0 c5 72 3f c5 b5 c3 3e
       0.045048356 -0.5457221 0.9483309 0.38224617
000040 2b 64 7f 3e 9c bc 0f bf 10 e4 c8 3f d8 f7 4e 3c
       0.24940555 -0.5614717 1.5694599 0.012632333
000050 88 5d 01 bf b5 f6 ad 3e f9 ff 9f 3f 23 2f 9c 3e
       -0.5053334 0.33977285 1.2499992 0.30504712
000060 25 4c 02 3f e0 52 0b 3f 40 18 01 bf 14 af 46 3f
       0.5089744 0.5442333 -0.5042763 0.776109
000070 bc 2c 92 3f 04 bf cc be d8 8d 10 3e 4f 44 9e bd
       1.1419902 -0.39989483 0.14116609 -0.077278726
000080 09 aa 8d bf 1b 28 a8 3c 74 71 27 3e 2f 3f 25 bf
       -1.1067516 0.020526936 0.16351873 -0.64549536
000090 46 b2 20 bf bc c4 5d 3e 95 aa c2 3f 0e 31 dd 3e
       -0.62772024 0.2165708 1.5208308 0.43201488
0000a0 67 43 f1 be 0b d9 f7 3e 94 d0 0f 3d 34 a5 6b bf
       -0.47121736 0.48407778 0.035111025 -0.92048955
0000b0 45 1e b8 bc 96 5c ed 3e 95 25 f9 be a6 20 dd 3e
       -0.022475371 0.463597 -0.48661485 0.4318897
0000c0 f0 f6 32 bd d0 29 c0 be 2e 3b eb be c9 08 a0 3d
       -0.04369253 -0.375319 -0.45943588 0.07814176
0000d0 de c0 d4 3e 3d 95 03 be 1e f2 03 bf db 82 fc 3e
       0.41553396 -0.12849899 -0.51541317 0.49318585
0000e0 50 19 04 bf 8a 25 6d 3d 73 05 aa 3f 14 70 88 3e
       -0.51601124 0.05789713 1.3282913 0.2664801
0000f0 95 b4 e8 be 77 fd 08 be fb be 9b 3e f4 5a 36 3e
       -0.45450273 -0.13377939 0.30419144 0.17808133
000100 59 94 0d bf 88 e7 c6 bd 3f d2 c8 be 39 17 5d 3e
       -0.55304486 -0.0971213 -0.39222905 0.2159089
000110 d5 cc c0 3f cd e7 9f 3e 0c 6d 69 3e bf 93 f0 be
       1.506251 0.31231537 0.22795504 -0.4698772
000120 ff db 23 3f 3d 58 88 3e 6e b9 16 3e f1 49 8d bd
       0.6400756 0.2662982 0.14719173 -0.06898869
000130 f6 c8 4e 3f 01 69 a6 be 0f 60 7d 3f 19 eb 4f 3f
       0.8077539 -0.32501987 0.989747 0.81218106
000140 5c d2 b1 be 04 70 7b be 14 5c 5d be b5 4e e1 be
       -0.34730804 -0.2455445 -0.21617156 -0.4400536
000150 21 c9 05 be f6 91 46 3f 40 dc 67 3f b2 da a6 be
       -0.13065006 0.7756647 0.9057045 -0.32588726
000160 d4 61 18 bd 8d 48 8b be c3 01 e7 be 95 93 25 be
       -0.03720267 -0.2720379 -0.45118532 -0.1616958
000170 26 77 76 3d 08 40 8f bc db d0 06 bf 3f ab 58 3e
       0.060172223 -0.017486587 -0.5266244 0.21159075
000180 2e 61 d8 3d c2 67 34 be 18 2f 5b 3e 87 c5 ca 3f
       0.105654106 -0.17617705 0.21404684 1.584153
000190 05 9e 6a 3e 47 ab 84 be 05 ca 1d 3f ca 8d 06 3f
       0.22911842 -0.25911924 0.6163638 0.525601
0001a0 53 29 2a bd db eb f2 be 3a 1d 75 be c8 c9 15 3f
       -0.041543316 -0.47445568 -0.2393693 0.5851102
0001b0 f1 2c 7f 3e 75 ee 6d bd 00 d9 83 3d 89 c2 20 3e
       0.24919488 -0.05808874 0.06437874 0.1569921
0001c0 5a a8 ce 3e 2e 32 eb 3e 01 d7 a4 be 9a 76 fe 3e
       0.40362817 0.45936722 -0.32195285 0.4969986
0001d0 c6 75 f0 3d 1f 2b 01 be 66 d8 23 bd b6 00 b0 be
       0.117412135 -0.12614106 -0.040001296 -0.34375542

linear_sigmoid_stack.2.weight f4 [120, 120]
000000 5d 9e ac bd 8b 28 9a 3e 78 15 61 be 18 12 57 3e
       -0.08428643 0.30109057 -0.21980846 0.21002996
000010 93 98 36 3d 9e d9 cf bd 7d 0b 98 3e 63 dc 3e 3e
       0.0445791 -0.10148929 0.29696265 0.18638758
000020 99 72 8b be e7 2e 8e 3d a4 c9 33 3e 9d 32 8b 3e
       -0.2723587 0.0694254 0.17557389 0.27187052
000030 b8 e2 89 3e 6e b7 02 be 66 7f 59 3e 31 97 70 3c
       0.26930785 -0.12765285 0.21240005 0.014684484
000040 77 4a de bc 2e f4 3d 3e a1 6c b3 3e 4f cd 8f 3c
       -0.027135117 0.18550178 0.35043815 0.017553953
000050 0b 59 df 3d 4c 81 55 3e 6d b5 a2 3e 5b b9 29 3d
       0.109056555 0.20850104 0.31779042 0.041436534
000060 c5 37 32 3e 0b b2 86 bc 92 dd 22 3e d5 c7 93 3d
       0.17404087 -0.01644232 0.15904835 0.07215849
000070 18 97 3a 3e 25 ae 3f 3e af 05 2f 3e 88 11 29 3e
       0.182217 0.18718775 0.17092012 0.16510594
000080 41 4f 4c be 24 c5 13 bd e6 6c 2a 3e d1 17 9b 3d
       -0.19952108 -0.03607668 0.16643104 0.07572902
000090 52 69 8b bd 32 64 fb 3d d0 9c 8e 3e 1f 02 55 3e
       -0.06807198 0.1227497 0.27854013 0.2080159
0000a0 0d 2c 24 3e 9c bc f0 3d 53 70 9a bd 58 8b 2f be
       0.16032429 0.117547244 -0.075409554 -0.17142999
0000b0 58 a5 c8 bc a3 b8 c6 bd cf 58 1d bd 7e 5e 7a 3e
       -0.024492905 -0.097031854 -0.038414773 0.24450108
0000c0 99 48 a3 3e f6 ba 33 3e 35 d7 e7 bd 0e 93 d7 bc
       0.31891325 0.17551789 -0.11320344 -0.026315238
0000d0 73 d7 e9 bc 7a 96 a8 bd 68 ef a0 3e e0 44 3c 3e
       -0.028545117 -0.08231826 0.31432652 0.18385649
0000e0 18 c2 8c 3e de bc b5 3b ce 52 8e 3e b5 9b 1c bb
       0.27491832 0.0055461964 0.2779755 -0.002389652
0000f0 23 55 90 bd c2 16 87 3d 36 6d 75 3c 21 27 77 bd
       -0.070474885 0.065961376 0.014979651 -0.06034005
000100 a5 c9 5c bd 47 a3 a9 3e 28 90 5c 3c 18 fe 92 3d
       -0.05390324 0.33132383 0.013462104 0.07177371
000110 13 52 81 3e 16 7b 7f 3c 96 1a 4a 3e bf 98 dc bd
       0.2525793 0.015593311 0.19736704 -0.107713215
000120 51 5d db 3d fd 6d c2 bb 2f 86 45 3e c9 0a 9f 3e
       0.10711158 -0.005933522 0.19289468 0.31062916
000130 e0 49 58 3e 83 13 a0 3d 17 35 9d 3e f3 64 48 3e
       0.21121931 0.078162216 0.30704567 0.19569759
000140 de 95 94 bd 67 83 3b 3e ff ef 2e 3e 9c c6 79 3e
       -0.072551474 0.18311845 0.17083739 0.2439217
000150 8e 1c e6 bc 3d fd 88 3d f6 eb 77 3e 87 2c bb bd
       -0.028089788 0.06688926 0.24211106 -0.09139352
000160 06 2d 17 3e 63 fd 6f 3e ff a1 2b 3e 25 a5 09 3e
       0.14763269 0.23436503 0.16761015 0.13441904
000170 26 f9 51 bb 71 91 96 3e ea cb 12 be 93 34 07 bd
       -0.0032039373 0.29407838 -0.143356 -0.033009123
000180 59 70 59 3e e4 cf 9e 3d dd c5 57 3e f7 5b 89 3e
       0.21234263 0.07754496 0.21071573 0.26827976
000190 19 cb 64 3e 6b 17 20 3e d8 9c 1a 3e 9a 85 07 3d
       0.223431 0.15633933 0.15098894 0.033086397
0001a0 44 7b c8 3c ac 40 06 be 8f eb f2 bd 33 6b da bc
       0.02447284 -0.13110608 -0.118613355 -0.026662445
0001b0 8e 77 c0 3d c8 85 99 3e 45 4c ad bd bf aa 19 3e
       0.09397803 0.2998488 -0.08461813 0.1500654
0001c0 dd 5d 85 3d 09 43 82 3e f8 81 59 3e 05 15 9a 3e
       0.065120436 0.2544177 0.21240985 0.30094162
0001d0 33 cf 91 3e 9f 7b bc bd b4 6d a3 3e b9 e1 c2 bd
       0.28478393 -0.09203266 0.31919634 -0.095157094
0001e0 7b bc 4e 3e 9e 4c f9 bd 80 1a e3 3d fd 1b 90 bd
       0.20189087 -0.12172817 0.11089039 -0.07036588
0001f0 de 39 39 3e a4 2e 4c 3e b2 00 63 bc 55 af 37 be
       0.18088481 0.19939667 -0.013855146 -0.17937978
000200 c2 0a 8a 3d ed fc 6f be 72 25 60 bd 71 df bc bd
       0.06740333 -0.23436327 -0.05472321 -0.092223056
000210 85 20 cb 3c c0 aa 9a 3e 7c fc b0 bd ab 75 5c 3e
       0.02479578 0.30208397 -0.086419076 0.21529262
000220 28 0d 00 3e f5 84 50 be f6 b1 80 bd 32 5a bf 3e
       0.12505019 -0.20363219 -0.06283943 0.373735
000230 32 1a 31 be 18 ef c3 bd 42 10 db bd 56 e8 88 3e
       -0.17295149 -0.09567088 -0.1069646 0.26739758
000240 84 9c 20 bd 66 46 0a 3e f1 6e cc ba 19 5f 23 be
       -0.039211765 0.13503417 -0.0015597028 -0.15954246
000250 85 50 cc bd 83 cc 19 be 54 a5 51 be 04 a0 b3 bd
       -0.099762954 -0.15019421 -0.20473224 -0.08770755
000260 0c 81 6b 3d b9 5c 85 3e ff ff 84 3d 6f e6 3a be
       0.057496116 0.26047304 0.0649414 -0.18251966
000270 ba cd 78 3e 58 eb 84 3c 4a 08 93 3b 10 90 65 bd
       0.24297228 0.016225502 0.004487072 -0.05604559
000280 3f af 9a bd 1a 76 01 be bc bf 52 3e 2a 3b 8f 3e
       -0.07552957 -0.12642708 0.20580953 0.27974826
000290 68 33 51 3d 52 91 65 3e 27 c1 1a 3e f3 27 eb bd
       0.051074415 0.22418717 0.15112744 -0.11482229
0002a0 b3 72 8c 3d 48 36 0e 3c d4 d6 38 3e 85 47 2b 3e
       0.06857815 0.008679934 0.180507 0.16726501
0002b0 42 d7 54 3e f5 78 61 3e 06 7c bd bc 27 33 74 bd
       0.2078524 0.22018798 -0.023130428 -0.059619095
0002c0 b3 3f 81 3c a1 c8 96 3e a5 df e7 bd 34 9c 78 3e
       0.015777444 0.29449943 -0.11321954 0.24278337
0002d0 c5 42 9e 3e 9d d2 93 be f0 f3 63 3e 4b 66 8e 3e
       0.30910316 -0.28871623 0.22261024 0.27812418
0002e0 b3 02 a6 3e c1 d3 85 bd 51 a2 5f 3e 3c 02 37 be
       0.32423934 -0.065345295 0.21839263 -0.17871946
0002f0 4a 32 95 bd e7 e7 8c 3e 3f 67 89 be da 97 c1 3e
       -0.072849825 0.27520677 -0.26836583 0.37811166
000300 be 7d 62 bd 46 36 18 3e aa 14 61 bd c3 eb 5a 3d
       -0.0552957 0.14864454 -0.054951347 0.053447496
000310 a0 43 8b 3b 19 92 97 be 88 9c e8 bd 06 06 42 be
       0.004250005 -0.2960365 -0.11357981 -0.1894761
000320 e2 ba 85 3e a1 69 14 bd 7e f2 44 be 2a b9 57 3d
       0.26119143 -0.036233548 -0.19233128 0.05266682
000330 d8 bc ef 3d 49 66 f7 bc bc de 33 bc 7d ab 6d 3e
       0.11705941 -0.03020014 -0.010978397 0.23209949
000340 ab f9 62 be ef 47 35 be b5 58 be bc cf 0c f5 bd
       -0.22165553 -0.17703222 -0.023235658 -0.11965334
000350 2a da 60 3e ca f0 3e bd c5 ed 81 3e 33 fc 60 3e
       0.21958223 -0.046616353 0.25376716 0.21971206
000360 bd d2 3a be 4f 83 12 be 97 12 3f be fc 44 e0 3c
       -0.18244453 -0.14307903 -0.18659435 0.027376644
000370 74 b8 8c bd eb 3f d8 3c 10 84 70 be bb cf 05 3e
       -0.06871119 0.026397666 -0.23487878 0.13067524
000380 a8 0a 8b 3e 37 45 e9 3d 42 6e 87 3e a6 21 22 3e
       0.27156568 0.11390155 0.26451308 0.15833148
000390 9f 64 63 be 89 ce 5b bc 61 8d 6d 3e 63 2a 01 be
       -0.22206353 -0.013415941 0.23198463 -0.12613826
0003a0 8e cb e0 bc 44 09 eb bd 4f ce 21 be a6 77 6f bd
       -0.027440812 -0.11476377 -0.15801357 -0.058463715
0003b0 68 7d f3 bd ec cb 93 3e 5a 98 53 3d f2 f6 7e 3e
       -0.11889154 0.28866518 0.051658966 0.2489889
0003c0 5b 5d 38 bd 17 bf af 3e 34 7f fb bd 4e e5 ae 3e
       -0.045010906 0.34325477 -0.122801214 0.3415932
0003d0 46 73 e6 bd 36 93 b3 bd 48 65 a7 3e d6 a2 4b 3e
       -0.112524554 -0.08768313 0.3269446 0.19886336
0003e0 a1 64 70 be 3c a1 70 3e de 7e 3f 3e ec 44 94 3e
       -0.23475887 0.23499006 0.1870074 0.28958833
0003f0 12 46 2a 3e 95 3e e3 bd a8 e8 32 3e 8e 88 e7 bd
       0.16628292 -0.11095921 0.17471564 -0.113053426

linear_sigmoid_stack.2.bias f4 [120]
000000 69 6a 9e bc 4e 78 84 3d c1 23 8d 3d 00 a7 bc bd
       -0.01933785 0.06468259 0.06891585 -0.0921154
000010 e2 f3 db 3d 1c 05 ba 3d 60 52 ae bd 5a bd d8 bc
       0.10739876 0.09083006 -0.085118055 -0.026457477
000020 f1 27 0b 3d 94 37 81 3d 39 d5 ad 3d 9f 5d 99 bc
       0.033973638 0.06309429 0.084879346 -0.0187214
000030 ae 88 d1 3d 19 15 ab bd 2a a2 0a 3d 75 b5 b7 3c
       0.10231148 -0.083536334 0.033846058 0.022425393
000040 02 b4 57 bd 0f ce b7 3c a3 91 c3 bc 98 d1 c1 bc
       -0.052661903 0.022437124 -0.023873156 -0.023659512
000050 9b e4 2f 3d 5d 5a 85 bd 1d b8 55 be 43 28 f5 3d
       0.042942625 -0.06511376 -0.20871015 0.1197057
000060 fb 37 d6 3d 8c d1 2c bd 64 f2 42 bb c7 03 cd bc
       0.10459896 -0.042192027 -0.0029746527 -0.025026215
000070 98 6d 1a bb 9b 4d a9 3d 8e 8b d8 3d 5e d7 85 3d
       -0.0023563858 0.08266755 0.10573493 0.06535219
000080 f6 0f 2c be 62 78 16 3d 9b 3e 1b bd 2c d7 50 bd
       -0.16802964 0.0367359 -0.037901502 -0.050986454
000090 9b e9 64 3c 58 aa 65 3d 2f 72 3a bd b3 ad 02 be
       0.0139717115 0.056070656 -0.04551905 -0.12761573
0000a0 81 6e 64 3c ad e1 0e bd fd 67 13 3d c3 a5 63 3d
       0.013942362 -0.03488319 0.035987843 0.055578005
0000b0 63 3f a0 3d 4f 58 0c be 52 54 ef 3d 34 8f 2b be
       0.0782459 -0.13705562 0.11686005 -0.16753846
0000c0 76 27 99 bc a9 f9 17 bc 5d 98 4d bd bb 06 47 bc
       -0.018695574 -0.009275832 -0.050194133 -0.012147601
0000d0 78 fc 2f bd 19 1a 91 bd 4d b7 2f bd 86 bc 92 3d
       -0.042965382 -0.07085056 -0.04289942 0.07164864
0000e0 7b 98 28 bd 3f d4 dc bc 21 1b a3 bd 79 fe a5 bc
       -0.04116104 -0.026956676 -0.07964159 -0.020262944
0000f0 7d 0f b6 3d 72 18 0e bb ad 65 ab bd ea 33 59 3c
       0.08889673 -0.002168205 -0.083690025 0.013257006
000100 62 2d 76 bd 06 11 71 3d b2 38 47 bd 77 0e 4a bd
       -0.060101874 0.058854125 -0.048638053 -0.0493302
000110 18 71 33 3b bc 80 10 be ba 2f 94 3c c5 63 8d bd
       0.0027380642 -0.14111608 0.018089164 -0.06903795
000120 61 fe 12 bd c7 b0 26 3d f2 b4 0f 3c 4d 3f 82 3d
       -0.035887126 0.04069593 0.008771168 0.0635973
000130 3a 27 62 3d e0 a7 5c bd e4 9a ec 3c 83 f1 26 be
       0.05521319 -0.053871036 0.028882451 -0.16303067
000140 d8 44 88 bd e9 84 b2 bc 87 ee 49 bd a3 b2 74 3d
       -0.06653756 -0.021791892 -0.049299743 0.059740674
000150 78 f8 1b bd a2 5c 2b 3c 4b 67 be 3d 06 f3 d8 bd
       -0.038078755 0.010459097 0.09297045 -0.10593228
000160 dd da 9b bd ba 47 35 be da b9 b4 bd 83 a2 31 3d
       -0.07610104 -0.17703143 -0.08824511 0.043367874
000170 19 01 35 bd f4 19 9d b9 d4 5f 12 be 84 1f ad bd
       -0.0441905 -0.0002996471 -0.14294368 -0.08453277
000180 e7 13 49 bd 07 0f 24 be da 03 62 bd 0a 17 e8 3c
       -0.049091246 -0.16021357 -0.055179454 0.028331298
000190 ff d8 0b be de bd 89 bd 0e b8 cd bc 66 55 3e be
       -0.13656996 -0.067256674 -0.025112178 -0.18587264
0001a0 4d 83 b4 bc c9 f3 d4 bb b4 18 83 3d 65 d9 c2 bd
       -0.022035265 -0.006498788 0.06401196 -0.09514121
0001b0 47 55 ba 3d 4e 08 e5 bc 7d 93 23 bd 29 27 80 3d
       0.090982966 -0.027958062 -0.039935578 0.06257469
0001c0 10 a1 06 be a3 01 77 bd 3b e0 ae bd 34 84 7f 3c
       -0.13147378 -0.060304295 -0.08538862 0.0155954845
0001d0 76 b7 17 3d c9 a8 f3 3d 20 a6 1a be 18 20 a2 3b
       0.037040196 0.118974276 -0.15102434 0.0049476735

linear_sigmoid_stack.4.weight f4 [120, 120]
000000 c4 79 b3 bd b3 de ed 3d 83 dc 2b be 22 22 90 bd
       -0.08763459 0.11614742 -0.16783337 -0.0703776
000010 a9 9d fd bb 85 39 02 be c1 d5 09 be f1 41 39 3e
       -0.007739742 -0.12717254 -0.13460447 0.18091561
000020 aa 37 57 3a b1 c2 80 3d a4 d8 96 3d 73 7b 93 3d
       0.0008209894 0.062871344 0.0736554 0.072012804
000030 c3 f9 d2 3d eb dc 0e 3e d2 08 ba bc 29 9a 19 3c
       0.103015445 0.13951461 -0.022709284 0.009375134
000040 12 30 ab bd 1b f4 52 be 23 ce 6a 3e c4 37 d7 bd
       -0.08358778 -0.20600931 0.22930197 -0.10508683
000050 6c af 6f be d6 85 22 3d 4c b2 37 be 16 99 08 3e
       -0.23406762 0.039678417 -0.17939109 0.13339648
000060 0e 1f 43 bb 57 3c 37 bc b6 fd 24 be 47 cf ab bd
       -0.0029773149 -0.01118382 -0.16112408 -0.083891444
000070 d7 e3 32 bc 09 40 ee 3c 39 ef 41 3d 27 e9 f4 3d
       -0.010918579 0.029083269 0.04734728 0.11958533
000080 a9 a9 b3 bd 65 4e db bc 5d c5 47 be 9d f8 ff bd
       -0.087725945 -0.02677078 -0.19508882 -0.12498591
000090 ca 2f 78 3d b3 b6 13 be 75 b7 94 3d 3d a3 63 3e
       0.06059245 -0.14425163 0.07261554 0.22230239
0000a0 16 1f 0a be 9e 72 8a 3b ac c4 06 3f 7d b6 e0 3d
       -0.13488421 0.004225089 0.5264385 0.10972307
0000b0 6b 64 50 3d 92 dd 30 be 44 89 94 3d fc d7 80 3d
       0.050877016 -0.17272022 0.07252744 0.06291196
0000c0 d5 b8 61 3e ed 9b 4c be 55 44 f4 bd e7 9c b9 bd
       0.22043164 -0.19981356 -0.11927096 -0.0906313
0000d0 7b e4 67 3d 86 1e 2b be f2 02 f6 bd fe 66 9c bd
       0.05661438 -0.16710863 -0.120122805 -0.07636832
0000e0 5d 0c 66 be 4e 4e 09 be 70 95 bc 3d d8 e1 34 be
       -0.22465654 -0.13408777 0.092081904 -0.17664278
0000f0 4c 9b ba bd 62 3e 52 be 2d 84 b4 39 6c b5 3e 3d
       -0.09111652 -0.2053161 0.00034430754 0.046559736
000100 76 da 68 bb b3 d3 af 3d f4 20 af bd 5b 8a 5f bd
       -0.0035530603 0.085853 -0.08551207 -0.054575305
000110 9d 81 70 be 70 e4 00 3e 21 02 9c 3d 78 a7 00 3e
       -0.23486944 0.12587142 0.076175936 0.12563884
000120 33 06 69 3d df 56 77 be 6d 74 0e be 35 15 48 3b
       0.056890678 -0.24154232 -0.139116 0.0030530219
000130 1e db a8 bc 26 fb b1 3d 2d 38 17 38 13 e8 15 be
       -0.020612296 0.08690481 3.6053523e-05 -0.1463931
000140 ff 78 73 3d ac 01 fe 3e e1 c2 10 3e 56 47 a6 bc
       0.059441563 0.4961065 0.1413684 -0.020297688
000150 d4 2a 8b 3d ea 1b 90 3d fd 30 9d bd 1c 68 47 bd
       0.06795278 0.07036574 -0.076753594 -0.04868327
000160 64 e6 44 be 9c fd 25 bd 50 ed 49 be 09 14 8c bd
       -0.19228512 -0.040525064 -0.19719434 -0.06839759
000170 9b d3 bb bd 19 4a 01 3e 75 3c 6d bc 57 e7 8b 3e
       -0.0917122 0.12625922 -0.014479746 0.27324936
000180 74 df cc bd a7 f6 10 be 1e 98 0b 3e 83 78 d1 bd
       -0.10003558 -0.1415659 0.13632247 -0.10228064
000190 61 b5 35 bc 4e 71 49 3d b5 ca 64 bb 7f 31 08 3e
       -0.011090607 0.04918032 -0.0034910862 0.13300131
0001a0 e8 c9 07 be 21 5f 5e 3d 0f 0a 8b be 26 d2 00 3e
       -0.13260615 0.05428994 -0.27156112 0.12580165
0001b0 5a 19 95 3d 99 7b b0 bd 4d 72 10 3e 6a e4 2d be
       0.07280226 -0.086173244 0.14106102 -0.16981664
0001c0 c4 6f 37 be ed 8c f0 bd 18 45 27 bd ac 9d d2 3d
       -0.17913729 -0.117456295 -0.040837377 0.1028398
0001d0 d6 44 f2 bb b6 16 9e bc 28 c3 85 3d c7 0b 16 3c
       -0.00739346 -0.019297939 0.06531364 0.009158081
0001e0 15 19 70 bd 79 4b 28 be d3 ed 36 bc 35 66 63 3e
       -0.05861767 -0.1643504 -0.0111651 0.22206958
0001f0 aa 52 5b be fc 5f 8f 3d aa af 3a bd d5 70 4e bd
       -0.21418253 0.070007294 -0.045577683 -0.050400574
000200 3f 78 9e be 53 ae 79 be bc 8c 2e be bb 60 57 be
       -0.30951115 -0.24382906 -0.17045873 -0.21032993
000210 90 d2 49 be 14 1d 42 be 44 15 f6 3c 01 23 88 be
       -0.1970923 -0.18956405 0.030039437 -0.26589206
000220 06 8a 06 be 90 a5 28 3c 4d ea 4c be 90 79 de 3e
       -0.1313859 0.010293379 -0.20011254 0.4345212
000230 a4 77 4f 3c 38 b6 b3 be c5 b2 cc 3e 7d 70 9f be
       0.012662802 -0.3509996 0.3998014 -0.3114051
000240 18 c5 72 be f0 f2 62 be 09 b6 1c 3a fc 51 7c bd
       -0.23707998 -0.22162986 0.0005978053 -0.061601624
000250 53 95 81 be f8 0d 46 be a2 d2 b2 be 8b b7 88 be
       -0.25309238 -0.19341266 -0.34926325 -0.26702532
000260 18 a5 cf 3e ce 2d da bd 21 a8 91 3d aa 6d 01 3f
       0.40555644 -0.10653268 0.07112146 0.5055796
000270 f8 05 95 be 66 85 48 3d 75 94 63 be 0f 4f 93 bd
       -0.29106116 0.048955344 -0.222246 -0.071928136
000280 90 04 9f bd 57 4b c3 be 45 a1 53 be c5 b6 91 be
       -0.07764542 -0.38143417 -0.20666988 -0.28459755
000290 ef 45 a2 be 5e 0e 83 3e 67 c8 96 be 66 75 e8 bd
       -0.3169398 0.255969 -0.2944977 -0.11350517
0002a0 62 a9 ca bd c0 31 9d 3c b3 36 2f bc 67 d5 f1 ba
       -0.098955885 0.019188762 -0.010694194 -0.001845044
0002b0 4b 40 32 be 8a 19 a5 bd 1c b1 11 bb 6c 0f d7 bd
       -0.17407338 -0.08061512 -0.002223081 -0.10500988
0002c0 3e 3a e8 bd 16 aa f7 bc fa 19 45 be 33 e5 16 bd
       -0.11339234 -0.03023247 -0.1924819 -0.036839675
0002d0 73 4e 05 3e ff d8 a2 bc 4b f0 d4 bd 0a 6e af be
       0.13018207 -0.019878862 -0.10397395 -0.3426364
0002e0 56 81 2e be 31 69 4c be ab 1e f5 3e 92 ba 4c bd
       -0.17041525 -0.19962002 0.4787496 -0.049982615
0002f0 fb d0 3a bc b6 d1 3a be a5 ed 26 be 32 ba 40 be
       -0.011402364 -0.18244061 -0.16301592 -0.18821028
000300 8d 2b 93 be a3 6d f0 39 b8 67 94 3d a0 a0 7a be
       -0.28744164 0.00045858053 0.07246345 -0.24475336
000310 be 7b 8d be b7 d0 94 be 73 fa 58 be e6 5e 95 3e
       -0.2763347 -0.29065487 -0.21189289 0.29173964
000320 67 29 cc bd 45 f2 7b be a6 fd 7a be 39 a9 c4 be
       -0.09968834 -0.24604137 -0.24510822 -0.38410357
000330 84 91 8d be 61 99 4c be d6 43 4c bd a1 5d 98 3e
       -0.27650082 -0.19980384 -0.04986938 0.29758933
000340 11 12 d6 bd 60 9b c4 3e c6 0c 8a 3e af 6b 86 3d
       -0.10452665 0.38399792 0.2696287 0.06563508
000350 f0 cb b5 3e a2 9c bb be 4d c6 ad 3e 6e 5e a3 be
       0.35507154 -0.3664294 0.33940354 -0.31907982
000360 70 95 84 3e 21 bc 9d 3e 4b 8c f9 bd 64 98 d9 bd
       0.25895262 0.30807593 -0.12184962 -0.10624769
000370 0d a9 94 3e e0 d5 84 be fa 4e 3a be 41 70 ce bd
       0.29035226 -0.25944424 -0.1819419 -0.100800045
000380 ef 5f 5c 3d 07 24 b7 be 45 3e 7b 3e de 33 58 be
       0.053802427 -0.35769674 0.24535473 -0.21113536
000390 bd 12 b8 be 98 e5 b2 3e 05 d9 03 be 3d 05 15 3d
       -0.35951796 0.3494079 -0.12875755 0.03638195
0003a0 b1 2b b6 3e 06 fc 24 3d ea 8f 59 3d 06 d5 6f be
       0.3558021 0.04027941 0.053115763 -0.23421106
0003b0 20 44 76 be 0a 38 be be 0f c9 82 be 46 58 81 be
       -0.24049425 -0.3715213 -0.2554402 -0.2526266
0003c0 a7 79 4e be 0f d6 8e 3b 7c f3 19 be c6 0d 4d be
       -0.20163594 0.004359014 -0.15034288 -0.20024785
0003d0 15 54 8b 3d 00 00 9b bd e8 3a 9e bd e8 85 2c bd
       0.06803147 -0.075683594 -0.07726079 -0.04211989
0003e0 2d 30 ca 3c a3 b7 6d 38 03 5e bd 3d f5 d8 68 3d
       0.024681175 5.667623e-05 0.09246447 0.05684753
0003f0 ee e3 fb bc b3 85 ae 3d f9 52 1a be 56 8b 8c 3d
       -0.030748334 0.08521595 -0.15070714 0.06862514

linear_sigmoid_stack.4.bias f4 [120]
000000 a3 8a 4b bd 5b 9e 25 be f5 44 b1 bd c8 73 aa bd
       -0.04969276 -0.16173689 -0.08655731 -0.08322865
000010 c2 9d 80 3d 35 d5 31 be 76 d5 16 bd 01 1d 90 be
       0.0628009 -0.17366488 -0.036824666 -0.28147128
000020 71 df 1c bc 18 d3 70 bd 43 61 69 3d 7c 5a 2d bd
       -0.009574757 -0.058795065 0.05697752 -0.04232262
000030 de fe b5 bd 77 f4 c6 bd 0f 57 f9 bd 93 af cc bd
       -0.08886503 -0.09714597 -0.12174808 -0.099944256
000040 ee 55 2c 3d 7d 23 0c be 67 e6 73 3c 7b 0b 29 be
       0.042074136 -0.13685413 0.014886475 -0.16508286
000050 d3 25 c4 bd 80 df b5 bc 7b 6e 0f be a9 3d 2f bd
       -0.09577527 -0.0222013 -0.14006989 -0.042783413
000060 80 06 f9 bc 87 16 16 3d ed 6f 8d bc 1a e5 a0 bd
       -0.030398607 0.036642577 -0.017265284 -0.07856198
000070 2a 20 cc 3d 34 b6 ad bd 8a 42 ab ba 17 8a 99 bd
       0.09967072 -0.08482018 -0.0013066095 -0.07497042
000080 08 e3 78 3d 15 3f 1b bd c4 86 2a be ce 87 09 be
       0.06076339 -0.037901957 -0.16652972 -0.13430712
000090 68 00 db bd 68 a1 1e be 1a 36 8a be e1 19 a0 3d
       -0.10693437 -0.15491259 -0.269944 0.07817436
0000a0 46 77 3e 3d 5e f1 66 3d e6 fb 3c bd 06 f6 cd bd
       0.046500467 0.05638253 -0.046138667 -0.10056691
0000b0 e2 69 8a 3d d0 ac f3 3c 62 5a 0d be 9e 8a 44 bd
       0.06758477 0.02974549 -0.1380401 -0.04798376
0000c0 c3 1a 5c be 86 74 3e be 3b 54 ed 3d 55 91 3d 3d
       -0.21494584 -0.18599138 0.11588331 0.046281178
0000d0 7f 4f ce bd 29 a6 73 3d 80 4a 88 3d ae 83 f0 bd
       -0.100737564 0.059484635 0.06654835 -0.11743866
0000e0 a9 48 93 bd 8c 41 7c be 6f 6e 97 bc ac 69 98 bd
       -0.07191593 -0.24634379 -0.018485276 -0.0744203
0000f0 1d 83 b3 bd be 78 b8 bd 22 0b 81 be b3 a7 bc bd
       -0.08765242 -0.09007405 -0.25203806 -0.092116736
000100 ca 96 86 3d bb 90 5d bd b5 34 2d bb f2 43 33 bd
       0.065717295 -0.054093104 -0.002642912 -0.04376597
000110 ae ae 91 bd a8 12 48 bd 81 e7 56 be 91 ba 9b 3d
       -0.07113396 -0.048845917 -0.20986749 0.07603944
000120 fd b5 80 3d 6d 9a b0 3d 79 42 3a be f3 3d 75 bd
       0.062847115 0.086232044 -0.1818942 -0.059873533
000130 e9 3e f8 bd 1f dc 0e 3d 16 ed 0d be 9f db 1b be
       -0.12121374 0.034877893 -0.13859972 -0.15220498
000140 91 3b 93 3d 74 f6 19 be 72 8e 08 bd 74 1e 4c 3d
       0.07189096 -0.1503542 -0.03333897 0.04983373
000150 60 8e 1f bd 14 99 ac bd e8 17 cf bd 5d 73 b3 3e
       -0.03895414 -0.08427635 -0.10111982 0.35048953
000160 78 85 b5 be fd d8 50 be 00 b1 4d be 2d 9a 98 be
       -0.3545339 -0.20395274 -0.20087051 -0.29805127
000170 4d 3a 7f 3d 9f 7c 0e be 2e a2 8f bd b8 58 63 be
       0.06231146 -0.13914727 -0.07013355 -0.22201812
000180 1f a1 9b bd a0 35 98 3d ae 71 bb be 00 62 44 be
       -0.07599091 0.07432103 -0.36610168 -0.19178009
000190 c5 10 12 bc c8 0b 35 3d 5a b4 b8 be f6 29 e1 bd
       -0.008915131 0.04420069 -0.36075097 -0.109943315
0001a0 0c ad cb 3d 47 39 9e be 37 dc ac bd 05 4f 78 be
       0.099451154 -0.30903074 -0.0844044 -0.24248894
0001b0 1b a3 1e be 6b b2 cb bc 5a 6e 9f bd 55 6e 08 bd
       -0.15491907 -0.02486535 -0.0778472 -0.033308346
0001c0 8a 49 bc 3d 9c 3e 8c bd 32 6d 83 3d b6 a1 d8 bd
       0.09193714 -0.06847879 0.06417312 -0.10577719
0001d0 d5 7d 6b 3c d4 83 cc bd 48 8d 13 bc d4 83 77 be
       0.014373262 -0.09986082 -0.009005852 -0.24171382

linear_sigmoid_stack.6.weight f4 [120, 120]
000000 89 89 02 be c0 fe 4b 3e 79 45 48 be e7 66 5a be
       -0.12747778 0.19921398 -0.19557752 -0.21328317
000010 f7 08 37 be 45 c4 34 3e dc 74 31 be 25 76 9e 3e
       -0.17874514 0.17652996 -0.17329735 0.30949512
000020 43 d4 c0 bd 04 a9 3a be 5c 4a 4f be 65 53 70 be
       -0.09415486 -0.18228537 -0.2024321 -0.23469312
000030 2e 19 cf 3e 30 72 0e 3f 60 f9 9e 3e 73 fd 24 3e
       0.40448898 0.55642986 0.31049633 0.16112308
000040 87 66 a0 be a1 a6 a6 3e dc 39 3a be 64 98 00 3f
       -0.31328222 0.32549003 -0.18186134 0.5023253
000050 72 d7 02 3f e3 37 66 be 77 83 d2 3e 56 6b ab be
       0.51109993 -0.22482257 0.41115925 -0.33480328
000060 bb 35 68 be 06 03 19 be c9 79 25 be 00 b1 3c be
       -0.22676747 -0.1494256 -0.16159739 -0.18426895
000070 21 52 2b be d5 18 7c 3e c3 73 a6 bd ea bd 52 be
       -0.16730548 0.24618848 -0.081275485 -0.20580259
000080 d2 7c ff bd 78 c2 4d 3e c7 a3 d3 3e f9 82 64 be
       -0.124749795 0.20093715 0.4133589 -0.22315587
000090 d9 91 de bd dd a2 49 be 53 e2 84 3e c2 e7 c7 be
       -0.10867662 -0.19691034 0.25953922 -0.39044005
0000a0 86 8c a3 be 4b b0 60 be 13 eb 8f be f7 4f 4b 3e
       -0.31943148 -0.2194225 -0.28109035 0.19854723
0000b0 a3 ec ae bc 7b ff 40 be 81 53 6e 3e 14 d7 23 be
       -0.021353072 -0.18847458 0.23274042 -0.16000015
0000c0 79 20 58 3e e8 7a f1 3e 44 d3 43 be 9a c0 4d be
       0.21106137 0.47164083 -0.1912356 -0.20093003
0000d0 fc 07 30 be f9 44 0d be c4 e7 b0 be f7 28 05 3e
       -0.17190546 -0.13795842 -0.34551823 0.13003908
0000e0 23 87 16 be 97 9b b7 3e 77 0a b6 bd 1a 8e 02 be
       -0.14699988 0.35860893 -0.08888715 -0.1274952
0000f0 2a 28 01 be e8 4d d6 3e 79 06 3c 3e 92 5e 20 be
       -0.12612978 0.41856313 0.18361844 -0.15661076
000100 ea 45 a0 3e 90 f4 7e be 4b 8a 9b be fa 91 b0 be
       0.3130334 -0.2489798 -0.30378947 -0.3448637
000110 4e fb 31 be f1 2a 15 3e 33 78 67 3e 84 41 42 be
       -0.17381021 0.14567162 0.22604446 -0.18970305
000120 ec dd 88 be 4c 4d a2 be 04 0e 04 3f 8f c3 d6 3d
       -0.26731813 -0.31699598 0.51583886 0.104865186
000130 f0 c7 f7 3e 2d 60 6f be a8 bc ab 3e 3a f4 01 3f
       0.48394728 -0.23376532 0.3354237 0.50763285
000140 26 37 2b be da be be 3e ee b8 5a be ad 34 90 be
       -0.16720256 0.37254983 -0.21359608 -0.28165188
000150 84 f0 c8 3e 19 88 91 be 53 ce ec 3e ad fe b6 be
       0.39246 -0.28424147 0.46251163 -0.35741177
000160 52 e8 68 3e fb 84 8d 3e 6d 47 d9 3e b2 d1 7d 3e
       0.22744873 0.2764052 0.42437306 0.24787024
000170 f8 7e ca bd e4 bf 92 3e 6f 06 c5 3e bc 01 3d 3e
       -0.098874986 0.28662026 0.3848147 0.18457693
000180 9f e9 41 be 8b a6 21 be c9 72 b3 3e 24 b7 09 3e
       -0.18936776 -0.15786187 0.35048512 0.13448769
000190 0a 62 25 bd 86 55 9f be fd 7b 42 3e 68 d9 a8 3e
       -0.0403767 -0.31119937 0.1899261 0.32978368
0001a0 1d cb c9 bd fe f9 b6 3e 61 02 17 be 66 3f 9d 3e
       -0.09853194 0.35737604 -0.14747001 0.30712432
0001b0 21 f1 01 3f 19 c2 de be 1e b0 4f be 2b 92 df bd
       0.5075856 -0.4350746 -0.20282027 -0.10916551
0001c0 a7 90 0f be 54 e2 c2 be a0 dc 39 be 10 6f 52 be
       -0.14020024 -0.380633 -0.18150568 -0.2055018
0001d0 69 3a b8 be 6b f5 0e be 33 55 5e be b3 f2 18 3e
       -0.35982063 -0.13960807 -0.21712188 0.14936332
0001e0 25 ca 51 3e f2 7d ad be 7d ad 80 3e 81 fd 39 3e
       0.20487268 -0.3388515 0.2513236 0.1816311
0001f0 0a 9e 0a 3e c2 c2 a1 be 0c 18 4f 3e 2a 5f e5 be
       0.1353685 -0.315939 0.20224017 -0.44799167
000200 7a 05 29 3e ff f0 a8 3e 32 8f 67 3e 47 f8 7e 3e
       0.16505995 0.32996365 0.22613218 0.24899398
000210 ee 3b 2d be 69 f4 04 bd b9 73 b2 bd c2 89 fb be
       -0.16917393 -0.03245965 -0.087134786 -0.49128538
000220 15 5d 2c 3e ab 5f 07 3c 64 9a de 3d fe 8e c5 bd
       0.16832383 0.008262555 0.108692914 -0.09646414
000230 58 39 4e bd 2a 45 63 3e fa 19 f4 bc ad 13 97 3e
       -0.050347656 0.22194353 -0.029797543 0.295072
000240 bb 52 c6 3d 15 3a 82 3e 24 6e 00 3e 90 59 b5 3e
       0.09683748 0.25434938 0.12542015 0.35419893
000250 09 57 34 3e b8 4c 75 bd c6 b4 d4 3e 2d 66 01 3e
       0.17611326 -0.059887618 0.4154417 0.12636633
000260 2a 06 47 3e e5 32 3f bb 22 60 6c bc a7 82 41 3e
       0.19435945 -0.0029174623 -0.014427217 0.18897496
000270 b2 b5 b2 3e 3a 0b 75 3e dd 38 28 be e6 da 0c 3e
       0.34904248 0.23930064 -0.16427942 0.13755378
000280 36 0c 83 3e 66 38 72 3e d0 57 3c 3e 37 97 a8 be
       0.25595254 0.23654327 0.18392873 -0.32927868
000290 ad 7f 13 3e 34 e0 04 3e 65 2e 2e bd e8 7c 72 3e
       0.14404173 0.12976152 -0.042524714 0.2368046
0002a0 74 73 e2 be cf 49 f0 bc 5b a9 07 3e 87 10 a9 3e
       -0.4422871 -0.02933207 0.13248198 0.33020422
0002b0 ad 0a 91 3e 12 f5 70 3d d5 54 8e 3e bf e6 98 be
       0.28328457 0.058827467 0.27799097 -0.29863545
0002c0 5c 6d 94 3e 23 20 f8 be 85 2c c6 3e fe 70 a4 3e
       0.28989685 -0.48462018 0.3870584 0.32117456
0002d0 cc 4f 7a 3e 01 c7 95 bd 08 cc b8 be 54 4a 85 3e
       0.24444503 -0.073133476 -0.36093163 0.2603327
0002e0 39 6d 01 be 25 49 6b 3e dc 7f 5b 3e 81 a1 14 3e
       -0.12639321 0.22977121 0.21435493 0.14514734
0002f0 4c 0f 7b 3e 24 f4 74 be e9 7e 47 bd 18 9b 8b 3e
       0.24517554 -0.23921257 -0.048705015 0.27266765
000300 c2 b6 4e 3e 96 16 79 3e a6 56 03 be c9 33 cd be
       0.20186904 0.24325022 -0.12826023 -0.4007857
000310 9f f8 29 be 37 7e 24 3e 4b e5 31 be 1a 7c fb bd
       -0.16598748 0.16063772 -0.17372625 -0.1227953
000320 8d 9a fe 3d f9 0f 02 be ab e6 24 3e d1 58 48 3e
       0.12431822 -0.12701406 0.16103618 0.19565131
000330 c5 a5 0d bd 73 7a 58 3e 2f 0a bb bd d7 a1 cb 3e
       -0.03458192 0.2114046 -0.09132802 0.39771912
000340 0e 0a c4 be ce c5 ce be 54 04 10 be 91 ab e0 be
       -0.3828892 -0.40385288 -0.14064151 -0.43880895
000350 00 3c 1e 3c 17 3a c7 bd 07 1a 19 be 2a 85 29 be
       0.00965786 -0.09727877 -0.14951335 -0.16554704
000360 1e 26 ad 3e fa 68 ab 3d 12 88 ef be 93 cb 9b be
       0.33818144 0.08369632 -0.467835 -0.30428752
000370 43 23 a2 3e eb 8e 8f 3e 1c c0 e7 be 92 73 8c bd
       0.31667528 0.28038725 -0.45263755 -0.06857981
000380 23 12 e1 3d 73 92 c6 be 67 1e a5 3e e1 fb b1 bd
       0.109897874 -0.38783607 0.32249758 -0.0869062
000390 97 86 82 bd 36 1d 68 3e 9a da 84 3e 22 c8 60 3e
       -0.06373327 0.22667393 0.2594803 0.21951345
0003a0 49 92 3b 3d 64 f6 69 3e 82 1a 30 3e 32 3e 57 3e
       0.045793805 0.22847897 0.17197612 0.2101982
0003b0 7a 87 a8 3e 1b d4 4a 3e ad 49 8b 3e 19 14 99 be
       0.3291586 0.19807474 0.27204648 -0.29898146
0003c0 40 46 95 3e 3f fa b8 bd 3c 29 b3 3d 89 2e 12 3d
       0.2915516 -0.09032106 0.08748099 0.03568891
0003d0 f5 8f fb 3e ae 2b af bd be 54 0d bc 96 69 46 be
       0.49133268 -0.08553253 -0.008626161 -0.19376215
0003e0 58 ad d8 3d b0 bf 98 3e a8 7c ca 3e d0 6b b7 3e
       0.10579938 0.29833746 0.3954823 0.35824442
0003f0 2f 0a a5 bd c2 52 58 be 6d 40 0b be 0a ba 2f be
       -0.08058583 -0.2112532 -0.13598795 -0.17160812

linear_sigmoid_stack.6.bias f4 [120]
000000 d4 9a 1b be 36 e4 80 3c 94 22 3c 3d c3 9e 8e bd
       -0.15195781 0.01573382 0.045931414 -0.06963875
000010 c4 f0 34 be c4 23 e5 bd ad f1 1f be cd e1 07 be
       -0.1766997 -0.111884624 -0.15619536 -0.1326973
000020 24 da 81 bd 95 16 a0 3d be 72 d1 bd 1a d5 3a be
       -0.06340435 0.07816807 -0.102269635 -0.18245354
000030 50 e0 c5 bd f3 fa 82 bd 1b 8f c0 bd 42 83 3e bd
       -0.09661925 -0.06395521 -0.09402295 -0.046511896
000040 6c 39 46 3d e4 89 60 be 4d 54 44 3d 80 7a ca bd
       0.048394606 -0.21927601 0.047931958 -0.09886646
000050 8d 92 98 bd 7c e5 4d bd 4b a2 de 3d bf 91 19 ba
       -0.07449827 -0.05026768 0.10870799 -0.00058582047
000060 3c da 56 bd 2d f5 51 bd 7c 42 0a bd d8 2f 5c bd
       -0.05245422 -0.05125921 -0.03375481 -0.053756565
000070 f7 33 97 bd aa a6 01 be 25 25 7e 3d ea b4 e5 bd
       -0.073829584 -0.12661234 0.062047143 -0.11216147
000080 24 31 ac be d3 9b 1c bd d5 7a 7b bd 7b ab d7 bd
       -0.3363124 -0.038234543 -0.06139644 -0.10530754
000090 1e 71 f3 3d ce b9 96 bd 05 a4 72 3d ee 5a 37 be
       0.1188681 -0.07359658 0.059238452 -0.1790578
0000a0 f4 c2 d0 bd b3 c3 a3 bd d2 2d fc bd 50 2c 09 be
       -0.10193434 -0.07996311 -0.12313427 -0.1339581
0000b0 90 55 d4 3d b2 28 82 3c 09 18 72 bd 7b 36 20 3d
       0.10367882 0.015888546 -0.059104953 0.039114457
0000c0 83 ba c3 bd d9 fa f5 bd d1 bd 8d 3d 49 88 91 bd
       -0.09557059 -0.12010736 0.0692097 -0.071060725
0000d0 09 b6 df 39 4b e2 7d bd 69 c6 58 bd 28 9f bb 3b
       0.000426695 -0.061983388 -0.052923594 0.00572576
0000e0 10 74 33 bd 09 71 05 be 8c 26 c3 3d 1f c7 4d bd
       -0.043811858 -0.130314 0.095288366 -0.050238725
0000f0 b4 7a 6e 3c a1 27 5d bd e2 20 1a 3e 9a 7b 14 be
       0.014555622 -0.05399287 0.15051606 -0.14500275
000100 ce 99 01 be 84 2a 4f bc 21 13 da 3d dd 0a 5f bb
       -0.12656328 -0.012644414 0.1064818 -0.0034033575
000110 06 88 e3 bc 51 e6 13 3c 8a 10 16 3d 31 93 85 3c
       -0.027774822 0.00902708 0.036636867 0.016305538
000120 2a 3e d2 3d 88 a8 95 3d fb 27 86 bd 71 73 c5 3d
       0.10265763 0.073075354 -0.065505944 0.09641159
000130 69 05 23 be 3b c7 9f 3d 69 a8 ce 3c 8b a3 ca bc
       -0.15920033 0.07801672 0.025226789 -0.024736186
000140 76 2a 15 be 1a 26 97 bd d7 cc ef bd d5 29 b3 3c
       -0.14566979 -0.07380314 -0.11708992 0.021870533
000150 dc ec 5e be d9 b9 1c bd 97 0c 08 be 32 e9 f1 bc
       -0.21770042 -0.038263176 -0.13286053 -0.029530142
000160 6d 3c 1b be d7 c3 8d be 56 26 dd bc 65 cb 11 3c
       -0.1515977 -0.27688476 -0.026995819 0.008898591
000170 43 25 92 bc f0 25 1f 3d 47 22 0a bd e7 ed e3 bd
       -0.017840033 0.03885454 -0.033724096 -0.11129361
000180 ad f6 0f bf 22 c2 46 3e d7 55 3c be f0 57 11 bd
       -0.5623577 0.19409993 -0.1839212 -0.035484254
000190 81 3b 00 3c 9b 0d 77 3c 79 19 88 3d 15 fd a5 3d
       0.007826687 0.015078927 0.066454835 0.08104912
0001a0 8d 28 b1 3d 9c bd ab bd 83 27 f9 bd 8f 80 a4 3d
       0.086503126 -0.083857745 -0.121657394 0.08032333
0001b0 ec 81 1c be 2d 6f 68 be 14 a4 81 3c f9 ae e6 3d
       -0.15283936 -0.2269866 0.015825309 0.11263842
0001c0 0e 56 77 bd b0 7f 6f be 32 e3 83 be 6d 29 ee 3d
       -0.060384803 -0.23388553 -0.25759274 0.11628995
0001d0 75 a1 66 bc c8 49 fb bc 84 d2 56 3d 8e d7 89 bd
       -0.01407658 -0.03067483 0.052446857 -0.06730567

linear_sigmoid_stack.8.weight f4 [120, 120]
000000 b5 04 f5 be 69 92 0e 3e 29 71 1a 3e e7 b9 07 3f
       -0.47855154 0.13923039 0.1508223 0.5301804
000010 90 56 d5 be ad 60 3e 3e 71 db 84 3e 8f de 69 be
       -0.41667604 0.18591566 0.2594867 -0.22838806
000020 53 69 1f 3f cb e8 20 3f b1 9f c9 3e 7f 79 82 be
       0.62270087 0.62855214 0.39379647 -0.2548332
000030 09 5e 99 3e 61 0b cb 3e 9a 9c e5 be 41 46 ca 3e
       0.29954556 0.3965712 -0.4484604 0.39506724
000040 08 6d 2f 3e c9 6d 0a bf c2 66 e9 3e 61 45 f6 be
       0.17131436 -0.5407377 0.4558621 -0.48099807
000050 69 f9 73 3f 1c b8 f6 3d 7f f0 14 3e ad 56 46 3f
       0.95302445 0.12046835 0.14544867 0.77476007
000060 81 fa d3 3d cf 28 e8 be 95 bc 33 3e 59 74 b9 be
       0.10350514 -0.45343634 0.17552407 -0.3622158
000070 c0 3e 19 bf f4 1d aa be f0 1d 17 3e ef 7b 1c bf
       -0.59861374 -0.33225977 0.14757514 -0.6112661
000080 1c 8c fc be 9a 47 4c 3e d2 41 cb be 11 aa 0e bf
       -0.49325645 0.19949189 -0.39698654 -0.5572825
000090 3b 45 86 3c 6d 7d d6 be 70 0d c7 be 2b bf 15 bf
       0.016390434 -0.41892567 -0.3887744 -0.58494824
0000a0 fa ba c3 be 8e c7 16 bf 9e 18 86 3e 6b 44 d4 be
       -0.3822859 -0.58898246 0.26190656 -0.4145845
0000b0 c0 1c 90 3e cb 87 8f 3d 68 08 e4 3e e1 10 17 3e
       0.28146935 0.07008322 0.44537663 0.14752533
0000c0 f8 f1 0f bf 1b db f1 be 4d a5 52 3e b9 d9 ec 3e
       -0.5622859 -0.47237477 0.2057087 0.4625986
0000d0 4d 23 2e 3e 69 78 ed be eb 0c 56 3e ba e1 c5 be
       0.17005654 -0.46380928 0.20903365 -0.38648778
0000e0 8e 2c 6c 3f 5c 41 24 3e 36 b9 00 3d 37 26 9f 3e
       0.92255485 0.16040558 0.03142663 0.31083843
0000f0 ab 1b 20 3f e6 a5 6e 3e b7 d6 1f 3e 27 3c ab be
       0.6254222 0.23305473 0.15609251 -0.3344433
000100 ea 20 7a 3e 81 21 10 3f 5f 1a 18 3e 67 23 17 bf
       0.24426618 0.5630112 0.1485381 -0.59038395
000110 ac 7e 7a 3e 10 7f 05 3e 68 16 50 3d 44 6a a1 3e
       0.24462384 0.13036752 0.05080262 0.31526387
000120 55 69 04 3e a3 65 5e 3e 38 66 21 bf e7 29 3f 3e
       0.12930806 0.21718459 -0.630466 0.18668328
000130 86 25 12 bf c3 b1 9a 3d a9 7d df 3d dd 94 85 3e
       -0.57088506 0.075534366 0.1091264 0.26090136
000140 b2 12 7b 3e e0 73 94 3e ed 06 f4 be 7d af 1e 3e
       0.2451885 0.28994656 -0.47661534 0.15496631
000150 c7 cf d8 be 32 55 b1 3e e1 8b a9 be 32 59 e2 3d
       -0.42346022 0.3463531 -0.33114532 0.11052169
000160 c3 f2 09 bf 7b 45 4f be 2c 03 0a bf 0d ee dd 3e
       -0.5388605 -0.20241348 -0.5391109 0.4334568
000170 e5 5e d3 be bb 2d 35 3e 14 5d 9c 3e 7e 43 fc be
       -0.41283336 0.17693226 0.30539763 -0.49270242
000180 49 4a 93 be ee 8c 90 3f b2 7f 15 bf b3 13 eb be
       -0.28767613 1.1293008 -0.5839797 -0.45913467
000190 45 46 bc be 1f 4f 10 3e e1 27 8e 3e ef d4 93 3d
       -0.3677236 0.14092682 0.277648 0.07218348
0001a0 24 06 13 3f 9f ae f0 be d8 8e f2 be e0 56 e2 3d
       0.57431245 -0.47008225 -0.47374606 0.11051726
0001b0 a9 62 0c bf da e8 9c be 14 42 bf be 1e 2d 26 3e
       -0.54838043 -0.30646402 -0.373551 0.16228148
0001c0 d2 ba 6f be 23 cb bc be 87 61 16 bf 9f 55 b3 3d
       -0.2341111 -0.3687373 -0.58742565 0.08756565
0001d0 94 29 02 3e 67 5e 8b 3e 78 2c c2 3d 48 75 f7 be
       0.12711173 0.2722046 0.09481138 -0.48331666
0001e0 ac ea 1b 3e cb 24 70 3e 44 3a 3c 3e cb e7 77 3e
       0.15226239 0.23451535 0.18381602 0.24209516
0001f0 97 99 15 3e b3 4c 83 3e ee 9c 13 3e 72 08 23 3e
       0.14609371 0.25644454 0.14415333 0.1592119
000200 ee bd 03 3e cc f3 d5 3d 72 60 21 3e ef 88 b9 3d
       0.12865421 0.10446891 0.15759447 0.09059321
000210 5b bd 0f 3e 64 2a 0f 3e 9d 6d 95 3d d4 56 75 3e
       0.14037077 0.13981014 0.07296298 0.23958904
000220 49 e4 4e 3e 1a 9e 87 3e c1 0d 76 3e 4d bb 47 3e
       0.20204271 0.2648781 0.24028684 0.19505043
000230 b3 e4 15 3e 9c c8 60 3e 73 67 f7 3d 83 9b 2c 3e
       0.14638023 0.21951526 0.12080278 0.16856198
000240 87 f1 c8 3e 7d 67 02 3e 83 13 84 3e d1 78 28 3e
       0.3924677 0.1273479 0.25796136 0.16452338
000250 32 d5 6e 3e 81 59 3d 3e 6d 68 23 3e 15 c9 2f 3e
       0.23323515 0.18491174 0.15957804 0.1716655
000260 97 26 21 3e ed 32 90 3e e8 34 1b 3e a6 5e c4 3d
       0.15737377 0.28163853 0.15156901 0.09588365
000270 cd cf 85 3e b5 78 ab 3d 0f 08 b0 3d a2 58 5d 3e
       0.26135102 0.083726324 0.08595287 0.21615842
000280 4b b9 57 3e 0c 7d fa 3d 22 9a ec 3d 7b 60 3e 3d
       0.21066777 0.12230882 0.11552836 0.04647873
000290 0b 01 78 3e d0 f6 fc 3d 04 82 3e 3e 2b 6a 33 3e
       0.24219148 0.12351763 0.18604285 0.17520969
0002a0 84 43 4c 3e 9c b3 06 3e 49 6f 45 3e 0c 74 7b 3e
       0.1994763 0.13154453 0.19280733 0.24555987
0002b0 21 0d 7a 3e e7 56 0e 3e 98 cc 92 3e c4 f0 10 3e
       0.24419071 0.13900338 0.28671718 0.14154345
0002c0 89 21 0d 3e d4 52 03 3e d6 33 80 3e ce e9 59 3e
       0.13782324 0.12824565 0.25039548 0.21280596
0002d0 e5 45 18 3e a2 00 88 3e dd d3 6e 3e c1 3f e0 3d
       0.14870413 0.26562983 0.23323007 0.1094966
0002e0 e6 5d 84 3e 6f c8 13 3e 64 0e 0b 3e 0c fc 39 3d
       0.2585289 0.14431928 0.13579708 0.045406386
0002f0 c7 e7 1d 3e 65 37 5d 3e 27 12 21 3e 2f 60 19 3e
       0.15420447 0.21603163 0.15729581 0.14978097
000300 56 d6 8f 3e 81 29 03 3e f3 be 56 3e cd 79 49 3e
       0.28093213 0.12808801 0.20971279 0.1967537
000310 7d 3e a6 3d 03 bb 35 3e 27 0d 5c 3e 7d 65 52 3e
       0.081173874 0.1774712 0.21489392 0.20546527
000320 08 fc 85 3e 7d d9 04 3e 97 39 45 3d 16 14 30 3e
       0.26168847 0.1297359 0.048150625 0.17195162
000330 8b 40 f5 3d e4 ef 3d 3e 7b d4 7d 3e 6c 70 11 3e
       0.11975201 0.18548542 0.24788086 0.14203042
000340 da 74 33 3e 52 15 15 3e 59 97 20 3e 70 78 0d 3e
       0.17525044 0.14558914 0.15682735 0.13815475
000350 fe 20 1d 3e fd 3a 3e 3e c0 3f 72 3e 98 ee 4b 3e
       0.15344617 0.1857719 0.23657131 0.19915235
000360 9d a0 5b 3e 5a 8f 15 3e 1d f5 32 3e 0f 31 1a 3e
       0.21447988 0.14605466 0.17476316 0.15057777
000370 ec a5 16 3e 9e 6b 88 3e 1e 2c 13 3e a7 17 89 3e
       0.14711732 0.26644605 0.14372298 0.26775858
000380 74 b6 01 3e c4 a3 17 3e ea 3b e6 3d 02 7b a2 3e
       0.12667257 0.14808565 0.112418965 0.31734473
000390 ca 01 6e 3e 40 8d 89 3e 0e 88 80 3d b4 08 87 3e
       0.2324287 0.26865578 0.0627595 0.26373827
0003a0 aa 59 98 3e 5e be c9 3d 6d 75 ec 3d 1a 6f 44 3e
       0.29755908 0.09850763 0.11545835 0.19183007
0003b0 00 7c 10 3e f3 7e 2b 3e 8f ca 43 3e e5 f5 02 3e
       0.14109802 0.16747646 0.19120239 0.12789114
0003c0 00 4c 12 3e 7d b5 20 3e 67 f2 a1 3e 57 35 18 3e
       0.14286804 0.15694232 0.3163025 0.14864098
0003d0 a6 c6 1d 3e 34 82 8e 3e 42 c2 fc 3d ab e8 47 3e
       0.1540781 0.27833712 0.12341739 0.1952235
0003e0 48 14 4c 3e 45 41 fd 3d 3e 0d 63 3e a4 5a 26 3e
       0.19929612 0.12365965 0.2217302 0.16245514
0003f0 0c 9c 7b 3e 82 d0 8a 3e 98 94 81 3d 14 63 fc 3d
       0.24571246 0.27112204 0.0632717 0.12323585

linear_sigmoid_stack.8.bias f4 [120]
000000 52 9b a2 3d 36 f9 c4 3d cc 9c f0 3d 87 29 04 3e
       0.07939781 0.09617846 0.11748657 0.12906466
000010 2e 64 4b 3e a3 df 52 3e ab f8 5e 3e 99 64 92 be
       0.19862434 0.20593123 0.21774547 -0.28592375
000020 96 90 08 3e 87 4d 11 3e c8 5f 6e 3e 7f 69 45 be
       0.13336405 0.1418973 0.23278725 -0.19278525
000030 70 0f 48 3e 9c dc 77 3e b6 ff 3b 3e cb 92 83 3e
       0.19537139 0.2420525 0.18359265 0.25697932
000040 21 c8 51 3e 34 67 65 3e 04 1c 30 3e cf f5 3f 3e
       0.204865 0.2240265 0.17198187 0.18746112
000050 04 80 d4 3d 7f fe 6f 3d 1f a0 7c 3e 64 98 1a 3e
       0.103759795 0.058592316 0.24670456 0.15097195
000060 bf 27 2e 3e ee 85 65 3e dd de b4 3d df c9 8c 3c
       0.1700735 0.22414371 0.0883157 0.017186103
000070 8b db 72 3e 03 ed 35 be e0 63 df 3d 3e ad 69 be
       0.23716561 -0.17766194 0.109077215 -0.22819993
000080 11 ef 45 3d 53 c2 e4 3d c5 15 43 3e a8 39 14 3e
       0.048323695 0.11169877 0.19051273 0.14475119
000090 e3 17 b9 3d b4 24 fa bc 2d 75 ea bd 3a b4 0b 3e
       0.09037759 -0.03053508 -0.11448131 0.1364297
0000a0 9c 22 65 be 66 3e aa bd 7d 3a 50 be 91 f6 14 3e
       -0.22376484 -0.08312683 -0.20334812 0.14547183
0000b0 0c bc ab 3d 02 8f 36 3e 28 4a ad 3d ad 8d bd bc
       0.083854765 0.1782799 0.0846141 -0.023138845
0000c0 24 9e 5b 3e b1 c3 fc bd fd 85 a0 3d 9b cb aa 3c
       0.21447045 -0.12342013 0.07838056 0.02084904
0000d0 a4 a5 13 be f0 51 15 3e 8e c8 27 3e d6 67 d3 3d
       -0.14418656 0.14582038 0.163851 0.103225395
0000e0 c1 98 6f 3e 91 c2 49 3d a5 02 c3 3d b0 67 32 3e
       0.23398115 0.04925782 0.09521989 0.17422366
0000f0 56 57 96 be 65 91 a0 3d b4 30 97 be b9 6e 18 3e
       -0.29363507 0.07840232 -0.29529345 0.14885987
000100 33 23 d3 3d 45 c6 e1 bd 60 fa e7 3d c1 17 bd 3d
       0.10309448 -0.11024145 0.11327052 0.09233046
000110 52 c7 07 3e 54 86 c9 3d 00 26 4f 3e 5c 8e 1b 3e
       0.13259628 0.09840074 0.2022934 0.15191025
000120 bb 98 17 3e 8f 51 60 bd 2e 7a bc be c3 06 00 3e
       0.14804356 -0.05476528 -0.36811966 0.1250258
000130 1f 91 0c bd 4c 71 f5 3d 1b f1 3c bd 1b d9 93 3e
       -0.034318086 0.119845 -0.046128374 0.28876576
000140 64 2e 16 3d d5 3d 49 3e 16 c0 18 3e fb 8e a9 3d
       0.036665335 0.19652493 0.14917025 0.082792245
000150 b2 36 a1 bd 0b 31 9f 3d 02 55 98 3d aa 5a 7e be
       -0.078717604 0.07773026 0.07438089 -0.24839273
000160 92 eb 2b 3e d9 17 b4 3d 55 f3 55 3e f5 fb 31 3e
       0.16789082 0.08793611 0.20893605 0.1738127
000170 93 19 c6 3d 33 92 c0 3d 35 4c 41 3e e1 00 e5 bd
       0.09672847 0.09402885 0.18876727 -0.11181808
000180 14 40 e5 bc c5 44 87 be 00 de 5f 3e e0 ea 06 be
       -0.027984656 -0.26419654 0.2186203 -0.13175535
000190 99 88 ae 3e fc 68 3b 3e 8d 47 4b bd 2c 75 02 3e
       0.3408859 0.18301767 -0.049628783 0.1274001
0001a0 73 69 ab 3d 67 f0 ac 3d ea 44 d8 bc 23 38 7c be
       0.08369722 0.084442906 -0.026400048 -0.2463079
0001b0 f3 da 82 be 87 14 c3 be 71 3d 75 3e b2 e1 37 3e
       -0.2555767 -0.381016 0.2394922 0.1795719
0001c0 89 04 32 3e f8 b4 87 3d a1 f5 4e 3e 17 d4 3c 3d
       0.17384543 0.06626314 0.20210887 0.046100702
0001d0 01 93 6d 3e 50 46 0d 3d 0f 1f b5 bd 46 34 61 3e
       0.23200609 0.034490883 -0.088438146 0.21992597
