Lotka-Volterra/Results/sol_w53.pt (torch_old, 355963 bytes, 20 tensors)

linear_sigmoid_stack.0.weight f4 [120, 1]
00000000: a6f5 573f 2ea3 4cbd 72c0 ae3e 4873 5abd
00000010: 9a18 d13f f76d af3e bb7a 30bd 7046 8bbf
00000020: cf5e 4a3d 15de 2bc0 2990 2dbd 77c6 48bd
00000030: 6612 30bd 9fef d73f d5de 4bbd 465d d73f
00000040: 97fd b53f c3d3 eebf eb6c 64bd f039 2740
00000050: 0719 3bc0 5ccd 39bd aebd 56bd cbf2 1340
00000060: cf82 3ebd 68d1 9a3f 9c1f 29bd c9ff dabe
00000070: 80ee c5be fa7a 78bf ae4d f8bf fc83 99bf
00000080: 76c9 413d 7265 fd3f 6b0e 36bd f14a 68bf
00000090: 77b2 2a3f 112c b8be 9747 62bd 385b 0ebf
000000a0: faf9 7ebe 314a c2bf 4e39 923f 692f e23e
000000b0: 1d07 fc3e 07fe db3f 4e19 343f 4ab4 3bbd
000000c0: a4d7 2fbd 66e4 2abd 241e 683f c076 0b40
000000d0: 8528 1740 eb49 b13f 2701 28bd 1378 3dbd
000000e0: f363 29bd 5e19 de3f acd6 59bd a34c 2a40
000000f0: d7d4 713f 26d3 17c0 ef73 593f d7c1 2d40
00000100: 00dc f83f 324a 2fbd 410f f63e daf8 01c0
00000110: 4ce8 61bd 6538 d93f eb0f fbbf 8b07 0240
00000120: 50c5 35bf e548 873f 04ce 33bd 6a0b 2fbd
00000130: 0302 47bd ddd0 2ac0 3847 4dbd 9988 febe
00000140: a07c 0640 1ba5 2cbd 01ee 2bc0 dee8 2abd
00000150: f020 683f f7f4 bfbe 4878 4abd 7608 3b3f
00000160: 0eac 81bf a703 4cbf a01c 28bd 9ba5 c6bf
00000170: 0fb2 ff3f 78c1 32bd 49a1 933f d8d3 e93f
00000180: f049 cdbf 58ed 9ebf a36c 74bf 056f 65bd
00000190: 9df6 b4be d23b 2cbd 52cd c2bf 320d b03f
000001a0: 5347 f03f 9694 ee3e 4b27 e13f a28c 1c40
000001b0: ee8a 07c0 af5d 30bd 32ba 2640 43ce a2bf
000001c0: 7d65 cabe 7f00 3dbd 83f5 c2bf 0c8f 3dbd
000001d0: 9617 31bd 1aec 1840 fe29 30bd 8081 9a3f
0.84359205 -0.049960308 0.341312 -0.053332597 1.6335633 0.34263584 -0.043085795 -1.0880871
0.049406823 -2.6854298 -0.04237381 -0.049017396 -0.042986296 1.6870002 -0.049773056 1.682534
1.4218014 -1.8658375 -0.055767935 2.6129112 -2.9234025 -0.04536186 -0.052426986 2.311694
-0.046511468 1.2095156 -0.04128991 -0.42773274 -0.38658524 -0.9706265 -1.9398706 -1.1993403
0.04731127 1.9796584 -0.044447344 -0.9073935 0.66678566 -0.3597112 -0.055244055 -0.5560794
-0.24900046 -1.5178891 1.1423738 0.44176796 0.49224177 1.7186898 0.7035111 -0.045826234
-0.04293026 -0.041721724 0.9067099 2.179123 2.361848 1.3850683 -0.041016724 -0.04625709
-0.041355085 1.7351491 -0.053183243 2.6609275 0.9446539 -2.3722625 0.84942526 2.714956
1.9442139 -0.042795368 0.48058513 -2.0308137 -0.055153176 1.6970335 -1.9614233 2.0317104
-0.710042 1.0569121 -0.043897644 -0.042735495 -0.048585903 -2.668998 -0.050116748 -0.4971359
2.1013565 -0.042149644 -2.6864016 -0.041725986 0.9067526 -0.3749158 -0.049431115 0.73059785
-1.0130632 -0.79693073 -0.041042924 -1.5519289 1.9976214 -0.043641537 1.1533595 1.8267775
-1.6038189 -1.2416182 -0.95478266 -0.05601408 -0.353444 -0.042049237 -1.5218909 1.3754027
1.8771766 0.46597737 1.7590116 2.4460835 -2.1178546 -0.043058094 2.6051145 -1.2719196
-0.39530554 -0.04614305 -1.5231174 -0.046279 -0.043235384 2.3894105 -0.043008797 1.207077

linear_sigmoid_stack.0.bias f4 [120]
00000000: c5cb 143f 6fe5 803f 86b9 72bf 6dbe b03f
00000010: 10ad fd3e cd28 46bf 210b df3d e1de 003f
00000020: 594d a4bf 30bb f8be aa64 42be 8534 633f
00000030: 6b45 9f3d e678 0cbf a089 7c3f 6b6b c13e
00000040: 5e1e 7b3e 1dc1 0ebf 89e2 cd3f 2981 2f3c
00000050: b586 00bf 7bc5 c03e c0f0 a43f c45a 9a3e
00000060: bdd9 0b3f dd10 0a3f b640 f1be 8309 423f
00000070: b421 903f 7691 cbbe 7d9e 133e bd04 99bd
00000080: 45a1 92bf a0ff 8e3c 31d0 4c3e 7fbb 24bf
00000090: 9865 20bf ed37 4d3e 7aaa c73f bd64 d53e
000000a0: 31bd fabe 77f5 f83e 2913 013d 1496 69bf
000000b0: 8ae8 b7bc 7c04 eb3e 3cc5 f9be 8ce6 ef3e
000000c0: 5629 16bc 7d33 afbe f19d ecbe a7d6 993d
000000d0: 257d d23e a03a 07be a0a7 f7be bfbe 073f
000000e0: cd1e f7be 6714 5e3d a0f1 ae3f 7ae9 863e
000000f0: 3bb0 eabe 4baf 06be a397 993e d980 333e
00000100: f11f 0ebf 7373 7fbd 064d c7be f042 603e
00000110: 80cc c53f adeb 9d3e f806 6c3e da78 f1be
00000120: 2b3f 213f 4207 863e b47c 3a3e 9f7d 0fbd
00000130: 1365 583f 4028 a5be 5399 833f 659a 4a3f
00000140: 3de6 b2be 73ca 58be 8869 5bbe 02c8 cfbe
00000150: ed19 0abe be37 423f fea5 713f 1cbf a7be
00000160: 78f1 10bd 2212 8bbe 5d1c d7be 1b3b 22be
00000170: d0db 693d 5bec 9a3c fa80 07bf d0bf 543e
00000180: d042 df3d 5643 31be 5bd7 5c3e 3bcc cf3f
00000190: c68e 593e f450 67be b11b 1e3f f426 053f
000001a0: 2c4d 37bd 07a3 f0be 12e6 77be 258b 143f
000001b0: 3a0a 813e 24f3 babc 38bb 7e3d a7d1 223e
000001c0: e024 c63e a550 fe3e 0cf7 a2be f7b7 083f
000001d0: c89b 193e 1b04 03be 5d97 a3bb c7b6 b1be
0.5812343 1.0070018 -0.94814336 1.3808113 0.495461 -0.7740601 0.108907945 0.50340086
-1.2836105 -0.48580313 -0.18983713 0.88752013 0.07776912 -0.54871976 0.986475 0.37777266
0.24523303 -0.5576342 1.6084758 0.0107119465 -0.50205547 0.37650666 1.2885971 0.30147374
0.5462912 0.5393198 -0.47119683 0.75795764 1.1260285 -0.39759415 0.14415927 -0.07471607
-1.1455466 0.017455876 0.20001294 -0.64348596 -0.6265502 0.20040865 1.55989 0.4167842
-0.48972467 0.48624775 0.031512413 -0.91244626 -0.02244975 0.4590186 -0.4878329 0.4685558
-0.009165129 -0.3421897 -0.4621425 0.07511645 0.41111103 -0.13205957 -0.48370075 0.5302543
-0.48265687 0.054218676 1.3667488 0.26350003 -0.45837578 -0.13152806 0.29998502 0.1752962
-0.5551749 -0.06236596 -0.38925952 0.21900535 1.5453033 0.3084387 0.23049533 -0.47162515
0.6298701 0.26177412 0.18211633 -0.03503191 0.84529227 -0.3225727 1.0281166 0.7914184
-0.34941283 -0.21170978 -0.21426976 -0.4058228 -0.13486452 0.75866306 0.9439391 -0.32762992
-0.035386533 -0.27162272 -0.42013827 -0.1584286 0.057094395 0.018911531 -0.5293118 0.20776296
0.10901415 -0.17310843 0.21566527 1.6234201 0.2124587 -0.22589475 0.61761004 0.5201256
-0.04475133 -0.4699938 -0.24208859 0.5802482 0.25203115 -0.022821017 0.062190264 0.15900289
0.38700008 0.49670902 -0.31829107 0.5340571 0.15000832 -0.12794535 -0.004992409 -0.3470976

linear_sigmoid_stack.2.weight f4 [120, 120]
00000000: cda4 9abd 8c5d aa3e df6c 57be 39da 783e
00000010: 646f 5a3d c6b0 bcbd a9db a43e 4e3c 393e
00000020: e3bb 8cbe 56b8 903d dc8b 4e3e 6931 9b3e
00000030: 6bc4 963e 6684 f3bd 5bdb 793e c0f7 bf3c
00000040: 7298 96bc 06fd 3e3e f7c7 c43e cf72 d73c
00000050: 0695 e13d 9338 733e c362 b33e 5f8d 4d3d
00000060: 57c8 503e cae8 fbbb c611 3c3e 0e78 393d
00000070: c55f 1e3e 4f64 3b3e 86cd 303e 38ec 263e
00000080: 7635 4dbe eee4 dfbc 0fb5 473e 8900 923d
00000090: a746 72bd 259a c63d c2ea 9f3e 1eb4 3d3e
000000a0: 1efb 093e 3317 ef3d 2b7f 88bd 7f26 26be
000000b0: 80fd 7ebc 8acd b4bd d0f0 f1bc 370c 8c3e
000000c0: 3fba b03e 3b78 4d3e 41d1 d5bd e8ed 8fbc
000000d0: f42d a2bc 13a9 96bd 8bf2 ac3e 695f 5a3e
000000e0: 376a 993e af31 6a3c c124 9f3e 0956 d03b
000000f0: 85a7 7cbd adc9 8a3d 9eaa c23c f952 53bd
00000100: 0cfa 38bd 081f b73e 4d0c b83c cf35 973d
00000110: 8eaa 923e 4e69 c73c 6009 4c3e 3eb1 cabd
00000120: 4511 b43d 206c 393b 8f32 613e 373f ac3e
00000130: 7dda 773e 5501 a33d 5978 ad3e 232d 2d3e
00000140: 07ae 82bd 2569 553e 0584 303e fc13 8a3e
00000150: c91f 9ebc 3575 223d 7c0e 8c3e 3b0c a9bd
00000160: 5f52 123e 41df 663e 536a 433e e6f5 093e
00000170: 389b b53b dae9 a43e 91d1 09be eebf c6bc
00000180: 74d8 593e 77c7 9b3d 7781 503e 53e2 9a3e
00000190: e135 4a3e a1b1 393e 1d67 193e dc5e 2b3d
000001a0: d410 083d 6200 fabd bb01 e1bd e2bf 92bc
000001b0: a322 c53d c33f a73e e862 9bbd 51a0 173e
000001c0: c60e 213d 726e 913e c7c8 593e 4d33 a93e
000001d0: 0a85 9e3e 4093 aabd dffb b03e 04f0 b0bd
000001e0: 24af 4e3e ca13 fabd 03a7 e23d ace4 90bd
000001f0: 75b2 393e a1f1 4b3e 2596 68bc 196d 38be
00000200: b268 893d c8e9 72be 3193 61bd 04a6 bdbd
00000210: 4255 c83c 3eee 9a3e c0c3 b1bd 85fe 5c3e
00000220: a06b 003e 7d82 52be 417b 81bd 4705 c03e
00000230: 4b5d 34be 7cb0 c4bd 87d8 dbbd 2d6e 893e
00000240: 8124 22bd 746f 0a3e f220 f8ba bbd9 23be
00000250: 5332 cdbd 49c8 1abe 8609 53be beb2 b5bd
00000260: 441f 6a3d f4c5 853e a140 843d 99e5 3bbe
00000270: 46c0 783e cefa 803c 3e71 863b e1d1 67bd
00000280: c796 9bbd 5c5d 02be 9ef3 523e e724 8f3e
00000290: 486e 503d 451d 663e b7b6 1a3e 99e9 ebbd
000002a0: cfb9 8b3d f1b6 083c 72e9 383e 8240 2c3e
000002b0: a8e5 553e 84db 613e c424 c0bc 8db9 75bd
000002c0: ca06 7d3c bb19 973e 46a8 e8bd 1ff6 793e
000002d0: da4f 9e3e a0d9 94be c6f1 633e 751b 8f3e
000002e0: be59 a63e bf8b 86bd ad74 5f3e e662 38be
000002f0: fefb 95bd 102f 8d3e 4f10 8abe 88fa c13e
00000300: 26e0 64bd 6557 183e 3f89 62bd de7f 593d
00000310: b9bf 7d3b dfe4 98be e263 e9bd c486 42be
00000320: fb29 863e 82d0 15bd 1172 47be 1f4e 563d
00000330: d7df ef3d b41c fbbc df16 3abc 4da3 6d3e
00000340: 10df 63be 1a1a 36be 78f9 c0bc 43c3 f7bd
00000350: 98ac 613e d76e 40bd ce08 823e 84aa 613e
00000360: d905 3cbe 7da1 13be 7bdb 3fbe 321d dd3c
00000370: 95b1 8dbd 2877 d53c fc57 71be 7a1b 063e
00000380: cf69 8b3e e5ea e83d f4bf 873e 972f 233e
00000390: a6c9 64be 8a97 61bc e2e0 6e3e 1322 02be
000003a0: 0bc1 e4bc 9fcc ebbd 8740 23be f8fc 70bd
000003b0: 3e2e f4bd 3e5e 943e 8e26 523d ac38 7f3e
000003c0: 1667 14bd 3974 bf3e ec20 e8bd 1b4a bf3e
000003d0: 5987 d4bd 895e a0bd ada0 b33e 8636 453e
000003e0: 18b3 72be b2c6 713e 5128 593e ecc2 a33e
000003f0: 2de2 423e 4b53 d1bd fb43 523e e49c d5bd
-0.075509645 0.33274496 -0.21037625 0.24301995 0.053328887 -0.09213404 0.32198837 0.1808941
-0.27487096 0.07066409 0.2017054 0.30311134 0.2944673 -0.118904874 0.24400084 0.023433566
-0.018383238 0.18651208 0.3843381 0.026299862 0.11014752 0.2375205 0.35036287 0.05018365
0.20388924 -0.0076876627 0.18366155 0.04528051 0.1546622 0.18299983 0.17265901 0.16301048
-0.20039925 -0.027330842 0.19502662 0.07129008 -0.05914941 0.096973695 0.31233793 0.1852574
0.134747 0.11674347 -0.0666488 -0.16225623 -0.015563369 -0.08828266 -0.029533774 0.2735307
0.34517094 0.20065396 -0.10440303 -0.017569497 -0.019797303 -0.07356467 0.33778796 0.21325459
0.29963848 0.014294072 0.31082729 0.0063579124 -0.061683197 0.06776748 0.023762997 -0.0515928
-0.04516034 0.35765862 0.022466803 0.0738331 0.28645748 0.024342205 0.19925451 -0.098970875
0.087923564 0.0028293207 0.21991943 0.3364198 0.2420444 0.079592384 0.3388088 0.1691175
-0.06380849 0.2084089 0.17237861 0.26968372 -0.019302266 0.03966256 0.273548 -0.08254286
0.14289235 0.22546102 0.19083528 0.13472709 0.005542185 0.32209665 -0.1345885 -0.024261441
0.21273977 0.07606404 0.20361887 0.30250797 0.19747116 0.18134166 0.14980741 0.04183851
0.033219174 -0.12207104 -0.10986658 -0.017913762 0.09625747 0.32665834 -0.07587224 0.1480725
0.03932073 0.28404576 0.21267997 0.33046952 0.30960876 -0.08328867 0.34567162 -0.08639529
0.20183998 -0.12210806 0.11067011 -0.07074866 0.18134482 0.19916393 -0.0141959535 -0.18010367
0.06709422 -0.23721993 -0.055072013 -0.092601806 0.024454717 0.3025989 -0.086799145 0.21581466
0.12541056 -0.2055759 -0.06322337 0.37504026 -0.17613713 -0.09603974 -0.10734659 0.2684187
-0.039585594 0.13519078 -0.0018930717 -0.16001026 -0.10019364 -0.15115465 -0.20609102 -0.08871983
0.057158723 0.2612759 0.064576395 -0.18349303 0.24292096 0.015744593 0.004102855 -0.05659664
-0.07597118 -0.12730926 0.20600745 0.27957842 0.050886422 0.22472103 0.15108763 -0.115191646
0.068225496 0.008344398 0.18057802 0.16821483 0.20888388 0.22056395 -0.023455031 -0.05999141
0.015443513 0.29511818 -0.113602206 0.24410294 0.30920297 -0.29072285 0.22260198 0.27950636
0.32490343 -0.06569623 0.21821852 -0.18006477 -0.07323454 0.27574968 -0.26965567 0.37886453
-0.055877827 0.14877088 -0.05530667 0.05310046 0.0038719012 -0.29862115 -0.11396004 -0.18996722
0.26203904 -0.0365758 -0.19477107 0.052320596 0.11712616 -0.030653335 -0.011357992 0.23206826
-0.2225306 -0.17783394 -0.023556456 -0.1209779 0.22038496 -0.046980705 0.25397342 0.22037703
-0.18361606 -0.14417072 -0.18736069 0.02699146 -0.06918637 0.026057795 -0.2356872 0.13096419
0.27229163 0.113729276 0.26513636 0.15936123 -0.22342548 -0.01376904 0.23327973 -0.12708311
-0.027924081 -0.11513638 -0.15942584 -0.058835 -0.119228825 0.2897815 0.0513063 0.24923962
-0.036231123 0.37393358 -0.11334404 0.37361225 -0.10377378 -0.07830531 0.35083523 0.1925908
-0.23701131 0.23610952 0.21206786 0.3198465 0.19031592 -0.10220965 0.20533745 -0.10430315

linear_sigmoid_stack.2.bias f4 [120]
00000000: d368 2dbc 2ab5 833d 4411 9f3d 5894 c0bd
00000010: 2caa da3d 5c80 c33d 9c9f a7bd 74c1 01bd
00000020: 864e 033d fbdf 813d f5a1 ad3d 80fe f5bc
00000030: 7bed d13d de10 afbd c608 1a3d 5093 823c
00000040: c927 52bd caa7 de3c f814 f8bc 5b83 99bc
00000050: 5376 323d a325 88bd 07e8 54be 4c82 f63d
00000060: e8c7 d63d 12b1 2dbd c339 58bb e9d0 c2bc
00000070: 8934 05bb 0fb1 a93d 763e d83d d781 833d
00000080: 32f8 2abe e3b8 263d 5c66 0abd 93aa 39bd
00000090: 103f 523c 37de 723d 8b77 85bd 501d 07be
000000a0: 8ccd 693c 059a 10bd 9920 343d c2fa 3b3d
000000b0: 6cfa 9c3d f00c 0dbe 1667 ef3d 18f6 2ebe
000000c0: c12f d7bc 4a92 10bc 19e8 3bbd 3a77 aebb
000000d0: c435 36bd f319 92bd b2dc 2abd 5d35 823d
000000e0: 3aec 27bd 8be2 c2bc 3687 a2bd 9a86 8bbc
000000f0: 93f8 c13d 39fa deba 4b04 d3bd 8a78 483c
00000100: 013e 79bd 64af 6b3d 4dbc 2dbd 736b 42bd
00000110: 6dcd 9c3b c381 12be 9cf9 eb3b 33fe 8ebd
00000120: c612 18bd 27e2 243d 7aa6 0e3c 8737 823d
00000130: 909b 5a3d a9f4 5abd 339d ea3c 0094 2abe
00000140: c47f 91bd a3aa 5dbc fb94 62bd 70d8 733d
00000150: 04b1 1ebd 36f1 203c bf5c c73d b8a4 d1bd
00000160: 006a 97bd 54b8 32be e503 b4bd cecd 183d
00000170: 51b8 2cbd 60a5 9c39 4aa6 13be 36b4 aebd
00000180: 477b 4abd f5ef 20be cc25 88bd f1c5 f13c
00000190: b50a 0ebe 1777 89bd 5d91 11bd 869c 44be
000001a0: 8e91 b7bc 49dc d9bb cf8f 733d 01dd c0bd
000001b0: e3ad ba3d 86bb dabc f7e2 42bd f345 7e3d
000001c0: c895 05be deea 72bd f5cd a7bd 9b52 433c
000001d0: cc12 153d b442 f23d aa35 1fbe ef01 a23b
-0.010584074 0.06431039 0.07766965 -0.09403294 0.10676989 0.09545967 -0.0818474 -0.031678632
0.032057308 0.06341549 0.084781565 -0.030028582 0.10250374 -0.08548139 0.037606023 0.015939385
-0.051307473 0.027179617 -0.030283436 -0.018739393 0.043569874 -0.06647804 -0.20791636 0.12036571
0.10487348 -0.042405196 -0.0032993413 -0.023781257 -0.0020325503 0.08285724 0.105587885 0.06421249
-0.16696241 0.040703665 -0.033789024 -0.045328688 0.012832418 0.05929395 -0.06516942 -0.13194776
0.014270198 -0.035303134 0.0439764 0.04589344 0.07664952 -0.13774467 0.11689584 -0.17086065
-0.026267888 -0.0088239405 -0.045875642 -0.0053242715 -0.04448487 -0.07133856 -0.041714378 0.063578345
-0.040996768 -0.023789665 -0.07935946 -0.017031956 0.0947124 -0.0017011828 -0.10303553 0.01223577
-0.060850147 0.057540312 -0.042415906 -0.047465753 0.004785231 -0.14307313 0.0072013866 -0.069820784
-0.03712728 0.04025474 0.008706683 0.06358247 0.053371012 -0.053455982 0.028639412 -0.1665802
-0.071044475 -0.0135294525 -0.05531786 0.059532583 -0.038743034 0.009823134 0.09734487 -0.10236496
-0.07393265 -0.17453128 -0.08789805 0.037305646 -0.042167965 0.00029877853 -0.14418903 -0.08530466
-0.049433973 -0.15716536 -0.06647834 0.029513331 -0.13871272 -0.06712168 -0.03553902 -0.19200334
-0.022408273 -0.0066485745 0.05946332 -0.09417153 0.091151975 -0.026700746 -0.04757973 0.062078428
-0.13045418 -0.059306018 -0.0819358 0.01192155 0.03639488 0.11829129 -0.15547815 0.004944078

linear_sigmoid_stack.4.weight f4 [120, 120]
00000000: dafe a7bd b0d0 e93d 35f1 25be 1625 acbd
00000010: eeaa 1ebc ce3b 02be 3a07 0bbe b842 363e
00000020: 872b 96ba ec3c 793d 37d8 923d d164 903d
00000030: dae9 ce3d faef 0c3e c2dd bbbc 7bf9 023c
00000040: 6db9 a8bd 494b 53be 1831 623e 0b37 0bbe
00000050: 24b3 6fbe d566 1a3d 93f0 4cbe 899c 063e
00000060: fdbe 9ebb bc38 58bc f070 26be 3e65 adbd
00000070: 106e 53bc 7eea dc3c 0d3c 3a3d ca1e f13d
00000080: a2ca e2bd b0ca c0bc cad2 3fbe d31a 1fbe
00000090: 1749 703d 38c8 14be 9a61 933d 9258 5e3e
000000a0: 63c7 08be 6cdf 0a3b 3260 043f b2b2 e03d
000000b0: 1d82 483d dbae 45be 4a6d 903d b789 813d
000000c0: af0d 5b3e 6228 4dbe eb4b f4bd 0100 b1bd
000000d0: 66cc 5f3d e310 2bbe 52fd f3bd 5c9b a1bd
000000e0: eaf8 66be 22f9 09be a592 b83d f082 35be
000000f0: 8209 b2bd a250 52be 0cb2 5abb 8175 373d
00000100: 92fb b3bb add7 ab3d 7e5b f2bd 9808 63bd
00000110: c4b7 6ebe 8b0b 013e f3b3 803d f25d fd3d
00000120: 68af 613d 2d62 77be 2f0a 0ebe baa2 893a
00000130: e1d9 b8bc f628 ae3d af7c efba a8e4 20be
00000140: 752a 6c3d c492 ef3e d0f3 0e3e 0a34 b6bc
00000150: 9c10 873d b153 8c3d b6bd 96bd fc0b 95bd
00000160: c0ce 42be 47bf 86bd 51e1 55be 4b1f 85bd
00000170: 1d46 efbd 33c8 fe3d 9b67 06bd 7bfe 883e
00000180: 9e08 f2bd 25be 2bbe d223 ff3d 0a48 cebd
00000190: 231e c9bc de40 413d 983f a8bb 9919 063e
000001a0: f801 08be ecae 563d bfb2 8bbe e961 003e
000001b0: b959 913d c60a dfbd 6054 103e 95a0 2fbe
000001c0: 803f 4dbe 35f5 edbd 6807 2bbd fe37 d23d
000001d0: bd8f 16bc acf6 abbc e155 853d e587 f43b
000001e0: 4efc 7cbd 10aa 29be f07a 6abc 0a9d 613e
000001f0: 59d6 5cbe 56ef 883d 528f 47bd 6a72 4ebd
00000200: 11fa 9ebe f60b 7bbe 29f4 2fbe d9cb 57be
00000210: 5c5f 4bbe c0fd 42be ff53 dc3c 5c3f 88be
00000220: cbc2 09be 7c3b ea3b 8fe9 4cbe 9f1b dd3e
00000230: 4bec 1b3c 5037 b4be 77b5 cb3e fb41 a0be
00000240: bb4e 74be fe69 64be 40fd 26bb 529a 84bd
00000250: 9f68 82be be8c 47be 7181 b3be d660 89be
00000260: e794 ce3e 379f e0bd 0336 8b3d 06bb 003f
00000270: a1c4 95be a6a5 3b3d 09bc 63be 434e 93bd
00000280: 0c76 a5bd 57ee c3be 7ba1 53be ead2 91be
00000290: eddc a2be 320e 823e 937c 97be bd77 e8bd
000002a0: 0ca9 cabd 576c 833c 0dbc 62bc 708e a3bb
000002b0: 4a65 33be f38a abbd a2f0 afbb 0920 ddbd
000002c0: 94ab eebd 0eb5 08bd 1d91 46be 41c5 23bd
000002d0: 9115 023e cc9e bcbc 4602 d5bd 342c b0be
000002e0: 68c0 2fbe dab1 4dbe 9b95 f33e 369d 59bd
000002f0: 2e5d 6ebc 82d4 3abe 7bec 26be 61ec 41be
00000300: 7ed0 93be c71e 30bb 45f6 8d3d f728 7cbe
00000310: b20b 8ebe d37d 95be 8070 5abe 513d 943e
00000320: c329 ccbd 8ff2 7bbe ab70 7bbe 7065 c5be
00000330: 7a42 8ebe 26d3 4dbe bf26 59bd 423f 973e
00000340: 6183 dcbd d576 c33e 1c6e 883e 43f2 7f3d
00000350: 5caa b43e 115b bcbe 66db ac3e 7c5e a3be
00000360: b8aa 833e cb89 9c3e 7e8c f9bd b109 e0bd
00000370: b0c3 933e 33a6 85be ce6e 3abe 4770 cebd
00000380: ec7c 4f3d f9da b7be ca23 783e 0377 58be
00000390: 84e2 b8be c0d3 b13e a0d9 03be 1d23 083d
000003a0: a027 b53e f518 183d 1ab0 4c3d e20f 70be
000003b0: 4ca7 77be 61ea bebe a2cf 82be 82fb 81be
000003c0: eef6 83be 6d1b dcbc 37d7 52be 5f16 4dbe
000003d0: 0d18 173d 4e82 42be c4df 6fbe 767c 88bd
000003e0: b426 dbbb 8caa ffbc 6ce5 7a3d de40 cf3c
000003f0: b593 7dbd 3462 5c3d 54e0 92be e7fb 163d
-0.08202906 0.11416757 -0.16205294 -0.08405511 -0.0096843075 -0.12718126 -0.13576975 0.17798889
-0.0011457064 0.060849115 0.07170146 0.07050479 0.101031974 0.13763419 -0.02293289 0.007994051
-0.08238492 -0.20634188 0.2208904 -0.13595216 -0.2340818 0.037695725 -0.20013647 0.13145651
-0.004844545 -0.01319712 -0.1625402 -0.08466576 -0.012904659 0.026967283 0.045467425 0.11773451
-0.110738054 -0.023534149 -0.18732753 -0.15537576 0.058663454 -0.14529502 0.071963504 0.21713474
-0.1335731 0.0021190299 0.5170928 0.109715834 0.04895221 -0.19304983 0.07052095 0.06325095
0.21391939 -0.20034936 -0.11928543 -0.08642579 0.05463829 -0.1670566 -0.119135514 -0.078909606
-0.2255589 -0.13473943 0.09012345 -0.1772573 -0.0869322 -0.20538571 -0.0033370284 0.044789795
-0.005492636 0.08390746 -0.11833857 -0.055428118 -0.23312289 0.1260206 0.062843226 0.12371434
0.05509892 -0.24158545 -0.13871072 0.0010500767 -0.02256483 0.085039064 -0.0018271412 -0.15712225
0.057657678 0.4679166 0.13960195 -0.022241611 0.06594965 0.068519 -0.07360403 -0.072776765
-0.19024181 -0.06579452 -0.20886733 -0.06500109 -0.11683295 0.12440529 -0.03281365 0.26756653
-0.1181805 -0.16771753 0.12458004 -0.10072334 -0.024550503 0.047181003 -0.005134534 0.13095702
-0.13282001 0.052412912 -0.2728481 0.1253735 0.07097191 -0.10890727 0.14094687 -0.17151101
-0.20043755 -0.11619035 -0.04175511 0.10264586 -0.009189543 -0.020991646 0.06510521 0.007462489
-0.061764054 -0.1656878 -0.014311537 0.22032562 -0.21566142 0.06686275 -0.048720665 -0.050402083
-0.3105016 -0.24516281 -0.17182983 -0.21073855 -0.19860595 -0.1904211 0.026895521 -0.2661084
-0.13453214 0.0071482044 -0.2001097 0.43185136 0.009516786 -0.3519845 0.39786884 -0.3130034
-0.23858158 -0.22306058 -0.0025480539 -0.06474747 -0.25470445 -0.19487283 -0.35059693 -0.26831692
0.40347978 -0.10967868 0.06797411 0.50285375 -0.29251578 0.04581227 -0.22239698 -0.071926616
-0.08079156 -0.38267776 -0.20667069 -0.28481227 -0.31809178 0.25401455 -0.2958723 -0.11350963
-0.098955244 0.016042871 -0.01383878 -0.004991345 -0.17519107 -0.08376112 -0.005369262 -0.10797126
-0.1165382 -0.033375792 -0.19391294 -0.039983038 0.1270354 -0.023024939 -0.10400824 -0.34408724
-0.17163241 -0.20087376 0.47575077 -0.053128444 -0.014548583 -0.18245128 -0.16301148 -0.18937828
-0.28870004 -0.0026873813 0.06931738 -0.24625002 -0.27743298 -0.2919756 -0.21331978 0.2895303
-0.09968903 -0.24604248 -0.24554698 -0.38553953 -0.27785093 -0.20100078 -0.053015467 0.2954045
-0.10767246 0.381766 0.26646507 0.0624869 0.35286224 -0.36788228 0.33761138 -0.31908023
0.25716186 0.30573878 -0.12185 -0.109393485 0.28860235 -0.26103362 -0.18206331 -0.10080009
0.050656244 -0.3590925 0.24232402 -0.2113915 -0.36110318 0.34731865 -0.12875986 0.03323661
0.35381794 0.037133176 0.04997263 -0.23443559 -0.24184912 -0.37288192 -0.25549036 -0.25387198
-0.2577433 -0.026868546 -0.2058991 -0.20028065 0.03688817 -0.1899502 -0.23425204 -0.06664364
-0.0066879634 -0.031209253 0.06125395 0.025299486 -0.061908443 0.05380459 -0.28686774 0.036861327

linear_sigmoid_stack.4.bias f4 [120]
00000000: 86b5 56bd ead6 28be 5963 f0bd 0b78 b8bd
00000010: fd30 853d 5bac 33be dd08 13bd 7a09 9abe
00000020: b369 54bc 4cf5 6fbd 9ffb 6c3d 5544 29bd
00000030: c157 c5bd e8cb d8bd b78a f7bd d2ed cabd
00000040: 3a96 373d ff29 11be 1d09 ed3c 1009 2abe
00000050: 5635 d6bd d96d dbbc fcc3 1bbe bf10 26bd
00000060: a9a6 6ebc 576d 173d 82ef 83bc 077e aabd
00000070: 0b69 c13d 26c6 afbd d121 4cbd 36a4 97bd
00000080: bf22 7b3d 9c21 20bd 7445 34be a5fc f4bd
00000090: 8805 1dbe 6392 2cbe 6170 90be cfd8 a33d
000000a0: c2b8 473d 3e1b 6b3d 5348 51bd d37a debd
000000b0: e24f 813d 43e2 553a c024 17be b6ab 54bd
000000c0: b688 5fbe d97f 4bbe dbbd e23d 8d71 3c3d
000000d0: 61f4 d1bd 6d51 5f3d 6162 8d3d dee4 f4bd
000000e0: 2e7c a3bd ba09 7dbe 34ab f7bc e58f a9bd
000000f0: 8c2e b6bd 38ad ccbd 9b04 83be 9c40 f4bd
00000100: 3f03 723d b347 61bd 1845 e8b9 52ac 2bbd
00000110: df4f 78bd bedc 5cbd 4050 62be 9c26 9f3d
00000120: 2ed1 843d 0dbe b43d 610a 45be 3db2 7ebd
00000130: a954 04be 4407 173d 2d32 1abe 5c4c 23be
00000140: 83d8 853d 5256 27be 0fab 5dbd 6b13 503d
00000150: bdac 2bbd db8f b0bd e560 e9bd 83c0 b33e
00000160: a83f b6be 7377 52be 023a 5bbe 71b3 99be
00000170: 25dc 683d 2ad8 1bbe 470c 96bd c463 70be
00000180: b27c fcbd bbc0 8c3d 5ce1 bbbe db60 47be
00000190: ca3f bfbd 4b2b 393d b23b b9be 893f eabd
000001a0: bfd0 bd3d 0d5e a0be 6377 aebd 2d71 82be
000001b0: 57ce 29be ed01 bfbc ca7a 9abd c533 24bd
000001c0: cd63 b03d 54be 87bd abb0 873d 5864 e4bd
000001d0: 7b76 853c 7657 cfbd 7696 323a 9c34 7bbe
-0.052419208 -0.16488233 -0.11737699 -0.090072714 0.065034844 -0.17546217 -0.035897125 -0.30085355
-0.012964654 -0.058583543 0.057857152 -0.041324932 -0.09635878 -0.10585767 -0.12087005 -0.09908642
0.044821 -0.14176176 0.02893501 -0.1660502 -0.10459392 -0.026785778 -0.15211481 -0.040543314
-0.014566102 0.03696951 -0.016105417 -0.08324819 0.094438635 -0.08582716 -0.049836937 -0.074043676
0.061312433 -0.039094552 -0.1760462 -0.119622506 -0.15334141 -0.16852717 -0.28210738 0.08000337
0.048760183 0.057399027 -0.051094364 -0.108632706 0.063140646 0.0008159021 -0.14760113 -0.05192157
-0.21829495 -0.19872989 0.11071368 0.046006728 -0.1025169 0.054521013 0.0690353 -0.119577155
-0.0798267 -0.24710742 -0.030233003 -0.08279399 -0.08895597 -0.09993976 -0.2558945 -0.11926386
0.059085127 -0.05500002 -0.00044301967 -0.041912384 -0.060623046 -0.053921454 -0.22100925 0.07771036
0.0648521 0.08825312 -0.1924224 -0.0621817 -0.1292292 0.036872163 -0.15058203 -0.15947098
0.06535437 -0.16341522 -0.054118212 0.05079977 -0.041912783 -0.08621188 -0.11395434 0.35107812
-0.3559544 -0.20553379 -0.21408847 -0.30019715 0.05685057 -0.15219179 -0.073265605 -0.23475558
-0.12328471 0.06872698 -0.36695373 -0.19470541 -0.09338339 0.045207303 -0.36178356 -0.114378996
0.09268331 -0.31321755 -0.08518865 -0.2547697 -0.16582619 -0.023316348 -0.075429514 -0.040088434
0.086127855 -0.06628099 0.066254936 -0.111519516 0.016291847 -0.10124104 0.00068125816 -0.24531788

linear_sigmoid_stack.6.weight f4 [120, 120]
00000000: fcc8 0cbe ddfe 4b3e 1a91 50be c180 5ebe
00000010: 1885 48be 78c4 343e 462f 33be 5776 9e3e
00000020: 4a42 c7bd 6cd3 4abe 371b 5fbe ff38 7fbe
00000030: cb80 cf3e a78a 0e3f b661 9d3e 9f52 4a3e
00000040: 4c9e a8be 810b a53e 936a 3abe bfa1 003f
00000050: 3ee9 023f 8e69 6abe 4626 d23e cc07 b4be
00000060: ed50 68be 7f5e 28be 790c 38be 6047 47be
00000070: f587 2ebe ece6 783e 91b5 babd 09a3 5ebe
00000080: b401 03be fc8d 4a3e a302 d43e ec5a 66be
00000090: cc56 e9bd 048e 4ebe b245 833e 432e d0be
000000a0: a24c aabe 79f5 71be 0eca 94be 4950 4b3e
000000b0: cea2 c8bc 87b4 48be e31b 6b3e 20a4 31be
000000c0: a520 583e 1632 f13e ac0a 47be 71b7 59be
000000d0: 7bb1 3abe 297c 10be ca70 b9be 1d29 053e
000000e0: 6e64 1cbe 979b b73e 538d d2bd efc2 0cbe
000000f0: 9e09 0cbe 8759 d63e 7906 3c3e d7be 2abe
00000100: ffab 9e3e 99f7 85be 8ef6 a3be c564 b9be
00000110: 9520 33be 2538 153e f83e 643e d95d 54be
00000120: 8cd6 91be 4b93 aabe 0a1f 043f bcc3 d63d
00000130: 21a7 f73e ab62 80be 5b92 ab3e 54b3 013f
00000140: d46d 2ebe ffdf be3e 38a9 60be 98e4 98be
00000150: 43a3 c93e 7d18 98be e3ec ec3e 769a b8be
00000160: 52e8 683e fb84 8d3e 260c d93e b2d1 7d3e
00000170: 83ea d0bd 2a23 913e 336d c33e 00c8 393e
00000180: a871 4abe 0ede 24be c972 b33e 3cb7 093e
00000190: 5d6a 4cbd 502a a8be fd7b 423e 963f a73e
000001a0: c439 d0bd fef9 b63e c9ba 21be bca2 9b3e
000001b0: abc5 013f 601e e7be d0e4 5cbe b95d 01be
000001c0: f7c7 12be 2706 cbbe d9a4 4abe 6486 5dbe
000001d0: 690e c1be 96e6 1dbe bab8 5fbe b3f2 183e
000001e0: 294a 653e 298a acbe 7588 823e 9e88 3a3e
000001f0: 2c37 1d3e 6698 a0be dbef 4f3e 547e debe
00000200: 4319 283e af80 b33e 1a7d 7e3e 78ea 893e
00000210: c337 2ebe dad2 08bd 152c b4bd 524d fcbe
00000220: 4153 443e d33a f33b 0d50 e03d 29c5 c7bd
00000230: 7844 52bd 34ac 743e 90db fbbc 6061 a23e
00000240: f212 c93d 17d9 8d3e c867 123e 7457 c13e
00000250: da77 333e 59bd 78bd 613b d73e 7144 193e
00000260: 19c1 453e ae3b 76bb d2fc 7bbc e162 433e
00000270: 809f bc3e ddb0 7c3e f814 29be 0724 233e
00000280: 7dc0 8f3e bb63 833e 9f33 5b3e 5bc4 a1be
00000290: b39e 123e f554 2a3e ed9e 31bd 1fea 843e
000002a0: e423 e1be b827 f8bc 9dca 063e 0e6c b43e
000002b0: 8f73 9d3e 7978 6d3d a116 9a3e fe0b 98be
000002c0: 1eb5 a23e 2906 f8be 01b6 c73e f04e b23e
000002d0: aafa 883e 53b8 97bd b71f b8be 324d 8b3e
000002e0: 5549 02be 593c 813e 10d2 713e 8fc6 293e
000002f0: 6e4b 7c3e 62a9 5cbe 6fef 4abd bcc5 963e
00000300: 4b80 643e 72db 873e 4357 04be 215c ccbe
00000310: 0c05 2bbe 57a3 393e 2edf 32be 858d fdbd
00000320: 57e7 fc3d 9205 03be ed0a 443e 946a 5e3e
00000330: a02a 12bd 1a68 703e ace6 bcbd 6933 cb3e
00000340: 5cda c3be 4c8e cebe f4ee 10be 746f e0be
00000350: 3681 103c 6ff2 c8bd 1bf6 19be 4661 2abe
00000360: 4193 b93e 31b1 a93d d372 efbe 57c9 9abe
00000370: 7764 a63e 66ef 983e e5a4 e7be 102c 8ebd
00000380: 745b df3d 1ef2 c5be 0088 b03e 36b4 b3bd
00000390: 0091 84bd 830c 803e d5fc 903e 9e2d 693e
000003a0: 771c 383d 7957 803e 7787 453e 5c79 6e3e
000003b0: f146 b43e 7f57 633e d5fe 8b3e a156 98be
000003c0: 006f a13e a359 b8bd e751 bb3d ef00 203d
000003d0: df51 023f cace aebd c300 b4bb c332 42be
000003e0: 0988 de3d 25d1 a23e c30a d53e 0175 c23e
000003f0: 0018 a0bd a6cb 55be 8852 08be 36e3 2dbe
-0.13748544 0.19921441 -0.20367852 -0.21728803 -0.19582021 0.17653072 -0.17498502 0.3094966
-0.097294405 -0.19807214 -0.21787725 -0.24924086 0.4052795 0.55680317 0.3073861 0.1975808
-0.3293327 0.3223534 -0.18204717 0.50246805 0.5113715 -0.22891828 0.41044825 -0.351622
-0.2268712 -0.16442297 -0.17973508 -0.19460821 -0.17044051 0.2430684 -0.09116662 -0.2174188
-0.12793618 0.19780725 0.41408262 -0.22495621 -0.11393508 -0.20171362 0.2563911 -0.40660295
-0.3326159 -0.23628797 -0.29060405 0.19854845 -0.024491694 -0.19600116 0.22959857 -0.17347765
0.21106203 0.47108525 -0.19437665 -0.21261384 -0.18231766 -0.14109863 -0.36218864 0.13003965
-0.15272686 0.35860893 -0.10280862 -0.13746236 -0.13675544 0.4186518 0.18361844 -0.16674362
0.30990598 -0.26165465 -0.32024044 -0.36209694 -0.17492898 0.14572199 0.22289646 -0.20738925
-0.28484 -0.333155 0.5160986 0.10486552 0.48369697 -0.25075278 0.33510098 0.5066426
-0.17034084 0.3728027 -0.21939552 -0.29861903 0.3938237 -0.29706183 0.4627448 -0.36055344
0.22744873 0.2764052 0.4239208 0.24787024 -0.102009796 0.2834714 0.3816925 0.181427
-0.19769919 -0.16100332 0.35048512 0.13448805 -0.049906123 -0.32844782 0.1899261 0.326657
-0.10167268 0.35737604 -0.15793909 0.30397594 0.5069224 -0.45140362 -0.2157166 -0.12633409
-0.14334093 -0.3965313 -0.19789447 -0.21633297 -0.37706307 -0.15419993 -0.21847811 0.14936332
0.22391571 -0.33699158 0.25494733 0.18216178 0.15353078 -0.3136627 0.20306341 -0.43455756
0.16415887 0.35059115 0.2485241 0.26936698 -0.17013459 -0.03340421 -0.087974705 -0.4927774
0.19172384 0.007422784 0.109527685 -0.09754402 -0.05133483 0.23893815 -0.030744344 0.31714916
0.09818067 0.2770469 0.14297402 0.37762034 0.17526188 -0.06072745 0.4203749 0.14967515
0.19311942 -0.0037572193 -0.015380101 0.19080688 0.3684044 0.24676843 -0.16511905 0.15931712
0.28076544 0.25662026 0.2140641 -0.3159512 0.14318351 0.16633971 -0.043364454 0.2595987
-0.43972695 -0.030292377 0.13163228 0.3523869 0.30752227 0.05797622 0.3009539 -0.2969665
0.31778806 -0.484422 0.39006045 0.3482585 0.26753742 -0.07408204 -0.35961697 0.27207333
-0.12723286 0.25241354 0.23615289 0.1657965 0.24638149 -0.2154899 -0.049544748 0.29447734
0.22314565 0.2653461 -0.12923913 -0.3991404 -0.16701144 0.18128715 -0.17467949 -0.12380508
0.12348812 -0.12795094 0.19144793 0.21720344 -0.03568518 0.23477212 -0.09223685 0.3968766
-0.38252532 -0.4034294 -0.14153653 -0.43835032 0.008819869 -0.098118655 -0.15035288 -0.1663867
0.36245158 0.0828575 -0.4676729 -0.30231735 0.32498524 0.29870147 -0.45242992 -0.06941998
0.10906115 -0.38661283 0.3447876 -0.08774607 -0.06472969 0.25009546 0.28317896 0.22771308
0.04494902 0.25066736 0.19289957 0.23288482 0.35210374 0.22201346 0.2734286 -0.29753593
0.3153 -0.09001472 0.09146481 0.03906339 0.50906175 -0.08535536 -0.005493255 -0.18964677
0.108657904 0.3180019 0.41609773 0.37979892 -0.07817078 -0.20878467 -0.13312733 -0.16981205

linear_sigmoid_stack.6.bias f4 [120]
00000000: 5ad2 1ebe 0bff 733c 6de8 473d 58e3 46bd
00000010: 71dd 3ebe aae0 fcbd 08c1 25be b057 2dbe
00000020: e29a 55bd 48fa a33d ed43 cdbd 05b1 34be
00000030: 8432 c5bd d063 80bd 08bf f4bd b4f6 51bd
00000040: dd1d ee3c b0f0 5ebe 1e0a 583d 3e4e cbbd
00000050: a92e a2bd be86 75bd 5a58 e73d 0b91 293c
00000060: ac7c 4fbd c740 67bd 6995 35bd 90b5 92bc
00000070: b9ab afbd 64c0 95bd a6f4 813d 1dd2 04be
00000080: 80f2 aabe 60fe 4abd 1977 83bd df15 ebbd
00000090: 4ec8 f83d 8769 86bd daa0 943d 62af 47be
000000a0: 0785 e8bd d223 bdbd 9146 fcbd 1d79 11be
000000b0: e00e db3d 1684 9d3c 9185 61bd 4e1a e33c
000000c0: e1d2 ccbd d8e6 08be c312 a63d 482d 83bd
000000d0: 11b8 163b cc53 733c aa1d 4ebd 6ece b2bb
000000e0: 95ef 32bd c2ce 09be 77b7 cb3d 8377 52bd
000000f0: c283 c73c f29c 41bd a2b7 1b3e c31a 1fbe
00000100: 9b3f 08be d878 2eb8 f156 e93d e4f8 123b
00000110: 70f2 0ebd 7e84 2f3c e6b9 4f3c 4a73 3a3c
00000120: a003 d73d ae73 6a3d 1277 94bd 5e89 cc3d
00000130: e9fd 1fbe a10d 623d 3caa e93c a670 b0bc
00000140: 5d2c 1fbe 297f 9fbd 9882 00be 89bf c53c
00000150: d5d5 64be e58d 11bd 5fce 36be e16f cdbc
00000160: d094 29be 7cca a3be eff5 21bd 7727 703c
00000170: 8a4e efbc 62f2 273d 3b02 21bd b74c cabd
00000180: e5f6 0fbf 9143 523e 29e6 4bbe b13f f23b
00000190: d804 153c c714 8c3c ba18 903d 2786 ab3d
000001a0: a11b c03d d2d4 9bbd 1d27 0ebe 2209 a83d
000001b0: 183c 2dbe 4943 6fbe 5a1c 5c3d e156 e93d
000001c0: 1f63 88bd 068a 6cbe 4e1a 8cbe cc1c f23d
000001d0: 180d 08bd bf9a dabc c8b7 5e3d b857 95bd
-0.1550993 0.01489235 0.048805643 -0.048556656 -0.1863916 -0.12347539 -0.16186917 -0.16927981
-0.05214966 0.08006722 -0.100227214 -0.17645653 -0.09628776 -0.06269038 -0.11950499 -0.051260665
0.029066974 -0.21771502 0.052744024 -0.09927033 -0.07919056 -0.059942953 0.112961486 0.010349522
-0.050656006 -0.05645826 -0.04433194 -0.017908841 -0.08577675 -0.07312086 0.06345491 -0.12970777
-0.33388138 -0.049558997 -0.064192005 -0.11478781 0.1214758 -0.065630965 0.072572425 -0.19500497
-0.11353498 -0.09235348 -0.12318147 -0.14206357 0.106961966 0.019228023 -0.05505902 0.027722504
-0.100011595 -0.1336931 0.08109047 -0.06405121 0.0022997896 0.014851522 -0.05032126 -0.0054567372
-0.043685514 -0.13457778 0.099471025 -0.051383507 0.02435482 -0.047268815 0.15206769 -0.15537553
-0.13305514 -4.1597377e-05 0.11393536 0.0022426182 -0.034899175 0.010712741 0.012678599 0.011380026
0.10498738 0.057239227 -0.07249273 0.09987138 -0.15624203 0.05518878 0.028523557 -0.02153809
-0.15544267 -0.07787926 -0.12549818 0.024139183 -0.22347195 -0.03553571 -0.17852162 -0.025077762
-0.16560674 -0.3199042 -0.03954118 0.014657847 -0.029212255 0.04100264 -0.039308768 -0.098779134
-0.56236106 0.20533587 -0.19912018 0.0073928465 0.009095393 0.017099751 0.07035966 0.08375197
0.0938027 -0.07608952 -0.13882108 0.08204867 -0.16917455 -0.23365511 0.053737976 0.11393524
-0.06659531 -0.23099527 -0.2736382 0.11821899 -0.033215612 -0.026685117 0.054374486 -0.07292122

linear_sigmoid_stack.8.weight f4 [120, 120]
00000000: ea6d fabe 22a4 0e3e eac9 1a3e be9b 053f
00000010: 0e5c f0be 83b9 403e bd1a 8a3e 8b2b 6bbe
00000020: 2446 293f a971 223f c5c4 cc3e fea1 96be
00000030: f19c a03e 2a13 ce3e 9e71 04bf 3aaf cf3e
00000040: 1ac4 323e 74dd 0ebf 9346 eb3e 20d4 f7be
00000050: 2600 893f 75f5 043e 7af9 153e 9051 533f
00000060: 8a50 d23d 2bbd eabe 1761 393e bf1a babe
00000070: e7c5 19bf 91c2 aabe 80d6 163e c70a 1ebf
00000080: dc61 09bf 8fd9 4d3e 8a22 cdbe 7a47 10bf
00000090: d94c 903c d052 d7be f1b3 c7be 1535 18bf
000000a0: b17e cebe e2d8 13bf 5e2e 8d3e 8b4c e9be
000000b0: 147c 903e e0c6 8d3d 6873 eb3e 63f6 1c3e
000000c0: db48 11bf 1a74 ecbe 604b 583e b461 ee3e
000000d0: 8af4 2d3e e71d eebe af1d 563e 0988 c6be
000000e0: bf28 833f 24dd 2f3e 7a47 fd3c 0209 a63e
000000f0: 6204 243f 2027 6e3e 7a62 1f3e a8e2 abbe
00000100: 452b 843e d448 103f fe11 173e fabe 18bf
00000110: 00a1 823e b2a6 053e 13f7 653d cd67 a83e
00000120: ee9f 043e 8019 643e 38f8 1fbf a450 403e
00000130: 84df 13bf 11f9 a33d 70a9 df3d 84b9 853e
00000140: fc0e 7b3e fe55 9b3e 0461 02bf b420 1e3e
00000150: c28c ecbe 9348 b83e 6232 aabe d19b e33d
00000160: b9f8 10bf 7792 50be 196d 10bf c452 e53e
00000170: 3909 e1be 4f56 343e 4cdc a03e 69eb fcbe
00000180: 494a 93be 1044 8f3f 33f3 16bf 2ab7 ebbe
00000190: 3fea bcbe b37a 0f3e 4063 8e3e fb42 923d
000001a0: c4cc 133f f7a4 f1be d7ed 03bf 1d06 e23d
000001b0: c4a1 09bf f6dc 9ebe 2ce6 bfbe c84e 263e
000001c0: be16 71be 141b d6be d7da 26bf 5182 b13d
000001d0: 041d 033e 89ea 8b3e 767c c13d c21b f8be
000001e0: becd 1f3e 10e1 723e c29f 3d3e 267e 783e
000001f0: 935d 193e 09c8 833e 1788 143e a34e 273e
00000200: dc4f 043e 4971 d73d 8053 223e 9949 c03d
00000210: 2f7a 103e 6008 103e 551c 9d3d db19 763e
00000220: f810 513e c094 893e de0c 773e c98e 4b3e
00000230: 4f7f 163e 02b3 613e 35ed f93d 0b2e 2d3e
00000240: 8428 ca3e 6644 063e 5ab9 843e c896 2c3e
00000250: 00c3 723e e10d 413e 9c2d 253e 8bb5 333e
00000260: e7d7 233e 1c8d 913e 640b 1f3e 7640 cc3d
00000270: c78d 863e 02c3 b23d 3394 b83d c645 613e
00000280: 35a9 5b3e e730 013e 020c ee3d 52d7 4c3d
00000290: 4050 793e 5483 023e 3638 3f3e db62 343e
000002a0: 0d32 503e cfa6 0a3e 2a2e 463e b271 7c3e
000002b0: 23cf 7b3e 852e 123e 6e86 933e f811 153e
000002c0: 92b8 0d3e 4317 043e b012 823e 86a6 5a3e
000002d0: 10f0 183e db6e 883e 9d00 713e 1ff7 e83d
000002e0: b8bc 843e c759 143e e93a 0f3e 93ba 493d
000002f0: 59d7 1e3e 67d2 5e3e 9fb9 223e 8824 1a3e
00000300: 5899 903e fead 043e c7b0 5a3e 3ee5 4a3e
00000310: 11f6 ad3d 7796 373e 2f7a 5d3e 5ac6 533e
00000320: 008b 863e cb9a 053e bafb 543d 59e8 313e
00000330: ab89 fc3d 48a8 3e3e 7f08 813e 21b2 123e
00000340: 8a5f 373e d155 193e ea81 243e 322e 0e3e
00000350: 3610 213e c077 403e 3c0b 733e 7378 4f3e
00000360: 9da0 5b3e 3819 163e 35e4 363e 1ac6 1d3e
00000370: 4847 1a3e e57b 893e 3881 143e 302b 8a3e
00000380: daa0 023e b763 1b3e 2111 ee3d 0a59 a33e
00000390: c0f3 713e a779 8b3e dfda 873d 50f2 873e
000003a0: 3023 9a3e 1624 cf3d 0608 f43d 34e7 463e
000003b0: 93a3 113e 1dce 2c3e 02c5 453e 0517 073e
000003c0: 00aa 183e f1f5 233e 6370 a23e 3a30 183e
000003d0: 6ffe 233e 95cb 8e3e 2ca6 fc3d 1937 4e3e
000003e0: da08 4c3e 5e6d fd3d db73 633e 5b21 2c3e
000003f0: 14c1 7b3e b3f2 8a3e 2e2c 8e3d c0c1 fc3d
-0.48911983 0.13929799 0.15116087 0.5219077 -0.46945232 0.18820767 0.26973525 -0.22965829
0.6612265 0.6345468 0.39993873 -0.29420465 0.31369737 0.40248996 -0.51735866 0.40563375
0.1745762 -0.5580666 0.4595228 -0.48404026 1.070317 0.1298426 0.14645949 0.8254633
0.10269268 -0.4584745 0.18103443 -0.3634853 -0.600676 -0.33351567 0.14730263 -0.61735195
-0.53664947 0.20102523 -0.40065414 -0.56359065 0.017614769 -0.42055368 -0.39004472 -0.59455997
-0.40331033 -0.5775281 0.27574438 -0.4556621 0.28219664 0.06922698 0.45986485 0.15328364
-0.56751794 -0.46182328 0.21122503 0.46558917 0.16987815 -0.4650719 0.20909761 -0.38775662
1.024681 0.17174202 0.030917872 0.32428747 0.6406919 0.23257113 0.1556491 -0.33571362
0.25814262 0.56361127 0.14752957 -0.5966641 0.25513458 0.1305187 0.05614383 0.32891694
0.12951633 0.22275352 -0.62488127 0.18780762 -0.5776293 0.0800649 0.109209895 0.261181
0.24517435 0.30339044 -0.50929284 0.15442163 -0.4620114 0.3599287 -0.33241564 0.11113704
-0.5662952 -0.20368372 -0.5641647 0.44789708 -0.4395235 0.17611049 0.31418073 -0.49398354
-0.28767613 1.1192646 -0.5896484 -0.4603818 -0.36897466 0.1401165 0.27810097 0.07141682
0.5773432 -0.4719617 -0.5153479 0.11036322 -0.5376246 -0.31027955 -0.37480295 0.1624099
-0.23543832 -0.41817534 -0.65177673 0.08667434 0.12804037 0.27327374 0.09447567 -0.48458678
0.15605828 0.23718667 0.18517974 0.24266872 0.14977102 0.25738552 0.14505039 0.16338591
0.12921089 0.10519654 0.15852165 0.09389038 0.1410911 0.14065695 0.076714195 0.240333
0.2041663 0.268713 0.24126002 0.19878687 0.14697002 0.22040942 0.12203447 0.16912095
0.39484036 0.1311203 0.25922662 0.16854393 0.23707199 0.1885295 0.1613068 0.17549722
0.16000329 0.2842797 0.15531689 0.099732324 0.26280043 0.08728601 0.09012642 0.21999273
0.21451266 0.12616311 0.11623384 0.050010033 0.24347019 0.1274541 0.18673787 0.17615835
0.20331593 0.13540195 0.19353548 0.24652746 0.24590735 0.14275558 0.288135 0.14557636
0.13839939 0.12899499 0.25404882 0.21352586 0.14935327 0.26647076 0.2353539 0.113752596
0.2592523 0.14487372 0.13987316 0.049250197 0.15511836 0.2175995 0.15891121 0.15052998
0.28241992 0.12956998 0.21356498 0.19814011 0.08494199 0.17928492 0.2162864 0.20681134
0.26277924 0.1304733 0.051997878 0.1737379 0.123309456 0.18618882 0.25201795 0.14325763
0.17907539 0.14974143 0.16065183 0.1388481 0.1572884 0.18795681 0.23734754 0.20260791
0.21447988 0.14658058 0.17860492 0.15407601 0.15066254 0.26852337 0.14502418 0.26986074
0.12756673 0.15174757 0.11624361 0.3190387 0.2362814 0.2724125 0.06633543 0.26552057
0.3010497 0.10114305 0.11915593 0.19424134 0.14222555 0.16875501 0.19313434 0.13192375
0.149086 0.16011788 0.3172637 0.14862147 0.16015027 0.27889696 0.12336382 0.20138206
0.19925252 0.12374376 0.22212164 0.16809599 0.24585372 0.2713829 0.0694202 0.123416424

linear_sigmoid_stack.8.bias f4 [120]
00000000: 9b00 a03d 33c1 cd3d b548 fd3d cbae 093e
00000010: 7a6e 4c3e cebd 583e f7b9 633e 3465 92be
00000020: 69c4 063e b1d3 183e e241 733e c6b3 4dbe
00000030: 9d58 4d3e 43ab 7c3e e689 403e 15c8 853e
00000040: 9514 563e b987 673e cd95 363e 17d6 3c3e
00000050: c024 e03d cb1b 9c3d 3a08 813e dca5 1e3e
00000060: 1e17 353e 915f 6a3e 7366 bf3d 0937 a03c
00000070: ffb8 733e 70c0 3abe 1f75 e53d d27c 64be
00000080: 3f80 393d 2f3a f43d ce18 483e 34d9 1b3e
00000090: 9903 c53d fd24 ffbc f5ef e8bd a845 103e
000000a0: 4f97 67be 62a6 cfbd ef08 53be e249 1b3e
000000b0: a328 d53d 3b18 3b3e 3327 b53d 7a2f eebc
000000c0: 1902 603e 1783 01be c82b ae3d 4a13 373d
000000d0: a1a3 0fbe 6014 163e dc04 2c3e 6a00 e73d
000000e0: c59c 743e 3665 8f3d 5f37 cd3d 9c87 373e
000000f0: 8339 98be 5880 ae3d a77d 95be 1428 2f3e
00000100: 3235 dd3d f638 debd 195c f33d d62f c73d
00000110: 68f2 0f3e 612a d73d a768 513e 25ea 193e
00000120: cdaa 1c3e e3c6 56bd 0de9 bcbe fd2e 083e
00000130: fa74 7cbd 4ef7 073e f2ab 3dbd a1fc 943e
00000140: a788 fa3c 95d3 4f3e ce56 133e 410d a53d
00000150: c458 b4bd 2a34 a93d 3c87 a13d 8468 80be
00000160: cf21 3b3e 3910 b23d e380 5c3e 9b81 393e
00000170: 7d52 de3d e0d8 e23d 0bb6 463e a45e e5bd
00000180: a4ac edbc 48f5 84be bc2a 5e3e b2fc 08be
00000190: d817 b03e 385d 463e 1545 52bd 305e 073e
000001a0: 99a0 b33d 6e66 b73d 9260 92bc dcf4 80be
000001b0: ec3c aabe f83b c3be 1aa0 7a3e 4a08 393e
000001c0: 7a87 393e d640 b93d 0a32 4d3e f310 723d
000001d0: fac1 6d3e 8e69 f33c 1446 31be c945 663e
0.078126155 0.100466155 0.123673834 0.13445584 0.19964018 0.21166155 0.22238909 -0.28592837
0.13160862 0.14924504 0.23755601 -0.2008811 0.20053335 0.24674706 0.18802604 0.26129213
0.20906289 0.22610368 0.17830582 0.18441044 0.109445095 0.076224886 0.2520159 0.15492958
0.176846 0.22888018 0.093457125 0.019557493 0.23801039 -0.18237472 0.1120398 -0.2231324
0.04528832 0.1192516 0.19540712 0.15219575 0.09619827 -0.031145567 -0.11373893 0.14089072
-0.22616313 -0.10139157 -0.20608877 0.15164903 0.104081415 0.18270962 0.08845367 -0.029075373
0.218758 -0.12647663 0.08504444 0.04469613 -0.14027263 0.1465621 0.16798729 0.11279376
0.23887928 0.07001726 0.10020327 0.17922825 -0.29731378 0.085205734 -0.29197428 0.17105132
0.10801162 -0.10850708 0.118828006 0.09725921 0.14057314 0.1050613 0.20450078 0.15030725
0.1529953 -0.052435767 -0.36896554 0.13299175 -0.061634995 0.13277933 -0.046306558 0.2909899
0.030582739 0.20295556 0.14388582 0.080591686 -0.08805993 0.08261903 0.07887122 -0.2507974
0.18274616 0.086945005 0.21533541 0.18115847 0.10855577 0.11076522 0.19405381 -0.11199692
-0.029012986 -0.25968385 0.2169599 -0.13377646 0.3439319 0.19371498 -0.051335413 0.13219523
0.08770866 0.08955084 -0.017868314 -0.25186813 -0.33249605 -0.3813169 0.24475136 0.18069568
0.18118086 0.090455696 0.2003862 0.059098195 0.23218527 0.029713418 -0.17311889 0.22487558

linear_sigmoid_stack.10.weight f4 [2, 120]
00000000: 4174 1ec1 fa7f ac3f 3386 af3f 85f7 ae3f
00000010: fa2b a7bf 53df a53f b7fd a73f c54b 4d40
00000020: f994 47c0 4a14 ae3f 9aa3 a93f 2d0a 813f
00000030: 4643 ae3f 753b b23f 4d4f b03f 7bfa a93f
00000040: 637c ae3f beea 7ec0 8156 ad3f 2372 3ec0
00000050: 2d85 ab3f 8407 1140 973a b43f c536 aa3f
00000060: 796b b13f 3233 ac3f 2fb8 a93f 6806 3a40
00000070: adc7 9ac0 8fe5 323f f389 15c0 c032 b7c0
00000080: e1aa 0840 e7b6 b43f 62f4 b83f ed36 ad3f
00000090: 776d af3f 9103 49bf 72ae 5240 b1c4 ac3f
000000a0: 120b 0e40 0d35 2dc1 5c8e 7e40 ecf3 b13f
000000b0: 8751 c43f 1f8f ab3f c515 b03f 1abc a23e
000000c0: 7e06 ad3f c4cc d83f 51ff b43f e174 0640
000000d0: a0af 9140 0961 64bd c6b5 a43f fa66 b73f
000000e0: dc76 ac3f 5597 d73f 2fb1 b33f f079 aa3f
000000f0: 6ae2 4fbf 2e3c b53f 1f63 3040 2dd0 d03f
00000100: e71e ab3f d0e8 8e40 43af a63f d10e b23f
00000110: 8cd3 ac3f 9e5e b23f 047f 9c40 a944 c0c0
00000120: 4af2 a73f 8947 32c0 07fe 5540 ae39 b73f
00000130: 4095 0dc1 3acf b63f e3c6 7240 8869 9a40
00000140: 0e2c ee3f f837 b53f eb63 ad3f 3871 02c1
00000150: 4c1d de3f e6e6 b33f bec9 b53f 7174 4c40
00000160: 6f57 b33f f192 d8bf 5256 ac3f d866 ae3f
00000170: e6f9 bc3f ba96 b73f 686f b43f 9217 8f40
00000180: 250c 1440 688d 3940 caa3 88c0 7ae6 8a40
00000190: bdfd 5f40 2c30 ae3f 7950 1140 8334 b13f
000001a0: df74 a73f 22ae ac3f 216a 1f40 b43f 0440
000001b0: 7770 3ac1 e7c5 4f40 7adb ae3f 4ca6 a4bf
000001c0: b1be b03f 5301 f53f 23dd 16c0 0fad 1640
000001d0: de04 f33f f8f9 0340 7514 3fc1 aacd a93f
000001e0: e3f6 d3c0 d2f8 37bf 7c5f 2ebf 082d 32bf
000001f0: 9cd7 5b40 58e7 21bf fd20 2dbf a775 c63d
00000200: a8e7 4e40 de8d 24bf fa99 2dbf 6bc8 c840
00000210: 4bbc 34bf 13fc 37bf 8e25 40bf 35fc 2fbf
00000220: f47a 3abf 4cac 3f40 9d37 27bf 80e3 5440
00000230: 99ff 43bf de1f d5bd 4446 27bf a743 41bf
00000240: 9f6d 26bf fa5f 3ebf 2890 39bf 49e2 a3bc
00000250: af65 1e40 94c1 9540 cf8f 5c40 4435 da40
00000260: 1c98 5b40 da33 1fbf 1f5f 30bf b01e 1fbf
00000270: e15b 20bf 63d3 f340 6926 e43d edb8 36bf
00000280: 3938 07c0 a34e e83f 8a57 4040 8f20 3cbf
00000290: cdc9 acbe ed58 2ebf ee6e 41bf 1d8d de40
000002a0: 2338 3dbf 1830 8740 61c2 1fbf 1bdc d2bd
000002b0: 9487 9e3f 6bc2 5840 dcdd 1fbf a4c4 15bf
000002c0: 4957 30bf c152 a6be 706c 33bf 6e43 2fbf
000002d0: 0dc3 9940 2659 35bf a7fb debf c72a 78be
000002e0: 68a5 32bf 2657 0140 b8b7 23bf 697d 41bf
000002f0: 1269 16bf 51fa 36bf da55 d33f 7b74 e63f
00000300: 39b8 2dbf 8349 fd40 6673 413f d66f 2ebf
00000310: c68d 9b40 3bc0 08bf 4d02 793e 23d9 a93f
00000320: a534 8a40 6b82 30bf 58b6 ac40 c962 0b3f
00000330: b5ec a040 68f5 3abf bfa8 34bf 7940 6440
00000340: bac2 debe d617 5a40 cdc1 23bf 70a1 2cbf
00000350: 81b1 09bf 681b c6be 317f 2abf 96aa 2a40
00000360: c0ba 3840 2577 8cbf 842b 3640 3ead 153f
00000370: 1e26 2b3f 38b1 0fbf 9339 4140 8339 32bf
00000380: 03a1 2cbf 1033 2bbf 8391 9ebc 33fe 20c0
00000390: d862 e9be 1597 1e3f 0e4a 23bf 5b98 5c40
000003a0: 7f8a 1abf 7be2 d1bd 1bb5 5b40 b8aa 88bd
000003b0: 0bbb 3e40 3016 7a40 1a7f 29c0 c65c 3abf
-9.903382 1.3476555 1.3712829 1.3669287 -1.3060296 1.2958778 1.3124303 3.2077496
-3.1184676 1.3599942 1.3253052 1.008123 1.361428 1.3924395 1.3774201 1.3279566
1.363171 -3.9830775 1.3542024 -2.9757164 1.3400017 2.2660837 1.408038 1.3297964
1.3860923 1.3453124 1.3259333 2.906641 -4.8368745 0.6988153 -2.3365448 -5.724945
2.1354296 1.4118317 1.444958 1.3532387 1.3705281 -0.78521067 3.2918973 1.3497525
2.2194257 -10.825452 3.977439 1.3902564 1.533738 1.3403052 1.3756644 0.31784135
1.3517606 1.693749 1.4140416 2.1008837 4.5526886 -0.055756602 1.2867973 1.4328301
1.3473773 1.6843058 1.4038447 1.3318462 -0.81204855 1.415899 2.7560499 1.631353
1.3368806 4.4659195 1.3022236 1.3910772 1.3502059 1.3935125 4.890505 -6.0083814
1.3120816 -2.7856162 3.3436296 1.4314477 -8.848938 1.428199 3.793389 4.825382
1.8607194 1.4157705 1.3546118 -8.152641 1.7352691 1.405484 1.4202192 3.194607
1.4011058 -1.6919843 1.3463843 1.3625135 1.4763763 1.4342873 1.4096498 4.471627
2.3132412 2.8992558 -4.269994 4.3406343 3.499862 1.3608451 2.2705367 1.384415
1.3082541 1.3490641 2.4908526 2.0663881 -11.652457 3.246454 1.3660729 -1.286325
1.3808194 1.9141029 -2.357247 2.3543127 1.898586 2.062132 -11.942494 1.3265889
-6.6238875 -0.71864045 -0.6811445 -0.6959996 3.4350348 -0.6324363 -0.6762846 0.09690409
3.2328892 -0.6427897 -0.67813075 6.274465 -0.7059981 -0.7186901 -0.75057304 -0.6874421
-0.7284386 2.9948912 -0.65319234 3.3263855 -0.76561886 -0.10406469 -0.6534159 -0.75493854
-0.6501102 -0.743652 -0.7248559 -0.020005362 2.4749563 4.67988 3.4462774 6.819002
3.431159 -0.62188494 -0.68895143 -0.621562 -0.62640196 7.619554 0.11140139 -0.71375924
-2.1128066 1.8148998 3.005343 -0.7348718 -0.33747712 -0.6810444 -0.7555989 6.9547257
-0.7391378 4.224621 -0.62405974 -0.10295888 1.2385125 3.3868663 -0.62447906 -0.58503175
-0.68883187 -0.3248501 -0.7008734 -0.68462265 4.80506 -0.70839155 -1.7420548 -0.24235068
-0.6978364 2.020944 -0.6395221 -0.75581986 -0.58754075 -0.714757 1.6510575 1.8004297
-0.67859226 7.9152236 0.7556671 -0.681394 4.8610563 -0.5341832 0.24317284 1.326939
4.3189263 -0.68949 5.3972588 0.5444761 5.028895 -0.7303071 -0.70569986 3.566435
-0.4350794 3.4077048 -0.6396759 -0.67433834 -0.53786474 -0.38692784 -0.6660033 2.6666617
2.8863983 -1.097386 2.846406 0.5846747 0.6685504 -0.5612979 3.019139 -0.69619006
-0.67433184 -0.6687479 -0.019356495 -2.515515 -0.45583224 0.6194928 -0.63784873 3.446799
-0.6036758 -0.10248276 3.4329288 -0.06673187 2.9801662 3.9076042 -2.6483827 -0.7279781

linear_sigmoid_stack.10.bias f4 [2]
00000000: 25e8 9d3f 795a 36bf
1.233647 -0.712318
