ExpDelay/Results/sol_w80.pt (torch_old, 33135 bytes, 9 tensors)

linear_tanh_stack.0.weight f4 [50, 1]
0	0xbc8db0cd	-0.01729622
1	0xbe7816c5	-0.24227436
2	0x3f03b59b	0.5144898
3	0x3f133726	0.57506025
4	0xc033a455	-2.806905
5	0xbddad9c3	-0.10686066
6	0xbfce70ce	-1.6128175
7	0x3e2b2de3	0.16716723
8	0xbd72944d	-0.059223462
9	0x40166c9f	2.3503797
10	0x3fd9ec0d	1.7025162
11	0x3cec2526	0.028826308
12	0xbe49d47f	-0.19709967
13	0xc07453fd	-3.8176262
14	0xbcadf7c1	-0.021236302
15	0xbe8fd8fc	-0.28095233
16	0x3e346dfb	0.17620079
17	0xc08c124c	-4.3772335
18	0x409ec602	4.961671
19	0xbf653786	-0.8953785
20	0x405ada9c	3.4195929
21	0xbde4cd40	-0.11171961
22	0x409c48c6	4.8838835
23	0x3e4e73f1	0.20161416
24	0xbca0fdea	-0.019652326
25	0x3c91ead3	0.017812168
26	0x4027170b	2.6107814
27	0x3e58410f	0.21118568
28	0x400a0e6d	2.1571305
29	0xc0842e24	-4.1306324
30	0x409ad8dd	4.8389726
31	0x3dd65b1e	0.10466598
32	0x3df83aea	0.12120612
33	0x3d758eb5	0.05995055
34	0x3e6b3213	0.2296832
35	0x409dca63	4.9309554
36	0xbd82c83e	-0.063858494
37	0xbe7d7c77	-0.24754511
38	0xbf162aae	-0.58658874
39	0xbe7711ef	-0.24127935
40	0x3e8a149e	0.26968855
41	0xbfc43b35	-1.5330569
42	0xbf0ef698	-0.5584502
43	0x4082827e	4.078429
44	0x3f49d329	0.7883783
45	0x3daf6af7	0.08565324
46	0xbcb145ad	-0.02163967
47	0xbe065c77	-0.1312121
48	0x405d833c	3.461135
49	0xbfabdeb5	-1.342734

linear_tanh_stack.0.bias f4 [50]
0	0xbf6ffd75	-0.9374612
1	0x3f7da2ff	0.9907684
2	0x3f58905c	0.84595275
3	0xbdce39ac	-0.10069594
4	0xbf00bd70	-0.5028906
5	0x3f5f7162	0.87282383
6	0xbe72b7ea	-0.2370297
7	0xbe411c6a	-0.18858495
8	0x3f908c7a	1.129287
9	0x3e93bd36	0.28855294
10	0xbdc707ea	-0.09718306
11	0xbfb8d2e5	-1.443936
12	0x3eda0bd1	0.4258714
13	0xbe8eac6d	-0.27865925
14	0x3f09a283	0.537636
15	0x3e1288f6	0.14310059
16	0xbf4c9697	-0.7991728
17	0xbe169d81	-0.1470852
18	0x3dc31fd3	0.09527554
19	0x3f1970b0	0.5993757
20	0x3d8e82e5	0.0695856
21	0xbea3148c	-0.31851614
22	0x3da8b607	0.08237844
23	0xbf44f879	-0.7694164
24	0x3e884c0b	0.26620516
25	0x3f8a2b1d	1.0794407
26	0x3dd5022a	0.104008034
27	0x3c941c5f	0.018079935
28	0x3e78b114	0.242863
29	0xbe2ce4a8	-0.168841
30	0x3e49d37d	0.19709583
31	0xbfe1b641	-1.7633744
32	0xbee29e24	-0.44261277
33	0xbf2949a2	-0.6612798
34	0xbf1afa7a	-0.60538447
35	0x3d883f0c	0.0665265
36	0x3fae7e49	1.3632289
37	0x3f3c2ba0	0.73504066
38	0xbdf46fe6	-0.119354054
39	0x3f8f89eb	1.1213964
40	0xbfdd9bcf	-1.7313174
41	0xbea82d34	-0.32846987
42	0x3f0a475f	0.54015154
43	0x3d3685be	0.04456114
44	0xbf49f003	-0.78881854
45	0xbfb4be4f	-1.4120578
46	0xbf58715f	-0.8454799
47	0x3fe2089b	1.7658876
48	0x3e5dd6cf	0.21663974
49	0x3ef1044e	0.47073597

linear_tanh_stack.2.weight f4 [50, 50]
0	0xbd55c3bc	-0.05218862
1	0xbdd5ad21	-0.10433412
2	0xbe2d7511	-0.16939189
3	0xbd17269b	-0.03690205
4	0x3db0bc97	0.08629721
5	0xbd0a2842	-0.0337298
6	0x3e5e2697	0.21694408
7	0xbdde4db9	-0.10854668
8	0xbc8120e3	-0.015762752
9	0xbd8cc790	-0.06874001
10	0xbdf9a7c0	-0.12190199
11	0x3dda5dcf	0.10662424
12	0x3dae3491	0.0850612
13	0x3dfa01ec	0.12207398
14	0x3da4132a	0.08011468
15	0xbd60c782	-0.054877765
16	0xbdf53aba	-0.11974092
17	0x3e000757	0.125028
18	0xbe99f37b	-0.30068573
19	0x3d6aa7f9	0.057289097
20	0xbd9eb3ab	-0.07749113
21	0x3cf18cc0	0.02948606
22	0xbd646764	-0.055762663
23	0xbe11ae30	-0.14226604
24	0x3d84b70c	0.06480226
25	0xbd4860ee	-0.048920564
26	0xbe80dafb	-0.2516707
27	0xbe2e5633	-0.1702507
28	0xbd819a7b	-0.06328293
29	0x3e550353	0.2080205
30	0xbe75b91d	-0.23996396
31	0xbdd76206	-0.10516743
32	0xbe527a06	-0.20554361
33	0x3c13ae8b	0.009013782
34	0x3dbdb341	0.092627056
35	0xbde32c64	-0.11092451
36	0xbc98d368	-0.018655494
37	0x3dc220fd	0.09478948
38	0x3e43817c	0.19092363
39	0xba92edda	-0.0011209801
40	0xbde753bd	-0.11295269
41	0x3e21bd34	0.15794832
42	0x3d44e65c	0.04807125
43	0xbe330baf	-0.17484926
44	0xbe15ee2c	-0.14641637
45	0xbe2b6cec	-0.16740769
46	0x3de0d5fe	0.10978316
47	0x3d7712e8	0.060320765
48	0xbba6967e	-0.005083858
49	0x3d23887b	0.03992508
50	0xbcb5e904	-0.022205837
51	0xbe6c1218	-0.23053777
52	0x3e0affb9	0.13574113
53	0x3e922a46	0.28547877
54	0xbeb4e90d	-0.35334054
55	0xbd5a9d96	-0.053372942
56	0xbf1b73e6	-0.6072372
57	0x3e6386dc	0.22219414
58	0x3d84c1ac	0.064822525
59	0x3eec579b	0.46160588
60	0x3ee668c0	0.45001793
61	0x3d870b53	0.06593957
62	0xbe635f75	-0.22204383
63	0xbf48d01d	-0.78442556
64	0xbcd67659	-0.02617948
65	0xbe9d90a2	-0.3077441
66	0x3d8d3c47	0.068962626
67	0xbfaae5e9	-1.3351413
68	0x3ff3128a	1.8990033
69	0xbe33bfd3	-0.17553644
70	0x3fdb204b	1.711923
71	0xbe9bd610	-0.30436754
72	0x40082e23	2.127816
73	0x3dbf5388	0.09342104
74	0xbde86299	-0.11346931
75	0x3cdf70ca	0.027275462
76	0x3f673e0f	0.9032907
77	0x3ef065cc	0.46952665
78	0x3f1e45c8	0.6182523
79	0xbf912b8a	-1.1341412
80	0x3f910d34	1.1332154
81	0x3d9b24f3	0.07575407
82	0x3d780434	0.060550883
83	0x3df53662	0.11973263
84	0x3e047f9c	0.12939304
85	0x4018d486	2.3879714
86	0xbe0af356	-0.13569388
87	0xbd9576d2	-0.07298054
88	0xbe6af6f4	-0.22945768
89	0xbd383f22	-0.044982083
90	0x3e0292ae	0.12751266
91	0xbe931668	-0.28728032
92	0xbd3e8e4e	-0.04652243
93	0x403bfd1d	2.9373238
94	0x3e2f1e44	0.17101389
95	0x3d07d244	0.03315951
96	0xbe48508f	-0.1956198
97	0xbd85c730	-0.065321326
98	0x3f3a9768	0.7288728
99	0xbeb6b6a4	-0.3568622
100	0x3e8c614d	0.27417985
101	0x3de5642e	0.112007484
102	0xbd9d5d48	-0.076838076
103	0xbded08ff	-0.115739815
104	0xbda771fe	-0.08176039
105	0xbd82288b	-0.06355389
106	0x3cd5a225	0.026078293
107	0x3c76502a	0.015033761
108	0xbe255a3c	-0.16147703
109	0x3da31c17	0.07964342
110	0xbd2d11c3	-0.042253267
111	0xbf0f929f	-0.560831
112	0xbda82d63	-0.08211782
113	0x3e324c63	0.17411952
114	0x3ede477e	0.4341392
115	0xbc886216	-0.016648334
116	0x3df22bc8	0.11824757
117	0x3d9d4c6f	0.07680594
118	0xbaad3cd9	-0.0013216987
119	0xbd0edfbe	-0.034881346
120	0xbb2c6f54	-0.0026311474
121	0x3d291e57	0.0412887
122	0xbde93794	-0.11387554
123	0x3d354e5d	0.044264186
124	0x3ec90dbc	0.3926829
125	0xbe8e9fe8	-0.27856374
126	0x3b05608d	0.0020351738
127	0xbd6222da	-0.05520902
128	0xbe125e92	-0.14293888
129	0xbd77b911	-0.060479227
130	0xbe15cb98	-0.14628446
131	0x3ebd1d22	0.3693629
132	0x3e181ac6	0.14853963
133	0x3e7584bd	0.23976417
134	0x3e154213	0.14575987
135	0x3d1a024c	0.037599847
136	0xbe307ccd	-0.17235108
137	0xbd022916	-0.031777464
138	0x3df76498	0.120797336
139	0xbda23b99	-0.079215236
140	0x3de6c65d	0.112683035
141	0xbc725ad8	-0.014792167
142	0xbdc9671d	-0.098341204
143	0xbe04a533	-0.12953644
144	0xbcf90b6c	-0.030400954
145	0x3ec5a40d	0.38601723
146	0xbc1d3807	-0.0095958775
147	0xbeeee44f	-0.4665856
148	0xbd7a52b7	-0.06111404
149	0x3e0a8a6d	0.13529368
150	0x3e85a790	0.26104403
151	0xbcffc974	-0.03122399
152	0xbdc1528f	-0.09439575
153	0x3dfc76cb	0.123273455
154	0xbdd63733	-0.10459747
155	0xbdd800ca	-0.105470255
156	0x3d72b6c0	0.059256315
157	0x3dbc69a0	0.09199834
158	0xbe4284cc	-0.1899597
159	0xbd82fd1d	-0.06395934
160	0xbd8893fe	-0.06668852
161	0xbe0f394e	-0.13986704
162	0xbcedb689	-0.029017704
163	0xbdd76efa	-0.10519214
164	0x3ec71dbb	0.3888987
165	0x3ce32cc2	0.027731303
166	0x3d2fc33c	0.0429108
167	0xbda23bd5	-0.07921568
168	0xbe14f507	-0.14546596
169	0x3e035a9e	0.12827536
170	0xbdee208d	-0.11627302
171	0x3ae2dba4	0.001730789
172	0xbd4f0c95	-0.05054911
173	0x3df843df	0.121223204
174	0x3e554227	0.20826016
175	0xbea07cf5	-0.31345335
176	0xbdb3db35	-0.08782045
177	0xbd9bf5cd	-0.07615242
178	0x3d8da2d4	0.069158226
179	0x3dcb5129	0.099275894
180	0x3d1666b1	0.036719028
181	0x3e9fea76	0.31233567
182	0xbd4377d1	-0.047721688
183	0x3d94c0f7	0.072633676
184	0xbdd726a4	-0.10505417
185	0xbbd1c22f	-0.0064013223
186	0xbe8d833f	-0.27639195
187	0xbe1547e5	-0.14578207
188	0x3dbbe757	0.09174984
189	0xbdae15af	-0.085002296
190	0x3dc8e4ae	0.09809242
191	0xbc738f89	-0.014865764
192	0xbdf2b242	-0.11850406
193	0xbcb484ab	-0.022035917
194	0x3cc49a1f	0.023999272
195	0x3e936eec	0.28795564
196	0xba2d1e58	-0.0006603948
197	0xbd9dfe6b	-0.07714542
198	0xbdb2680d	-0.08711252
199	0x3db92de1	0.09041954
200	0x3db6bbc3	0.089225315
201	0x3d8d7b9d	0.06908343
202	0xbe39a402	-0.1812897
203	0x3bfa9617	0.0076472866
204	0x3e38e077	0.18054377
205	0xbca09412	-0.019601855
206	0x3e2a449d	0.16627736
207	0xbe4888e6	-0.19583473
208	0x3cf0fd79	0.02941774
209	0xbeb78cbe	-0.35849565
210	0xbdd29ab6	-0.10283415
211	0xbe31bef2	-0.17357996
212	0xbd0ac296	-0.033876978
213	0x3ea41820	0.32049656
214	0x3e0d67ad	0.1380908
215	0x3e61b5a4	0.22041947
216	0xbe322c9d	-0.17399831
217	0x3f1dc182	0.61623394
218	0xbf14cee0	-0.58128166
219	0xbb854213	-0.0040667146
220	0xbf15953e	-0.5843085
221	0x3d9e6f92	0.07736124
222	0xbf64365d	-0.8914545
223	0xbe367802	-0.17819217
224	0xbddcb800	-0.10777283
225	0xbdaa04db	-0.08301707
226	0xbed44d22	-0.41465098
227	0xbca5d6a4	-0.02024395
228	0xbe72f606	-0.23726663
229	0x3eb033c2	0.34414488
230	0xbeb80e3e	-0.35948366
231	0x3d0c6ecd	0.034285355
232	0xbe373cff	-0.17894362
233	0xbe3cd123	-0.18439154
234	0xbdd57c7b	-0.104241334
235	0xbf6d7956	-0.9276327
236	0xbd86c59e	-0.06580661
237	0x3d781745	0.060569067
238	0x3d99c2f2	0.07507886
239	0xbd5f5f0f	-0.054534014
240	0x3db77177	0.089571886
241	0x3e9b0dd0	0.30283976
242	0x3e42f738	0.19039619
243	0xbf5f302b	-0.87182873
244	0xbe298bb4	-0.16557199
245	0xbcd4fd77	-0.025999768
246	0x3e5e1c29	0.2169043
247	0x3de2030b	0.11035737
248	0xbec84ac0	-0.3911953
249	0x3e531c10	0.20616174
250	0x3e0af2d5	0.13569196
251	0x3cb447d4	0.022006907
252	0xbe4cc368	-0.19996417
253	0xbbdd7ad6	-0.006759028
254	0x3cd7aea9	0.026328402
255	0x3e62811f	0.22119568

linear_tanh_stack.2.bias f4 [50]
0	0xbca486b8	-0.02008377
1	0x3de61a1c	0.11235449
2	0xbe9dad0e	-0.30796093
3	0xbe37d086	-0.17950639
4	0xbd8390a5	-0.06424073
5	0xbe8433db	-0.25820813
6	0x3dc421da	0.09576769
7	0xbdb590cb	-0.08865508
8	0x3c53e8ac	0.012933891
9	0xbe81c672	-0.25346714
10	0x3eb43728	0.3519833
11	0xbd101e24	-0.035184994
12	0x3eb6ce94	0.35704482
13	0xbeb29f79	-0.34887293
14	0xbe931404	-0.28726208
15	0x3d7cb02b	0.061691444
16	0xbdd26143	-0.102724575
17	0xbf286191	-0.65773875
18	0xbe1d86de	-0.15383479
19	0x3b039c70	0.0020082258
20	0xbe18c255	-0.14917882
21	0xbcf556a6	-0.029948544
22	0x3dff0f9d	0.1245415
23	0x3daf4dbc	0.085597485
24	0xbe9d9c9a	-0.3078354
25	0x3d50fe4e	0.051023774
26	0xbe8bb071	-0.27283052
27	0xbe8d64a3	-0.27615842
28	0x3e1e3d8b	0.15453164
29	0x3e7a9968	0.24472582
30	0x3e04893f	0.1294298
31	0x3e9d9b4d	0.30782548
32	0xbd992dfa	-0.074794725
33	0x3e652eae	0.22381088
34	0x3e067dd6	0.1313394
35	0x3da83843	0.08213856
36	0x3d1bf61d	0.03807651
37	0x3e598458	0.21241891
38	0x3eaa6516	0.33280247
39	0xbe9f342d	-0.31094494
40	0xbe615d7b	-0.22008316
41	0x3e21e61b	0.15810435
42	0x3e7bb1f0	0.24579597
43	0x3df5a68a	0.119946554
44	0xbca19446	-0.019724023
45	0x3c6c91e6	0.014439082
46	0x3d731b32	0.059352107
47	0x3ef50bde	0.47860616
48	0x3e2fe469	0.17176975
49	0x3e9af658	0.3026607

linear_tanh_stack.4.weight f4 [50, 50]
0	0xbe6d87ed	-0.23196383
1	0x3e256ffb	0.16155998
2	0x3dafe751	0.08589042
3	0x3e162469	0.14662327
4	0x3d97f0a0	0.074189425
5	0x3ca38979	0.019963013
6	0xbe8fbc4f	-0.28073356
7	0x3e01fefd	0.12694927
8	0x3d752d7e	0.059857838
9	0x3eef43e9	0.467315
10	0x3e00e57d	0.12587543
11	0x3be5d4f2	0.0070139105
12	0x3d6af167	0.057359125
13	0x3ea9df37	0.33178112
14	0x3e31d959	0.17368068
15	0xbe2061e5	-0.15662344
16	0xbe2a9467	-0.16658174
17	0x3be3793b	0.006941942
18	0x3e050d39	0.12993325
19	0xbc828c2c	-0.01593598
20	0x3dd511f3	0.10403814
21	0x3af07ea5	0.001834829
22	0xbeb8a0e4	-0.3606025
23	0x3ddaf1e2	0.10690667
24	0x3e527fa9	0.20556511
25	0x3e6a72b4	0.22895318
26	0xbdbf48f0	-0.093400836
27	0xbe33f3d7	-0.17573486
28	0xbe8231f6	-0.25428742
29	0xbdc8c04e	-0.09802304
30	0x3d90fc17	0.07079332
31	0xbe0dac17	-0.13835178
32	0xbc25b43c	-0.010113772
33	0xbe6d3cd7	-0.2316774
34	0x3e07773d	0.1322908
35	0xbe67dbae	-0.22642395
36	0x3e4072dd	0.18793817
37	0xbe4a380b	-0.19747941
38	0xbe4740e2	-0.19458345
39	0x3d88b057	0.06674259
40	0xbcfabf64	-0.03060884
41	0xbef8ac6d	-0.4856905
42	0xbdbd28e5	-0.09236316
43	0x3e1653ba	0.14680377
44	0x3e2a5938	0.16635597
45	0xbe0d3d5c	-0.13792938
46	0x3e120f6f	0.142637
47	0x3cc878f9	0.024471747
48	0x3e750e55	0.23931248
49	0x3c3e916b	0.01163135
50	0xbe450f80	-0.19244194
51	0x3ec121b9	0.3772104
52	0xbd94b6cc	-0.07261428
53	0xbde8e324	-0.11371449
54	0xbda418b9	-0.08012528
55	0xbdfeaca3	-0.124352716
56	0xbf06bc90	-0.52631474
57	0x3d066a6d	0.03281634
58	0x3e23bc4e	0.15989801
59	0xbe97e172	-0.2966419
60	0x3db2430f	0.08704197
61	0xbdde06e7	-0.1084116
62	0x3e3dfd02	0.18553546
63	0xbe064c6d	-0.13115092
64	0xbe176545	-0.14784725
65	0x3d7f9aca	0.062403478
66	0x3c378a1d	0.011202362
67	0x3cf24b4c	0.02957692
68	0xbe3ca781	-0.18423273
69	0x3e3220ce	0.17395326
70	0xbe6e80dd	-0.23291345
71	0xbd5d22a1	-0.053988103
72	0x3f0fbdaa	0.5614878
73	0x3d9f02c6	0.07764201
74	0xbe6aa014	-0.22912627
75	0x3fc87352	1.5660193
76	0xbdbbf76e	-0.09178053
77	0x3e140f0c	0.14458865
78	0x3cf130f2	0.029442284
79	0x3d8fa563	0.07013967
80	0x3e3537c4	0.17697054
81	0x3d79c18f	0.060975607
82	0xbe5dba65	-0.21653135
83	0x3e61cec8	0.22051537
84	0x3e6c3a4f	0.23069118
85	0x3b676f8e	0.0035314295
86	0x3e2f333a	0.17109385
87	0x3e1534cf	0.14570926
88	0x3e15afdf	0.14617871
89	0xbd44f270	-0.04808277
90	0xbcf4c068	-0.029876903
91	0x3e889745	0.2667791
92	0x3e0fbb78	0.14036357
93	0x3ea6ddb1	0.32591012
94	0xbdbd0a3f	-0.0923047
95	0xbdc14964	-0.09437826
96	0x3df99cc9	0.121881075
97	0xbc94ac52	-0.018148575
98	0x3da291d9	0.079379745
99	0x3ede623f	0.4343433
100	0xbe8bfeee	-0.27342933
101	0x3e86fe14	0.2636572
102	0x3ec7d3a6	0.39028662
103	0x3e8af631	0.27140954
104	0xbd7a2b6d	-0.06107657
105	0xbd763b1d	-0.06011497
106	0xbd024b6a	-0.0318102
107	0x3f0301d9	0.51174694
108	0x3e039688	0.12850392
109	0x3f1c4f53	0.6105854
110	0x3afa97a2	0.0019118676
111	0xbe447a6c	-0.19187325
112	0xbbccc949	-0.006249581
113	0x3f2df7bb	0.6795613
114	0x3ebf6ec3	0.37389192
115	0xbc73206b	-0.014839272
116	0x3e4f4359	0.20240535
117	0x3d99b259	0.0750472
118	0x3ebc26f4	0.3674847
119	0xbd22d152	-0.039750405
120	0x3eaa4c63	0.33261403
121	0xbdbe0c7d	-0.09279726
122	0xbe4c81e4	-0.19971424
123	0xbd9efc46	-0.07762961
124	0x3ea5da15	0.32392946
125	0x3e720b33	0.23637085
126	0xbd85bcb3	-0.06530132
127	0xbe24e2d6	-0.16102156
128	0xbe89733f	-0.26845738
129	0xbe88dc72	-0.26730686
130	0x3d923838	0.07139629
131	0xbe5a29d9	-0.21305026
132	0xbdcbad62	-0.099451795
133	0xbe6d137e	-0.23151967
134	0x3dff0a6a	0.12453158
135	0x3de891d6	0.11355941
136	0x3e49260f	0.19643424
137	0xbd389bc2	-0.045070417
138	0xbe4f8510	-0.20265603
139	0x3e84b0ac	0.2591604
140	0xbcbb1909	-0.022839086
141	0xbf5da3e0	-0.8657818
142	0x3b66e169	0.003522957
143	0x3e1b6b33	0.15177612
144	0x3ecb83ca	0.39748985
145	0xbe3fea94	-0.18741828
146	0x3dea01cb	0.11426123
147	0xbe631a62	-0.22178033
148	0x3e33ff38	0.17577827
149	0x3d8ce060	0.06878734
150	0xbd9606ff	-0.07325553
151	0xbd4ff847	-0.050773885
152	0x3cca547a	0.024698485
153	0x3dcfcfc2	0.101470485
154	0xbcf43e6e	-0.029814925
155	0x3d5322c9	0.051546846
156	0x3e28dabd	0.16489692
157	0xbdbee67c	-0.09321305
158	0x3c872c2d	0.016500557
159	0x3e757c40	0.23973179
160	0xbe8d8b4c	-0.27645338
161	0xbd247924	-0.04015459
162	0xbf006ffe	-0.50170887
163	0x3ee2db1b	0.4430779
164	0x3e2215ba	0.158286
165	0xbe08908b	-0.13336389
166	0x3ed309ef	0.41218516
167	0x3ed19dd8	0.40940738
168	0x3e854975	0.26032606
169	0xbde03ee2	-0.10949494
170	0x3eb5cbdd	0.35507098
171	0x3d669b7c	0.056300625
172	0xbeafd67f	-0.34343335
173	0xbd8f9aed	-0.070119716
174	0x3b568512	0.0032733125
175	0xbf6b4c48	-0.9191327
176	0xbd5794c7	-0.05263212
177	0x3e89a37a	0.26882535
178	0xbd290e66	-0.041273497
179	0x3d952634	0.07282677
180	0x3d41638c	0.047214076
181	0xbe14fc75	-0.1454943
182	0x3e108017	0.14111362
183	0xbea99034	-0.3311783
184	0xbe21bad9	-0.15793933
185	0x3da9ff73	0.08300676
186	0xbdf4af66	-0.11947517
187	0xbeb209bf	-0.3477306
188	0xbe3b0aed	-0.18265887
189	0x3e8d7b0c	0.2763294
190	0x3eb2aaee	0.34896034
191	0xbe855b22	-0.2604609
192	0xbf11d6f0	-0.56968594
193	0x3cee3ce4	0.02908177
194	0xbe54ad63	-0.20769267
195	0x3dc2cd25	0.095117845
196	0x3ddc1cb2	0.10747661
197	0xbea9313f	-0.33045384
198	0xbe1e438a	-0.15455452
199	0xbe917b5c	-0.28414428
200	0x3cfd3909	0.030910986
201	0xbd354ad0	-0.0442608
202	0x3eccc833	0.3999649
203	0x3dece8cf	0.11567842
204	0xbbdc0b74	-0.0067152325
205	0x3e136915	0.14395554
206	0x3eaa3417	0.33242866
207	0xbdd323ee	-0.103095874
208	0xbdd61e3b	-0.10454985
209	0x3ed80a45	0.42195335
210	0xbeb71b14	-0.35762846
211	0xbd335b09	-0.04378799
212	0xbf1230f2	-0.57105935
213	0x3f1c5618	0.6106887
214	0x3da83e7f	0.08215045
215	0x3dc98412	0.098396435
216	0x3ed82037	0.42212078
217	0x3eb843d2	0.35989243
218	0x3eab86b3	0.33501205
219	0xbde24d15	-0.110498585
220	0x3f15b370	0.58476925
221	0x3e7be7d0	0.24600148
222	0xbead3725	-0.33831134
223	0xbe05ed8b	-0.13078897
224	0x3def1e62	0.11675717
225	0xbf261eef	-0.6489095
226	0xbd123e67	-0.035704043
227	0x3e1a39ef	0.15061162
228	0xbe040021	-0.12890674
229	0xbdaae590	-0.08344567
230	0xbe1f72b2	-0.15571097
231	0xbda03291	-0.07822145
232	0x3d6f36ac	0.05840175
233	0xbec7ef43	-0.3904973
234	0xbe317223	-0.17328696
235	0xbdd76478	-0.1051721
236	0xbe3e124e	-0.1856167
237	0xbe92ecfb	-0.28696427
238	0xbefbbcea	-0.49167567
239	0x3e27d398	0.1638931
240	0x3e20603a	0.15661708
241	0xbf21aa72	-0.63150704
242	0xbebd5688	-0.3698008
243	0xbe068c10	-0.13139367
244	0xbd9a4b04	-0.07533839
245	0x3e1a0cb8	0.15043914
246	0xbe081ea1	-0.13292934
247	0xbea7479d	-0.32671824
248	0xbee4f8d4	-0.4472109
249	0xbedea58e	-0.43485683
250	0x3e01515a	0.1262869
251	0xbf491b61	-0.785574
252	0x3dadcbfc	0.084861726
253	0xbd5c7333	-0.0538208
254	0x3e932f03	0.28746805
255	0x3ef4cd1e	0.47812742

linear_tanh_stack.4.bias f4 [50]
0	0xbc39fcf1	-0.01135181
1	0xbcd14756	-0.025546711
2	0xbe0bce78	-0.1365298
3	0xbe9f312a	-0.31092197
4	0xbe3e26aa	-0.18569437
5	0xbe261135	-0.16217501
6	0xbe159f0e	-0.14611456
7	0xbcd37ea9	-0.025817232
8	0x3ed344b3	0.4126335
9	0xbdf79b6a	-0.1209019
10	0xbf3a9082	-0.7287675
11	0xbcd35cd2	-0.025801096
12	0xbe10b81e	-0.14132735
13	0x3d7e2c9e	0.06205427
14	0x3e7d8e2b	0.24761264
15	0xbd027fdc	-0.031860217
16	0xbe79e5b9	-0.24404038
17	0xbf0f07af	-0.558711
18	0x3e54fa47	0.20798598
19	0xbceb5b7c	-0.028730147
20	0xbc9bcac7	-0.01901759
21	0xbe35b68c	-0.17745417
22	0x3d4a5a11	0.0494023
23	0xbd7ca681	-0.061682228
24	0xbf049690	-0.5179224
25	0xbe986bf8	-0.29769874
26	0xbeb718fb	-0.35761246
27	0x3e3ed5ab	0.18636195
28	0xbdf79632	-0.12089194
29	0x3de809ac	0.1132997
30	0xbcc6687d	-0.024219746
31	0xbec7e040	-0.39038277
32	0xbe9460c3	-0.28980073
33	0x3d7486ec	0.059698984
34	0x3e23e2b7	0.16004454
35	0x3d517698	0.05113849
36	0x3c13a5bf	0.009011685
37	0xbe97ba54	-0.29634345
38	0xbdbf6b44	-0.09346631
39	0xbe91d6ee	-0.2848429
40	0xbe8b2b1b	-0.27181324
41	0xbea4fce8	-0.32224202
42	0xbd93758c	-0.07200155
43	0x3e71907b	0.23590271
44	0x3d79362d	0.06084268
45	0xbd9b20fd	-0.075746514
46	0xbcdfe35d	-0.027330095
47	0xbd5c123f	-0.05372834
48	0xbdc2dca8	-0.09514743
49	0x3dca10c2	0.098664775

linear_tanh_stack.6.weight f4 [50, 50]
0	0xbe4d52e2	-0.20051149
1	0x3ca7f489	0.020502346
2	0xbec46b04	-0.38362896
3	0xbe62a0cf	-0.22131656
4	0xbe9527f1	-0.29132035
5	0x3e517df1	0.20458199
6	0x3e391cc8	0.18077385
7	0x3ea439ab	0.32075247
8	0x3f09d9ae	0.5384778
9	0xbdf243ce	-0.11829339
10	0x3be9d62b	0.0071361265
11	0x3dffd1b2	0.12491168
12	0xbe3c1026	-0.18365535
13	0x3e99542d	0.29947034
14	0x3d342555	0.043980915
15	0xbe7c9494	-0.24666053
16	0xbdd645e2	-0.10462548
17	0x3da63d0f	0.08117115
18	0xbd2a1104	-0.041520134
19	0x3bad2036	0.005283381
20	0xbd2f6096	-0.04281672
21	0x3e7be15b	0.24597685
22	0x3e900e21	0.2813578
23	0x3f255ef3	0.64598006
24	0xbeed9344	-0.46401417
25	0x3e0e4279	0.13892545
26	0xbeb40559	-0.3516033
27	0xbea4e9ac	-0.32209527
28	0xbeb32edb	-0.34996685
29	0xbe06bb12	-0.13157299
30	0x3d5ed860	0.05440557
31	0xbe8c5b72	-0.27413517
32	0x3dcdaf06	0.10043149
33	0x3ec59195	0.38587633
34	0x3da1342f	0.07871281
35	0xbebf23f0	-0.37332106
36	0xbdcbbbbe	-0.09947918
37	0x3d87fa19	0.06639499
38	0x3e8b3ba3	0.27193937
39	0x3e0df1c9	0.13861765
40	0xbe8d195b	-0.27558407
41	0x3dd5ba30	0.10435903
42	0x3e1ffef0	0.15624595
43	0xbec4f535	-0.38468328
44	0xbecbbd77	-0.39792988
45	0x3e15b4e4	0.14619786
46	0xbee0b18b	-0.43885455
47	0x4006754d	2.1009095
48	0x3db11ead	0.08648429
49	0x3f28e78d	0.6597832
50	0xbd3e034d	-0.046389867
51	0xbdf6e7e0	-0.120559454
52	0xbde568a8	-0.11201602
53	0x3f1694f2	0.5882102
54	0x3e5fe49d	0.21864553
55	0xbe8e21eb	-0.27760252
56	0xbd800ae6	-0.06252079
57	0xbe41ae6c	-0.18914193
58	0xbeb9563d	-0.36198607
59	0x3bdee6b4	0.0068024043
60	0xbde96f7a	-0.113982156
61	0xbe8c9add	-0.274619
62	0xbd2c8831	-0.04212207
63	0xbde0803d	-0.109619595
64	0xbe271c51	-0.16319396
65	0x3e4fa938	0.20279396
66	0xbe3268a0	-0.17422724
67	0xbdc649f2	-0.09682073
68	0xbe591102	-0.21197894
69	0xbedc321f	-0.4300699
70	0xbd662695	-0.05618914
71	0x3cec1a10	0.028821021
72	0xbe024c3c	-0.12724394
73	0xbd6501f4	-0.055910066
74	0x3ee8d6de	0.4547643
75	0x3d615744	0.055014864
76	0x3ebb4670	0.36577177
77	0x3d832f04	0.06405452
78	0x3d1176d8	0.03551373
79	0x3dc4353f	0.095804684
80	0x3e1020dd	0.14075036
81	0x3cff4163	0.031159109
82	0x3dc8666f	0.09785163
83	0xbf1ef120	-0.6208668
84	0x3d760c42	0.060070284
85	0xbe44dec8	-0.1922561
86	0x3dd59958	0.104296386
87	0x3f012815	0.50451785
88	0xbd0b4485	-0.034000892
89	0x3dd125e3	0.102123044
90	0x3ec4bfaf	0.38427493
91	0x3e87f99a	0.26557618
92	0xbd8d19cf	-0.06889688
93	0xbd008db1	-0.031385127
94	0x3cf49b39	0.029859172
95	0x3d9ccf70	0.07656753
96	0x3e62c430	0.22145152
97	0x3d00a9ac	0.03141181
98	0x3e1d4ede	0.15362117
99	0xbd4fd923	-0.050744187
100	0x3e2d5ff6	0.16931137
101	0xbeb33d8b	-0.3500789
102	0xb9b33687	-0.00034182167
103	0xbca70eda	-0.020392824
104	0xbd3bdf27	-0.04586711
105	0xbde17188	-0.110079825
106	0x3d662636	0.056188785
107	0x3e1714b2	0.14753988
108	0x3e9e7d59	0.30955008
109	0x3e012673	0.12612323
110	0x3ea1d0fd	0.31604758
111	0xbf25812f	-0.64650244
112	0x3e0fb030	0.14032054
113	0xbd69310e	-0.056931548
114	0xbd850aad	-0.06496177
115	0xbdd4ece2	-0.10396744
116	0x3e4e057f	0.20119284
117	0x3eabc2b6	0.3354699
118	0xbf0c5741	-0.5482064
119	0xbefd62b8	-0.4948938
120	0x3e005d0c	0.12535495
121	0x3eefc0ec	0.46826875
122	0x3dabe510	0.083932996
123	0x3e803398	0.25039363
124	0xbdf7d286	-0.12100701
125	0x3d5be182	0.053681858
126	0xbe5646ef	-0.20925497
127	0xbcbda546	-0.023150098
128	0x3bb6c7a8	0.005578
129	0xbdfd34da	-0.12363596
130	0xbd1d4794	-0.03839834
131	0x3f2971bf	0.6618919
132	0x3c803b38	0.015653238
133	0x3e5e9493	0.21736364
134	0xbe70f5e3	-0.23531298
135	0x3e11d574	0.14241582
136	0xbe3d73cf	-0.18501209
137	0xbe1ad128	-0.1511885
138	0xbe2bc5de	-0.16774699
139	0x3eab43e4	0.33450234
140	0xbe3f6a01	-0.18692781
141	0xbe822580	-0.25419235
142	0xbdb8fc9d	-0.09032557
143	0xbf0060fc	-0.50147986
144	0xbe870021	-0.26367286
145	0x3e1c5c6b	0.1526963
146	0xbd93474b	-0.071913324
147	0x3ec9bbe1	0.39401153
148	0x3e4520f2	0.19250849
149	0x3f3ee6a8	0.74570704
150	0xbd3043ce	-0.043033414
151	0x3e10a96f	0.14127134
152	0xbe612769	-0.2198769
153	0xbaa4b0b6	-0.0012564871
154	0xbe35af3b	-0.17742626
155	0x3d50a677	0.050940003
156	0xbb2ced7e	-0.0026386674
157	0xbc5e3c1f	-0.013564139
158	0x3cd66496	0.02617101
159	0xbdaaa26e	-0.08331762
160	0xbe177702	-0.14791492
161	0x3e6b522d	0.22980566
162	0xbe1095f5	-0.14119704
163	0x3e4ee95d	0.20206209
164	0xb94fcc4f	-0.00019817169
165	0x3d90e526	0.070749566
166	0xbe66334b	-0.22480504
167	0xbd8c9176	-0.06863682
168	0x3f046aa0	0.51725197
169	0x3ef811b5	0.4845101
170	0xbe41ede2	-0.18938401
171	0xbf02836c	-0.50981784
172	0x3e21f059	0.15814342
173	0xbf324a04	-0.6964419
174	0xbe59a7b3	-0.21255378
175	0xbe056c79	-0.1302966
176	0xbd991103	-0.07473948
177	0xbdd11350	-0.10208762
178	0xbe67f125	-0.22650583
179	0x3d15b7b9	0.036552165
180	0xbd34a6bc	-0.044104323
181	0xbf0e2fc3	-0.5554163
182	0xbe55a3f2	-0.20863321
183	0xbdb4cdd1	-0.08828319
184	0x3eb8a250	0.36061335
185	0xbe8f6e59	-0.28013876
186	0xbe71e462	-0.23622277
187	0xbaf00438	-0.0018311804
188	0x3dc36eb7	0.095426016
189	0xbe89d606	-0.269211
190	0xbd856c38	-0.06514782
191	0xbe4f82bc	-0.20264715
192	0x3e63fd49	0.2226459
193	0x3ed569c3	0.41682252
194	0x3f36ac4e	0.71356666
195	0x3e25d5d7	0.16194855
196	0x3de09dd6	0.10967605
197	0xbeabd560	-0.3356123
198	0xbc9dd92b	-0.019268593
199	0xbf514a16	-0.8175367
200	0x3e513a01	0.20432283
201	0xbe87ff88	-0.26562142
202	0x3eea1f53	0.45727023
203	0xbe82e759	-0.2556713
204	0xbe030067	-0.12793122
205	0x3e3019b4	0.17197305
206	0x3e97dfaa	0.2966283
207	0xbdc30ee7	-0.09524327
208	0x3e6d3108	0.23163235
209	0x3e808edf	0.25109002
210	0xbd0642a7	-0.03277841
211	0xbf28a752	-0.6588031
212	0x3e53bb54	0.20676929
213	0xbe0188b0	-0.12649798
214	0xbe58eea1	-0.2118478
215	0xbcde3582	-0.027125124
216	0x3eb7cf75	0.35900465
217	0xbd86c82e	-0.0658115
218	0x3e8ba76b	0.27276167
219	0x3e9440b1	0.28955606
220	0x3e2f1d97	0.17101131
221	0xbed38fc4	-0.41320622
222	0x3ef82d75	0.4847218
223	0xbedecf07	-0.43517324
224	0xbdf55817	-0.119796924
225	0x3d7d9f93	0.06191976
226	0xbdba4298	-0.09094733
227	0x3db1fcaf	0.08690774
228	0x3e6ca6e4	0.23110539
229	0xbf01b533	-0.50667113
230	0x3f3be0a3	0.73389643
231	0xbe170525	-0.14748056
232	0xbda32299	-0.07965583
233	0x3e656efc	0.22405618
234	0xbdb6aeda	-0.08920069
235	0x3e856a37	0.26057598
236	0x3e8f6b00	0.28011322
237	0xbd892c69	-0.06697924
238	0xbe9f833c	-0.3115481
239	0xbe1241fc	-0.14282984
240	0xbd63b9ca	-0.055597104
241	0xbdeefe05	-0.11669544
242	0xbe29e241	-0.16590215
243	0x3e957032	0.2918716
244	0x3f1e5aa1	0.6185704
245	0xbe205810	-0.15658593
246	0x3e934170	0.28760862
247	0xbf0f6761	-0.5601712
248	0x3e6f20e3	0.23352389
249	0xbf355c72	-0.70844185
250	0x3e30c52f	0.1726272
251	0xbe807acb	-0.25093684
252	0x3e3aa0c4	0.1822539
253	0xbcb1c268	-0.021699145
254	0x3e317772	0.17330721
255	0xbe12eb26	-0.14347515

linear_tanh_stack.6.bias f4 [50]
0	0x3dbf8e73	0.09353342
1	0x3d37cefc	0.04487513
2	0xbcd4d4ec	-0.025980435
3	0x3dbe5ef4	0.092954546
4	0x3bd5994d	0.006518519
5	0xbe249d50	-0.16075635
6	0x3db6623c	0.089054555
7	0xbe63b024	-0.22235161
8	0x3e108c64	0.14116055
9	0x3d628b3f	0.055308577
10	0x3d97e84c	0.07417354
11	0x3df3dfd8	0.11907929
12	0x3e052017	0.13000523
13	0xbca4af77	-0.0201032
14	0xbe515d66	-0.20445785
15	0xbdaedfc8	-0.08538777
16	0xbe0f04fc	-0.13966745
17	0xbd974915	-0.07386986
18	0x3e447f73	0.19189243
19	0x3c08a2b7	0.0083395755
20	0xbd90bd5e	-0.07067369
21	0x3e0139af	0.12619661
22	0xbd44a19e	-0.048005693
23	0xbe9ed296	-0.3102004
24	0xbdd354eb	-0.10318931
25	0xbdf96148	-0.12176758
26	0x3d8bda0d	0.06828699
27	0xbddecb7c	-0.10878655
28	0x3d1ecb10	0.038767874
29	0xbdb8fc6b	-0.0903252
30	0x3e2e86a9	0.17043556
31	0xbe169b7b	-0.14707749
32	0x3d8fb199	0.07016296
33	0x3d8f86fa	0.070081666
34	0x3e0ad50e	0.13557836
35	0xbbfaaf3b	-0.0076502836
36	0x3e6c9ed8	0.23107469
37	0x3e1e63e6	0.15467796
38	0xbc0d25af	-0.0086149415
39	0x3f3135aa	0.6922251
40	0x3c379042	0.011203827
41	0x3d98170a	0.07426269
42	0xbbd74c6b	-0.006570389
43	0x3e4cf370	0.20014739
44	0x3e4e1995	0.20126946
45	0x3c44fe77	0.01202356
46	0xbda54941	-0.08070613
47	0x3ea3f926	0.32026023
48	0xbabc94d3	-0.0014387615
49	0x3dcaa513	0.09894767

linear_tanh_stack.8.weight f4 [1, 50]
0	0x40c38b89	6.110783
1	0x408e165c	4.4402294
2	0x408528b4	4.1612186
3	0xc0875769	-4.22942
4	0xc0a607fa	-5.1884737
5	0x40854dc9	4.1657453
6	0xc0918cee	-4.5484533
7	0xc0a796ce	-5.237159
8	0x40666607	3.5999773
9	0xc085b4fc	-4.178343
10	0xc08f9963	-4.487474
11	0xc059656b	-3.396815
12	0xc0898938	-4.2980003
13	0x412afa5d	10.686124
14	0xc10c8db4	-8.7845955
15	0x4080ba15	4.022715
16	0xc0ab7983	-5.358583
17	0xc0b7eff6	-5.748042
18	0xc072f30d	-3.7960846
19	0xc0865e92	-4.199044
20	0xc0b04612	-5.5085535
21	0x40bc8c4c	5.892126
22	0xc0846dc0	-4.138397
23	0x40b5d68a	5.682439
24	0x40937fd3	4.6093535
25	0xc097b65b	-4.74101
26	0xc0b44652	-5.633584
27	0x40b00508	5.500614
28	0xc094655e	-4.637374
29	0x408c5378	4.385189
30	0x408e2aa6	4.442706
31	0xc08e6c77	-4.4507403
32	0x408ceaa3	4.403642
33	0xc08ee4e9	-4.465443
34	0x408a8ce2	4.3296976
35	0xc084ecc6	-4.153903
36	0x4090d22f	4.525657
37	0x40be6b59	5.950604
38	0x41191dd4	9.569782
39	0xc0eb2cc1	-7.349213
40	0xc0d6e402	-6.715333
41	0x4089f682	4.3113413
42	0xc08a5295	-4.322581
43	0xc0ab36ce	-5.35044
44	0xc07f9eee	-3.9940753
45	0x40934884	4.602602
46	0xc0beb697	-5.959789
47	0x40bf8845	5.9853845
48	0x40bf9381	5.986756
49	0x4083454e	4.10221
