ExpDelay/Results/sol_w1.pt (torch_old, 33135 bytes, 9 tensors)

linear_tanh_stack.0.weight f4 [50, 1]
-0.040047225 -0.42241988 0.33935407 0.2512851 -0.54400057 -0.05323873 -0.58999586 0.26481587
-0.112519994 0.7860297 0.6787475 0.056265805 -0.3482216 -0.6544043 -0.049835823 -0.2666687
0.35692447 -1.0286222 1.0820476 -0.73698056 0.74900943 -0.20045604 0.5750958 0.31216708
-0.048591953 0.045044173 0.8823968 0.24443759 0.59506446 -0.9191347 0.8175437 0.13215658
0.17043696 0.097251795 0.41498137 0.9551741 -0.117710516 -0.487622 -0.21013044 -0.47442773
0.29112855 -0.549028 -0.47765398 1.0232828 0.8556214 0.12238734 -0.1713706 -0.13067983
0.5893032 -0.9097049
00000000: 8f08 24bd 6b47 d8be d1bf ad3e 71a8 803e
00000010: 9f43 0bbf db10 5abd f809 17bf f295 873e
00000020: e270 e6bd 3e39 493f 65c2 2d3f f976 663d
00000030: 1a4a b2be 0a87 27bf a620 4cbd cd88 88be
00000040: cebe b63e e4a9 83bf 8980 8a3f c2aa 3cbf
00000050: 15bf 3f3f 5944 4dbe 7a39 133f 5dd4 9f3e
00000060: 5b08 47bd 3d80 383d c2e4 613f d94d 7a3e
00000070: 2556 183f 694c 6bbf 8b4a 513f 0e54 073e
00000080: 0787 2e3e f32b c73d 7078 d43e 4a86 743f
00000090: 3612 f1bd 97a9 f9be 6f2c 57be 31e8 f2be
000000a0: cd0e 953e 198d 0cbf 108f f4be eefa 823f
000000b0: 010a 5b3f 37a6 fa3d c67b 2fbe efd0 05be
000000c0: 93dc 163f 6ce2 68bf

linear_tanh_stack.0.bias f4 [50]
-0.8785459 0.8952561 0.95978194 -0.12117406 -0.7465406 0.4034815 -0.4105735 -0.08778739
0.73099273 0.38572857 -0.1510788 -0.5967363 0.37137952 -0.7376623 0.10624964 0.103565715
-0.6749221 -0.36196446 0.29982176 0.65368646 0.011353908 -0.32305598 0.5475272 -0.66369915
-0.029415656 0.99786514 0.16574787 -0.0018137554 0.28667605 -0.20038451 0.76834387 -1.2481796
-0.36699215 -0.31712788 -0.505996 -0.19021693 0.9198796 0.64444035 -0.021173645 0.99771005
-1.0120453 -0.55537087 0.54026383 -0.04518644 -0.98325866 -1.0119709 -0.5984334 1.2182407
0.40863684 0.78425074
00000000: 62e8 60bf 812f 653f 45b4 753f 1b2a f8bd
00000010: 491d 3fbf 2195 ce3e b136 d2be e0c9 b3bd
00000020: 5722 3b3f 377e c53e 67b4 1abe b6c3 18bf
00000030: 7525 be3e 70d7 3cbf 6999 d93d 431a d43d
00000040: b2c7 2cbf 6853 b9be 3d82 993e ff57 273f
00000050: be05 3a3c 9867 a5be be2a 0c3f 30e8 29bf
00000060: 1af9 f0bc 1774 7f3f cfb9 293e 88bb edba
00000070: 34c7 923e 9931 4dbe 2fb2 443f 59c4 9fbf
00000080: 65e6 bbbe 965e a2be f488 01bf 3ac8 42be
00000090: 3b7d 6b3f 0bfa 243f 5a74 adbc ed69 7f3f
000000a0: b38a 81bf c92c 0ebf bb4e 0a3f 6b15 39bd
000000b0: d7b6 7bbf 4388 81bf ee32 19bf 50ef 9b3f
000000c0: d938 d13e a8c4 483f

linear_tanh_stack.2.weight f4 [50, 50]
-0.14052951 -0.12476831 -0.10135866 0.0006136496 -0.008997244 -0.110102415 0.12596618 -0.060526364
-0.078215286 0.03676242 -0.05972697 0.13638036 0.05017989 0.024768936 -0.0089115705 -0.09146043
-0.091565296 -0.03223449 -0.11584925 0.038831037 0.0031158216 -0.049405314 0.07135241 -0.09388329
-0.031823162 0.009069402 -0.1524458 -0.10643814 0.03488113 0.086938605 -0.112333074 -0.049274355
-0.1406642 0.07197979 0.10681023 0.022593578 -0.08173995 0.08836538 0.13369964 -0.017368484
-0.0428471 0.0694208 0.032990973 -0.07614085 -0.14147413 -0.107889414 0.00989898 0.0029203254
0.0949577 0.016168604 -0.017395107 -0.1670458 -0.089365624 0.094122596 0.07521374 -0.03232488
-0.18386756 0.088436246 0.091720484 -0.024789816 0.0148257855 0.047613397 -0.11720427 -0.18648005
0.023906022 -0.15312393 -0.0041695605 -0.15630919 0.19041757 -0.006826492 0.1256323 -0.1379701
0.17263404 0.042313825 -0.074094206 0.0030693067 -0.02850034 0.031823732 0.13645315 -0.1380039
0.18124957 0.06480845 0.003233716 0.07363451 0.0091332095 0.02621185 -0.11646641 0.049382973
0.046156086 0.021356933 0.11372119 0.08712806 0.097858585 -0.064897925 0.056921504 0.01508939
0.008519009 -0.054194957 0.09646909 -0.16022246 0.17270389 0.10326846 -0.06320825 -0.10547669
-0.09532593 0.0598345 0.012747582 0.021901213 -0.08266717 0.092820145 -0.029676698 -0.13937113
-0.09065274 0.16025321 0.19217782 -0.02627576 0.12584002 0.06311898 0.012284243 -0.047048483
0.010407465 0.034123465 -0.09969758 0.036002513 0.21194759 -0.1772449 0.015224757 -0.046582166
-0.12962165 -0.073887944 -0.13216479 0.18981904 0.11427102 0.19435008 0.1570611 0.05054325
-0.06313796 -0.04367472 0.11179377 -0.08926583 3.5212124e-05 -0.028329913 -0.110808164 -0.11648383
-0.018660568 0.2584217 -0.028338607 -0.28919792 -0.0472672 0.12340165 0.124188736 -0.033181347
-0.07880591 0.12986748 -0.11643346 0.11126573 0.04909314 0.09322997 -0.1244099 -0.05462297
-0.05927123 0.05506229 -0.031085363 -0.11689408 0.15490909 0.022074884 0.044168986 -0.0877507
-0.13751745 0.12197442 -0.10865598 -0.002660115 -0.039475072 0.1063258 0.007834183 -0.17172438
-0.07985669 -0.071494274 0.07864873 0.09120839 0.048251517 0.18399078 -0.08123695 0.02656016
-0.09963491 6.8486326e-05 -0.18287176 -0.15159698 0.08532559 -0.08818097 0.018844994 -0.026135731
-0.12527381 -0.015249377 0.029670445 0.18666904 -0.016062813 0.05201085 -0.07683486 0.08474654
0.084081635 0.055476878 -0.08816163 0.05869519 0.016951175 -0.02085403 0.013574815 -0.16292062
0.025317913 -0.18561319 0.035302773 -0.17496628 -0.058661316 0.089645885 0.122903384 0.18210608
-0.15742163 0.19447881 0.019320266 -0.048299022 -0.0041274535 0.009852248 -0.01957489 -0.16743301
-0.115968466 -0.06916633 -0.09869125 -0.052940954 -0.065228134 -0.010407017 0.0033937313 0.033484627
-0.16576934 -0.1735712 -0.075540565 -0.022171777 -0.067498036 0.030474218 0.055734422 -0.0684728
0.08993652 0.1630791 0.15308979 -0.12777898 -0.13911359 -0.024781393 0.12132054 0.11127098
-0.15387613 0.15255009 0.026840745 -0.046713203 -0.09983301 0.07267615 -0.09501735 0.02438628
00000000: f8e6 0fbe 8786 ffbd 2195 cfbd 54dd 203a
00000010: 2d69 13bc 607d e1bd 47fd 003e 7eea 77bd
00000020: 562f a0bd 3194 163d 44a4 74bd 4ba7 0b3e
00000030: 6e89 4d3d 39e8 ca3c d601 12bc 9b4f bbbd
00000040: 9686 bbbd 5008 04bd 5f42 edbd 4b0d 1f3d
00000050: d032 4c3b 3a5d 4abd 3621 923d e245 c0bd
00000060: 0159 02bd d497 143c c01a 1cbe 3dfc d9bd
00000070: 84df 0e3d de0c b23d e20e e6bd e8d3 49bd
00000080: 470a 10be 246a 933d 52bf da3d 2b16 b93c
00000090: 4667 a7bd e9f8 b43d 8fe8 083e 5a48 8ebc
000000a0: 7180 2fbd 7e2c 8e3d 8b21 073d bcef 9bbd
000000b0: 98de 10be 20f5 dcbd 552f 223c ee62 3f3b
000000c0: 2f79 c23d 0574 843c 2f80 8ebc 0e0e 2bbe
000000d0: 5305 b7bd 59c3 c03d a909 9a3d 1867 04bd
000000e0: c747 3cbe 101e b53d f3d7 bb3d 0314 cbbc
000000f0: dae7 723c 4406 433d cb08 f0bd a0f4 3ebe
00000100: 90d6 c33c 85cc 1cbe cfa0 88bb 840f 20be
00000110: d3fc 423e c4b0 dfbb c1a5 003e 0948 0dbe
00000120: fac6 303e 4351 2d3d b4be 97bd 6c26 493b
00000130: 8c79 e9bc 9a59 023d 60ba 0b3e e550 0dbe
00000140: 7d99 393e 4bba 843d c0ec 533b b1cd 963d
00000150: 75a3 153c 3cba d63c f185 eebd cd45 4a3d
00000160: 2a0e 3d3d bcf4 ae3c a8e6 e83d 3270 b23d
00000170: 156a c83d 34e9 84bd 8626 693d 7d39 773c
00000180: 5093 0b3c 88fb 5dbd 9691 c53d 5b11 24be
00000190: 4ad9 303e 6a7e d33d 5473 81bd 2a04 d8bd
000001a0: 3e3a c3bd 0515 753d 3cdb 503c 2c6a b33c
000001b0: 684d a9bd 7d18 be3d 8c1c f3bc 4eb7 0ebe
000001c0: 25a8 b9bd 6b19 243e 43ca 443e 4340 d7bc
000001d0: 35dc 003e 8644 813d d943 493c e9b5 40bd
000001e0: 1284 2a3c 0cc5 0b3d 3f2e ccbd 5f77 133d
000001f0: ca08 593e b07f 35be 4271 793c f1cc 3ebd
00000200: 8abb 04be 9052 97bd 3556 07be ec5f 423e
00000210: ed06 ea3d b503 473e a0d4 203e 7006 4f3d
00000220: 7a4e 81bd 43e4 32bd 22f4 e43d 01d1 b6bd
00000230: bbb0 1338 2214 e8bc 64ef e2bd 138f eebd
00000240: 0cde 98bc d94f 843e 5e26 e8bc c011 94be
00000250: 409b 41bd 01ba fc3d aa56 fe3d 2ae9 07bd
00000260: fe64 a1bd fbfb 043e aa74 eebd 49df e33d
00000270: e315 493d 5bef be3d 9eca febd 56bc 5fbd
00000280: 64c6 72bd ff88 613d bba6 febc 2a66 efbd
00000290: 7da0 1e3e 63d6 b43c 8aea 343d a4b6 b3bd
000002a0: 60d1 0cbe bacd f93d 0787 debd 5355 2ebb
000002b0: 9db0 21bd 57c1 d93d f25a 003c 84d8 2fbe
000002c0: e78b a3bd 976b 92bd 9612 a13d 77cb ba3d
000002d0: 62a3 453d 1468 3c3e 8f5f a6bd b194 d93c
000002e0: 630d ccbd 51a0 8f38 bc42 3bbe 3d3c 1bbe
000002f0: 2fbf ae3d 3998 b4bd d160 9a3c 9a1a d6bc
00000300: c747 00be 86d8 79bc 6f0f f33c 2b26 3f3e
00000310: 2996 83bc 5409 553d 985b 9dbd 988f ad3d
00000320: fe32 ac3d b93b 633d 168e b4bd 5e6a 703d
00000330: 31dd 8a3c 12d6 aabc e768 5e3c aad4 26be
00000340: 8367 cf3c 6211 3ebe a499 103d 5c2a 33be
00000350: d946 70bd 4398 b73d c5b4 fb3d 047a 3a3e
00000360: 2333 21be 7425 473e 8945 9e3c 32d5 45bd
00000370: 973f 87bb 536b 213c 855b a0bc 8f73 2bbe
00000380: e080 edbd 14a7 8dbd a31e cabd 9dd8 58bd
00000390: 5496 85bd 3182 2abc 5d69 5e3b 2d27 093d
000003a0: 70bf 29be a6bc 31be 03b5 9abd 96a1 b5bc
000003b0: 693c 8abd 11a5 f93c c749 643d 783b 8cbd
000003c0: a330 b83d 35fe 263e 92c3 1c3e 7ed8 02be
000003d0: cb73 0ebe 5902 cbbc e776 f83d 0ae2 e33d
000003e0: b491 1dbe 1736 1c3e 1fe1 db3c 5856 3fbd
000003f0: 4075 ccbd 3cd7 943d 7598 c2bd bcc5 c73c

linear_tanh_stack.2.bias f4 [50]
0.054884113 0.113882296 -0.21122578 -0.046138905 -0.06081378 -0.140818 0.10662338 -0.017893542
-0.0040697516 -0.17972453 0.25571355 -0.029604014 0.22248453 -0.25752246 -0.23505704 0.1301207
0.02230916 -0.19981097 -0.03697472 -0.027278656 -0.06550501 -0.048285235 0.12772898 0.026642067
-0.20307694 0.08872552 0.02818405 -0.14559099 0.12683341 0.18328422 0.077047266 0.25321501
-0.06210395 0.06279243 0.069033705 0.02312778 0.08186359 0.04786342 0.21267377 -0.06301428
-0.10693697 0.10919153 0.10213741 0.12339354 -0.013408654 -0.047709662 0.049655978 0.10668612
-0.041200534 0.18868536
00000000: 2ace 603d 1f3b e93d 924b 58be 26fc 3cbd
00000010: df17 79bd 9832 10be 5c5d da3d 7a95 92bc
00000020: 8d5b 85bb b509 38be e3ec 823e 1e84 f2bc
00000030: fcd2 633e fcd9 83be cbb2 70be 5c3e 053e
00000040: b3c1 b63c 3f9b 4cbe ce72 17bd 7d77 dfbc
00000050: 7e27 86bd bdc6 45bd 63cb 023e 7740 da3c
00000060: 67f3 4fbe bab5 b53d 3de2 e63c ce15 15be
00000070: 9ee0 013e dcae 3b3e f5ca 9d3d 66a5 813e
00000080: b660 7ebd 5199 803d 8b61 8d3d 7876 bd3c
00000090: 19a8 a73d 6f0c 443d 27c7 593e a10d 81bd
000000a0: c501 dbbd cf9f df3d 6b2d d13d c1b5 fc3d
000000b0: f9af 5bbc 356b 43bd 1164 4b3d 417e da3d
000000c0: e4c1 28bd bc36 413e

linear_tanh_stack.4.weight f4 [50, 50]
-0.1494802 0.1771666 -0.08021184 0.04570874 0.047339648 0.024920847 -0.13723631 -0.07906609
0.09703426 0.046054795 0.06850792 -0.017796263 0.023839602 0.046135746 -0.012790046 -0.16825312
-0.03620334 -0.06701141 -0.049508333 0.006329995 -0.015923021 0.06810855 -0.1264429 0.12275409
0.09921817 -0.008547295 -0.042083442 -0.03803251 -0.14684267 -0.048357576 0.07847365 -0.0240177
-0.041326884 -0.13650864 0.13996692 -0.13907912 0.15441675 -0.15250547 -0.16381763 0.023954581
-0.012959552 -0.12410409 -0.13969217 0.17941283 -0.11496724 -0.0014301301 0.16164638 0.039861813
0.08162527 0.0052705253 -0.10196111 -0.059778556 -0.08233155 -0.10695698 0.029053181 -0.13797553
-0.050897945 -0.11732479 -0.00426283 -0.3007938 0.035152636 0.07410394 0.08820192 -0.059501685
-0.14747387 0.13038889 -0.06545146 -0.05590266 -0.15582322 0.056738578 -0.14688754 0.011506372
0.27954376 -0.039777134 -0.22990163 0.20365712 -0.005593974 0.04669051 0.087415814 0.111458324
0.06444184 0.04321538 -0.000558992 0.16449283 0.13293485 0.030719921 0.121539705 0.10314996
0.17568152 -0.08875529 0.02011942 0.21875902 0.15994367 0.16150704 -0.06528155 0.022604963
-0.042605583 -0.010821773 0.02030925 0.2125032 -0.19494335 0.19941917 0.16813894 0.10038578
-0.037760783 -0.06259023 0.02869513 0.06881619 0.094102085 0.1655292 -0.04747048 -0.16466954
-0.01910656 -0.03362153 0.06743916 0.025335275 0.15346329 -0.045617666 0.15841894 -0.055649627
0.17204076 -0.09228347 0.07080119 -0.087714314 0.15469739 0.0064317035 0.023444187 0.014578488
-0.17832014 -0.17763892 0.04425578 0.0028363487 -0.0623158 -0.0077841785 0.04779459 -0.13409662
0.13875887 0.068141505 -0.09792961 0.14357422 0.0044609117 0.023269273 -0.052526075 0.11402087
-0.0047452818 0.026857095 0.107133225 -0.114540145 -0.03140332 0.080750704 -0.112869225 0.03365114
-0.059752166 0.113781534 -0.04344901 0.050074887 0.10688354 0.13972217 0.041242447 0.11983837
-0.044112585 -0.05561537 -0.23192997 0.25988695 0.16285688 -0.14206992 0.13293128 0.12745123
0.14298613 -0.101970635 0.12729229 -0.05831188 -0.19597663 -0.06809375 -0.050140023 -0.08676395
-0.06435471 -0.009539781 -0.033424105 0.06721125 0.06207624 -0.123507746 0.10985136 -0.14707108
-0.12063309 0.04514047 -0.10818676 -0.1707751 0.07688602 0.18128256 0.16815914 -0.1633975
-0.20236307 0.08770851 -0.031227903 -0.084376134 0.10758607 -0.060963694 0.047156084 -0.010649009
-0.023409 0.056876667 0.24231476 0.090689026 -0.067952946 0.063213885 0.030524889 0.08871001
-0.012403872 0.23502874 -0.1606858 -0.10829309 -0.2642616 0.31597945 -0.0020230853 0.04579666
0.13076584 0.08266723 0.111634724 -0.062246043 0.29298654 0.037687812 -0.16386227 -0.0908956
0.022158593 -0.010513647 -0.11804109 0.074779086 -0.13781747 -0.14545037 -0.1061912 0.04385839
-0.045462076 -0.17226769 -0.08602292 -0.1481465 -0.11595896 -0.1087316 -0.11906271 0.022293251
-0.0064927107 -0.33250538 -0.09806192 -0.06208189 -0.046620812 0.015485078 -0.09503736 0.026388247
-0.23275773 -0.2102543 0.025350751 -0.19789572 0.04319127 -0.10415216 0.062545344 0.10303002
00000000: 5611 19be 296b 353e 1b46 a4bd 1639 3b3d
00000010: 38e7 413d ce26 cc3c ad87 0cbe 67ed a1bd
00000020: e6b9 c63d f4a3 3c3d e14d 8c3d 78c9 91bc
00000030: 454b c33c d6f8 3c3d 578d 51bc 8c4a 2cbe
00000040: f449 14bd 473d 89bd 40c9 4abd d96b cf3b
00000050: ff70 82bc 7f7c 8b3d 3f7a 01be 7f66 fb3d
00000060: e532 cb3d f409 0cbc b05f 2cbd fac7 1bbd
00000070: ed5d 16be 9812 46bd cbb6 a03d c5c0 c4bc
00000080: 6146 29bd ecc8 0bbe 7d53 0f3e c26a 0ebe
00000090: 6d1f 1e3e 652a 1cbe cfbf 27be 663c c43c
000000a0: 4d54 54bc 492a febd 770b 0fbe ffb7 373e
000000b0: f273 ebbd 3473 bbba a186 253e 2446 233d
000000c0: 262b a73d 5fb4 ac3b fdd0 d0bd 5cda 74bd
000000d0: 729d a8bd 430c dbbd f000 ee3c 7549 0dbe
000000e0: 5d7a 50bd fb47 f0bd 36af 8bbb a501 9abe
000000f0: 36fc 0f3d cec3 973d 35a3 b43d 0ab8 73bd
00000100: 6403 17be aa84 053e 6a0b 86bd 30fa 64bd
00000110: 1f90 1fbe b666 683d b069 16be 3985 3c3c
00000120: 5c20 8f3e 59ed 22bd 556b 6bbe 7e8b 503e
00000130: a84d b7bb 8c3e 3f3d 1007 b33d 4344 e43d
00000140: 15fa 833d 9c02 313d 5189 12ba cf70 283e
00000150: 1320 083e 58a8 fb3c cfe9 f83d 4940 d33d
00000160: dbe5 333e 55c5 b5bd 7bd1 a43c 5d02 603e
00000170: 46c8 233e 1a62 253e 55b2 85bd 0b2e b93c
00000180: 3183 2ebd ce4d 31bc 965f a63c 709a 593e
00000190: 3b9f 47be 8a34 4c3e 9d2c 2c3e 0f97 cd3d
000001a0: 0dab 1abd 4e2f 80bd 0d12 eb3c 81ef 8c3d
000001b0: 98b8 c03d 7d80 293e 6870 42bd 229f 28be
000001c0: 5c85 9cbc bbb6 09bd 8b1d 8a3d ec8b cf3c
000001d0: 7b25 1d3e 97d9 3abd 9338 223e ddf0 63bd
000001e0: 742b 303e 1eff bcbd 3700 913d 90a3 b3bd
000001f0: fe68 1e3e 0ac1 d23b 060e c03c 9cda 6e3c
00000200: 8e99 36be fae6 35be 8c45 353d 09e2 393b
00000210: da3e 7fbd 6c12 ffbb 43c4 433d a050 09be
00000220: ce16 0e3e c68d 8b3d 528f c8bd 1f05 133e
00000230: d72c 923b 349f be3c 9525 57bd c683 e93d
00000240: 4f7e 9bbb 6903 dc3c aa68 db3d 0694 eabd
00000250: c5a0 00bd a060 a53d fb27 e7bd c7d5 093d
00000260: b0be 74bd 4b06 e93d 97f7 31bd 531b 4d3d
00000270: c2e5 da3d 5413 0f3e d7ed 283d d26d f53d
00000280: 66af 34bd f1cc 63bd 0d7f 6dbe e70f 853e
00000290: f4c3 263e c77a 11be 231f 083e 9382 023e
000002a0: f56a 123e fbd5 d0bd e958 023e 70d8 6ebd
000002b0: 19ae 48be bc74 8bbd a05f 4dbd 4cb1 b1bd
000002c0: 67cc 83bd be4c 1cbc b7e7 08bd 0da6 893d
000002d0: a843 7e3d a1f1 fcbd c0f9 e03d cd99 16be
000002e0: 7b0e f7bd 37e5 383d 0591 ddbd abdf 2ebe
000002f0: 6b76 9d3d 23a2 393e e931 2c3e ad51 27be
00000300: 4438 4fbe 85a0 b33d a9d1 ffbc 65cd acbd
00000310: 1656 dc3d 11b5 79bd bd26 413d 2e79 2ebc
00000320: 3bc4 bfbc 82f7 683d 5c21 783e 2bbb b93d
00000330: ea2a 8bbd 4876 813d 550f fa3c 98ad b53d
00000340: 9c39 4bbc 60ab 703e d18a 24be c4c8 ddbd
00000350: 4c4d 87be 0fc8 a13e bd95 04bb 4795 3b3d
00000360: 7be7 053e 704d a93d bfa0 e43d b5f5 7ebd
00000370: 5502 963e 895e 1a3d 83cb 27be 7927 babd
00000380: f085 b53c 6f41 2cbc 87bf f1bd c725 993d
00000390: 0620 0dbe f1f0 14be c67a d9bd dba4 333d
000003a0: 7136 3abd f166 30be c92c b0bd b7b3 17be
000003b0: e47b edbd acae debd 26d7 f3bd 56a0 b63c
000003c0: cec0 d4bb 253e aabe b0d4 c8bd 9449 7ebd
000003d0: 77f5 3ebd 20b5 7d3c f3a2 c2bd 2a2c d83c
000003e0: 0b58 6ebe e74c 57be 61ac cf3c 2da5 4abe
000003f0: 54e9 303d ba4d d5bd c617 803d 6701 d33d

linear_tanh_stack.4.bias f4 [50]
0.010531364 0.028563907 -0.13767254 -0.05635412 -0.027989244 -0.1004611 -0.13694784 -0.02329585
0.08884817 -0.098561674 -0.18124536 0.05346615 -0.107696585 0.07340687 0.14152108 -0.018444583
-0.17998455 -0.18269306 0.19135347 -0.0014633273 -0.02145082 -0.16388054 0.041041803 -0.017856052
-0.17880844 -0.1361552 -0.17689803 0.04599316 -0.12280601 0.104153626 -0.1926273 -0.11933483
-0.18813439 -0.023883414 0.17907573 0.054893397 -0.021159418 -0.05970818 -0.085957445 -0.20559025
-0.04110984 -0.11148109 -0.08938906 0.12089246 0.08603664 -0.043053932 -0.031825658 -0.16755198
-0.16233839 0.063888475
00000000: be8b 2c3c dbfe e93c 08fa 0cbe 94d3 66bd
00000010: b349 e5bc 8dbe cdbd 0e3c 0cbe f0d6 bebc
00000020: 08f6 b53d b4da c9bd 6298 39be 52ff 5a3d
00000030: 0790 dcbd 5756 963d e7ea 103e 1819 97bc
00000040: df4d 38be e413 3bbe 2af2 433e 1ecd bfba
00000050: a1b9 afbc 4dd0 27be 731b 283d db46 92bc
00000060: 8f19 37be 456c 0bbe c224 35be 5363 3c3d
00000070: b881 fbbd 7f4e d53d 1740 45be d265 f4bd
00000080: 4da6 40be 26a7 c3bc a15f 373e e6d7 603d
00000090: 8456 adbc 9190 74bd 750a b0bd 4086 52be
000000a0: cb62 28bd 3350 e4bd 9d11 b7bd 7796 f73d
000000b0: fa33 b03d 5259 30bd 9f5b 02bd bf92 2bbe
000000c0: 093c 26be f6d7 823d

linear_tanh_stack.6.weight f4 [50, 50]
0.014572951 0.120181985 -0.17267412 -0.19141597 -0.20736794 0.029847238 0.03228162 0.11226977
0.058583796 -0.004636178 -0.06448745 0.188873 -0.045733284 0.032333188 0.21286689 -0.024161028
0.0018982813 -0.012790016 0.036160387 -0.01469789 0.06064899 -0.08790047 0.11522884 -0.0002864036
-0.21942872 0.0018846946 -0.10839153 -0.030079732 -0.09258785 0.04467606 -0.07011537 -0.21991263
0.052586738 0.13450639 -0.044904806 -0.18360193 -0.1303994 -0.0010944026 0.16830212 -0.09357385
-0.09849206 0.06453117 -0.04205162 0.119146705 -0.04289058 -0.02069457 -0.1340445 0.031058736
0.027479231 -0.1877597 0.09416205 -0.09868493 -0.042081457 0.16106921 0.118098624 -0.18411885
-0.0005530496 -0.10059907 0.046748742 0.13103765 -0.04666262 -0.1762033 0.07455696 -0.074226715
-0.18321246 0.1094898 -0.048828598 0.02320993 0.01406108 -0.1721264 0.037622433 0.052815087
-0.049437243 -0.054455604 0.12919751 0.02019828 -0.027649999 -0.002940192 0.06311775 0.017777415
0.12694521 0.05871241 -0.023564512 -0.16759184 -0.04059037 -0.06562132 0.04171118 0.14009541
-0.14905621 0.08533131 0.117396824 0.18392186 -0.18755911 -0.08033979 -0.0010823117 -0.025425695
0.15986434 0.09005144 0.122131474 0.021874376 0.15878934 -0.27108455 0.007826044 0.22612469
0.015415601 -0.14923456 0.058095444 0.093652666 -0.13254872 -0.016965393 0.18007891 -0.19953507
0.056922525 -0.068999045 -0.0624129 -0.0645276 -0.0033621646 0.185361 -0.22163282 -0.1359692
0.0608096 0.15014619 0.00586103 0.16687508 0.18222922 0.21839298 0.017411307 0.08931429
0.02573779 -0.04447012 -0.0011178392 0.24056447 0.115244575 -0.00091513526 -0.17230743 0.08628773
-0.059565663 0.11522699 -0.020946315 0.012923974 0.102702014 0.043980982 -0.023944082 -0.11341953
0.028104156 0.14706169 0.020189548 0.1824247 0.1966371 0.20480591 0.055543285 0.057470337
-0.044479188 0.026159495 -0.06099312 0.04092937 -0.054973975 -0.03263979 0.068326086 -0.012752165
-0.07408291 0.1328104 -0.0074510905 0.18030012 0.047778893 0.07974354 -0.13309497 0.028607467
0.18221425 0.12425332 -0.019394534 -0.19875331 0.159244 -0.0719751 -0.14150032 -0.07988514
-0.10175014 -0.122976 -0.17346784 0.035688277 -0.117652655 -0.22622879 -0.16202587 -0.036529846
0.20549572 -0.17296356 -0.18437417 0.0133696925 -0.027065698 0.0071595428 -0.066545255 -0.20786388
0.14821883 0.1773541 0.11902326 -0.008740661 0.0623107 -0.021581057 -0.048499245 -0.10093281
0.054281827 -0.032821015 0.16825792 -0.066140436 0.023937771 -0.08407482 0.14709069 -0.029417407
0.055964317 0.066662796 0.03296873 -0.22098885 0.042983048 -0.02445701 -0.18484704 0.033463266
0.17606302 0.018618228 -0.09814 -0.17730841 -0.007418983 -0.07476586 -0.19067879 0.064016074
0.09578828 0.148382 0.16812909 0.10329751 0.10499753 0.013640108 0.19602908 0.033252098
0.08933694 0.04567151 0.06341453 0.1079476 0.084803656 0.12504892 -0.11447184 0.114603795
0.07051522 0.003692805 -0.017248586 -0.03196927 0.068965696 0.06284179 0.17825814 0.1016695
0.020172548 -0.07272444 0.09873836 -0.23049626 -0.00574512 -0.061559398 0.09216879 -0.13656928
00000000: 63c3 6e3c f921 f63d 7cd1 30be 8c02 44be
00000010: 4358 54be 3282 f43c bb39 043d b1ed e53d
00000020: 90f5 6f3d 14eb 97bb ff11 84bd ec67 413e
00000030: d352 3bbd ce6f 043d c7f9 593e 59ed c5bc
00000040: c0cf f83a 378d 51bc ea1c 143d 6bcf 70bc
00000050: 136b 783d 2905 b4bd 19fd eb3d 7128 96b9
00000060: ecb1 60be db07 f73a 61fc ddbd c569 f6bc
00000070: b39e bdbd 3ffe 363d a698 8fbd c730 61be
00000080: 3165 573d 0bbc 093e 1aee 37bd 2502 3cbe
00000090: 6c87 05be 0f72 8fba 6457 2c3e a6a3 bfbd
000000a0: 35b6 c9bd eb28 843d 523e 2cbd 3003 f43d
000000b0: 08ae 2fbd a987 a9bc f642 09be e46e fe3c
000000c0: 201c e13c 1444 40be 08d8 c03d 531b cabd
000000d0: 9b5d 2cbd 54ef 243e b1dd f13d a789 3cbe
000000e0: 88fa 10ba e306 cebd 9c7b 3f3d bc2e 063e
000000f0: 4e21 3fbd a36e 34be 52b1 983d 2d04 98bd
00000100: 0c9c 3bbe 303c e03d 7f00 48bd c022 be3c
00000110: 7260 663c e741 30be fb19 1a3d a254 583d
00000120: b57e 4abd d70c 5fbd 5a4c 043e dd76 a53c
00000130: 4082 e2bc 3cb0 40bb e143 813d f1a1 913c
00000140: edfd 013e 6d7c 703d 5d0a c1bc 329d 2bbe
00000150: 1642 26bd 7864 86bd 58d9 2a3d 2c75 0f3e
00000160: 31a2 18be 2fc2 ae3d bf6d f03d 0356 3c3e
00000170: 7f0f 40be 3089 a4bd 5bdc 8dba 8c49 d0bc
00000180: 7ab3 233e e46c b83d 1120 fa3d e431 b33c
00000190: ac99 223e 98cb 8abe cf38 003c 3b8d 673e
000001a0: b891 7c3c f2d0 18be 7df5 6d3d f8cc bf3d
000001b0: daba 07be 02fb 8abc 9b66 383e ec52 4cbe
000001c0: 9827 693d 5f4f 8dbd aba4 7fbd 0c27 84bd
000001d0: c357 5cbb 46cf 3d3e b7f3 62be 833b 0bbe
000001e0: 7d13 793d ecbf 193e e20d c03b 4de1 2a3e
000001f0: 4c9a 3a3e 69a2 5f3e 28a2 8e3c 69ea b63d
00000200: 0fd8 d23c 4d26 36bd 7684 92ba 8856 763e
00000210: 5905 ec3d b0e5 6fba 5c71 30be 9fb7 b03d
00000220: 20fb 73bd 21fc eb3d 9b97 abbc 13bf 533c
00000230: 6f55 d23d 6725 343d 6126 c4bc 8048 e8bd
00000240: b03a e63c 5797 163e 8d64 a53c 8acd 3a3e
00000250: 3c5b 493e a4b8 513e 5b81 633d 0466 6b3d
00000260: cf2f 36bd 704c d63c ecd3 79bd 8ea5 273d
00000270: 642c 61bd 4db1 05bd 8cee 8b3d 75ee 50bc
00000280: c8b8 97bd 73ff 073e 4728 f4bb 98a0 383e
00000290: cdb3 433d 9550 a33d 0c4a 08be 355a ea3c
000002a0: 5f96 3a3e 8678 fe3d 49e1 9ebc fd85 4bbe
000002b0: dc10 233e ae67 93bd 76e5 10be d29a a3bd
000002c0: 6162 d0bd d7da fbbd 8ea1 31be df2d 123d
000002d0: e0f3 f0bd 85a8 67be 1cea 25be 52a0 15bd
000002e0: 786d 523e 5c1d 31be 95cc 3cbe 8e0c 5b3c
000002f0: e2b8 ddbc 999a ea3b e148 88bd 45da 54be
00000300: adc6 173e 509c 353e 78c2 f33d fd34 0fbc
00000310: 8139 7f3d c2ca b0bc 25a7 46bd dcb5 cebd
00000320: 9f56 5e3d 546f 06bd ce4b 2c3e a374 87bd
00000330: 2519 c43c 6b2f acbd f19e 163e c6fc f0bc
00000340: d73a 653d 8186 883d 380a 073d e74a 62be
00000350: fe0e 303d 115a c8bc 8b48 3dbe c710 093d
00000360: dd49 343e 4185 983c a0fd c8bd 5690 35be
00000370: f11a f3bb d81e 99bd 4d41 43be dc1a 833d
00000380: a52c c43d 73f1 173e 082a 2c3e a58d d33d
00000390: f208 d73d c27a 5f3c d9bb 483e 5a33 083d
000003a0: 49f6 b63d 0d12 3b3d 7adf 813d a213 dd3d
000003b0: 8aad ad3d d30c 003e 3670 eabd 65b5 ea3d
000003c0: 496a 903d fd02 723b e84c 8dbc 36f2 02bd
000003d0: e33d 8d3d 32b3 803d 4d89 363e 1938 d03d
000003e0: e640 a53c 8df0 94bd 5637 ca3d 3607 6cbe
000003f0: 8f41 bcbb b525 7cbd fec2 bc3d d1d8 0bbe

linear_tanh_stack.6.bias f4 [50]
0.17264137 -0.056054212 0.025170015 0.09705429 0.02136861 -0.14716716 0.16272937 -0.09747384
0.05678482 0.064363964 0.1342161 0.21081646 0.044553306 -0.075810045 -0.12639983 -0.14433436
-0.19015458 -0.012975382 0.09697154 0.059067097 -0.11655476 0.076259345 0.082446724 -0.04129009
-0.15325601 -0.1373985 0.051657096 -0.073040195 -0.0019780362 -0.07587983 0.13636777 -0.15109704
0.061605673 0.03426391 0.048934355 -0.049440715 0.10049395 0.13042937 -0.05116463 0.10780178
0.036548924 -0.0024619424 -0.0014846388 0.0859254 0.15872033 -0.013557028 -0.044868205 0.12582935
-0.04917288 0.037510123
00000000: e6c8 303e 1a99 65bd 5931 ce3c 66c4 c63d
00000010: 390d af3c fdb2 16be 87a2 263e 5da0 c7bd
00000020: 3397 683d 41d1 833d f26f 093e 45e0 573e
00000030: 877d 363d 4c42 9bbd f56e 01be 63cc 13be
00000040: e2b7 42be b296 54bc 0499 c63d 57f0 713d
00000050: 43b4 eebd dc2d 9c3d d4d9 a83d cc1f 29bd
00000060: 25ef 1cbe 31b2 0cbe 6496 533d 1996 95bd
00000070: f1a1 01bb e266 9bbd fea3 0b3e 2fb9 1abe
00000080: 3b56 7c3d 5058 0c3d 646f 483d 5982 4abd
00000090: c6cf cd3d 478f 053e 0192 51bd 2ec7 dc3d
000000a0: 53b4 153d 8a58 21bb 3698 c2ba a8f9 af3d
000000b0: 9587 223e 4c1e 5ebc b9c7 37bd 69d9 003e
000000c0: 8069 49bd 37a4 193d

linear_tanh_stack.8.weight f4 [1, 50]
0.09650239 -0.15190192 -0.1916945 0.15451792 -0.19522454 -0.20400321 0.16291718 -0.20882258
-0.23797794 -0.16064434 0.16076112 0.14569825 0.1953268 0.25963315 -0.19261143 -0.16961566
-0.19928 -0.17308481 -0.14785315 0.19194734 -0.23864964 0.15427697 0.19756545 0.23415467
-0.14642347 -0.17798613 -0.21352983 0.21629731 -0.19955853 0.19630541 0.21084385 -0.24657786
0.23693496 -0.19685231 -0.18244307 0.22118343 0.2190643 0.21624582 0.23901086 0.14044036
-0.17050454 -0.2549184 -0.23839714 -0.19574685 0.21373624 0.2395665 -0.21195927 0.24476448
0.25533774 -0.20450568
00000000: 0ca3 c53d 2d8c 1bbe 904b 44be f239 1e3e
00000010: f1e8 47be 38e6 50be c3d3 263e 96d5 55be
00000020: 7db0 73be f37f 24be 909e 243e ec31 153e
00000030: c003 483e a3ee 843e ee3b 45be baaf 2dbe
00000040: 0e10 4cbe 253d 31be d166 17be d88d 443e
00000050: 9260 74be c8fa 1d3e 994e 4a3e 3ec6 6f3e
00000060: 09f0 15be ff41 36be 90a7 5abe 0b7d 5d3e
00000070: 1259 4cbe 4904 493e 73e7 573e e87e 7cbe
00000080: 149f 723e a793 49be 5bd2 3abe e97d 623e
00000090: 6452 603e 8b6f 5d3e 43bf 743e 99cf 0f3e
000000a0: be98 2ebe aa84 82be 611e 74be dd71 48be
000000b0: acdd 5a3e ec50 753e da0b 59be 8aa3 7a3e
000000c0: a1bb 823e f069 51be
